models/1A_hand_beta.pth (torch, 421229 bytes, 13 tensors)

conv1.weight f4 [4, 1, 5, 5, 5]
000000 31 ad 4c 3d e4 85 32 3d 76 f9 c2 bc eb b1 9c 3c
       0.049969856 0.04358472 -0.023800593 0.019127807
000010 dc 62 d4 3b 03 82 19 bd 09 aa ad bd ca 07 b7 bd
       0.0064815115 -0.037477504 -0.08479697 -0.089370325
000020 3c 10 46 bc 60 6c 4a 3d b8 db f2 bc 8d f1 14 bd
       -0.0120888315 0.04941976 -0.029645786 -0.036363173
000030 ed 6c 1b bd f0 97 6a 3c 62 5e a0 3d c5 b7 4a 3d
       -0.037945677 0.014318451 0.07830502 0.049491663
000040 ec 69 81 bd c1 cc 96 3d 6b 86 c1 3d 3e 4b 17 3c
       -0.06319031 0.073632725 0.09449466 0.009234248
000050 f2 e5 77 bd 10 e7 75 bd c6 e9 4a bb 7c c5 91 3d
       -0.060522027 -0.06003481 -0.0030962094 0.07117745
000060 9d 67 21 bd 45 88 0c 3d 1f 3b 5b bd 13 6f 34 3d
       -0.039405454 0.034309644 -0.05352318 0.04405124
000070 2e ac 75 bd f3 64 44 3d da b7 9c bc eb ab 96 3d
       -0.059978656 0.047947835 -0.019130636 0.073570095
000080 33 9d 5a bd 01 7d 0d bd c9 0c 07 bd a9 ba 14 3d
       -0.053372573 -0.03454304 -0.032971177 0.036310825
000090 a6 a4 a1 bd b3 52 bc 3d f3 63 9e 3d 1a 62 94 bc
       -0.07892732 0.09195461 0.077339076 -0.018113185
0000a0 21 55 31 3c e9 51 17 bd 8b d0 9a 3d 19 55 25 3c
       0.010823519 -0.03694335 0.07559308 0.01009109
0000b0 fa bb 8a 3d 20 54 10 3d 18 57 35 3d 24 9a 3a 3d
       0.06774135 0.035236478 0.044272512 0.045557156
0000c0 df 7e 4f bd 3c 9c 11 3d d8 ec 25 3d a2 ae 8e bd
       -0.050658103 0.035549387 0.040509075 -0.06966902
0000d0 bd 5b a1 3c cd fb 08 3d 11 1e a1 bd 3f 26 1a bc
       0.019697065 0.03344326 -0.07867063 -0.009408533
0000e0 0a 83 b5 3d 7b c5 e2 bc 15 8d 9e bd 50 ad 90 3d
       0.08862884 -0.027682057 -0.07741753 0.07064307
0000f0 a6 a8 26 bc 9a c6 a1 3b 74 cc 1d bd 44 b9 59 3d
       -0.010172045 0.004937005 -0.03852506 0.0531552
000100 35 0d 40 3d 4a 91 dc bc 6d c0 8e 3d cf c1 6a 3d
       0.046887595 -0.026924748 0.06970296 0.057313737
000110 09 8c 9c bc 01 d2 80 3c 60 5a 75 3d 02 3a 81 3d
       -0.019109743 0.015725138 0.05990064 0.06309892
000120 b1 8b d5 3c 94 ca 33 3d 20 c3 5b 3d e0 c3 6e 3d
       0.026067587 0.043894365 0.053652883 0.05829227
000130 d8 a5 a9 3d e8 ed af 3d e3 ad b4 3d 35 70 9a bd
       0.08283585 0.08590299 0.08822229 -0.07540933
000140 61 16 32 bc ea 85 b1 3a 85 09 96 3d 05 ce a2 bc
       -0.010869593 0.0013543938 0.073260345 -0.019873628
000150 17 35 9c bd 20 38 c1 bd 56 31 51 bd 01 bb 19 bd
       -0.076273136 -0.09434533 -0.05107244 -0.037531856
000160 48 18 3c 3d cf 99 06 3d d1 4b bf bd a7 aa 97 3a
       0.045921594 0.032861527 -0.09340633 0.0011571244
000170 d4 4f de bc 55 a3 01 3d 11 b7 a5 bb 8d 15 72 3d
       -0.027137674 0.031649906 -0.0050572236 0.059102584
000180 db df 09 3d 71 96 8d 3d 6a 04 b7 ba 46 04 cc 3d
       0.03366075 0.0691346 -0.0013963107 0.099617526
000190 49 fc e5 bc ae 0e 59 3b 79 dd 91 3d cc 99 ae 3d
       -0.0280744 0.0033120322 0.07122321 0.08525428
0001a0 09 df 80 bd d9 28 a4 bd bc a5 97 bd e1 bd ee bb
       -0.062925406 -0.080156036 -0.07404658 -0.007285819
0001b0 94 ef 95 3d 0a 88 f5 3b fc 74 2a bc 14 68 a4 bb
       0.073210865 0.0074930238 -0.010403868 -0.00501729
0001c0 09 a7 72 3c 11 fb 1c bd 4a 15 8f bb 5c 34 c4 3c
       0.014810332 -0.038325373 -0.0043665515 0.023950748
0001d0 53 6e 35 bd d5 d6 df 3c 16 21 3d ba ae 34 9f 3b
       -0.044294666 0.02732412 -0.0007214708 0.004858575
0001e0 ce 9d aa 3d 68 9e 0f bd af 55 d9 3c cf 89 25 bd
       0.0833088 -0.035063177 0.026530115 -0.040414628
0001f0 1f 2d 03 bd bc 87 b4 3c 26 1a d6 3d 9a da 82 bd
       -0.032025453 0.02203738 0.10454206 -0.06389351
000200 44 e3 2b bd 6a f5 95 bd d7 7b 81 3d 5c b1 cf bc
       -0.041964784 -0.073222 0.06322449 -0.025353126
000210 3d 94 6a bd 48 a7 f1 3c 0c ce b0 bd cb 2c 61 bc
       -0.057270277 0.029498711 -0.0863305 -0.01374359
000220 5b 07 c3 3d 84 2b 62 3d 5b b1 b7 3d 1c 56 7a 3b
       0.09522887 0.05521728 0.08969375 0.0038198298
000230 55 df e2 bc 21 eb a7 3d 20 18 65 3d 48 01 83 3d
       -0.027694384 0.08199144 0.05593121 0.06396729
000240 8f 24 7b 3d db 93 48 bc 0c ca fb 3c 71 ce 21 3b
       0.061314162 -0.012242283 0.030735992 0.00246897
000250 5b c7 74 bc 2a 90 ab bd 71 66 30 3d 2e 9a 43 bd
       -0.014940108 -0.083771065 0.043066446 -0.04775446
000260 0f 24 54 3c 99 44 a1 bd 10 3a 99 3d 79 75 fe 3b
       0.01294805 -0.07874412 0.07481778 0.0077654687
000270 74 92 24 3d 2f 1c af 3d 6d 75 72 3d b3 83 a8 bd
       0.04017873 0.085502975 0.059194017 -0.08228245
000280 71 dc d1 3d cf 66 a8 3d 45 59 d1 3d f7 6f 99 bb
       0.10247124 0.08222734 0.10222105 -0.0046825367
000290 ce 60 ef bc ef bb 47 3c 2e 7a 95 3d da 86 a3 3d
       -0.029220965 0.012190803 0.072986946 0.07984705
0002a0 af 62 45 bd ba b4 af bd 3c 16 83 3c bf 51 7b bd
       -0.048189815 -0.08579393 0.016001813 -0.061357256
0002b0 d3 f8 63 3d e4 cd 95 3d c5 35 49 3d 2c 54 6e bd
       0.05565722 0.07314661 0.049123544 -0.05818574
0002c0 10 e7 0e bd 1d 12 10 bd 15 5f 35 3c 51 f5 1a 3d
       -0.034888327 -0.035173524 0.011070033 0.03783161
0002d0 ed ff ac 3d f2 73 aa 3c 92 67 ad 3d e9 0e 80 bd
       0.084472515 0.02080724 0.0846702 -0.06252844
0002e0 04 3d 89 3c 3c f8 06 3d f4 42 1f bc ab 05 88 3d
       0.016752727 0.03295158 -0.009720553 0.06641706
0002f0 2b f6 aa bd 99 61 17 bd c8 2b 1e 3d 31 d7 a4 3d
       -0.08347734 -0.03695831 0.03861597 0.08048857
000300 12 a4 f2 bb 1c d4 27 bd a2 41 cc 3c 60 70 93 3d
       -0.0074048126 -0.040973768 0.02493364 0.07199168
000310 09 ef 9b bd b0 e5 a0 bd a4 21 9d bd 7b 8e 2a bd
       -0.07613952 -0.078563094 -0.07672432 -0.041639786
000320 de c0 20 3d 3c b1 eb bc 9a 69 9c bd 40 14 e6 bc
       0.039246432 -0.028771035 -0.076373294 -0.028085828
000330 74 14 7f 3d 02 49 d4 bb 68 65 80 3d d9 6b a6 3d
       0.062275365 -0.00647843 0.06269342 0.08126039
000340 a0 ac d3 ba 3d 91 a2 bd 51 d4 7f bc 8b 94 5f bd
       -0.0016149469 -0.07937858 -0.015614585 -0.05458502
000350 6b 31 f7 ba 14 a9 c0 ba 33 4f 95 bd 28 17 8e 3d
       -0.0018859332 -0.0014698827 -0.07290497 0.069380105
000360 98 66 39 bd d1 d5 bb 3c 37 a5 91 bd e4 fd 91 bd
       -0.045263857 0.022929104 -0.0711159 -0.07128504
000370 2b f2 7f bd 02 c9 3b 3c 65 97 0f bd c5 d2 1c 3c
       -0.06248681 0.011461498 -0.03505649 0.009571736
000380 5a 9a 23 3d 6f ec a0 3d 66 db 5d 3d 3f c0 9e bc
       0.039942123 0.07857596 0.054164313 -0.01937878
000390 29 1e b6 3d e0 3f 3f 3c 55 42 23 3d 95 dc 44 bd
       0.08892471 0.011672944 0.03985818 -0.048061926
0003a0 a9 0f 08 3d 82 ee 87 3b 9f c2 a7 3d 61 30 be 3d
       0.03321806 0.0041483054 0.08191418 0.09286571
0003b0 ee 8c 8e bd 3d be cb 3c 12 8d 7f 3d 36 01 7e 3d
       -0.06960474 0.024870986 0.062390395 0.062012874
0003c0 ec 8d fe bc 93 95 48 bd 8f 78 84 3d f3 b9 88 3d
       -0.031073533 -0.04897077 0.06468307 0.06676092
0003d0 54 90 b2 bd 4e 40 9b 3d 2c 6a 73 bc 43 4b 5d 3c
       -0.08718935 0.075806245 -0.014856856 0.013506713
0003e0 a2 ea f8 3c c4 3d 87 3d 42 6c a8 3d 42 50 3e bd
       0.03038532 0.06603578 0.082237735 -0.04646326
0003f0 11 d3 97 bc 2c 4d 80 3c ec 69 33 3d 28 5c 90 bd
       -0.018533261 0.015661798 0.043802187 -0.070488274

conv1.bias f4 [4]
000000 10 dd bd bd 27 85 bd bd c4 9d d8 bd 45 51 2e bc
       -0.0927068 -0.092539124 -0.105769664 -0.010639493

conv2.weight f4 [8, 4, 5, 5, 5]
000000 f1 50 4b bc 33 89 48 3c 66 ca 97 3c 62 24 68 3d
       -0.012409435 0.012239742 0.018529128 0.056675322
000010 be 19 c4 3c de 5d 50 39 f4 bb a3 bc 50 57 05 3d
       0.023938056 0.00019871394 -0.019987084 0.03255397
000020 56 a1 dd 3c 82 28 ac 3c bc 03 2d bd 7b 42 8c bb
       0.02705447 0.02101541 -0.04223989 -0.004280386
000030 bd 23 b5 3c 80 a3 a3 bc 66 4c 65 bd e8 9d db bc
       0.022111768 -0.019975424 -0.055981062 -0.026808694
000040 64 85 6a 3c 0b 8b 97 3d d3 11 13 3d b7 85 bb 3a
       0.014314029 0.07399567 0.03590567 0.0014306818
000050 69 fb 03 bc 14 34 1b 3c 17 ad 8f 3d 3b 74 e6 3c
       -0.008055546 0.009472866 0.07015436 0.028131595
000060 26 ea 4c 3d ba d7 9a bc fd fa fb 3b d1 60 13 3c
       0.05002799 -0.018901695 0.0076898322 0.008995251
000070 ec c9 a6 3c 8c 1d 36 3d bb d2 0d 3d 44 b6 8b bc
       0.020359956 0.04446177 0.034624796 -0.017054684
000080 f8 f5 65 3d ca 94 71 bc fe 93 75 3b 68 ce 15 bd
       0.056142777 -0.014744947 0.0037472243 -0.036573797
000090 c9 9a fe 3c bf 6a 91 bc 3c b0 63 bc 1e 0e cd 3c
       0.031079667 -0.017751096 -0.013896998 0.025031146
0000a0 93 53 24 bd cc d8 09 bd 20 cb 04 3d c5 f2 79 3d
       -0.040118765 -0.03365402 0.032420278 0.06102254
0000b0 ee 11 6c 3d ff b0 48 bd 1f b1 2c bd cc fa 1a 3b
       0.057634287 -0.04899692 -0.042161103 0.0023648022
0000c0 84 37 95 3d 41 5c 99 3c 2d 47 3f bd 51 f0 93 3c
       0.072859794 0.018720748 -0.046698738 0.018058928
0000d0 b0 3a d6 ba cc 89 3d 3d 61 e2 58 bc 09 0f 0f 3d
       -0.0016344395 0.04627399 -0.013237567 0.034926448
0000e0 8c 5b 61 3d 4a 0a 8d 3d 4f 9c 93 ba c8 69 c6 3a
       0.055018947 0.06886728 -0.0011261794 0.0015137726
0000f0 18 3d 38 3d 47 56 0e 3c 82 b7 85 3c 98 97 2d 3d
       0.04498014 0.008687562 0.016322855 0.0423809
000100 e9 d8 17 bd 70 bd fd 3c 5f 06 e9 3c b8 66 3f bd
       -0.037072096 0.03097412 0.02844542 -0.04672882
000110 cd 44 19 bc a1 6d 57 3c 8e e1 a8 3b 72 34 97 3c
       -0.009354782 0.013148696 0.0051538413 0.018457625
000120 eb 81 29 3a 64 00 d2 3c b6 57 9b 3d d2 3c 2a bd
       0.00064661977 0.025634952 0.07585089 -0.04156191
000130 99 08 30 3d 7e cd ce bc fc da 6b 3d dd 15 f6 bc
       0.04297695 -0.02524447 0.057581887 -0.030039722
000140 b3 4e de bb 47 ec 79 3d 39 16 80 3d 51 51 4b 3d
       -0.006784284 0.061016347 0.06254239 0.049638096
000150 35 4a 14 bd 3e 5b a9 bc c0 2e 47 bc e9 d6 11 bc
       -0.03620358 -0.02067339 -0.012157142 -0.008901336
000160 a0 cc 9b ba ae 26 06 3d 18 2f b5 3c f1 72 ac 3c
       -0.0011886545 0.03275173 0.022117183 0.021050902
000170 2a f6 ab 3c 8d df 94 3c d8 a0 07 bd d0 fa 37 3a
       0.020991404 0.018173004 -0.033112377 0.000701827
000180 96 73 bb bc d8 72 fe 3c d6 95 ee 3c 89 d7 89 3c
       -0.022882264 0.031060621 0.029124182 0.016826408
000190 10 51 46 3c 5e 46 2d 3d 2e 4e df bb a4 49 2a bc
       0.012104288 0.042303436 -0.0068147397 -0.010393534
0001a0 13 67 86 3c 8a e0 ac 3a 0c f2 99 3c 6a f4 f8 3c
       0.016406571 0.0013189476 0.018792175 0.030389983
0001b0 29 df 21 bd 79 a5 d3 3c 56 fd 1a 3d 1b f3 56 3d
       -0.039519463 0.02583574 0.037839256 0.052477937
0001c0 85 e6 41 3d 64 26 41 bd 28 c9 90 bc e3 f3 1b 3d
       0.04733898 -0.047155753 -0.017674044 0.038074385
0001d0 76 52 5b 3d 24 10 52 3d ec e0 e6 3c 90 62 ac bc
       0.053545438 0.051284924 0.028183423 -0.021043092
0001e0 ab 57 24 3d cf 0b b2 3c 69 08 ce 39 8c c8 57 3d
       0.04012267 0.021734146 0.00039297648 0.05268149
0001f0 8a 9e 1f 3d 64 22 ed 3b 46 08 72 3c 29 9c d3 bb
       0.038969554 0.0072367657 0.01477248 -0.0064578247
000200 29 4b 20 bb 98 be 32 3d 4b 84 99 3c 74 dc 21 bd
       -0.0024458861 0.043638796 0.01873984 -0.03951688
000210 2c 95 21 3c 8d 90 85 3c 93 ee ca bc 7f c8 fb 3c
       0.0098622255 0.016304279 -0.024771964 0.030735252
000220 ea 9e 53 3b 4a 54 80 bc d9 11 24 3d 72 e6 1e 3d
       0.0032290765 -0.015665192 0.040056083 0.03879399
000230 89 10 70 bc b6 f2 3d 3d e3 bc 3b bc 91 bc d7 3c
       -0.01465238 0.046374045 -0.011458608 0.026335033
000240 4f d3 bb 3b b0 f1 99 3c 6b 16 e6 3c 2d b0 11 bd
       0.005731977 0.018792003 0.028086862 -0.035568405
000250 5b a6 7e bb 8a 2c dd bb 71 a1 c3 bc 5a 93 0c bc
       -0.003885648 -0.0067496942 -0.023880692 -0.008580053
000260 03 08 2e bd 21 2d 31 3d b3 f0 e0 3c 8b a7 88 bd
       -0.04248811 0.04325593 0.027458524 -0.06672581
000270 d3 f9 c1 bc 8e 4b a5 bc 9c b2 83 bc 68 ad 10 bc
       -0.023678696 -0.020177629 -0.016076379 -0.008830406
000280 73 83 76 bb bc 5a c8 bc 57 eb 67 3c fa da 7c 3d
       -0.003761497 -0.024457328 0.0141552305 0.06173227
000290 a8 5e 8d b9 91 9d 4a bd 70 f3 bf bc 02 80 b7 bc
       -0.0002696414 -0.049466673 -0.02343151 -0.022399906
0002a0 19 aa 10 bd 7a fe ff 3b a1 12 26 b9 46 dd 85 3b
       -0.035318468 0.0078123184 -0.00015837933 0.0040852157
0002b0 c6 0c a4 3b 00 1b 60 bd df d1 0e bd 58 af ce bb
       0.0050064055 -0.05471325 -0.034868117 -0.0063075237
0002c0 d1 95 56 bb 46 b0 a3 3c 51 dd bf bb 7b 92 37 3d
       -0.0032743106 0.019981515 -0.0058552404 0.04481743
0002d0 78 4c 05 bd 3e 82 c0 bc 8b 33 ec bb cd f1 1b 3d
       -0.03254363 -0.023499604 -0.007208293 0.038072396
0002e0 35 4c 50 3d 60 84 1a bd f0 2e 48 bd 64 a7 93 3c
       0.050853927 -0.0377239 -0.048872888 0.018024154
0002f0 bf 29 19 3d 26 76 0c 3d 35 d3 b6 bc c2 09 eb bc
       0.037393328 0.034292363 -0.022317508 -0.028691176
000300 11 5a 08 3d 4b fd 11 3d 89 74 3a 3b 75 46 20 3d
       0.03328902 0.03564195 0.0028450808 0.039129693
000310 54 bd 6b 37 c3 b7 52 bd 6b e2 70 bd e9 bd 61 3b
       1.4051173e-05 -0.05144478 -0.05880968 0.003444547
000320 df 35 49 bd 0e c0 fd bc ef 8f 24 3d 41 ed 0e bc
       -0.04912364 -0.030975368 0.04017633 -0.008723558
000330 08 9b 9c 3b b3 ec 59 3c 00 3b 0a 3d 1b 80 f9 38
       0.0047792234 0.013301062 0.033747673 0.00011897107
000340 7f bd 15 3d 8b 62 45 3d fd b0 74 3c f1 f8 fa bc
       0.03655767 0.04818968 0.014934775 -0.030636283
000350 76 c7 bf bc fb 6e 4b 3d de 42 54 3d 07 e0 5f bc
       -0.02341054 0.049666386 0.051821582 -0.013664252
000360 c0 30 fa bc d1 d5 a9 bc c7 65 09 bd 1a 8d 0a 3c
       -0.030540824 -0.020731838 -0.033544328 0.008456493
000370 e3 42 37 bd c4 72 3a bd 23 a1 67 bc 1f e0 18 3c
       -0.044741523 -0.045519605 -0.014137539 0.009330778
000380 6a 78 53 bb b8 ab 90 3b da 8a b3 bc 40 d0 64 3d
       -0.0032267817 0.0044150017 -0.021916796 0.055862665
000390 59 be 99 3c 1c 55 ff 3c f3 68 65 3c f3 35 43 bc
       0.018767523 0.031168513 0.014002073 -0.011914718
0003a0 cb bd 8b 3b ff 62 f9 3c d1 f2 f4 3c 98 b7 99 3b
       0.0042645684 0.030442713 0.02990094 0.0046910755
0003b0 6d f9 d7 bb 7a 8e 2c 3d 98 42 00 3d 9f 80 42 3d
       -0.006591013 0.042128064 0.03131351 0.047485944
0003c0 54 5a 0a 3c a7 1e c8 ba 26 8d 44 bd 9a f1 c0 3c
       0.0084443875 -0.0015267924 -0.047986172 0.023552705
0003d0 3c 62 0a 3c a6 ac 23 3d 7f fa ab bc 78 75 31 bd
       0.008446272 0.039959572 -0.02099347 -0.043324918
0003e0 a1 3a c2 3c 57 d5 04 3c bc ca 56 bc e8 f6 1a 3d
       0.023709597 0.008107505 -0.013109859 0.037833124
0003f0 83 01 f1 bb 9e 9a 4e bc b3 33 65 3d 75 82 3d 3c
       -0.0073549165 -0.012610106 0.055957507 0.011566748

conv2.bias f4 [8]
000000 6f 75 52 bd fc 07 22 bd f7 68 63 3d d4 1b 7b bc
       -0.051381525 -0.039558396 0.055520024 -0.015326459
000010 51 b6 93 bc b9 a0 84 bb 83 b0 6d 3d 89 a5 8f bd
       -0.018031271 -0.00404748 0.058029663 -0.07013995

conv3.weight f4 [16, 8, 3, 3, 3]
000000 1f 35 3e 3c c2 4c 4d bd da e9 85 3d 90 ca e8 3c
       0.011609345 -0.05012203 0.06538744 0.028416902
000010 62 26 8c 3c 54 ad e6 bc 09 99 e0 bc d8 3f 4b 3c
       0.017108146 -0.028158821 -0.027416723 0.012405358
000020 fe 86 87 3d 40 bf 9b 3c 44 bb f7 bc 54 c6 ac 3c
       0.066175446 0.019012094 -0.030240662 0.021090664
000030 3b 79 10 3d 87 d5 fd 3c 7f 3a e3 bb e9 f9 47 bd
       0.035271864 0.030985607 -0.0069344635 -0.048822317
000040 35 bd 2b bd 19 23 bf 3c 92 78 0c 3d 80 41 3a 3d
       -0.04192849 0.023332166 0.034294672 0.045472622
000050 1a c7 da 3c 63 d0 42 bc db 7d 70 3c c7 06 95 3d
       0.026706267 -0.011890504 0.014678444 0.07276683
000060 8a 13 78 bd e3 a2 7e 3c d6 b6 0f 3d 32 4e 10 bd
       -0.06056551 0.015541765 0.035086475 -0.035230823
000070 29 16 f6 3c 46 fa 21 bd fe 2b 3a 3d f5 d6 83 bd
       0.030039864 -0.03954532 0.04545211 -0.06437484
000080 5f 35 f2 3c 01 fe e9 3c e7 a5 c4 bb 15 1d df bb
       0.029566465 0.028563501 -0.0060012224 -0.006808887
000090 51 56 c6 bc a7 80 1f bc 56 41 45 bd dc 09 84 bb
       -0.02421108 -0.009735263 -0.048158012 -0.0040294956
0000a0 b0 0d 54 3c 53 7b 56 3d 56 8a 45 3c 31 d0 46 bd
       0.0129427165 0.052363705 0.012056908 -0.04853839
0000b0 b0 ee 9e 3d 23 8f ca bc 62 b5 92 3c 84 68 56 bd
       0.0776037 -0.024726456 0.017908756 -0.052345768
0000c0 f8 04 95 bc 2f 27 6d 3d 73 f0 65 bd 7d 09 04 3d
       -0.018190846 0.057898697 -0.056137513 0.03223561
0000d0 78 bf a1 bb b4 f6 9a 3d 49 7c e7 3c 59 ae 37 3d
       -0.004936155 0.07566586 0.028257506 0.044844005
0000e0 fb f3 ad 3c 5f 77 4e 3d 67 a3 84 3d 5c fa 04 bd
       0.021234503 0.05040681 0.06476479 -0.032465324
0000f0 6e dd f2 3c e6 26 ec bc d9 8c 86 3d 1a bd a1 bc
       0.029646602 -0.028827142 0.06569833 -0.019743491
000100 e2 9b 16 bb 69 ed 78 bd 47 b7 1a 3d 85 c9 3a 3d
       -0.0022981097 -0.060773287 0.037772443 0.04560234
000110 9f cc 72 bd 88 75 81 3d da b0 88 3d 85 6f 8c 3d
       -0.059277173 0.063212454 0.06674357 0.06857208
000120 d8 cf ac 3c e9 19 fe 3c e1 45 af 3c 1a b5 8e 3b
       0.021095201 0.031018214 0.021395626 0.004355085
000130 69 b3 ad 3c 9c 4c e6 bb 71 65 ac bb 87 eb 66 3c
       0.021203713 -0.0070281755 -0.005261116 0.01409424
000140 e0 86 bb 3c 1f e0 81 3c 7f c2 34 bc 0c 3f f8 3c
       0.022891462 0.01585394 -0.0110327 0.0303035
000150 dc 09 ed 3c bc 00 41 3d 56 3d 7f 3d ef 12 48 bd
       0.028935365 0.04711984 0.062314354 -0.04884618
000160 9e 6d b4 bc 8d 2a c6 bc 24 61 e1 bc 2b db 60 3c
       -0.022024926 -0.024190212 -0.02751214 0.013724129
000170 ca 3a 58 bd f0 b7 a5 bc d4 71 61 bb de 59 82 3d
       -0.05279044 -0.02022931 -0.0034400122 0.06364797
000180 92 1a 67 bd f8 cc a1 3b d8 09 c1 3c fc 01 60 bd
       -0.056421824 0.0049377643 0.023564264 -0.054689392
000190 cc 62 b1 3c ec 1e 02 bd c4 3e 77 bc 79 bd 76 bd
       0.021653555 -0.03176777 -0.015090648 -0.06023929
0001a0 40 d5 1c bc 22 6a 4b 3d 3f 46 7b bd ae 67 94 3d
       -0.009572327 0.049661763 -0.06134629 0.07246338
0001b0 9c 91 6e 3d c7 b6 86 3c 6e 03 35 3d 9f 50 f8 3c
       0.058244333 0.016444577 0.044192724 0.03031188
0001c0 cf 85 f8 bb 86 c6 53 bb 6c 92 7d 3d a8 bd 36 3d
       -0.0075843106 -0.0032314374 0.061907217 0.044614464
0001d0 97 a1 52 bd c2 97 72 3d ca e0 23 3d 12 e0 9d 3d
       -0.051423635 0.05922676 0.040009297 0.07708754
0001e0 de ae 83 3d 62 da 82 bd ec 0f 8c bc 78 fd fa 3c
       0.06429838 -0.063893095 -0.017097436 0.030638441
0001f0 60 24 57 bd dd 91 4d bc db 46 21 bd 9d 7f 94 3d
       -0.052524924 -0.012546984 -0.039374214 0.07250903
000200 17 a8 72 3d 72 bc 6f 3d 23 72 80 3d fb 5f 4e 3d
       0.059242334 0.058529325 0.0627177 0.050384503
000210 f6 8f 5e bd 47 75 ca bc c9 02 1e 3d 26 e5 e7 3c
       -0.05433651 -0.024714125 0.038576875 0.028307509
000220 16 cb 18 bd 0b b0 48 bc be 1a 7d 3d d8 3e 38 3a
       -0.037303053 -0.012249003 0.06179308 0.00070284074
000230 12 e6 d1 3c 6d 26 83 bc 92 89 e3 bc a3 4a 8e 3d
       0.025622401 -0.016009534 -0.02777556 0.069478296
000240 01 28 bf 3b 41 eb 42 bd 24 19 0d bc f9 0a 22 3c
       0.0058336263 -0.047587637 -0.008611951 0.009890311
000250 15 d8 93 bd 57 fd 82 bd 4f 45 c0 3c 39 d4 06 bd
       -0.07218949 -0.06395977 0.023470549 -0.032917235
000260 3c a8 33 3c e7 04 93 3c d0 eb 77 bb d4 1f 53 3c
       0.010965403 0.017946674 -0.0037829764 0.012886006
000270 d4 1b 9b bd 96 15 04 3d 41 8e 33 3d 3f cc be bc
       -0.07573667 0.03224715 0.043836836 -0.023290752
000280 83 87 c9 3a b6 ae 2b bd 05 92 ab bc 30 ea 2d 3c
       0.0015375469 -0.041914664 -0.020943651 0.010614917
000290 bb 10 78 3d 5d 35 a3 bd ed f5 12 bc 43 cd 95 3c
       0.06056283 -0.079691626 -0.008969766 0.018286353
0002a0 03 47 1f bd 17 d6 5b bd ab 33 36 3d 07 77 e6 bc
       -0.03888608 -0.05367097 0.04448287 -0.028132929
0002b0 08 d3 8f bd 6e c4 e2 3b f6 9e 85 bd 97 c7 4f bd
       -0.07022673 0.006920389 -0.0652446 -0.050727453
0002c0 58 a6 4b bd ca ac 97 bd 1e e3 dc bc 8d 68 8e bc
       -0.049719185 -0.07406004 -0.026963767 -0.017383838
0002d0 cd e4 8d 3d 2f 6b 98 bc 50 e4 50 bd 3b 73 47 bd
       0.06928406 -0.018605797 -0.050998986 -0.048693877
0002e0 00 1a 6b 3d 98 3a b3 bc 79 95 46 3c 42 20 07 3d
       0.057397842 -0.021878526 0.012120598 0.032989748
0002f0 c2 39 f6 bb bb e3 96 bc 31 72 77 bd 8f 55 8a bc
       -0.0075142095 -0.018419137 -0.060411636 -0.0168865
000300 98 de 9f bc 18 8d 43 3c ea 7c 9f bc 0f ff e1 bc
       -0.01951532 0.011935495 -0.019468743 -0.027587442
000310 49 0e 3c bd 0f f9 11 bd 55 d9 43 bd a1 87 0a bc
       -0.04591206 -0.03563791 -0.047814686 -0.008455188
000320 31 09 99 3d 97 e4 35 3c 48 c7 41 bd 49 9e 02 bd
       0.07472456 0.011101863 -0.04730919 -0.031889234
000330 69 a6 80 bd 01 a1 83 3d 28 10 f9 3c 2e ff a3 bc
       -0.0628174 0.064271934 0.030403212 -0.02001914
000340 cb 54 84 39 82 b9 bb 3c 50 8c 6e 3d 00 7b 25 bb
       0.00025240178 0.022915605 0.05823928 -0.0025250316
000350 07 ef 84 39 6c 4b 71 3d 1f f9 4a bc c3 bb ed 3c
       0.0002535509 0.05890982 -0.012388497 0.029020196
000360 d2 b5 9c bc cb 15 3c 3c 15 11 88 bd bb 61 4e bd
       -0.019129667 0.011479805 -0.06643883 -0.05038617
000370 a9 88 da 3c eb dc 32 3d a1 5c 10 bd 86 ce ff 3b
       0.026676493 0.043667715 -0.035244588 0.007806602
000380 24 cc 41 39 2a 8b 06 bd c6 9a 1b 3c 59 15 83 bd
       0.00018481963 -0.03284756 0.00949735 -0.06400556
000390 52 bc 9d bc d4 e9 30 bd 89 f8 78 bd 2a 11 84 bd
       -0.019254837 -0.043191746 -0.060783897 -0.06448586
0003a0 d6 5c d8 bc 84 9b 26 bd d1 a4 ae 3c a3 98 82 3d
       -0.026411455 -0.040675655 0.021318825 0.063767694
0003b0 8f 4d df 3c af 9f 38 3d 81 61 ac bc e9 e4 70 3d
       0.027258663 0.04507416 -0.021042587 0.058812056
0003c0 27 9b 1b bd ce fc 85 bd 9d 18 fd bc 68 3f 18 3d
       -0.03798976 -0.06542359 -0.030895526 0.037169844
0003d0 2c 27 0e bb 86 47 26 3d 8e e3 54 3d 0a 23 be 3c
       -0.0021690829 0.040595554 0.051974826 0.023210067
0003e0 6c 38 0d bd e7 e4 2a bd bc 3e 13 3d a4 44 5e bd
       -0.034477636 -0.041722205 0.0359485 -0.05426468
0003f0 01 6e 86 3d 25 c4 b0 39 52 4c af bc a2 b1 fd bc
       0.0656395 0.00033715475 -0.021398697 -0.030968491

conv3.bias f4 [16]
000000 cd 1a 27 bd 10 d4 4d 3c 15 82 c7 bc b3 1e 98 3d
       -0.040797044 0.012562767 -0.02435402 0.074277304
000010 2f 93 17 bd 77 98 0e bd 66 2b c6 bc 1b ac a9 bc
       -0.0370056 -0.03481337 -0.024190616 -0.02071195
000020 39 c4 c0 bc 68 21 51 bc 18 4c d2 3c 7c 73 be bc
       -0.023531066 -0.012764312 0.02567105 -0.023248427
000030 a7 ca af 3c 87 40 3f bd 3d b9 55 3d f0 e4 71 bc
       0.021458937 -0.046692397 0.05217861 -0.014764056

conv4.weight f4 [32, 16, 3, 3, 3]
000000 74 f5 19 3d 3e 24 15 bc e0 26 0e 3b 51 61 08 3d
       0.037587598 -0.009102879 0.0021690652 0.033295933
000010 cc 80 42 3d 0f fa a2 bc 14 e2 a9 3c 34 52 99 bc
       0.04748611 -0.019894628 0.020737685 -0.018715955
000020 3f 87 22 bd 9f 16 7e bc 3a a9 5c 3d 1a 45 8a 39
       -0.039679762 -0.015508323 0.053872325 0.00026372896
000030 30 34 09 3d 17 bc 1c 3c 09 eb 1c 3d 45 b3 2d bd
       0.033497036 0.0095663285 0.038310084 -0.042407293
000040 53 03 4c 3d 9e 5f 00 bd e7 81 a7 bb ca 97 07 3d
       0.049807858 -0.031341188 -0.005111921 0.03310374
000050 a4 08 1a bd c8 e6 98 bc ac e4 49 3d c3 77 21 bc
       -0.037605897 -0.018664733 0.049290344 -0.009855214
000060 ad a3 cf 3c 1c 89 26 3d 82 25 eb bc a0 8c d1 bb
       0.025346601 0.0406581 -0.028704409 -0.0063949376
000070 fb 39 24 3d 8b da df bc 25 4c f6 b8 48 8b 09 bd
       0.040094357 -0.02732589 -0.00011744377 -0.033580095
000080 78 bb 8f bc 17 99 df 3c c5 bd 05 bd 14 28 da bc
       -0.017545447 0.027294679 -0.03265168 -0.026630439
000090 92 73 a5 3c 76 df e8 bc 46 f1 3c 3d c3 95 50 bd
       0.02019671 -0.028426867 0.046128534 -0.050924074
0000a0 2b da 73 bd 48 3e ce bc b5 97 53 bd 3c f5 52 bd
       -0.059534233 -0.025176182 -0.05165835 -0.051503405
0000b0 ef 12 9f bc 18 08 45 3d fb 5a 32 bd 3a ca b2 bb
       -0.019418208 0.048103422 -0.043543797 -0.005456236
0000c0 f8 e7 ec bc 58 e2 62 3c d0 95 5f bd d8 d2 93 3c
       -0.028919205 0.01384791 -0.05458623 0.018044874
0000d0 e2 a5 82 bc 25 b9 b2 bb 15 5e 25 3d 8a 50 6d bc
       -0.01594824 -0.0054542 0.040372927 -0.014484534
0000e0 9e 4b ef 3c 67 81 d7 3c b3 a1 3e bc af c4 17 bc
       0.029210862 0.026306821 -0.011635232 -0.009263202
0000f0 3f b8 91 3b db c6 1c 3d 56 65 e5 bc 53 25 41 bd
       0.0044470127 0.03827558 -0.028002422 -0.047154736
000100 8c ef 93 3b 66 2d e1 3c 5f ed 0c bd e4 6d 4d 3d
       0.00451464 0.027487468 -0.034406062 0.050153628
000110 10 64 92 ba a8 05 35 3d d3 9d 95 bc c7 aa 89 3c
       -0.0011168737 0.044194847 -0.018263733 0.016805066
000120 b9 6f a6 bc 36 1f 7b bd 75 9b d4 3c ef 6f 03 3b
       -0.020316945 -0.061309062 0.025953034 0.0020055731
000130 af 8a 22 bd a2 91 2e bd e9 05 0c 3d 1e 36 18 3d
       -0.03968304 -0.042619355 0.034185324 0.037160985
000140 d9 ad 1f bd b8 3b 82 ba 73 28 40 3c 06 a0 d2 bb
       -0.038984153 -0.000993601 0.011728394 -0.0064277677
000150 2c ec 51 3c 46 8e 00 bd 22 ae 7d 3c ea d0 36 3d
       0.012812655 -0.031385683 0.015483411 0.04463283
000160 93 99 cf bc 38 3d f7 bc 43 1e e6 3c ca 4b 6f 3a
       -0.025341785 -0.030180559 0.028090602 0.000912842
000170 b7 b1 ae 3c 26 12 23 3a 11 a1 0b 3d aa f0 82 bc
       0.021324975 0.0006220661 0.03408915 -0.015983898
000180 8b e6 12 bc 75 a4 14 3b ac dd 34 bc 11 24 9b 3c
       -0.008966099 0.0022681032 -0.011039179 0.018938096
000190 0a 8a d5 bc e7 15 90 3c 1a a8 a5 bc 96 80 52 bd
       -0.026066799 0.017588569 -0.020221759 -0.05139216
0001a0 22 83 f1 3c 73 a1 25 bb fe f3 b5 bc ac ae b9 bb
       0.029481474 -0.0025273233 -0.022211071 -0.0056665745
0001b0 5e a0 cd bc 33 da 06 bd f1 7b 81 3c a3 5d 2c 3d
       -0.025100883 -0.032922935 0.01580617 0.042081486
0001c0 e8 0a af bc ec ec 45 3d ea e9 2d 3c 5b 6b 22 3d
       -0.021367505 0.04832165 0.0106148515 0.039653163
0001d0 b9 93 c6 3c 1e c8 85 3b 76 bf ad b8 c0 c2 03 bd
       0.024240362 0.0040826937 -8.284945e-05 -0.03216815
0001e0 5a 44 b3 bc 6f 0d c2 bc be f4 24 3c c7 25 08 3d
       -0.021883179 -0.023688046 0.010068117 0.033239152
0001f0 05 b6 cf 3c 7d ed 17 3d e7 a8 93 3c 08 9c ed 3a
       0.025355348 0.03709172 0.018024875 0.0018128166
000200 6b 1a 4f 3d 84 d1 02 3d 98 e4 63 3b a5 84 d9 3c
       0.050562304 0.03193809 0.0034773704 0.026552508
000210 03 79 b8 3c 6c 36 f2 bc 7d a5 06 bd 1a a0 e9 ba
       0.02251864 -0.029566966 -0.032872666 -0.0017824203
000220 4b c7 fd 3b ce fc 0b 3d bf ff 81 3c e6 3e 6e bb
       0.007744705 0.03417664 0.01586902 -0.0036353408
000230 e8 a3 15 bd c5 bc 62 3b d9 26 23 bd c3 a5 78 ba
       -0.036533266 0.0034597379 -0.03983197 -0.00094851496
000240 af 5e 4a 3d 2a d8 15 3d 5a a6 13 bc 4a 2a 2c bc
       0.049406704 0.036583103 -0.009011829 -0.010508129
000250 21 0e a4 bc cc 95 13 3d 24 35 be bc 0c c8 a7 3c
       -0.020026268 0.03603153 -0.023218699 0.020481132
000260 b8 c3 1d bc b0 14 b8 3c 5a 2d b7 3b 8c 87 8a 3b
       -0.0096291825 0.022470802 0.005590123 0.004227584
000270 1c 20 e0 bc cc 0c 25 bd 3b 83 3d bd ec 19 9f bc
       -0.027359061 -0.040295407 -0.04626773 -0.01942154
000280 9e f8 1d bc 9b 8b 5b 3b 71 25 d9 3c a1 fd af bb
       -0.0096417945 0.003349996 0.026507111 -0.005370811
000290 59 b1 8a bc 1a ef 31 bd fa 08 d0 3a 2c fc a0 3b
       -0.01693027 -0.043440916 0.0015871816 0.0049128737
0002a0 c6 c2 ec bc 45 bd 59 bc e1 0c ad bb 83 ca 00 3d
       -0.028901469 -0.013289754 -0.0052810763 0.03144313
0002b0 09 60 1b bb a6 fa 3f bd 34 f9 c7 3c 02 d4 ab bc
       -0.0023708364 -0.046869896 0.024410821 -0.020975117
0002c0 94 ca 5a bc b7 df 5c 3c 13 6e 1f 3c a3 b1 2b 3d
       -0.013353962 0.013481072 0.009730834 0.041917454
0002d0 ac 9d c2 ba ec e3 38 bd e0 62 6c ba 07 7d 3c 3d
       -0.0014848015 -0.04513924 -0.0009017419 0.046017673
0002e0 f3 30 07 3c 3a a2 8c bc e1 57 a8 3c 45 b9 3e 3d
       0.0082514165 -0.0171672 0.020549716 0.046563406
0002f0 86 45 61 bc 20 b7 f6 3c 84 c9 80 3c 11 83 5b bc
       -0.013749486 0.030116618 0.01572109 -0.013397948
000300 2a 92 38 bd 37 ca 2b 3d 84 19 3c bd 52 7d 82 bc
       -0.045061268 0.041940894 -0.04592277 -0.015928898
000310 96 76 04 bd 6f 1c 6f 3c 66 0d 1d 3d 89 75 09 bd
       -0.032339655 0.014594181 0.038342856 -0.033559356
000320 c1 ef 43 3d e1 0f 22 3d a7 37 cd bc e0 00 9b 3c
       0.04783607 0.039565925 -0.025050951 0.018921316
000330 d2 f9 39 bd 8f d2 8e bc aa 9a 3b bd 90 c8 e2 3b
       -0.045404263 -0.017434387 -0.045801796 0.0069208816
000340 11 08 17 3d ae ca 06 3d 15 c7 35 bc 8e 7e 3a bd
       0.036872927 0.032908134 -0.011094828 -0.04553085
000350 c7 b4 72 bc 89 f6 30 bc ec 12 de bc 76 b3 c1 3a
       -0.0148136085 -0.010800966 -0.027108632 0.0014778215
000360 14 54 e3 bc 7f 1f 9f 3c 51 5f 8c 3c 21 80 14 bd
       -0.027750053 0.019424198 0.017135294 -0.036255006
000370 e7 78 7e 3a 71 58 80 bd 8e 05 6a bd ee f7 8d bc
       0.0009707347 -0.06266869 -0.057134204 -0.017330136
000380 ab 30 31 bd 47 9a ba 3c 69 27 39 bd 81 a3 04 3d
       -0.043259304 0.022778643 -0.0452036 0.032382492
000390 80 4e 6a bd c8 72 81 bc 48 b3 25 bb d4 b1 2d bd
       -0.05720377 -0.015801802 -0.0025283862 -0.04240592
0003a0 46 19 66 bb bb 76 8c bc 20 e8 39 bd da 53 06 3d
       -0.003511028 -0.017146459 -0.045387387 0.03279481
0003b0 e6 c3 00 bd 5e bd 8d bc 33 47 0b 3c 79 8a 33 bd
       -0.031436823 -0.017302211 0.008500862 -0.04383323
0003c0 a9 7f 83 bd 97 3c e4 bc 9c ba 27 bd 91 29 d4 bc
       -0.064208336 -0.027860923 -0.04094945 -0.025898727
0003d0 f4 42 17 3d fd 99 69 3b 47 85 5f bd 3c 36 1f bc
       0.036929086 0.0035644763 -0.054570463 -0.00971752
0003e0 92 c1 32 bd 38 dc b3 bc cd aa 44 bd 13 96 1f 3b
       -0.043641634 -0.021955594 -0.04801445 0.0024350926
0003f0 67 d3 7f b9 eb 76 12 3d 82 d6 e2 bc 3e 8b 24 3c
       -0.00024397449 0.03575794 -0.027690176 0.010042964

conv4.bias f4 [32]
000000 36 a6 49 bd fb 2b 29 3d 1b 0a 31 3d 99 e5 80 3c
       -0.049230777 0.04130171 0.043222528 0.01573448
000010 06 0f a7 3c d6 79 81 3c 74 5d e5 3c e7 29 11 3d
       0.020392906 0.015805166 0.027998663 0.03544035
000020 f6 e0 0d bd 30 5b 2a bc 8c b8 58 bd 60 ff 23 bd
       -0.034638368 -0.010397717 -0.052910373 -0.040038466
000030 1d 00 08 3d 2f af e0 bc 88 2e 97 bc be 81 00 3b
       0.033203233 -0.027427284 -0.018454805 0.0019608582
000040 95 4b 5d bc ff 2c 1a 3d 80 77 47 3d 0b eb 09 3d
       -0.01350679 0.037640568 0.04869795 0.03367142
000050 52 34 f0 bc 59 58 70 bd 9d ee 07 3c 9b 59 a4 bc
       -0.029321823 -0.058678005 0.008296636 -0.020062258
000060 9d ec 39 ba b0 46 1e bd 8b f1 fd 3c a8 31 0a 3c
       -0.0007092448 -0.03864163 0.030998966 0.008434691
000070 a7 08 be bc 01 d6 81 bc d8 0f 0c 3d 94 19 38 bd
       -0.023197485 -0.015849115 0.034194797 -0.04494627

conv5.weight f4 [64, 32, 2, 2, 2]
000000 46 83 fe bc ae e0 58 3c b7 0a 75 3d 2c 12 9a 3d
       -0.031068455 0.013237162 0.05982467 0.07522997
000010 31 31 74 3c 8b a8 86 3b d7 c5 90 bc d1 d9 da 3c
       0.014904306 0.0041094474 -0.017672462 0.026715191
000020 69 50 84 3d 84 b6 07 bd cf bc 09 3d a0 ca 5b bd
       0.064606495 -0.033133045 0.033627328 -0.053660035
000030 59 b5 f5 3c 42 9e 61 3c 46 0f f2 bb 88 01 8e 3c
       0.0299937 0.013770642 -0.0073870746 0.017334715
000040 5b 2d 04 bd e5 41 41 bd 70 d9 72 bd 6b 07 d9 3b
       -0.032269817 -0.047181983 -0.059289396 0.0066231987
000050 49 3e ff 3c 38 f5 06 3a e7 6a 48 3c d2 0d 84 3b
       0.03115763 0.0005148235 0.012232519 0.004029968
000060 f9 37 92 3d bc 44 e3 3c e8 a6 5e 3d 87 b2 b5 3d
       0.07139582 0.027742736 0.054358393 0.08871942
000070 71 07 39 bd e4 7b 25 3d 62 71 55 3d cd fd 52 3c
       -0.045173112 0.040401354 0.052110083 0.012877894
000080 e2 e8 0a 3d 1c 95 89 3d 01 32 f8 3b fb 53 75 3d
       0.0339135 0.067178935 0.0075743203 0.059894543
000090 9e 1d c9 3c 45 18 96 bc b6 75 12 3d a0 9c 8e bd
       0.024550255 -0.01832212 0.03575679 -0.069634676
0000a0 ad d6 06 bd a0 26 c0 3a 85 d6 e0 bc b6 35 54 3d
       -0.032919575 0.0014659949 -0.02744604 0.051809035
0000b0 a3 95 d2 bc df 23 7b 3a c6 58 72 3d 6b a6 c0 3c
       -0.025706118 0.00095802353 0.059166692 0.023516854
0000c0 f4 83 37 3d a6 f1 88 3d b3 7d 3c 3d dd 3f 8c bc
       0.044803575 0.06686716 0.046018314 -0.017120296
0000d0 33 89 8f bd 47 f2 2f bd 00 e1 53 bd 99 ab 7f bd
       -0.070085905 -0.042955663 -0.05172825 -0.062419508
0000e0 ff ce 47 bd 98 93 1f bd 42 cb 3b 3d 27 20 ba bb
       -0.04878139 -0.038959116 0.04584814 -0.0056801024
0000f0 55 95 41 bb 66 5f b6 bd 5b e8 70 bd a6 c9 6d bd
       -0.0029538472 -0.089049146 -0.05881534 -0.058053635
000100 94 0d 25 3d c0 d3 a7 bb 04 5e 52 bd f4 31 7d bd
       0.040296152 -0.005121678 -0.05135919 -0.061815217
000110 25 e6 74 3d 32 5f 5a bd 1f bf 78 bd 92 8a aa 3c
       0.059789795 -0.05331344 -0.060729142 0.020818029
000120 56 1b 90 bc 73 de 75 3d 8b 99 d8 3a 9c bf ea bc
       -0.01759116 0.060026597 0.0016525252 -0.02865582
000130 af 67 91 3c e9 c5 e0 3c d7 51 6c 3d cb b1 6d 3d
       0.017749636 0.02743812 0.057695236 0.058030885
000140 d2 91 16 bd f4 1b eb 3c e8 2e 57 3c 30 e6 95 3b
       -0.03676016 0.028699853 0.013133742 0.0045745596
000150 93 5d c6 3c 3d 5f d0 3c f8 71 54 bd 66 04 d3 bc
       0.024214542 0.025436038 -0.0518665 -0.025758933
000160 8a be 26 3d d0 fe 5b 3d b6 44 14 bd 20 8f 93 3c
       0.040709056 0.053709805 -0.03619834 0.018012583
000170 e0 ac 19 bb d5 a3 cb 3b 19 44 18 bd 1a fa 34 3d
       -0.0023448989 0.0062145987 -0.037174318 0.044183828
000180 0f 44 92 bd d0 00 1e bd d5 a0 01 3c ec d1 bf 3c
       -0.071418874 -0.038574994 0.0079118805 0.023415528
000190 88 fc a5 3c 6f a9 2f 3d 86 6a c8 3d 2d 9b af 3c
       0.020262018 0.042886194 0.09785943 0.021436298
0001a0 2d 2e 2b 3d ce b8 b3 bc e0 ef 41 3d a0 9c d9 3c
       0.041792084 -0.021938708 0.047347903 0.026563942
0001b0 f2 63 ad 3c eb 35 18 3c f5 e4 bd bc 9c 04 29 bd
       0.021165822 0.009290199 -0.023180464 -0.04126416
0001c0 5b 6d 63 3d e5 ad 8b bc bb 09 7e bc ba 53 40 3c
       0.05552421 -0.017050693 -0.01550525 0.011738712
0001d0 97 5e 5a b9 a1 a5 7f bd 23 bf b1 bc 69 c9 2d bd
       -0.00020825338 -0.062413815 -0.021697586 -0.042428408
0001e0 b4 03 15 3c 49 9f c3 bd 1b dc 20 bd e3 e2 cd bd
       0.009095121 -0.095518656 -0.03927241 -0.10053041
0001f0 c6 52 b7 3d 28 2a 4c bc 5c 70 45 3d 49 97 54 3d
       0.08951335 -0.012461223 0.048202857 0.05190209
000200 b3 7a 8c 3d c6 b9 9e 3d cf ef 2c bc 6a 1e 23 bd
       0.068593405 0.07750277 -0.010555222 -0.039823927
000210 f0 b4 28 bd c1 13 a3 3d f5 13 d4 bc 10 24 4b 3b
       -0.04118818 0.07962752 -0.025888423 0.0030996837
000220 70 d9 85 bb 11 6c 06 bd f5 40 3d bd eb 2a d1 3c
       -0.0040847585 -0.032817904 -0.046204526 0.02553316
000230 bb d7 27 bd 12 4f 9e bc db 6b 9b 3d 36 9a ab bc
       -0.04097722 -0.019324813 0.07588931 -0.020947557
000240 30 47 8d bc a1 b1 46 bd 98 31 ea 3c e0 a4 2c bd
       -0.017245859 -0.048509244 0.028588101 -0.042149425
000250 11 eb 64 3d 0c e7 e6 bc c7 06 34 3d 1d 1b a8 bc
       0.05588824 -0.028186344 0.043951776 -0.020520741
000260 0d 50 f4 bc f2 ae 3c 3d 4b ab a5 bb 5a 97 ca 3b
       -0.029823327 0.04606528 -0.00505582 0.0061825933
000270 3f 33 1f 3d 42 35 6b 3c 64 b1 72 bd bc 24 31 3d
       0.03886723 0.014355959 -0.059251204 0.043247923
000280 a5 2a 57 bd c9 79 57 3c 05 de 35 bd 8b 54 da 3d
       -0.052530903 0.013151594 -0.044401187 0.106606565
000290 8d 40 4b bd e6 44 08 3c 50 56 a3 3b e5 6b 81 bd
       -0.049622107 0.008317208 0.0049846545 -0.063194074
0002a0 fd d3 76 3b a0 87 87 3b 99 6b 05 3d 82 fd f5 3c
       0.0037662976 0.004136041 0.032573316 0.030028109
0002b0 be 72 0c 3d 4a 0e c5 3c 96 52 08 bd 0e 15 a4 bc
       0.034289114 0.024054665 -0.033281885 -0.02002957
0002c0 e0 f8 b2 bb a4 f3 99 ba 11 24 23 3d ad 2b 50 3d
       -0.005461797 -0.0011745584 0.039829317 0.050822902
0002d0 90 88 45 3d 98 76 66 bd 79 17 d8 bc c7 7f 8c bd
       0.04822594 -0.056265444 -0.02637838 -0.06860309
0002e0 9f 60 c4 bb e4 3f 4f bd 63 71 d4 bc 07 99 98 bb
       -0.0059929634 -0.05059804 -0.025932973 -0.004656914
0002f0 fc 51 32 bd 6e 7f a1 3c 41 06 1f bd ba 0a 5f 3d
       -0.043535218 0.019714084 -0.038824324 0.05445359
000300 21 15 c0 b9 e0 75 81 bc d3 12 2b 3c 51 4d f9 bc
       -0.00036636836 -0.015803277 0.0104415 -0.030432375
000310 a9 36 10 3c 78 3a 08 3d d1 6e 34 bb de 96 a7 bc
       0.0088020945 0.033258885 -0.0027531872 -0.020457681
000320 06 14 24 bc 98 64 b8 bc c9 3c da bc a5 5d de bc
       -0.01001454 -0.022508904 -0.026640313 -0.027144263
000330 b9 cb bd b9 f4 5a 76 3d 83 3f c2 38 fc 30 1a bd
       -0.00036200674 0.060145333 9.262471e-05 -0.03764437
000340 06 6c cf 3c 06 99 d3 bc b5 52 a6 bd bf 59 10 3c
       0.025320064 -0.025829803 -0.08121244 0.00881046
000350 9f e3 f9 3b 6b 3a 1f bd 8c 1a f8 3c bd d9 2c bd
       0.0076260115 -0.03887407 0.030286096 -0.04219984
000360 64 cb 89 bd b2 c8 3b 3c 67 8a 54 bd 51 f2 7b 3d
       -0.06728247 0.011461424 -0.051889803 0.061510388
000370 2b 2c 35 3a 36 b0 31 3d be d7 5e bd 15 5a e7 3b
       0.00069111836 0.04338094 -0.054404967 0.007060299
000380 84 35 93 3d a2 88 a1 bb 1c 47 e7 bc d2 3f bd bd
       0.07187942 -0.004929618 -0.02823215 -0.092406884
000390 95 da 70 3d 30 b8 a5 3d 6f 73 84 3d 04 55 73 bb
       0.058802206 0.080917716 0.0646733 -0.003712953
0003a0 44 09 a6 3c 92 13 2f bd b8 13 fa ba 28 cd 38 3d
       0.02026809 -0.042743273 -0.0019079363 0.045117527
0003b0 89 06 53 3d 6b ca 14 bd 63 f8 e5 3b 7c 81 15 bd
       0.051519904 -0.036325853 0.0070181354 -0.03650044
0003c0 77 f6 64 3d 2d b4 34 bc ad aa 9a bc 66 56 95 3d
       0.05589911 -0.011029285 -0.018880213 0.0729187
0003d0 d7 fe 1d bc 0d 37 40 bd c5 bb 52 3d 30 65 05 bd
       -0.009643278 -0.0469275 0.051448602 -0.032567203
0003e0 7d 47 52 3d 90 34 0a 3d 0f 1a 28 3d ce cb 6d bd
       0.051337708 0.033741534 0.041040476 -0.05805569
0003f0 14 f3 3e bd 56 db 25 bd 98 5a 51 bd cd 2b ec bc
       -0.046618536 -0.04049238 -0.051111788 -0.02882948

conv5.bias f4 [64]
000000 56 e5 60 3d 4f 12 0f bd 7f 4e 32 bd c2 40 46 bc
       0.05490621 -0.03492957 -0.04353189 -0.0121004
000010 6c d4 38 3d bd 10 09 bd fb 08 2f 3d 8a d9 76 3b
       0.045124456 -0.03346323 0.042733174 0.0037666284
000020 9d 0d 6f bc 04 ea 0d 3d 0d 9b 3e bd 13 65 d3 3c
       -0.014590648 0.034647003 -0.046534587 0.025805032
000030 63 92 37 3c f5 f4 ec 3c d7 89 19 3d 80 bc 23 bd
       0.011204335 0.028925398 0.03748497 -0.03997469
000040 91 10 90 bc 35 08 57 3d 66 62 81 3c d6 1a 57 3c
       -0.017586024 0.05249806 0.01579399 0.013128957
000050 cb 2a 78 bd b3 64 99 3c 6d a7 34 bc 52 5d c1 bc
       -0.060587686 0.018724775 -0.011026246 -0.023604069
000060 66 28 8c 3c 94 30 39 bb 3c ec 14 3d dd 1a 91 3b
       0.017109107 -0.0028257715 0.036358103 0.004428251
000070 ec a4 8b b8 d3 ad e2 3c 35 41 58 3d a3 b6 e3 bc
       -6.6587556e-05 0.027670776 0.05279656 -0.027797049
000080 89 da 2e 3b 1a 83 a3 3c c0 52 9d 3c b4 ea 30 3d
       0.002668055 0.019959975 0.019204497 0.04319258
000090 c0 4a 2d bc 07 e7 3c 3d 40 c6 56 3c 7f 99 16 bd
       -0.010576904 0.046118762 0.01310879 -0.03676748
0000a0 0b e3 21 bd ba c3 63 bd 01 ab 59 3d b1 cd 5d 3d
       -0.039523166 -0.05560658 0.053141598 0.05415124
0000b0 c4 00 23 3d 55 33 0b bd dc 1a b1 bc d2 b7 46 bd
       0.039795652 -0.0339845 -0.021619253 -0.04851515
0000c0 e1 a4 0d bd 96 fe 36 3d 44 d2 1b 3d 89 62 f2 bb
       -0.03458107 0.044676386 0.03804232 -0.007397
0000d0 3a 01 ae 38 5c 0a ab bc 93 7b 11 3b 50 37 7f ba
       8.297195e-05 -0.020878963 0.00221989 -0.000973572
0000e0 e4 92 0e 3c 4e 3d 14 bd 7c eb 3d bd 1c aa 6e 3c
       0.008702014 -0.036191277 -0.046367154 0.014566924
0000f0 4a dd fd 3c 66 ff 16 bc 9f 29 f7 3b e3 08 01 3d
       0.030989308 -0.009216165 0.0075428034 0.031502616

linear1.weight f4 [128, 512]
000000 8c 5e dc bb 1c b3 24 bc 8c 3d 55 3d 36 74 35 3d
       -0.006725138 -0.010052469 0.05206065 0.04430028
000010 0b 4e 0b 3c 30 33 07 3d 4e 3e 92 3b d8 13 a9 bb
       0.008502494 0.0330078 0.0044629937 -0.0051598363
000020 d3 f5 14 3d 5b 31 3d 3c 41 db 77 bc 87 c0 c9 bc
       0.03636725 0.011547412 -0.015127958 -0.024627937
000030 c5 23 91 3c f1 8e e2 bc 02 08 2e bd 10 b5 6b bc
       0.017717252 -0.02765605 -0.042488106 -0.01438643
000040 4b 76 cb bc 0c c7 4f ba cb 72 03 3d 15 56 1d bd
       -0.02483668 -0.00079260836 0.032091897 -0.038412172
000050 50 4b cd 3b c5 1d 49 3b b1 58 90 3a b2 e4 7e bc
       0.0062650815 0.003068791 0.001101276 -0.015557455
000060 fe b1 a0 bc 46 18 f1 bc dc 29 19 bd 01 91 19 bd
       -0.019616123 -0.02943052 -0.037393436 -0.037491802
000070 cf d9 01 bb 99 b9 25 3d 3f ca 8b 3d 00 0d 01 3d
       -0.0019813662 0.040460203 0.06825685 0.03150654
000080 1d fe 88 3c de 9e df bc 48 2b c8 3c dc 41 a4 bc
       0.016722733 -0.027297433 0.0244347 -0.020050935
000090 1d e2 71 3c c6 27 97 3c a0 7e 07 3d 21 e2 15 bd
       0.014763382 0.018451583 0.033079743 -0.036592606
0000a0 5d ce b8 3c 75 72 bf 3c 1f 60 82 3c 6c b1 bf bb
       0.02255934 0.023370007 0.015914975 -0.0058500078
0000b0 e2 31 31 bd ea 3a 29 3b c2 73 fd bc a6 20 5f bd
       -0.043260463 0.002582247 -0.030938987 -0.054474495
0000c0 34 d5 95 bb c4 a9 0b bd 07 86 a1 3c 9d 82 16 3d
       -0.004572535 -0.034097448 0.01971723 0.036745656
0000d0 d0 0e 4f bc 1a 46 12 bd 28 12 3b bd a1 a0 92 bc
       -0.012637809 -0.035711385 -0.045671612 -0.01789886
0000e0 8d 72 b4 3c 51 95 a5 bc 0e 43 25 3d 04 5c ed bc
       0.022027278 -0.020212801 0.04034715 -0.02897454
0000f0 c9 3d 16 3d 7e e3 0a bd 0d 17 34 bd e7 da 66 bc
       0.036680017 -0.03390836 -0.043967295 -0.014090276
000100 c8 98 11 3d 3b 5d a7 bb 7c f1 25 bc 97 71 fb bb
       0.035546094 -0.0051075495 -0.010128375 -0.007673453
000110 02 2d 1a bd e0 2e e9 3c 71 e0 10 bb f1 11 d8 bc
       -0.03764058 0.028464735 -0.0022106434 -0.026375743
000120 b3 23 88 3c 4e 41 1c 3d 02 91 8e 3c e5 fd cc bc
       0.016618585 0.038148217 0.01740313 -0.02502341
000130 d9 22 97 3c 10 43 f3 bc 0d 32 15 bd 6c 98 cc 3c
       0.018449234 -0.029695064 -0.036424685 0.024975024
000140 f3 e2 4f bb 0b 43 74 3c b6 14 c0 3c 28 e6 22 bd
       -0.0031720966 0.014908562 0.023447376 -0.039770275
000150 95 9f 80 3c 94 c2 25 3c 4a bc 7f bb 21 9a 22 3c
       0.015701095 0.010117192 -0.003902214 0.0099244425
000160 95 c3 b1 bc c0 4f 54 3a 0e 5d ca 3b b8 35 bf 3c
       -0.021699706 0.0008099042 0.0061756438 0.023341045
000170 d7 9c a7 bc f1 51 d0 3b 1a 64 13 bc a1 42 dc 3c
       -0.02046053 0.0063574244 -0.008996034 0.02688724
000180 bd d4 f3 bc 2e cb 52 bc 53 53 b1 bd be f2 62 bd
       -0.029764527 -0.012865825 -0.08658471 -0.05540728
000190 19 e3 89 bd ae e4 43 bd 6a 6b 9c bc 8b d2 f4 bc
       -0.067327686 -0.047825508 -0.019094188 -0.029885551
0001a0 a6 7b 20 b9 70 a9 12 bd a7 3d 29 3d 91 fc 02 3d
       -0.00015304852 -0.03580612 0.041318562 0.031979147
0001b0 d2 ff b0 bc 44 c8 56 3d 05 5a 74 bc fe 4c 1e 3d
       -0.02160636 0.052437082 -0.01491404 0.038647644
0001c0 27 72 aa bc 7e 40 3e bd 2b 17 98 bc 75 98 05 3d
       -0.020806385 -0.046448223 -0.018565735 0.032616097
0001d0 ba b2 0e 3b 11 85 25 bd 22 fc db 3c 15 c6 97 3c
       0.002177401 -0.040410105 0.026853625 0.01852707
0001e0 47 04 a1 3c 26 28 9c 3b d5 90 23 3d 68 1f 39 3d
       0.01965536 0.0047655283 0.039933044 0.045195967
0001f0 8b 5f b0 bb 0f 74 a2 3c 2a 00 c8 3b 32 6e 03 bc
       -0.0053824834 0.019830732 0.006103535 -0.008021878
000200 7d 91 01 ba 63 ea 68 3c 93 15 00 bd 7d 67 f3 3c
       -0.0004942639 0.014216038 -0.031270575 0.029712433
000210 99 c4 20 bd 20 73 8b 3a 30 a3 4a bd ae 9c 88 bb
       -0.03924999 0.0010639168 -0.049472034 -0.0041690683
000220 35 cb 46 3d d5 b3 a0 bc ca 3b c5 3c 3f 92 84 bc
       0.048533637 -0.019617 0.024076361 -0.016183017
000230 3e 70 5c 3d 7d 90 9e bc 45 bc 5b 3d 1d 20 eb 3c
       0.05381798 -0.019356007 0.053646345 0.028701836
000240 56 c2 43 bb 38 f3 b2 3c c5 d6 ec bc 02 8a 02 b8
       -0.0029870472 0.021844491 -0.028911004 -3.1122945e-05
000250 c7 56 93 3c 23 8c 90 3c df 7e 3d 3c 10 a8 a9 ba
       0.017985715 0.017644947 0.011565893 -0.0012943763
000260 80 f8 cb bd 6c 16 85 bd de ac 2b bd df 5b 39 3c
       -0.09959507 -0.06498417 -0.041912906 0.011313408
000270 39 2a 16 bd 68 02 8b bd 99 f2 23 bd 57 47 19 bd
       -0.03666136 -0.06787568 -0.04002628 -0.03742155
000280 7e f6 b3 bc 2f 73 1f 3c 76 f6 7e 3c fd 48 eb bc
       -0.021968123 0.009732052 0.015561691 -0.028721327
000290 0d e8 a4 3b 6c d9 8e 3b 0b af 76 3c 8f be 22 bd
       0.0050325454 0.004359415 0.015056382 -0.039732512
0002a0 ec a5 67 bd 6f f7 07 3d eb 1f f7 bc 68 8b 6e bc
       -0.05655472 0.033194955 -0.030166587 -0.014559604
0002b0 49 07 3d bd 1a e9 9c 3b ec 53 a3 bc 49 a4 cd 3b
       -0.046149526 0.00478853 -0.019937478 0.006275688
0002c0 45 82 2a bc d1 93 0e 3d d0 1a 8b bc b5 af 65 3d
       -0.010407035 0.034808937 -0.016980559 0.05607577
0002d0 f9 10 e7 3c 5e 0c 83 bc 90 4a 9f 3c 8e 77 00 3d
       0.028206335 -0.015997108 0.019444734 0.031364016
0002e0 99 d9 88 3d 01 00 8c 3d 5d c2 77 3c dd 68 43 bd
       0.066821285 0.06835938 0.015122023 -0.047707427
0002f0 e9 ec b2 3b 0b fc 12 bd c5 b7 0f bc 5b 1c 90 bd
       0.005460371 -0.0358849 -0.008771841 -0.070366584
000300 05 ff ea bc e1 d5 46 3b 5f e1 e1 3c c8 99 1e bd
       -0.028686056 0.0030339884 0.027573286 -0.038720876
000310 ca cc e6 bc c5 2b 46 bb 83 0f 06 bc 1e 25 ad 3c
       -0.028173823 -0.003023849 -0.008182409 0.021135863
000320 5b f4 90 3d c4 63 31 bc 5a 9b 45 3d 8b c4 0c bc
       0.07077857 -0.010827009 0.048243858 -0.008591781
000330 0f 38 09 3b 0d fe a8 3c 70 72 d6 bc 9f f3 fa bc
       0.0020937955 0.020628953 -0.026177615 -0.030633746
000340 18 ed 84 3c ef 40 8e 3d 81 99 57 3d a9 76 f4 3c
       0.016226336 0.06945979 0.052636627 0.029841738
000350 98 4a 8d 3d e5 9c 88 ba 2d 5b 0f 3c a7 e0 cd 3c
       0.06898993 -0.0010422735 0.008749765 0.025131537
000360 bf 8f 90 3c fe e9 20 3c 3d f8 3a 3d 2c f5 0e 3c
       0.017646668 0.009821413 0.045646895 0.008725446
000370 4a 47 9e 3c 6a d7 2f 3b 85 9a 80 3d f8 bb 97 3d
       0.019321103 0.0026831278 0.06279472 0.07408899
000380 17 22 f3 bc 02 25 15 3c 3a 40 1a 3d e9 35 24 3d
       -0.029679341 0.009103062 0.037658907 0.040090475
000390 b8 e5 b4 bc ff c1 63 3c eb db fa 3b 36 3a 18 3d
       -0.022082195 0.013901233 0.007655611 0.03716489
0003a0 7e 09 00 bd fa 49 1f bc eb 27 08 bd b8 30 16 3d
       -0.031259052 -0.009722227 -0.033241194 0.036667556
0003b0 9a 0f 3b 3c 02 60 08 3d 5c d9 a7 3c 41 a2 11 3d
       0.011417294 0.033294685 0.020489387 0.035555128
0003c0 60 dd 4a bb 26 9c b8 3b 51 89 1b bd 70 7e 18 3c
       -0.0030954704 0.0056338487 -0.037972752 0.009307489
0003d0 f9 38 cf bc 63 26 64 bd 80 4f 88 3b 0d 9c 78 bd
       -0.025295721 -0.05570067 0.0041598678 -0.060695697
0003e0 1d c8 a4 bc c9 2e 5e bb 3e 98 b0 bc e0 8b f4 3a
       -0.020114953 -0.0033902398 -0.02155697 0.0018657409
0003f0 ab fd 75 3c 5b f5 25 3d 15 55 db bc e4 87 2e bd
       0.015014092 0.040517192 -0.026773969 -0.042610064

linear1.bias f4 [128]
000000 25 ba 07 3c 82 97 86 3d 68 cb 59 bc 56 c6 1e bd
       0.008284126 0.065718666 -0.013293125 -0.038763367
000010 1c 04 f8 3c fa eb 2b 3d c1 43 56 bd 56 b3 ac 3c
       0.030275397 0.04197309 -0.05231071 0.021081608
000020 cd a1 36 3d 60 6d 31 3d 40 d3 74 bc 57 92 41 bc
       0.0445879 0.0433172 -0.014942944 -0.011814675
000030 24 04 67 3d f4 f7 07 bd 8b 13 a0 bb ca 68 2b 3c
       0.056400433 -0.03319545 -0.004885142 0.010461995
000040 b3 9c 01 3d 03 41 06 3b 8a d1 7c ba b8 0c 73 3d
       0.03164358 0.0020485527 -0.0009644261 0.0593383
000050 11 d4 02 3d 62 82 f7 3c 4b 5e f9 3c c7 7b 5a bd
       0.031940524 0.030213539 0.03044047 -0.0533407
000060 7c 16 f9 bc 8d 0f 13 3c cd a4 7d bb 64 6f c1 3c
       -0.03040623 0.008975876 -0.0038702965 0.023612686
000070 be dc 2e 3d de ca 3f bd 2f d2 b8 bb 4a ab 05 3d
       0.042690985 -0.04682433 -0.00564029 0.032634057
000080 c2 7b 4d 3b f7 86 31 3d f7 1d 6e bb fa 6e bf 3c
       0.0031354283 0.043341603 -0.0036333778 0.023368347
000090 0a 6d aa bc 97 89 64 bd 58 77 8d bc 78 7f 21 3c
       -0.020803947 -0.05579528 -0.017268822 0.009857051
0000a0 ff 05 08 bd f0 76 ff b9 5b c8 2d 3d d6 dd fe 3b
       -0.033208843 -0.00048726005 0.042427402 0.0077779097
0000b0 a5 dc b8 bb ea 4b 32 3c 14 c0 a7 bc 2a 8f ab 3a
       -0.0056415373 0.010882357 -0.020477332 0.0013088931
0000c0 d0 9f 1f bd 1f 35 45 ba 4b 73 e7 bc c2 d7 85 3a
       -0.03897077 -0.0007522869 -0.028253218 0.0010211396
0000d0 dc 5e d3 3c b7 b9 60 bc c8 e9 62 3d 50 6a bc bc
       0.025802068 -0.013716153 0.055398732 -0.022999913
0000e0 1f 5d 3a 3c ff 11 29 bd e1 7f 83 3d 9a fb 24 bd
       0.011374741 -0.041276928 0.06420875 -0.04027901
0000f0 5a b6 43 3c 7a 3b 9e 3c bf bf 06 bd fb b4 bb bb
       0.0119453315 0.01931547 -0.032897707 -0.0057283617
000100 6b ca 23 3c 0f a3 10 3d 6a 6c 47 bc 7e 82 ca 3c
       0.009996991 0.035311755 -0.012171844 0.024720427
000110 86 c9 bd 3c cd 61 b3 3b 73 6e c4 bc 1f b6 a6 bc
       0.023167383 0.0054743052 -0.023978448 -0.020350514
000120 dc 0e 0e bd 34 51 cc 3c a7 2b 4a 3c ed 1b 86 bc
       -0.03468214 0.024941064 0.012339509 -0.016370738
000130 fc c2 1a bc f7 57 44 bd 64 ee 1a 3d 64 49 ac 3c
       -0.009445902 -0.047935452 0.037825003 0.02103109
000140 75 6d 8e bc 7b a5 df 3c 1b 89 18 bd 4f e1 f5 3c
       -0.017386178 0.027300587 -0.03724013 0.030014662
000150 64 27 93 3c 52 75 ce 3c d1 96 c1 bb 14 12 5d 3d
       0.017963119 0.025202427 -0.0059078713 0.05397232
000160 49 9f b3 bc 13 72 89 3c b2 bf a3 3b 0c 94 0d bc
       -0.021926539 0.016778028 0.004997217 -0.008641254
000170 d0 3e ec 3c 85 f6 ae 3b 72 75 8a bc 7c 51 02 bd
       0.028838545 0.005339446 -0.016901705 -0.03181599
000180 79 32 97 3c 1f 2c 43 3d 3e 3f 09 bd 9f b9 1a bd
       0.018456684 0.0476495 -0.033507578 -0.03777468
000190 25 93 e1 bc 75 b5 18 3d ff c4 04 3d 32 cb 32 bd
       -0.027535984 0.037282426 0.032414433 -0.043650813
0001a0 d3 10 92 bb dd eb fe 3a 1e fb 33 3c 7a b8 60 bc
       -0.004457572 0.0019448955 0.010985164 -0.013715858
0001b0 34 5b 70 3c ba 3e 25 bc bb 6b 19 bd ef 72 49 bd
       0.014670182 -0.010085756 -0.037456255 -0.049181875
0001c0 17 06 30 bc 49 97 f0 bc 32 71 33 3c 2a c3 1c bd
       -0.010743639 -0.029369013 0.010952281 -0.03827206
0001d0 a5 dc a1 bc 74 65 d8 3c d8 c3 34 bc 1f 96 ed 3a
       -0.019758532 0.026415564 -0.011033021 0.0018126405
0001e0 c1 1b a5 bc d9 10 86 3c d0 9b b8 bc 57 c4 f0 3c
       -0.020154836 0.016365455 -0.022535235 0.029390497
0001f0 97 6e 24 3d b6 a4 d2 bc 8e 5a 0b bd 1a 64 40 bb
       0.04014453 -0.025713306 -0.034021907 -0.002935654
