models/1A_hand_alpha.pth (torch, 421229 bytes, 13 tensors)

conv1.weight f4 [4, 1, 5, 5, 5]
0	0xbc8904ec	-0.01672598
1	0xbd2e02c3	-0.042483103
2	0x3cacec07	0.02110864
3	0x39dc1ed1	0.0004198463
4	0xbc0fc6ab	-0.0087753935
5	0x3dac3eb4	0.08410397
6	0x3d61c04c	0.05511503
7	0x3d93d69c	0.07218668
8	0x3c8d9108	0.01728107
9	0x3968b7e1	0.00022193744
10	0x3b7b64ce	0.0038359645
11	0xba191416	-0.000583948
12	0xbd71e344	-0.059054628
13	0xbc9ff49c	-0.019525819
14	0x3b716274	0.0036832364
15	0xbba12243	-0.0049174144
16	0x3c235c76	0.009970775
17	0xbd51c498	-0.051212877
18	0xbc580da2	-0.013186844
19	0xbd38a5e1	-0.04508007
20	0x3cea08c4	0.028568633
21	0xbcfe145d	-0.03101557
22	0xbd7bb9f0	-0.06145662
23	0x3d5a340e	0.0532723
24	0xbd3a657b	-0.045506936
25	0x3aa998f9	0.0012939266
26	0x3dddc863	0.10829236
27	0xbd23f25f	-0.040026065
28	0x3da025b4	0.07819691
29	0x3d800074	0.062500864
30	0xbb7e7179	-0.003882496
31	0x3c9a0b0d	0.018804098
32	0xbdf346de	-0.11878751
33	0xbda4ef1f	-0.08053421
34	0xbda4fa17	-0.08055513
35	0xbca9c003	-0.020721441
36	0xbdd43ff6	-0.10363762
37	0xbd98808c	-0.07446393
38	0xbd8fdacc	-0.07024154
39	0xbcff6662	-0.03117675
40	0xbc1ef9d0	-0.009703115
41	0xbd920d60	-0.07131457
42	0xbd7e0d63	-0.062024485
43	0x3d890cda	0.06691904
44	0x3c32b436	0.010907223
45	0xbcdcd0a5	-0.026954958
46	0xbdd83c71	-0.10558403
47	0x3c9b1f0c	0.018935703
48	0x3d82bf99	0.063842006
49	0xbd92cca4	-0.07167938
50	0x3c920bfb	0.017827978
51	0x3ad94553	0.0016576446
52	0x3d9e074e	0.07716237
53	0xbd081737	-0.033225264
54	0xbd95eea8	-0.07320911
55	0xb9f28217	-0.0004625476
56	0xbdf9703f	-0.12179612
57	0xbd879012	-0.06619276
58	0x3c5922da	0.013252938
59	0xbc5cfb1f	-0.013487606
60	0xbcbb02c9	-0.022828477
61	0xbd770b18	-0.060313314
62	0xbda21b70	-0.079153895
63	0x3c9368e7	0.017994357
64	0x3b139ae7	0.002252275
65	0xbdb1dfed	-0.086852886
66	0xbdd3086f	-0.10304343
67	0x3de714a2	0.11283232
68	0x3d718d7e	0.058972828
69	0x3d192490	0.037388384
70	0xbda911ca	-0.08255346
71	0xbcbab8de	-0.02279323
72	0xbd44bd34	-0.048032
73	0x3d9b284b	0.07576045
74	0x3ddcada4	0.10775307
75	0x3dd47ee3	0.10375764
76	0x3ac62341	0.0015116708
77	0xbc86420f	-0.016388921
78	0xbd8a95b1	-0.067668326
79	0x3ca91e53	0.020644343
80	0x3c93a546	0.018023144
81	0xbcd61d11	-0.026136907
82	0xbdcb9d31	-0.09942091
83	0x3d3ca63b	0.046056967
84	0xbda0de4d	-0.078549005
85	0x3c11a8b6	0.0088903215
86	0xbd125816	-0.035728537
87	0x3d320092	0.043457575
88	0x3d51c4cd	0.051213074
89	0x3da3f429	0.08005554
90	0xbd06b234	-0.03288479
91	0x3d1d9fc5	0.038482446
92	0x3d978ad3	0.073995255
93	0x3e2935a1	0.16524364
94	0x3e046be2	0.12931779
95	0x3d028d7a	0.031873204
96	0x3c55c168	0.0130466
97	0x3dadda03	0.08488848
98	0x3d0bf51c	0.0341693
99	0xbd493a32	-0.049127765
100	0x3d3e9677	0.046530213
101	0xbcf21c10	-0.029554397
102	0x3bc1b401	0.0059113507
103	0x3d81c932	0.06337203
104	0x3c138d5e	0.0090058725
105	0x3c867cdd	0.016416961
106	0xbde8cbe8	-0.11367017
107	0xbc95ac47	-0.018270625
108	0x3d11525c	0.035478935
109	0xbc081848	-0.00830657
110	0xbd8a54b5	-0.06754438
111	0xbd2d2486	-0.04227116
112	0xbcf0fd6c	-0.029417716
113	0x3ccb9593	0.024851596
114	0x3dd87fc3	0.105712436
115	0x3ce74615	0.02823166
116	0xbde813a0	-0.11331868
117	0x3d1e020e	0.03857618
118	0x3dc0981c	0.094040126
119	0x3d7f6288	0.062349826
120	0xbdc0d178	-0.09414953
121	0xbdb52e77	-0.08846753
122	0xbcb3dab7	-0.021954877
123	0x3d1c9145	0.038224477
124	0x3d8e0caf	0.06936013
125	0xbd2ce42d	-0.042209793
126	0xbc877767	-0.016536428
127	0x3ce0eddb	0.027457168
128	0xbbde9e40	-0.006793767
129	0x3d1a2d6b	0.03764097
130	0xbc622893	-0.013803619
131	0x3cb4f078	0.02208732
132	0xbd9d436f	-0.076788776
133	0xbdc48d83	-0.09597304
134	0x3d54e9da	0.05198083
135	0x3cb5be69	0.022185521
136	0x3d5182b4	0.05115004
137	0xbda1f102	-0.07907297
138	0x3d18e26d	0.03732531
139	0xbd0cd699	-0.034384344
140	0xbafbf0ae	-0.0019221508
141	0xbd3c7585	-0.046010513
142	0xbc27840d	-0.010224354
143	0xbdd550ac	-0.104157776
144	0x3d2e8b23	0.04261316
145	0x3b95a7f4	0.0045671407
146	0x3d502c17	0.050823297
147	0xbc3081d2	-0.010773139
148	0x3c44d7c7	0.012014336
149	0x3ce8e36f	0.028428761
150	0x3dc94dbf	0.09829282
151	0xbd8f0961	-0.06984211
152	0xbd440b8f	-0.047862586
153	0xbd8e33da	-0.06943484
154	0xbcff61f5	-0.03117464
155	0xbd1dc341	-0.038516287
156	0x3cecf7a1	0.028926672
157	0x3b9fca82	0.0048764357
158	0xbd2b2769	-0.04178563
159	0x3d3a216a	0.045442022
160	0x3dab2449	0.0835653
161	0x3d4b7974	0.049676374
162	0x3dc3784a	0.09544428
163	0xbdc37cce	-0.09545289
164	0xbde2cc25	-0.11074094
165	0xbccc9517	-0.024973435
166	0xbca3b6c3	-0.019984609
167	0xbcddc4de	-0.027071413
168	0xbd19bf38	-0.037535876
169	0xbcc25370	-0.023721427
170	0xbdc48cab	-0.09597143
171	0xbe07b650	-0.1325314
172	0xbd68c477	-0.05682799
173	0xbdc239b8	-0.09483665
174	0xbccf94a3	-0.02533943
175	0xbcc229f6	-0.02370165
176	0x3d8d9a9e	0.069142565
177	0xbdb2e1b5	-0.087344564
178	0xbb886a4e	-0.004163063
179	0xbca18a85	-0.019719372
180	0xbc9d4e81	-0.019202473
181	0xbc249359	-0.010044896
182	0x3df0572c	0.11735377
183	0x3cef2d55	0.02919642
184	0xbb99395c	-0.004676027
185	0x3dcbb62f	0.09946858
186	0x3d9e00f4	0.077150255
187	0x3d935b31	0.07195128
188	0x3dac7bc2	0.084220424
189	0xbd7f0f49	-0.062270436
190	0xbba9e659	-0.0051849303
191	0x3d3e58ca	0.046471395
192	0x3d8d9cab	0.06914648
193	0x3cee6456	0.029100578
194	0x3c5af4f2	0.013364064
195	0xbe0cdede	-0.13756892
196	0xbd8f7478	-0.070046365
197	0x3d85c7a8	0.06532222
198	0xbd1fe3e6	-0.0390357
199	0x3cdab396	0.026696961
200	0x3d23e444	0.040012613
201	0xbd3efb82	-0.046626575
202	0xbdd27d07	-0.10277753
203	0x3d16b64b	0.036794942
204	0x3d43f4e5	0.04784097
205	0x3d4e45da	0.050359584
206	0xbbb0084b	-0.0053720823
207	0x3d5620b2	0.052277274
208	0xbdd1fb82	-0.102530494
209	0xbd944aba	-0.072408155
210	0x3cef5ebe	0.029219981
211	0x3e05f1d0	0.13080525
212	0x3dd5f04a	0.10446222
213	0xbadfe322	-0.0017081241
214	0xbd090603	-0.033453
215	0xbde79604	-0.1130791
216	0x3d9ce52b	0.07660898
217	0x3bc60fa5	0.0060443454
218	0x3cb5abdb	0.022176674
219	0xbd6d88d4	-0.057991818
220	0xbddbe761	-0.107374914
221	0x3dcec5a6	0.10096292
222	0x3d9c270a	0.076246336
223	0xbd4ee898	-0.050514787
224	0xbaaef186	-0.0013347126
225	0x3d22b0db	0.039719444
226	0x3a45a209	0.0007539099
227	0x3cb2f3a4	0.021844693
228	0xbc23044e	-0.009949757
229	0x3bcfa97c	0.006337343
230	0x3d831b1c	0.06401655
231	0x3d376037	0.044769492
232	0xbdbf1f41	-0.09332133
233	0xbcdf5df2	-0.027266476
234	0xbc6d4bfc	-0.014483448
235	0x3d8c7c0e	0.06859599
236	0x3c76aad2	0.015055375
237	0x3d398715	0.04529484
238	0x3c026be1	0.007960291
239	0xbc9f277c	-0.019428007
240	0xbd206d53	-0.03916676
241	0xbca762ca	-0.020432848
242	0x3d38bbdf	0.045101043
243	0xbd940eb8	-0.0722937
244	0xbc539de8	-0.012916066
245	0x3dbeb7b8	0.09312385
246	0xbce47d02	-0.02789164
247	0x3dc72430	0.09723699
248	0xbd41181b	-0.04714213
249	0xbb85e424	-0.0040860344
250	0x3cb0e1e1	0.021592082
251	0x3c8835e8	0.016627267
252	0xbd870fda	-0.0659482
253	0xbdc792ba	-0.09744783
254	0x3c803661	0.01565093
255	0xbd216b58	-0.03940901

conv1.bias f4 [4]
0	0x3d0daafc	0.03458689
1	0xbb4cdba0	-0.0031258836
2	0xbd88a5e6	-0.066722676
3	0x3c92bc89	0.017912166

conv2.weight f4 [8, 4, 5, 5, 5]
0	0xbb500b65	-0.0031745073
1	0x3cde898d	0.027165199
2	0x3cd2b52a	0.025721151
3	0xbc7b3b55	-0.01533397
4	0xbda153e6	-0.078773305
5	0x39b59264	0.0003463208
6	0xbaa2986d	-0.0012405046
7	0x3d823c22	0.06359126
8	0x3d8fea05	0.070270576
9	0xbd006355	-0.03134473
10	0xbd0b84da	-0.034062244
11	0x3d466c3e	0.04844307
12	0x3d8946e4	0.067029744
13	0x3cf1dd4b	0.029524466
14	0x3cc59771	0.024120064
15	0xbcc36efc	-0.023856632
16	0x3cb593d6	0.02216522
17	0xbc7607de	-0.015016524
18	0x3d3b3f56	0.0457147
19	0xbb089475	-0.002084044
20	0x3b2635fc	0.0025361767
21	0x3d019006	0.031631492
22	0x3da3c887	0.07997232
23	0x3c8bb284	0.017052896
24	0xbd1ab4a0	-0.037769914
25	0xbcb1911f	-0.021675644
26	0xbc883cc9	-0.016630547
27	0xbc29b2a9	-0.010357537
28	0xbd74c7b0	-0.05976075
29	0xbbf47441	-0.0074601476
30	0xbd838990	-0.06422722
31	0x3bf348f9	0.0074244705
32	0x3cb4ee85	0.022086391
33	0xbcba0849	-0.022709029
34	0xbbf9f448	-0.0076279975
35	0xbcd986b3	-0.026553487
36	0x3dc5ed86	0.096644446
37	0x3d0858ed	0.03328793
38	0x3d54a9fb	0.05191992
39	0xbc2fbbba	-0.01072591
40	0xbd29dafc	-0.041468605
41	0xbcadd86a	-0.021221358
42	0xbaaa8f63	-0.0013012703
43	0x3d2d4e1a	0.04231081
44	0x3d127eff	0.035765644
45	0x3cf68a0d	0.030095125
46	0x3ca42655	0.02003781
47	0x3c72db66	0.0148228165
48	0x3cbfbd54	0.023405708
49	0xbc838a6f	-0.016057221
50	0xbdca7edb	-0.09887477
51	0xbdcd1b06	-0.1001492
52	0xbb4ce972	-0.0031267074
53	0xbccdd080	-0.025123835
54	0x3d0cace1	0.034344558
55	0xbdf18bd4	-0.11794248
56	0x3aea0daa	0.0017856855
57	0xbc585fac	-0.013206404
58	0xbcd26c51	-0.025686415
59	0xbdb8c48f	-0.090218656
60	0xbdb04c85	-0.08608345
61	0xbd2d8112	-0.04235942
62	0xbd1c960f	-0.038229045
63	0x3d1953bc	0.03743337
64	0x3c37f2bb	0.011227305
65	0xbd459112	-0.048234053
66	0xbe15aa70	-0.14615798
67	0xbe554d07	-0.20830165
68	0x3cb32ff1	0.021873446
69	0x3e24e25c	0.16101974
70	0x3d73f5c8	0.059560567
71	0xbd742cc9	-0.059613023
72	0xbe166401	-0.14686586
73	0xbd919cb0	-0.07109964
74	0x3cd571d1	0.026055248
75	0x3c467c5d	0.012114611
76	0xbd2bb1b3	-0.041917514
77	0xbbeae427	-0.007168311
78	0x3cb9e3bb	0.022691598
79	0x3db4c337	0.08826297
80	0xbd5907e5	-0.052986044
81	0xbd2eeaf3	-0.042704534
82	0xbcda629c	-0.026658349
83	0xbc73527f	-0.014851212
84	0xbd1d59b4	-0.038415626
85	0xbd8e2aa1	-0.069417246
86	0xbdd4bb19	-0.103872485
87	0xbd79bbbf	-0.060970064
88	0x3cf00010	0.029296905
89	0xbc72f788	-0.014829524
90	0x3c01f703	0.007932427
91	0xbe298db4	-0.16557962
92	0xbe4b9062	-0.19879296
93	0xbd42518b	-0.047441047
94	0x3de46092	0.11151232
95	0x3daecf67	0.085356526
96	0xbd6acdc8	-0.057325155
97	0xbdd5de60	-0.10442805
98	0xbd135746	-0.035971902
99	0x3cf0bb42	0.029386166
100	0xbce1c4a1	-0.02755958
101	0xbd4ff0fc	-0.05076693
102	0xbce0cceb	-0.027441463
103	0x3cdda868	0.027057841
104	0x3ccf06e3	0.025271839
105	0xbd73c748	-0.05951622
106	0xbd8ca45f	-0.06867289
107	0xbcbfdc49	-0.02342047
108	0x3cdf26a7	0.02724011
109	0xbd9120e5	-0.07086352
110	0x3d0c1e67	0.03420868
111	0xbdbca42e	-0.09211002
112	0xbdb4aa36	-0.08821528
113	0xbd801651	-0.062542565
114	0xbbcf3774	-0.006323749
115	0x3d81be8f	0.06335174
116	0xba15f43f	-0.00057202944
117	0xbcd9f3b0	-0.026605457
118	0xbc7d2727	-0.015451229
119	0x3d92253f	0.071360104
120	0x3b8f9780	0.004382074
121	0xbc9d08a1	-0.019169154
122	0x3c88c0f3	0.016693568
123	0x3bf52c77	0.0074821073
124	0x3d88218c	0.066470236
125	0x3d1b6fae	0.037948303
126	0x3ce78e28	0.028266028
127	0x3d0f6319	0.035006616
128	0x3c1c0791	0.009523288
129	0xbc856c66	-0.01628704
130	0x3daa6cd0	0.083215356
131	0xb95cf6c3	-0.00021072761
132	0xbd8c838d	-0.06861029
133	0xbd895529	-0.06705696
134	0xbd560a2d	-0.052255798
135	0x3ccabd61	0.024748506
136	0xbc3edd00	-0.01164937
137	0xbd83a703	-0.06428339
138	0xbda7408b	-0.081666075
139	0xbc8e65d7	-0.017382545
140	0x3d60ea1c	0.054910764
141	0x3b28fad9	0.0025784282
142	0xba6d1d8f	-0.0009045237
143	0xbd409d78	-0.047025174
144	0xba5237e8	-0.0008019195
145	0x3d05d79a	0.032676317
146	0xbc970dbe	-0.01843917
147	0xbd16a2bb	-0.036776286
148	0x3c756e67	0.014979935
149	0x3bb2c0ab	0.0054550967
150	0x3c93b231	0.018029304
151	0xbcc22325	-0.023698399
152	0x3c57ff7b	0.01318347
153	0xbce363d8	-0.02775757
154	0x3cfa61f8	0.030564293
155	0xbd393562	-0.045216925
156	0xbdcdf733	-0.10056915
157	0xbdcff252	-0.10153641
158	0xbd03afa5	-0.03214993
159	0x3cbe6e9f	0.023246108
160	0xbbedf3d2	-0.0072617317
161	0xbdbe8123	-0.093019746
162	0xbdc481ee	-0.095950946
163	0xbce65605	-0.02811719
164	0x3d628672	0.055304
165	0x3c48a30d	0.012245906
166	0xbdd8a5de	-0.10578512
167	0xbcbe5a56	-0.023236435
168	0xbaea6ba0	-0.0017884858
169	0x3d5a41e3	0.05328549
170	0x3db9208d	0.09039412
171	0xbd4ce9bb	-0.05002759
172	0x3b9ecaa9	0.0048459363
173	0x3cade7b9	0.021228658
174	0x3d0b78da	0.0340508
175	0x3ca11c78	0.019666895
176	0x3c77a9e9	0.015116193
177	0x3d023bb0	0.031795204
178	0x3b938646	0.0045020906
179	0x3cf5abb9	0.02998911
180	0x3ce8b973	0.028408742
181	0xbd2d11a8	-0.042253166
182	0xbcf1a5fd	-0.029498095
183	0xbc3dde6c	-0.011588674
184	0x3d397f1d	0.04528724
185	0xbb9a664b	-0.0047119013
186	0xbdece289	-0.11566646
187	0xbcc11865	-0.023571203
188	0x3d7e042a	0.06201569
189	0x3dcc519e	0.09976505
190	0xbd17fc7d	-0.037106026
191	0xbdbc2e6d	-0.091885425
192	0xbd157949	-0.03649262
193	0x3da113c2	0.07865097
194	0x3d7e6fc2	0.0621183
195	0x3dbc9f7c	0.09210107
196	0x3d388ae2	0.045054324
197	0x3ce2d520	0.027689517
198	0x3ca2e66e	0.019885268
199	0xbcf3d2bb	-0.02976357
200	0x3d950698	0.07276648
201	0x3d6f1dd8	0.05837807
202	0x3d3d40d6	0.04620441
203	0x3b9e142c	0.004824182
204	0xbc8eb4d0	-0.017420202
205	0x3d8b643f	0.0680623
206	0xbc68b834	-0.014204074
207	0x3bec753d	0.0072161243
208	0xbcdfec7a	-0.02733444
209	0x3db07afd	0.08617208
210	0x3d860836	0.06544535
211	0xbd249f73	-0.040191125
212	0x3cc9263b	0.024554363
213	0x3c5f48e6	0.01362822
214	0x3de1c389	0.110236235
215	0xbcd1b192	-0.025597367
216	0xbd5b1a69	-0.053491984
217	0x3de3b063	0.111176275
218	0x3e00f7fd	0.125946
219	0x3c6e5bfa	0.014548296
220	0x3dc8a6e0	0.09797454
221	0x3d7d52f9	0.061846707
222	0x3d160951	0.03662998
223	0x3d89a5e9	0.06721098
224	0x3c9c1efd	0.019057745
225	0x3c96ff09	0.018432157
226	0x3d367805	0.044548053
227	0xbc16a872	-0.009195434
228	0xbd06a8ed	-0.032875944
229	0xbcecfbe6	-0.028928708
230	0x3cd67ae4	0.026181646
231	0xbd2c3d77	-0.042050805
232	0xbcd263e1	-0.025682392
233	0xbd47bdd3	-0.048765015
234	0x3d886fc8	0.066619456
235	0x3cca35a0	0.024683774
236	0xbdefe22f	-0.11713063
237	0xbd6e68ca	-0.058205403
238	0xbc2140cd	-0.00984211
239	0x3c8c17e9	0.017101245
240	0xbd5c1da6	-0.053739212
241	0xbdda1d2d	-0.10650096
242	0x3d6caf67	0.057784464
243	0x3d9763e7	0.07392102
244	0x3d9e650d	0.07734118
245	0x3a1bc8ee	0.00059427216
246	0xbd144194	-0.036195353
247	0xbc11fe40	-0.008910716
248	0x3d61e0a1	0.055145863
249	0x3cf6d506	0.030130874
250	0x3d08a360	0.03335893
251	0x3c097f43	0.008392158
252	0xbd5764b5	-0.052586276
253	0xbd55d297	-0.052202787
254	0xbd80b8be	-0.06285237
255	0xbda3616a	-0.07977565

conv2.bias f4 [8]
0	0x3c8a794b	0.01690354
1	0x3cbb8d36	0.022894483
2	0x3c9fd4da	0.019510675
3	0xbc9ef27d	-0.019402737
4	0x3c9ffb47	0.019528998
5	0x3c478f2c	0.012180131
6	0x3c580027	0.01318363
7	0xbb72e7e3	-0.0037064485

conv3.weight f4 [16, 8, 3, 3, 3]
0	0xbd626ae2	-0.055277713
1	0x3c3d8ed1	0.011569695
2	0x3d19c827	0.037544396
3	0x3d60ec14	0.05491264
4	0xbbde5e41	-0.0067861383
5	0x3d3a5829	0.045494232
6	0x3c1142af	0.008865996
7	0x3d31dbc2	0.043422468
8	0x3b3df0b7	0.0028982589
9	0x3dd15b93	0.102225445
10	0x3dfc5c13	0.12322249
11	0x3e01c708	0.1267358
12	0xbd24fb6d	-0.04027884
13	0x3d9434c1	0.072366245
14	0x3d9a7040	0.07540941
15	0xbd17ec05	-0.03709032
16	0x3d1c92e6	0.03822603
17	0x3c69692e	0.014246268
18	0x3da4c58a	0.0804549
19	0xbcdaa9a9	-0.026692228
20	0x3d59d7eb	0.05318443
21	0xbb97a9f3	-0.004628414
22	0xbb4af4f2	-0.0030968753
23	0x3d24ea68	0.04026261
24	0x3d17ad7c	0.037030682
25	0x3dec7805	0.115463294
26	0x3d8b9fca	0.06817587
27	0xbd70709e	-0.05870115
28	0x3d3a078e	0.04541736
29	0xbd17863d	-0.036993254
30	0x3d4e3434	0.050342754
31	0x3d8f7304	0.07004359
32	0xbda9e859	-0.0829627
33	0x3ba48d9d	0.0050217644
34	0x3d1806df	0.037115928
35	0xbdbd7649	-0.09251077
36	0xbdc54bf5	-0.09633628
37	0x3b7c78e9	0.0038524217
38	0x3d2659ee	0.040613107
39	0xbd88281b	-0.066482745
40	0x3d52794e	0.051385216
41	0x3cfb41e5	0.03067107
42	0x3daed0f2	0.08535947
43	0x3d92f01d	0.07174704
44	0x3d61d72d	0.05513685
45	0xbdc20178	-0.094729364
46	0xbd291397	-0.041278448
47	0xbd27d304	-0.040972725
48	0x3d60da46	0.05489566
49	0x3c085405	0.008320813
50	0x3b44b67b	0.0030015993
51	0x3da3256e	0.079661235
52	0x3cfb0935	0.030644039
53	0x3c663e4d	0.01405294
54	0xbabf9508	-0.0014616558
55	0xbcf657ff	-0.030071257
56	0xbc8b720c	-0.017022155
57	0xbe31020e	-0.1728594
58	0xbc48b38b	-0.012249838
59	0xb9c354c4	-0.00037256454
60	0xbe3a1645	-0.18172558
61	0xbdb0a0c4	-0.086244136
62	0xbd957d77	-0.07299321
63	0x3ba21f17	0.004947554
64	0x3baff644	0.0053699333
65	0xbe0664b1	-0.13124348
66	0xbd8f75b6	-0.070048735
67	0xbd8c36a0	-0.068463564
68	0xbdba6bed	-0.091026165
69	0xbe645de3	-0.2230144
70	0xbe342ccd	-0.17595215
71	0xbd697c9b	-0.0570036
72	0x3d8537f1	0.065048106
73	0xbb8b5862	-0.0042524794
74	0xbd81e9d8	-0.0634343
75	0xbdb25460	-0.087074995
76	0x3c4481f4	0.011993874
77	0xbdbe492f	-0.092913024
78	0xbd8a97da	-0.06767245
79	0xbdb44b7c	-0.0880346
80	0xbe07e771	-0.13271882
81	0x3bd18f50	0.006395258
82	0x3ba9b3b8	0.005178895
83	0xbc8471c3	-0.016167527
84	0xbb92e8fb	-0.00448334
85	0x3e040655	0.1289304
86	0x3da65179	0.081210084
87	0x3d8a888c	0.067643255
88	0x3dc5b231	0.09653128
89	0x3ce692ae	0.028146114
90	0xbb9eaa5a	-0.004842085
91	0x3d309645	0.04311206
92	0xbcc93909	-0.02456333
93	0x3ae49aed	0.0017441191
94	0x3dd623ef	0.104560725
95	0x3da4dede	0.08050321
96	0x3c8dd52e	0.017313566
97	0x3defab23	0.117025636
98	0x3c78b48c	0.0151797645
99	0xbda760bb	-0.08172747
100	0x3cb000b6	0.021484714
101	0x3d559848	0.05214718
102	0xbe401dd2	-0.18761376
103	0x3c99e859	0.01878755
104	0xbcbd35d8	-0.023096964
105	0xbd86cf7f	-0.065825455
106	0xbaaae5b4	-0.0013038428
107	0xbd623a8f	-0.055231627
108	0xbd9994af	-0.07499062
109	0xbdb9197f	-0.09038066
110	0xbc4dde2b	-0.012565176
111	0xbd2e22f9	-0.04251382
112	0x3d141593	0.036153387
113	0x3d505150	0.050858796
114	0xbbbf921a	-0.005846274
115	0x3cbd3c2c	0.023099981
116	0x3dc1ba03	0.09459307
117	0x3c942784	0.018085249
118	0x3d8dffd7	0.06933563
119	0x3c572f44	0.013133828
120	0x3dba493a	0.09095998
121	0x3df78d67	0.12087517
122	0x3d86436f	0.06555831
123	0xbd230ddc	-0.03980814
124	0x3d3e1d90	0.04641491
125	0x3dd624ee	0.104562625
126	0x3d2cf813	0.04222877
127	0x3dc73c8f	0.097283475
128	0xbc530b58	-0.0128811225
129	0x3c79792b	0.015226643
130	0x3d994368	0.0748356
131	0x3cd0c037	0.02548228
132	0xbd46f368	-0.048571974
133	0xbd0c65e0	-0.034276843
134	0x3d45570b	0.048178714
135	0x3cd27480	0.025690317
136	0xbc70e7cb	-0.014703701
137	0xbe124c65	-0.14286955
138	0x3d3be30d	0.04587083
139	0x3cfb6ab2	0.030690525
140	0xbad92f19	-0.0016569822
141	0xbbbeb6e3	-0.0058201416
142	0x3d306c37	0.04307195
143	0x3e2b28d7	0.16714798
144	0xbc8352f2	-0.016030762
145	0x3c698b71	0.014254437
146	0xbe01d03a	-0.12677088
147	0xbcb89bd6	-0.022535246
148	0xbbf40db6	-0.0074479235
149	0x3d9a890f	0.07545673
150	0x3d80e2c2	0.062932506
151	0x3d3484b0	0.044071853
152	0x3dca6013	0.09881606
153	0x3bb6a474	0.0055738036
154	0xbdcecbea	-0.10097487
155	0xbda215c9	-0.079143114
156	0xbda6650c	-0.08124742
157	0xbc8aad9b	-0.016928485
158	0xbc6088dc	-0.013704505
159	0xbca7c3bb	-0.020479074
160	0xbd813c84	-0.063103706
161	0x3d13b349	0.03605965
162	0x3af3952b	0.0018583884
163	0xbd1f79b6	-0.038934432
164	0xbc1fdf95	-0.009757896
165	0xbce8d915	-0.028423825
166	0xbdc90d63	-0.098170064
167	0xbda6a9bb	-0.08137842
168	0xbb624ed9	-0.003453186
169	0xbd626a88	-0.055277377
170	0x3bb4b813	0.0055151074
171	0xbd1130ad	-0.03544681
172	0xbca860fb	-0.020554056
173	0xbdd81ec7	-0.10552745
174	0xbce37a19	-0.027768182
175	0xbc552eb0	-0.013011619
176	0xbdda525d	-0.10660241
177	0xbd84414b	-0.06457766
178	0x3c9be86b	0.019031724
179	0x3d6708a3	0.05640472
180	0xbc945043	-0.018104678
181	0xbd942180	-0.07232952
182	0xbe296d3b	-0.16545574
183	0xbd9644ad	-0.073373176
184	0xbdaf6e34	-0.085659415
185	0xbb0f82b6	-0.0021897978
186	0xbd3f4fea	-0.04670707
187	0x3cc940eb	0.024567088
188	0x3d73fd17	0.059567537
189	0xbdc887ab	-0.097915016
190	0xbd47ecaf	-0.048809703
191	0x3d72e84b	0.059303563
192	0x3dace7f1	0.08442677
193	0x3cea103e	0.028572198
194	0x3cb7cb35	0.022435764
195	0xbd013a86	-0.031549953
196	0x3d2dbecc	0.042418286
197	0x3d973a95	0.073842205
198	0x3d7cfbcc	0.06176357
199	0x3cd12c7a	0.025533903
200	0x3d896a23	0.06709697
201	0x3d25245e	0.040317886
202	0x3d8abda9	0.06774456
203	0x3d2d10ad	0.04225223
204	0x38c9282a	9.591908e-05
205	0x3d5702dd	0.052492965
206	0x3d935140	0.071932316
207	0x3d91473f	0.07093667
208	0x3d0747ca	0.033027448
209	0x3d368007	0.04455569
210	0x3a7329a7	0.0009275921
211	0x3d75b8ca	0.05999068
212	0x3d6c38ac	0.057671234
213	0xbca07708	-0.019588009
214	0xbc2ad135	-0.010425855
215	0xbd8ce2c0	-0.06879187
216	0xbd1c3b47	-0.03814247
217	0xbd46c041	-0.04852319
218	0xbcf2fd30	-0.029661745
219	0xbd664725	-0.056220192
220	0xbc4d32ac	-0.012524288
221	0xbcee73d1	-0.02910796
222	0xbdaed167	-0.08536034
223	0xbc8a94af	-0.016916601
224	0x3c06477a	0.008195752
225	0xbd2c956a	-0.04213468
226	0xbb5fdd0c	-0.0034158854
227	0xbcde5a48	-0.027142659
228	0xbcccff03	-0.025023943
229	0x3d6ac330	0.05731505
230	0x3d69f94c	0.057122514
231	0x3cf3eea2	0.029776875
232	0xbd7ee6e7	-0.062231924
233	0x3ca76955	0.020435968
234	0x3b7701b5	0.0037690226
235	0xbd8f64a3	-0.07001617
236	0x3d073bf4	0.03301616
237	0xbd2cb3c6	-0.042163633
238	0xbc352010	-0.011055008
239	0xbd9d88fb	-0.076921426
240	0xbc91c59b	-0.017794421
241	0xbbbfd2c6	-0.0058539836
242	0xbc8bf724	-0.01708562
243	0xbb8b6287	-0.0042536887
244	0xbda8cf78	-0.082426965
245	0x3c0afd2f	0.008483215
246	0xbd1f987f	-0.03896379
247	0xbd961da6	-0.07329874
248	0xbccd5719	-0.025065945
249	0x3d3107d7	0.043220367
250	0xbdaaeffe	-0.08346556
251	0xbda4e769	-0.080519505
252	0x3c99f1de	0.01879209
253	0xbd8afb8b	-0.06786259
254	0xbd3fd630	-0.046835124
255	0xbd3d700a	-0.046249427

conv3.bias f4 [16]
0	0x3cd144b3	0.025545454
1	0xbdbc3986	-0.09190659
2	0xbd79a619	-0.06094942
3	0x3cbfbb4a	0.023404736
4	0x3d31f73a	0.043448664
5	0x3cbfe76c	0.02342578
6	0x3d2ee783	0.042701256
7	0xbc957312	-0.018243346
8	0xbccf7465	-0.025324056
9	0xbbab9876	-0.0052366806
10	0x3d16126e	0.03663867
11	0x3c307d1a	0.010772014
12	0x3c9433ea	0.01809116
13	0x3c90fee2	0.017699663
14	0xbca6062f	-0.02026662
15	0x3c803acc	0.015653037

conv4.weight f4 [32, 16, 3, 3, 3]
0	0xbc876eae	-0.016532268
1	0xbaa75833	-0.0012767374
2	0x3c9809b6	0.018559318
3	0xbd7571f4	-0.059923127
4	0xbd4dd7a9	-0.050254498
5	0x3ca6310c	0.02028706
6	0xbd2505e1	-0.04028881
7	0x3c1b88d7	0.009493074
8	0x3d935bd7	0.071952514
9	0xbcb15d34	-0.021650888
10	0x3d1a70ea	0.03770534
11	0x3ab4d9a7	0.0013797776
12	0xbd9dfe7a	-0.07714553
13	0xbd6db966	-0.058038138
14	0xbc19e23f	-0.00939232
15	0x3cb17386	0.021661531
16	0x3ce34786	0.027744066
17	0x3da8e68c	0.08247098
18	0xbd5ea15f	-0.054353114
19	0xbd9947a8	-0.074843705
20	0xbd155a10	-0.036462843
21	0xbd4e1efc	-0.050322518
22	0xbd430e6d	-0.04762118
23	0xbd3003fd	-0.042972554
24	0x3cff4c66	0.03116436
25	0x3d5963cf	0.0530737
26	0x3baad822	0.0052137533
27	0xbcbb6a16	-0.022877734
28	0xbc872dfd	-0.016501421
29	0x3d74ead9	0.05979428
30	0x3d131ea2	0.035917886
31	0x3d2b3762	0.041800864
32	0xb9c3fce1	-0.00037381708
33	0xbcd6008d	-0.02612331
34	0x3d3a6705	0.045508403
35	0x3baea1d7	0.0053293514
36	0x3d12b876	0.035820447
37	0x3c9e7a88	0.019345537
38	0x3c3d13b6	0.011540344
39	0x3d08a463	0.033359896
40	0xbcbae2e2	-0.022813264
41	0xbd08982e	-0.033348255
42	0xbc799b08	-0.015234716
43	0x3d42e013	0.047576975
44	0x3d00de6a	0.03146211
45	0x3cc22f94	0.023704328
46	0xbd71a2ad	-0.05899303
47	0xbcd2cca7	-0.025732351
48	0x3d285148	0.04109314
49	0xbbd35c13	-0.006450185
50	0xbd549aab	-0.051905315
51	0xbc8b605c	-0.017013721
52	0x3d6e3a79	0.058161233
53	0x3d9812cb	0.074254595
54	0x3c834eb7	0.016028745
55	0x3d2355fc	0.039876923
56	0x3cda9867	0.026684
57	0x3b5a350e	0.0033295783
58	0xbd12097e	-0.035653584
59	0xbcd4bea2	-0.025969807
60	0x3ca3d5ac	0.019999348
61	0xbcb78db1	-0.02240643
62	0xbd373021	-0.044723634
63	0xbaa43c97	-0.0012530264
64	0x3c2f2191	0.010689155
65	0x3c945245	0.018105635
66	0xbd24c432	-0.04022617
67	0x3ce26698	0.027636811
68	0xbba1d62f	-0.0049388628
69	0xbd1aaa00	-0.03775978
70	0x3a98435e	0.0011616757
71	0xbd0d1c2e	-0.034450702
72	0x3cc42c83	0.023947006
73	0x3d0cf350	0.03441173
74	0xba1245df	-0.00055798696
75	0x3d07f9e3	0.033197295
76	0x3d4c2dc1	0.04984832
77	0xbd4e67ad	-0.05039184
78	0xbbe4b11a	-0.00697912
79	0xbce1d22a	-0.027566034
80	0x3bbfb3b1	0.0058502783
81	0x3c06aa67	0.008219338
82	0x3c0be5a0	0.008538634
83	0x3b3bcabe	0.002865478
84	0xbd9adbcf	-0.075614564
85	0xbdc4fa10	-0.09618008
86	0xbd03f4e6	-0.032215975
87	0xbda2ec04	-0.07955173
88	0xbd8bf2dd	-0.06833432
89	0x3bc109cb	0.00589106
90	0xbcdc92a6	-0.026925396
91	0x3d4867a3	0.04892696
92	0xbcacc86a	-0.021091659
93	0xbda45109	-0.08023269
94	0xbc1d65e6	-0.009606814
95	0xbd66f300	-0.056384087
96	0xbca07163	-0.019585317
97	0xbd4a641b	-0.049411874
98	0xbd19da46	-0.037561677
99	0xbcf5b82a	-0.029995043
100	0xbc833773	-0.016017651
101	0xbcdda3e9	-0.027055698
102	0xbcd08769	-0.025455194
103	0xbc859d69	-0.01631041
104	0xbbf3c57e	-0.0074393144
105	0x3b174940	0.0023084432
106	0xbd66b39d	-0.056323636
107	0xbd925d3d	-0.0714669
108	0xbc0f3fc4	-0.00874323
109	0xbc07ec86	-0.008296138
110	0x3d8f28c3	0.069901966
111	0xbdacee5f	-0.08443903
112	0x3ce6b2ef	0.028161494
113	0xbd0ee060	-0.03488195
114	0xbd2fabfa	-0.04288862
115	0xbc6cc682	-0.014451625
116	0x3d4fdb32	0.05074615
117	0xba255777	-0.0006307284
118	0x3d0e5ed2	0.034758396
119	0x3d348d82	0.044080265
120	0xbd8685c8	-0.065684855
121	0xbd1c9d36	-0.038235866
122	0x3baab3e1	0.0052094315
123	0xbcf98f71	-0.030463906
124	0xbd0ddff3	-0.034637403
125	0xbac79267	-0.0015226126
126	0xbd336059	-0.043793056
127	0xbc54197f	-0.012945532
128	0x3d56a8e0	0.052407146
129	0xbe0b8882	-0.13626292
130	0xbdb066d8	-0.08613366
131	0x3bf92117	0.0076028216
132	0xbc02f07d	-0.007991907
133	0x39d5b56f	0.00040761704
134	0xbcf1272f	-0.02943763
135	0xbc8946f8	-0.016757473
136	0x3cc2ca82	0.023778204
137	0x3d4fa94d	0.050698567
138	0x3d59b53a	0.053151347
139	0x3d58bbd6	0.05291351
140	0x3d626f1b	0.05528174
141	0x3bd7884c	0.006577527
142	0x3ce0c324	0.0274368
143	0x3d6adc35	0.057338912
144	0x3c29afc2	0.010356845
145	0x3c2134c3	0.0098392395
146	0x3cd00b1a	0.025395919
147	0x3cfbe565	0.030749032
148	0x3d9fc8eb	0.07801994
149	0xbb78c114	-0.003795688
150	0x3c2ab27a	0.010418529
151	0x3d39146e	0.0451855
152	0xbd067922	-0.032830365
153	0x3b638cd2	0.0034721387
154	0x3c10bacb	0.008833597
155	0x3d707da6	0.058713578
156	0x3d2a4cac	0.041577026
157	0xbb8dae08	-0.0043237247
158	0x3d07f390	0.033191264
159	0x3b843906	0.004035118
160	0xbcbd2b45	-0.023091922
161	0x3c9fdf95	0.019515792
162	0xbcd0d2bc	-0.025491111
163	0x3d1344dd	0.035954345
164	0x3d3f08dc	0.04663931
165	0xbcc5ee21	-0.0241614
166	0x3bfffd0e	0.007812149
167	0xbc41c67b	-0.011827107
168	0x3cbdf952	0.023190174
169	0x3c381ad5	0.011236866
170	0x3d4ab757	0.049491253
171	0xbc3ce8e8	-0.011530139
172	0x3c06f1d0	0.0082363635
173	0x3cd3b1ca	0.025841612
174	0xbcc789b8	-0.024357662
175	0xbd2a09ce	-0.041513257
176	0x3d2b2368	0.041781813
177	0x3d1b28e2	0.037880786
178	0x3d9741a3	0.07385566
179	0x3d2c52f9	0.042071316
180	0xbcc8be74	-0.024504878
181	0x3b7570e5	0.0037451324
182	0xbd5f8c95	-0.05457743
183	0xbcc12825	-0.023578713
184	0xbd7109f0	-0.058847368
185	0xbac06d5f	-0.0014681033
186	0x3bd67806	0.0065450696
187	0x3db16732	0.08662261
188	0x3d398432	0.045292087
189	0xbcd36506	-0.025805008
190	0xbbd3b9b3	-0.006461346
191	0xbd86b378	-0.065772
192	0xbd261707	-0.040549304
193	0xbd42b815	-0.047538836
194	0xbc1717d9	-0.009221994
195	0xbd6cf620	-0.05785191
196	0xbdb61d32	-0.08892287
197	0xbb687c37	-0.0035474428
198	0x3c8732b8	0.016503677
199	0xbc021aea	-0.007940987
200	0xbd5bb8de	-0.0536431
201	0xbc97fb1a	-0.018552352
202	0xbd3e8ae9	-0.046519194
203	0xbd6aa79d	-0.057288755
204	0xbc9f11be	-0.01941764
205	0xbd50a5e6	-0.050939463
206	0x3cb595a0	0.022166073
207	0xbd18be07	-0.0372906
208	0xbdbd4c39	-0.09243054
209	0xbdc5dc4a	-0.096611574
210	0xbcbcfaac	-0.023068748
211	0xbd35cc53	-0.044384312
212	0x3be1d627	0.006891984
213	0xbd433887	-0.04766133
214	0x3d012171	0.031526033
215	0x3c8e1861	0.01734561
216	0x3bfb90b4	0.007677162
217	0x3ccb7493	0.02483586
218	0x3d2d0d64	0.0422491
219	0x3d80cc1b	0.0628893
220	0x3d837c69	0.06420214
221	0x3be1f6e4	0.0068958867
222	0xbcf9d05b	-0.03049486
223	0x3cd6491d	0.02615791
224	0xbbef6abd	-0.0073064254
225	0x3c47f89d	0.01220527
226	0x3cbba649	0.02290644
227	0xbbf3fde9	-0.00744604
228	0x3d9107c1	0.07081557
229	0x3ba2f9fe	0.004973649
230	0x3b875bb4	0.004130805
231	0x3d70518b	0.058671515
232	0x3ccc9c5e	0.024976905
233	0x3c9f0c3d	0.019415015
234	0x3d6400e2	0.055664904
235	0xbca56f22	-0.020194594
236	0x3d15355a	0.036427833
237	0x3d206325	0.03915705
238	0x3c65ca1f	0.01402524
239	0x3c1eb95d	0.009687749
240	0x3c0517f0	0.008123383
241	0xbb1c1e1c	-0.0023821658
242	0x3b0d8e71	0.0021599794
243	0xbe0a729e	-0.13520285
244	0xbdfdd57a	-0.12394233
245	0x3cfbe93f	0.030750869
246	0xbe1397e4	-0.1441341
247	0xbdf7251f	-0.12067627
248	0x3cb61cd5	0.022230545
249	0xbc438979	-0.0119346315
250	0xbbce43bc	-0.0062946957
251	0x3d47e013	0.04879768
252	0xbde06f14	-0.109586865
253	0xbd49a8cd	-0.049233247
254	0x3cd236a1	0.025660815
255	0xbd6765cf	-0.056493577

conv4.bias f4 [32]
0	0xbb271864	-0.0025496716
1	0x3ca8deee	0.020614114
2	0xbd7702c8	-0.060305387
3	0x3cb01d21	0.021498265
4	0xbc42fb43	-0.011900726
5	0xbd504df5	-0.050855596
6	0x3bfca345	0.007709893
7	0x3d3bd5ca	0.045858182
8	0xbd219e87	-0.039457824
9	0xba53543b	-0.00080615625
10	0xbd25f0ec	-0.040512964
11	0x3c2d2256	0.010567268
12	0xbd1f00f0	-0.038819253
13	0xbd03494b	-0.03205232
14	0xbd14b827	-0.036308434
15	0xbd0798b7	-0.033104625
16	0x3cbfd486	0.023416769
17	0xbcf67a31	-0.030087562
18	0xbbe4d472	-0.0069833333
19	0x3bd6bd31	0.006553315
20	0xbd027d03	-0.0318575
21	0x3d13e5dd	0.036107887
22	0x3d12d15a	0.035844184
23	0x3b8172dd	0.0039504603
24	0xbc4bf012	-0.012447374
25	0x3c4434f9	0.01197552
26	0x3d09de60	0.03365934
27	0xbd37b299	-0.04484806
28	0xbcc55bea	-0.02409168
29	0x3d3677d9	0.04454789
30	0xbd05b9a0	-0.03264773
31	0x3b21ca33	0.002468717

conv5.weight f4 [64, 32, 2, 2, 2]
0	0x3c1c9d3f	0.009558975
1	0x3c82b2df	0.015954433
2	0x3d6ee989	0.058328185
3	0x3e005e28	0.12535918
4	0x3d9d5481	0.076821335
5	0x3dcf27f2	0.10115041
6	0x3dbb5ce4	0.09148577
7	0x3de109fb	0.10988232
8	0xbd7bd212	-0.061479636
9	0x3d46a1c1	0.048494104
10	0x3d3472a4	0.044054642
11	0xbd74301d	-0.059616197
12	0xbd4cab22	-0.049967892
13	0xbd8dad97	-0.06917875
14	0x3d03c3e5	0.03216924
15	0x3c76cd46	0.015063589
16	0xbc84ddf0	-0.01621911
17	0x3875c712	5.859795e-05
18	0x3cfef5ee	0.031123128
19	0x3d939dc1	0.072078235
20	0xbd6db557	-0.058034267
21	0xba8efb80	-0.0010908693
22	0xbd92b319	-0.071630664
23	0xbcb993ef	-0.022653548
24	0xbd043fe7	-0.032287505
25	0xbcb670d2	-0.022270594
26	0xbd23e726	-0.040015362
27	0xbcda4058	-0.02664201
28	0x3c6300fb	0.013855214
29	0x3c4ac0fa	0.012375111
30	0xbd20ef3c	-0.03929065
31	0xbc495cfa	-0.012290234
32	0xbcc69d1a	-0.024244834
33	0xbd6d820b	-0.057985347
34	0x3a6cdc6c	0.0009035531
35	0xbd437eb5	-0.04772826
36	0x3ca80841	0.020511748
37	0xbd67a1a3	-0.056550633
38	0xbd33eed9	-0.043928955
39	0xbc5fd216	-0.013660928
40	0x3d35f2b6	0.04442092
41	0xbc9adb69	-0.018903451
42	0xbcc37d93	-0.02386359
43	0x3d08b0c1	0.03337169
44	0x3c880b0f	0.016606836
45	0xbcae526c	-0.021279536
46	0xbd0dbfb7	-0.03460666
47	0x3d6355af	0.055501636
48	0xbd27c4fc	-0.040959343
49	0x3d069e29	0.032865677
50	0xbaac8294	-0.0013161474
51	0xb9d36070	-0.00040316908
52	0xbd53f05b	-0.051742893
53	0xbd0d4c21	-0.03449643
54	0x3c86dcc1	0.016462686
55	0x3c8ae6ff	0.01695585
56	0xbd356171	-0.04428238
57	0x3d46294c	0.048379228
58	0x3b597594	0.0033181654
59	0xbc96bded	-0.01840111
60	0x3d22030d	0.03955369
61	0xbd912ade	-0.070882544
62	0xbc30b038	-0.010784201
63	0x3d785bf9	0.060634587
64	0x3e2ecc10	0.17070031
65	0x3e10e9a1	0.14151622
66	0x3d56c56d	0.052434374
67	0x3e14f0c8	0.14544976
68	0x3cf3e787	0.029773487
69	0x3e16cf3a	0.14727488
70	0x3d896461	0.06708599
71	0x3ca72f61	0.020408334
72	0x3ce55ea2	0.027999226
73	0x3d8cb67d	0.068707444
74	0xbc7b9a41	-0.015356601
75	0xbcb2fbf2	-0.021848653
76	0xb9617fd7	-0.00021505296
77	0x3a99c152	0.0011730588
78	0xbd0c349e	-0.034229867
79	0x3d58303e	0.052780382
80	0xbd77ea33	-0.060526084
81	0xbd225c55	-0.039638836
82	0x3d627a17	0.055292215
83	0x3d5f4dea	0.054517664
84	0xbc0e20ae	-0.008674784
85	0xbd4bee13	-0.049787592
86	0xbc6bf087	-0.014400608
87	0x3d605809	0.054771457
88	0xbc9dde50	-0.019271046
89	0x3c2b2b90	0.010447398
90	0xbd20b0cd	-0.03923111
91	0x3c0a8ea7	0.0084568625
92	0xbd027029	-0.031845246
93	0x3cb94c18	0.022619292
94	0x3d1b26ce	0.037878804
95	0xbd0c68c9	-0.03427962
96	0x3d8afe7f	0.067868225
97	0x3d6758e6	0.056481265
98	0xbd008dbb	-0.031385165
99	0xbc60edcc	-0.01372857
100	0x3d0335f0	0.03203386
101	0x3cea6a7a	0.028615225
102	0xbd4d901d	-0.050186265
103	0x3d6d91f5	0.058000524
104	0x3d01315a	0.031541206
105	0x3c670514	0.014100332
106	0xbcb40ba5	-0.021978209
107	0x3d60e9e5	0.05491056
108	0x3d94f8f6	0.07274048
109	0xbd004d29	-0.031323586
110	0xbcb9fdfc	-0.022704117
111	0x3c8ba26c	0.017045222
112	0x3d014f1f	0.031569596
113	0xbd73c3dd	-0.05951296
114	0xbd903b7a	-0.07042594
115	0x3ccc6186	0.024948847
116	0xbd7464a7	-0.059666302
117	0x3d746793	0.05966909
118	0xbd043311	-0.032275263
119	0xbd521606	-0.051290534
120	0x3b033956	0.0020023189
121	0x394c6f42	0.00019496403
122	0x3c91f93d	0.017819041
123	0x3d6a6c96	0.057232462
124	0x3b12878e	0.002235863
125	0x3cd05d4e	0.025435116
126	0xbaa90930	-0.0012896415
127	0x3d561c6d	0.052273203
128	0x3cd1b06b	0.025596818
129	0xbd27c327	-0.040957596
130	0x3c20c342	0.009812178
131	0x3d9f74d5	0.07785956
132	0x3c7668ed	0.015039665
133	0x3cc2c4bf	0.023775456
134	0x3da1049d	0.07862208
135	0x3daac1a2	0.08337714
136	0xbde04875	-0.1095132
137	0xbdd46eb8	-0.103726804
138	0xbd8cdc97	-0.06878012
139	0x3cc01398	0.023446843
140	0xbd0374ea	-0.03209392
141	0xbd3f8136	-0.046754085
142	0xbdc3535b	-0.09537383
143	0xbd426190	-0.047456324
144	0x3ccfc942	0.025364522
145	0x3c43c196	0.01194801
146	0xbd69a105	-0.057038326
147	0xbd658c2e	-0.05604189
148	0xbcf7d653	-0.030253565
149	0xbc36b893	-0.011152404
150	0xbc927a12	-0.017880473
151	0xbbfd5f72	-0.0077323252
152	0x3cd4bc55	0.02596871
153	0x3c262078	0.010139577
154	0x3cfa5335	0.030557254
155	0xbc5cc01c	-0.013473537
156	0xbc61f0fd	-0.013790366
157	0x3d542529	0.05179325
158	0x3cd8968b	0.026438972
159	0x3db2a96a	0.087237194
160	0xbc7bb7e3	-0.015363666
161	0x3c5070e4	0.012722228
162	0xbd84af22	-0.064787164
163	0xbd7fe33f	-0.06247258
164	0x3ce74f55	0.02823607
165	0x3d3a75a6	0.045522355
166	0xb9fc61d8	-0.00048138085
167	0xbd122a43	-0.035684835
168	0xbcd3c2e3	-0.025849765
169	0xbcd8db9f	-0.026471911
170	0xbd8a0725	-0.06739644
171	0xbc569fa6	-0.013099587
172	0xbcbfffca	-0.0234374
173	0x3cc6463b	0.02420341
174	0x3c4ef886	0.012632495
175	0x3ce0d164	0.027443595
176	0x3cd54e5e	0.026038345
177	0x3d8d337d	0.06894586
178	0x3c1fb8d2	0.009748654
179	0xbbd93d6f	-0.006629638
180	0xbc59ce4f	-0.013293817
181	0xbcef35d2	-0.029200468
182	0x3c9152ea	0.017739732
183	0xbd6a51b1	-0.057206813
184	0xbdab54b7	-0.083657674
185	0x3d798931	0.06092185
186	0x3d921a6d	0.071339466
187	0x3d3da947	0.046304014
188	0xbca53988	-0.020169035
189	0x3d84f5c1	0.06492186
190	0x3c3dd51d	0.011586455
191	0xbd03ff89	-0.03222612
192	0x3e0e2b70	0.13883758
193	0x3dbeb3e5	0.09311656
194	0x3da5fcdf	0.08104872
195	0x3dcb07b1	0.099135764
196	0xbc8c53e4	-0.017129846
197	0x3de9e441	0.11420489
198	0xbae3b539	-0.0017372734
199	0x3dbd4154	0.09240976
200	0xbc47c84e	-0.012193752
201	0xbbabe64d	-0.00524596
202	0xbd003121	-0.031296853
203	0xbcb5de87	-0.022200836
204	0xbcdf4ba3	-0.027257746
205	0xbd90b2e5	-0.070653714
206	0x3cd9d748	0.026591912
207	0xbdaacd15	-0.083398975
208	0x3da7f7fc	0.08201596
209	0x3daf0db3	0.08547535
210	0x3d4b010a	0.049561538
211	0x3dd69e33	0.10479393
212	0x3db7a366	0.08966713
213	0x3cb25f9b	0.021774104
214	0x3db14d7b	0.08657356
215	0x3d811c36	0.06304209
216	0x3d0ea97a	0.034829594
217	0x3d7a5de1	0.061124686
218	0x3d221170	0.03956741
219	0x3d746880	0.05966997
220	0x3c194fb0	0.009357378
221	0xbd3066a6	-0.043066643
222	0x3ce7f598	0.02831535
223	0xbcc89168	-0.024483398
224	0x3d904f68	0.070463955
225	0x3ca0b0a9	0.019615488
226	0xbb8c85b7	-0.004288401
227	0xbd4515c4	-0.04811646
228	0xba2ce240	-0.0006594993
229	0x3cf2424f	0.029572634
230	0xbd9b7764	-0.07591131
231	0x3b678faf	0.0035333445
232	0xbd3fcdd2	-0.046827145
233	0xbc83ccfe	-0.016088959
234	0x3d80fadf	0.0629785
235	0x3cb043a1	0.021516623
236	0x3d780e9f	0.06056082
237	0x3d80873a	0.062757924
238	0x3d87c690	0.0662967
239	0x3d694e80	0.05695963
240	0xbd302803	-0.04300691
241	0x3d523f77	0.051330056
242	0xbd9f2b4d	-0.07771931
243	0x3d38b807	0.045097377
244	0xbdb15489	-0.08658702
245	0x3d229478	0.039692372
246	0xbdcdcb99	-0.10048599
247	0xbbde2f85	-0.006780567
248	0x3d942a9b	0.07234689
249	0x3d2184d8	0.03943333
250	0x3daae027	0.08343535
251	0x3dad68ff	0.08467292
252	0x3d229c01	0.03969956
253	0x3ddf2175	0.10895053
254	0x3d1e696a	0.03867475
255	0x3cd14db6	0.02554975

conv5.bias f4 [64]
0	0x3cdfd854	0.027324833
1	0x3d774b02	0.060374267
2	0x3d109082	0.035294063
3	0xbd53bf60	-0.05169618
4	0xbbf6feee	-0.007537714
5	0x3d88a2fa	0.0667171
6	0x3bb0daa1	0.0053971563
7	0x3d85201c	0.06500265
8	0xbd731f45	-0.059355993
9	0x3c7ce2af	0.015434905
10	0xbc6e7062	-0.014553161
11	0xbd5df195	-0.05418547
12	0x3d22110a	0.03956703
13	0xbc90811c	-0.01763969
14	0x3d8e6281	0.06952382
15	0xbc3a022b	-0.011353056
16	0x3d07c61d	0.03314792
17	0x3d44aabd	0.04801439
18	0xbc8e2a6c	-0.017354213
19	0x3cec695e	0.028858837
20	0x3b6d211a	0.003618306
21	0x3d41987c	0.04726456
22	0x3d257b11	0.04040057
23	0xbcdb8374	-0.02679608
24	0x3c850b5f	0.016240774
25	0x3d53782a	0.05162827
26	0xbb2029cc	-0.0024438975
27	0x3d1bf7b8	0.03807804
28	0x3cc3d069	0.023903089
29	0xbc0021e8	-0.007820584
30	0x3ca2e5a2	0.019884888
31	0xbb94feab	-0.0045469604
32	0xbcd8d0f0	-0.026466817
33	0x3d5a7b73	0.053340387
34	0xbd2a593b	-0.041589003
35	0xbd3fa940	-0.04679227
36	0xbd0ede34	-0.03487988
37	0xbbca4901	-0.0061732535
38	0x3d05fd59	0.032712314
39	0x3cf14b21	0.02945477
40	0xbcffaa7c	-0.031209223
41	0xbc7bd92c	-0.015371602
42	0x3d107f22	0.035277493
43	0xbc8198ca	-0.015819926
44	0x3d285ab5	0.04110213
45	0xbb5a0ffc	-0.0033273688
46	0xbd241a34	-0.04006405
47	0x3a7c2d4e	0.0009619788
48	0x3d1452e0	0.03621185
49	0xbd539db2	-0.05166406
50	0xbd674971	-0.056466524
51	0x3d9d2077	0.07672208
52	0x3d299b86	0.041408084
53	0x3d3aaf7a	0.045577504
54	0xbc1d1dc7	-0.009589619
55	0x3c98071e	0.018558081
56	0x3d525e79	0.051359627
57	0x3d857716	0.065168545
58	0xbd07c613	-0.033147883
59	0x3ceb4ad6	0.028722208
60	0xbd5098b5	-0.050926883
61	0xbd5b100a	-0.053482093
62	0xbcf10aec	-0.029424153
63	0x3c2d3b36	0.010573199

linear1.weight f4 [128, 512]
0	0xbd085197	-0.033280935
1	0xbd8d5ae7	-0.06902104
2	0xbb78a174	-0.003793803
3	0xbc9896f5	-0.01862667
4	0xb9d3d819	-0.0004040606
5	0xbd257b41	-0.040400747
6	0xbcc704f0	-0.024294347
7	0xbd63342c	-0.055469677
8	0xbd6de297	-0.05807742
9	0xbd94001f	-0.072265856
10	0xbc0d9ef4	-0.008643854
11	0xbd9c1937	-0.07621997
12	0xbce909df	-0.02844709
13	0xbad14a9a	-0.0015967668
14	0x3d08d669	0.033407602
15	0xbd0c5410	-0.034259856
16	0xbde849f8	-0.113422334
17	0xbdc55241	-0.09634829
18	0xbaa8d9e4	-0.0012882319
19	0xbd6f2b79	-0.058391068
20	0xbd944898	-0.07240409
21	0xbdccd569	-0.10001642
22	0xbd7ec151	-0.06219608
23	0xbc9779e5	-0.018490741
24	0x3cff9d46	0.031202924
25	0x3d0907c8	0.033454686
26	0x3c9904f4	0.01867912
27	0x3d0723ee	0.03299325
28	0xbb764827	-0.0037579627
29	0xbc171f69	-0.009223797
30	0xbd047cb2	-0.03234548
31	0xbca8c4b3	-0.020601606
32	0x3db5fa97	0.08885687
33	0x3d8ae8a7	0.06782656
34	0xbc437259	-0.011929118
35	0x3c64099e	0.013918309
36	0x3de1c6cd	0.11024246
37	0x3dea528e	0.11441527
38	0x3d0cad79	0.034345124
39	0x3dae97bf	0.08525037
40	0xbdcbf9c0	-0.099597454
41	0xbda6eb54	-0.08150354
42	0xbd864c76	-0.065575525
43	0xbd9b6218	-0.07587069
44	0xbda168e3	-0.07881334
45	0xbd9547c1	-0.072890766
46	0xbd5eb796	-0.0543743
47	0xbc764b06	-0.015032535
48	0x3bb61d14	0.0055576656
49	0xbbbcde25	-0.0057637864
50	0x3d5625c3	0.052282106
51	0xbd18554b	-0.037190717
52	0xbc9afbd9	-0.018918918
53	0xbd9ade42	-0.075619236
54	0x3d3661b4	0.04452677
55	0x3c5eaf11	0.013591544
56	0xbd4c52b3	-0.049883556
57	0xbd3aca0e	-0.04560285
58	0x3c8c0fea	0.017097432
59	0x3c4e064d	0.012574744
60	0x3cb2a267	0.021805955
61	0xba3a7d72	-0.000711403
62	0x3cfb525d	0.030678922
63	0x3c8732c8	0.016503707
64	0xbd0c71b4	-0.034288123
65	0xbc0ce4fc	-0.008599516
66	0xbcd4d312	-0.025979552
67	0xbc479a9d	-0.012182859
68	0xbcdd17d8	-0.026988909
69	0x3cf50312	0.02990869
70	0xbd52ffe0	-0.051513553
71	0x3cbf4031	0.023346039
72	0x3daa8d98	0.08327788
73	0x3d22d41c	0.039753065
74	0x3c45f599	0.012082481
75	0x3dbdacf0	0.09261501
76	0x3cba59a4	0.022747822
77	0x3ce08875	0.027408818
78	0x3c85ca6d	0.016331876
79	0x3dc4552c	0.09586558
80	0x3ccc52ab	0.024941763
81	0x3cc2d5bd	0.023783559
82	0x3c3661f7	0.011131755
83	0x3d994b46	0.074850604
84	0x3d9db5f8	0.077007234
85	0x3db8384e	0.08995114
86	0x3be7bea4	0.0070722867
87	0x3d80ec5e	0.062950835
88	0x3ccceab8	0.025014266
89	0x3c054521	0.008134157
90	0xbd33f3d2	-0.043933697
91	0x3cf37de2	0.029723112
92	0xbd59d2e7	-0.053179648
93	0xbc9183df	-0.017763076
94	0x3bcb6123	0.006206648
95	0x3b263ab0	0.002536457
96	0xbd1bf7b1	-0.038078014
97	0xbd8af892	-0.06785692
98	0xbd8230f2	-0.06356992
99	0xbd5f90e4	-0.054581538
100	0xbcaec2dd	-0.021333152
101	0x3b626070	0.0034542345
102	0xbd371437	-0.044697013
103	0x3c74550a	0.014912853
104	0xbdf175e8	-0.11790067
105	0xbdda2f50	-0.106535554
106	0xbda68a57	-0.08131855
107	0xbc9c4aa3	-0.019078558
108	0xbdbb41d1	-0.09143413
109	0xbd9300ae	-0.07177864
110	0xbde63f76	-0.11242573
111	0xbdd25590	-0.10270226
112	0x3daf22e0	0.08551574
113	0x3de87af9	0.1135158
114	0x3d1fa2c4	0.038973585
115	0x3d5817c1	0.05275703
116	0x3d79677f	0.060889717
117	0x3d86db2a	0.06584771
118	0x3dd5b313	0.10434546
119	0x3d480c17	0.048839655
120	0xbcef3329	-0.0291992
121	0x3ceeda8a	0.029156942
122	0xbd1d2f2e	-0.038375072
123	0xbcb0dc5b	-0.021589449
124	0xbcd8c360	-0.02646035
125	0xbceca475	-0.028887013
126	0x3bbb6c82	0.0057197222
127	0xbb86ce4d	-0.0041139484
128	0xbd68bfcb	-0.056823533
129	0xbdd3c163	-0.1033962
130	0xbd2f7d8a	-0.042844333
131	0xbd434446	-0.047672532
132	0x3d1a383a	0.037651278
133	0xbcdb698c	-0.026783727
134	0xbd3b322f	-0.045702156
135	0xbd616d1f	-0.055035707
136	0xbd6b1d94	-0.057401255
137	0xbd806fd5	-0.0627133
138	0xbc73401b	-0.014846827
139	0xbd0a8698	-0.033819765
140	0xbd56742a	-0.052356876
141	0xbd8a4f6a	-0.06753428
142	0x3c1397f0	0.009008393
143	0xbce1c0b4	-0.027557708
144	0xbcef9a86	-0.029248487
145	0x3ce54f4a	0.02799191
146	0xbd3b8850	-0.045784295
147	0x3ce209b3	0.027592516
148	0x3cb997e1	0.02265543
149	0x3a8bc492	0.0010663441
150	0xbd133df4	-0.035947755
151	0xbd1dfc30	-0.038570583
152	0xbd977a8c	-0.07396421
153	0xbd9e2cc1	-0.0772338
154	0xbd2814d9	-0.041035507
155	0xbd3172ac	-0.04332225
156	0xbbb299a7	-0.0054504457
157	0xb86052fe	-5.3483054e-05
158	0x3bc21684	0.005923094
159	0x3c973906	0.018459808
160	0xbdb6e36e	-0.089300975
161	0xbd30b8a8	-0.043144852
162	0xbc44ed8e	-0.012019528
163	0xbd889b74	-0.06670275
164	0xbd6c058f	-0.05762249
165	0xbd6de9fe	-0.05808448
166	0x382e7106	4.1590094e-05
167	0xbd51f08f	-0.051254805
168	0xbd5e0652	-0.054205246
169	0xbd955eae	-0.07293449
170	0xbd98ffad	-0.07470641
171	0xbd88a30c	-0.06671724
172	0xbbfb6c1a	-0.007672799
173	0xbca1aeb7	-0.01973663
174	0x3ca06f90	0.019584447
175	0x3bbf86ee	0.0058449423
176	0x3cf6e01f	0.030136166
177	0x3d23ca70	0.03998798
178	0xbbcdd2c1	-0.0062812273
179	0xbb44b5e7	-0.0030015649
180	0x3db5c4cb	0.08875426
181	0x3c6ac635	0.014329483
182	0x3da02123	0.0781882
183	0x3d3397af	0.04384583
184	0x3d22cd97	0.039746847
185	0x3c0ee1a4	0.008720789
186	0xbb918e51	-0.0044420143
187	0x391b9cfb	0.00014840432
188	0xbc863c9e	-0.016386326
189	0x3c9ab3a0	0.01888448
190	0xbb529e21	-0.003213771
191	0x3c062696	0.008187911
192	0xbcd0e4d5	-0.02549974
193	0xbde94182	-0.11389448
194	0x3c02cc4b	0.007983278
195	0xbd6d0acf	-0.057871636
196	0xbc99d014	-0.018775977
197	0xbda12d81	-0.07870007
198	0xbb05e921	-0.0020433145
199	0xbb2853ac	-0.0025684638
200	0xbd92d409	-0.07169349
201	0xbc31e24c	-0.010857176
202	0xbd8e23f7	-0.069404535
203	0xbbf6d91a	-0.0075332047
204	0xbd1682a1	-0.03674567
205	0xbb90bebc	-0.0044172686
206	0xbd091c36	-0.03347417
207	0xbc80d8ab	-0.015728315
208	0x3c01720b	0.007900725
209	0x3d1bf53d	0.038075674
210	0xbc9a715f	-0.018852888
211	0x3d2da7f1	0.04239649
212	0xbc89abf0	-0.016805619
213	0x3d3786e2	0.04480637
214	0xbc2d8eaf	-0.0105931
215	0x3c1bb628	0.009503879
216	0xbd91e0f1	-0.07122982
217	0xbd225af8	-0.039637536
218	0xbc6ca77d	-0.014444229
219	0xbc84350b	-0.016138574
220	0xba3c1fa0	-0.00071763434
221	0xbda60945	-0.08107237
222	0x3c89a599	0.016802596
223	0xbd79c6ba	-0.060980536
224	0xbcbbf38e	-0.022943284
225	0xbca7213c	-0.02040159
226	0xbd4f8c81	-0.050671104
227	0xbd013f84	-0.031554714
228	0xbd16c86c	-0.03681223
229	0xbb4909fb	-0.0030676115
230	0x3d10ca03	0.035348903
231	0x3baf23d4	0.005344847
232	0x3d37b91b	0.044854265
233	0x3d185ce3	0.03719796
234	0x3bc09df3	0.005878204
235	0xbc6668b6	-0.014063051
236	0x3b9e603a	0.0048332484
237	0xbd273ef7	-0.040831532
238	0xbd03252f	-0.032017883
239	0x3d0bc37f	0.034121986
240	0xbbc64eb2	-0.0060518617
241	0xbcffe302	-0.031236175
242	0xbc0dc716	-0.008653423
243	0xbd6353d6	-0.055499874
244	0xbd3db6ea	-0.04631702
245	0xbb863d43	-0.0040966584
246	0xbd2a58dc	-0.04158865
247	0xbd1e2fe2	-0.038619883
248	0xbda08d02	-0.07839395
249	0xbdb7e2b7	-0.08978789
250	0xbdec6d8d	-0.11544333
251	0xbe00a933	-0.12564544
252	0xbda8428b	-0.08215817
253	0xbdbd4670	-0.092419505
254	0xbddd8d70	-0.10817993
255	0xbe0527be	-0.13003442

linear1.bias f4 [128]
0	0x3d862594	0.06550136
1	0xbca005f9	-0.019534098
2	0xbd242a5c	-0.04007946
3	0x3bebbffc	0.007194517
4	0x3d5f1506	0.05446341
5	0xbca29e73	-0.019850945
6	0x3aa3e981	0.0012505503
7	0x3d007035	0.03135701
8	0xbcd82574	-0.026385047
9	0x3b85657f	0.004070937
10	0xbc154bfb	-0.009112353
11	0x3d896ac0	0.06709814
12	0xbd16478a	-0.03668932
13	0x3c90a5e7	0.017657233
14	0xbcb8d3d8	-0.022561952
15	0x3db4098b	0.08790883
16	0xbcf0c0ef	-0.029388873
17	0x3d8c7c09	0.06859595
18	0xbc01c575	-0.007920613
19	0x3da7777f	0.08177089
20	0x3cb2a491	0.021806987
21	0x3d8ac233	0.06775322
22	0x3da9a9a6	0.08284311
23	0xbcf55ba0	-0.029950917
24	0x3cb78bda	0.022405554
25	0x3a73cdfa	0.0009300407
26	0xbd6f38b2	-0.05840368
27	0x3dbbe4b1	0.09174479
28	0xbc1e23f5	-0.0096521275
29	0xbb827827	-0.0039816084
30	0x3d4f9cde	0.05068671
31	0xbceb229f	-0.028703032
32	0x3d4a20c9	0.049347673
33	0x3d79f9d6	0.061029278
34	0x3c065c9b	0.00820079
35	0x3caeef01	0.0213542
36	0x3bcb96eb	0.006213059
37	0xbd70096d	-0.05860274
38	0xbc90f2e8	-0.017693952
39	0x3c0ddddf	0.008658855
40	0x3c07a7c5	0.0082797455
41	0x3d0553c2	0.03255058
42	0xbd0fc009	-0.03509525
43	0x3cf5ab2b	0.029988846
44	0xbc9169db	-0.017750671
45	0x3d7917c3	0.060813677
46	0xbc9b3c34	-0.018949606
47	0xbd44fbae	-0.048091583
48	0x3d0e9d44	0.03481795
49	0x3c8bf0a6	0.017082524
50	0xbd2bf1c2	-0.041978605
51	0x3d0ef56c	0.03490202
52	0xbc9f0229	-0.01941021
53	0xbcbe24e9	-0.02321096
54	0x3d8dbf5a	0.06921263
55	0xbd80260c	-0.06257257
56	0xbd0330ed	-0.03202908
57	0xbca2b9e0	-0.019864023
58	0xbc2728ea	-0.010202626
59	0x3db33bec	0.087516636
60	0x3a6b8cfa	0.0008985546
61	0xbd422c6e	-0.047405653
62	0x3cbdec05	0.023183832
63	0x3d8972ea	0.06711371
64	0xbb305674	-0.0026906999
65	0xbcf61b76	-0.030042391
66	0xbd1a0c97	-0.037609663
67	0xbc888f06	-0.016669761
68	0xbac35897	-0.0014903721
69	0xbcf145fc	-0.029452316
70	0xbc018a16	-0.007906457
71	0xbc6d72f4	-0.014492739
72	0x3cedc780	0.029025793
73	0x3cf39232	0.029732797
74	0xbd3840fa	-0.04498384
75	0x3d2f9754	0.042868927
76	0x3d15dc3e	0.036586992
77	0x3d71de2c	0.05904977
78	0xbcb1393d	-0.021633739
79	0xbd124ebe	-0.035719626
80	0xbd182eb0	-0.0371539
81	0xbd2e0f9e	-0.042495362
82	0x3ca9b9bf	0.020718453
83	0x3bc19efd	0.0059088455
84	0x3d6ebaf6	0.05828377
85	0x3cca575b	0.024699857
86	0x3d894c91	0.06704057
87	0xbc5986fd	-0.013276813
88	0x3b945821	0.0045271073
89	0x3c1d7f50	0.009612873
90	0x3daaece3	0.08345964
91	0x3cffa047	0.031204356
92	0x3d76fa99	0.060297582
93	0x3da6ee03	0.08150866
94	0xbccbd21e	-0.024880465
95	0xbd279f2e	-0.04092329
96	0x3cd1ad9e	0.025595482
97	0x3cde9601	0.027171137
98	0xbd2b55a7	-0.04182973
99	0x3da6f9f6	0.08153145
100	0x3da2dc3f	0.07952165
101	0xbd032b62	-0.032023795
102	0xbd3562ce	-0.04428368
103	0xbd3cf7df	-0.046134826
104	0xbd21a2bd	-0.03946184
105	0x3dad42e0	0.08460021
106	0xbd03c781	-0.032172684
107	0x3cb119c4	0.021618731
108	0xbc806bb1	-0.015676351
109	0xbd2fc230	-0.0429098
110	0xbd4cf2dd	-0.0500363
111	0xbd316429	-0.04330841
112	0xbc9ec865	-0.019382665
113	0xbbe06533	-0.0068480014
114	0xbcff38f3	-0.031155085
115	0x3dad37e7	0.08457928
116	0xbd4ff3d8	-0.050769657
117	0x3beae37b	0.007168231
118	0x3db4a339	0.08820195
119	0x3d786ea2	0.060652383
120	0x3ca6c6d3	0.020358479
121	0x3da410d3	0.080110215
122	0x3cf7959b	0.030222705
123	0x3d6b1499	0.05739269
124	0x3d9cd562	0.07657887
125	0x3c7cf573	0.015439379
126	0xbd46e1f6	-0.048555337
127	0xbbf66180	-0.007518947
