models/1A_SSE_beta.pth (torch, 421229 bytes, 13 tensors)

conv1.weight f4 [4, 1, 5, 5, 5]
00000000: f40c 813d 7507 ff3c c2f2 af3c c7fe abbd
00000010: 850e 4abd a6e4 a53d c8da fa3c dbb6 963d
00000020: 9b4b d93c 70b6 173d 2de5 6fbd 05ae 9a3d
00000030: 3c43 be3d 006d b0bd c16e 9bbd 091d 59bc
00000040: 8ddd fd3c e1e8 b0bb a070 ab3d d3bd 963d
00000050: aa6b 98bd e397 f9bc 2118 1bbd 4dfc 99bd
00000060: 21c9 55bd 83ba 26bc 4eb1 28bd 8a86 27bd
00000070: 8695 a33b 2246 3bbd a126 14bd b19e 453d
00000080: a7fc 74bd 672d be3d 6d35 1b3d e6ff db3d
00000090: 027b 2abb bc3e 5cbc a975 bebb bc96 acba
000000a0: 36a4 943d 1f7d 683d 4fb1 62bd 2150 dd3d
000000b0: 9c52 9f3d 56eb 2d3d 2a46 c13d be1a 3b3d
000000c0: 8da4 e9bc 46ae a43d ceb9 1abc c4c5 383d
000000d0: 3bbb 963d b4ab 18bd 1d64 36bc 4023 cd3d
000000e0: e083 2abc 7052 fe3c 9600 d5bc a244 8e3d
000000f0: 4d48 0a3b d657 b03c 5a86 00bd 2b77 aebc
00000100: 111e 08bc 6e75 3e3d 2ff6 e33d d75c 213c
00000110: 2abd 83bc a87a 6e3b d7e2 0cbd 0adf 833d
00000120: 9f67 703c 235d 2d3d fb62 0dbc 2154 a03d
00000130: bdc4 6c3d 6abf ebbc ca3c c4bc 260a 08bd
00000140: c29c b23a ebd4 4cbc 8e0d a03d bf8d 3e3d
00000150: 4afd 283d ef00 cb3d 3ba2 0c3d 34ec a7bc
00000160: 7f38 813c fe4c ab3d c9eb 7cbd 8f34 21bd
00000170: 27ce af3d 8bc8 283d c2de 3abd e469 60bd
00000180: d6fc a2bc ca03 a23d 42e3 1abd 21f6 623c
00000190: 97d1 debc b871 eb3b 9ca7 b6bc dd79 98bd
000001a0: c895 623d 6415 c13c b436 17bd 97e9 a83d
000001b0: 0e27 85bb cfb5 36bd dca9 bd3b 2a0b 3a3c
000001c0: b707 3a3c 464e 343d 3aae 473d b35c 853d
000001d0: a91c 69bd a237 42bd 29d0 45bd ace2 473d
000001e0: 4d76 813d 7fb0 793d 7a8d c53c 5c3b 823d
000001f0: cf32 64bc 3e8d ab3c 1d20 093d feeb 743d
00000200: 2bef 89bd c264 2bbd 6dc1 6d3d 55f2 a43d
00000210: fed5 943d 0e54 a0bd 367c 87bd e7c4 233d
00000220: 8772 663d 7fec 56bc 9feb 573d 5341 093d
00000230: 0df0 173d 1bbd 8cbd d708 26bc 66d5 9cbd
00000240: fa5e a83b bc50 92bd e9e7 4fbd 0751 afbc
00000250: 8dd9 57bd 3aff b0bd be8a 66bd 79f5 e33d
00000260: 9483 0ebd 839c 093d fc58 31bd 76fe 1abd
00000270: 4c24 4bbd 9ab8 64bd 7b50 99bd c232 70bc
00000280: 4dc9 8cbd 44a7 b33a 22b9 f2bb bfaf 7fbd
00000290: 5d92 0fbd cb64 70bd b381 2e3d ab93 773d
000002a0: 2a1a 893d 0e7c c03c 644d b8bc 2665 933d
000002b0: d91a 013d 1d9c 4e3d 7147 aabd 31ea db3c
000002c0: 02ab cf3d 36a7 9d3d 1ba4 803d 1a3f 0cbd
000002d0: 680f 393c 9d91 a1bc de80 853d 7009 edbb
000002e0: e51a 93bd e041 103c 8903 90bd a9af 883d
000002f0: 1507 ac3c 036b 91bc a24b a43d a804 16bb
00000300: 07f6 16bd f013 90bd aee8 ba3c c811 9bb9
00000310: 3cb9 19bd c76b 503b ec37 8abd ad1e 253d
00000320: c9e6 f63d 11f8 d83d fef8 903d 0286 00bc
00000330: e1e8 94bc cb8e 1abd cb3e c83d c16b c63d
00000340: 7366 a13d 7a50 7bbd 2d8b 4d3c 4ea0 413d
00000350: 4df9 953b f29e 5c3c 90cb 49bd 5663 98bd
00000360: e8a8 83bd 642f 863c adc4 c63c 647b 673d
00000370: 43c9 3abc a953 dfbc 95ae fabb 2734 5bbd
00000380: 9199 a03c 7ccb 733d 7ba3 a13d ed7c d23d
00000390: da70 123d 32da 1ebd 271e a9bc 26e0 5a3b
000003a0: 603e 1bbd 7e8e cc3d 396d 7abc 2811 963c
000003b0: 78a2 2fbb dc5a 79bd 7be9 893d 9f64 9ebc
000003c0: 61d9 213d 9056 d13d 9d0c 8cbc 949a bd3b
000003d0: 1b83 903c a21d 573d ab19 d1bc c357 d53b
000003e0: ef48 e63c 4202 42bc 75fa c13c e226 323d
000003f0: 603f 363c 35e0 613d ce52 103d 0a8c 9c3d
0.06301299 0.031131485 0.02147806 -0.08398204 -0.049330253 0.08100252 0.030621901 0.07359096
0.02652531 0.03703922 -0.05856817 0.07552723 0.09290168 -0.0861454 -0.07589484 -0.013251551
0.030989433 -0.005398855 0.08371091 0.07360425 -0.0744241 -0.030467933 -0.037864808 -0.07518826
-0.052193765 -0.010176304 -0.041184716 -0.04089979 0.00499219 -0.04572118 -0.036169652 0.048247043
-0.05981126 0.092860036 0.037892748 0.10742168 -0.002601326 -0.013442691 -0.005812366 -0.0013167481
0.07257883 0.05675995 -0.055344876 0.10806299 0.07779428 0.042460762 0.09437211 0.0456798
-0.028520847 0.080410525 -0.009443713 0.04511048 0.0735993 -0.037273124 -0.011132267 0.10016489
-0.010407418 0.031045169 -0.026001256 0.069466844 0.0021100224 0.021526258 -0.031378128 -0.021297058
-0.00830795 0.04649871 0.1113094 0.009848795 -0.016081411 0.0036389027 -0.03439602 0.06439026
0.014673143 0.04232515 -0.008629556 0.07828546 0.05780481 -0.028777797 -0.023954768 -0.033212803
0.001362704 -0.0125019355 0.07815085 0.0465219 0.04125718 0.099122874 0.034334403 -0.020498373
0.01577401 0.083642945 -0.0617483 -0.039356764 0.08584242 0.041206878 -0.045622595 -0.054788485
-0.019895952 0.07910879 -0.037814386 0.013852627 -0.02719955 0.007185187 -0.02229672 -0.074451186
0.055318624 0.02356977 -0.036917403 0.08247679 -0.0040634936 -0.04460698 0.005788071 0.011355201
0.011354378 0.04401996 0.04875014 0.065118216 -0.056912098 -0.047416337 -0.04829422 0.048800156
0.06321392 0.060959335 0.024115313 0.06358978 -0.013928129 0.020941373 0.03347789 0.059795372
-0.06735071 -0.041844137 0.058045793 0.08054034 0.07267378 -0.07828532 -0.06615488 0.039982703
0.056261566 -0.0131179085 0.05271494 0.033509564 0.037094165 -0.068720065 -0.0101339435 -0.0765789
0.005138275 -0.07144305 -0.050758276 -0.021400942 -0.052697707 -0.086424306 -0.05628466 0.111308046
-0.03479345 0.033596527 -0.043297753 -0.03784033 -0.049595162 -0.055840112 -0.074860536 -0.014660539
-0.068743326 0.0013706465 -0.0074073235 -0.062423464 -0.035051692 -0.058689874 0.04260416 0.06044356
0.066944435 0.023496654 -0.02249784 0.07197027 0.031519745 0.05044185 -0.083144076 0.02684507
0.10140039 0.076979086 0.06281301 -0.034239866 0.011295177 -0.019722754 0.0651872 -0.007233791
-0.07182864 0.008804768 -0.07031924 0.066741295 0.02099947 -0.017751222 0.08022238 -0.002289096
-0.036855724 -0.07035053 0.022816028 -0.00029577152 -0.03753017 0.0031802522 -0.067489475 0.040312458
0.120557375 0.1059419 0.070787415 -0.00784445 -0.018177452 -0.037733834 0.09777602 0.09688521
0.07880869 -0.061356045 0.012545389 0.04727202 0.004576838 0.01346563 -0.049266398 -0.07440822
-0.06428701 0.01638002 0.024263704 0.05651416 -0.011400524 -0.027261572 -0.0076502063 -0.053516533
0.019604476 0.05952023 0.078925095 0.10277734 0.035752155 -0.038782306 -0.02064426 0.0033397763
-0.037901282 0.09988116 -0.01528483 0.018318728 -0.002679972 -0.060877666 0.06733986 -0.01933509
0.03951395 0.102215886 -0.017095858 0.0057862494 0.017640641 0.052518494 -0.025524935 0.006510706
0.02811095 -0.011841359 0.023678998 0.043494113 0.011123508 0.05514546 0.03523522 0.07643898

conv1.bias f4 [4]
00000000: 47a2 6bbd c408 0bbd 8d5a 323d 399f 073d
-0.057527807 -0.033943906 0.043543387 0.03311083

conv2.weight f4 [8, 4, 5, 5, 5]
00000000: 2fb5 cfbc 1ab0 e7bc 87d9 b83b ac8c 763d
00000010: 12d3 e23c 707c be3c 7586 eb3c 6ef4 fa3c
00000020: 4123 69bb 53c8 543d 5ce0 98bc 1e35 7d3d
00000030: c7f7 433c 3707 463d 560d 693d 0a3e b93b
00000040: 9ab2 4c3d 799e 0c3d 1b62 f1bc c5c1 5d3c
00000050: 72fa 953c 2a8c 09bd ae41 803c 3763 213d
00000060: 2929 3c3c a5b7 1a3d 0646 9e3c 5c38 9bbc
00000070: a280 74bb cf30 8dbb 257a 603d 640e 353d
00000080: 4d67 793d 5169 6abc 1170 3a3d a9e2 473d
00000090: 691d 1cbc db33 15bc f17d 713d 59e9 da3c
000000a0: 40d3 4a3d e994 04bd 8ec6 773c 72da 523d
000000b0: 37b9 c83c 93e8 823c 223c 0dbc 4766 11bd
000000c0: 36db 0f3d 1edf 91bc 087c 8cbc 2e64 47bb
000000d0: 8bb1 183c cdb6 013d 343c 853d 7dae 473d
000000e0: 89e5 b8ba cf5c babc ed79 343d 2421 a43d
000000f0: 923d f1bc ca2d 073d 126a aebc aa47 3fbc
00000100: e29c a13d 652a c9bc e186 6ab9 04f9 8b39
00000110: aef4 a3bb bf28 61bc 6ce1 e33c 14ed 66bc
00000120: 9005 b63c da87 443a 8a53 1abc 6ec5 073a
00000130: fb7d 3ebd b606 82bc 6d20 4fbc d286 913c
00000140: 1b8d 6dbb d4d1 17bd 734b 4bbc 364c 293d
00000150: 510d 233d 7d1f 5cbc 7354 49bd 7096 463b
00000160: 3ea6 cbbc 8509 6d3c da26 65bc 3ead 9f3a
00000170: 212f 833c c779 11bd 7cbc 673d 5b84 2cbd
00000180: 47ca 1cbd eb59 c7bc e763 abbc a377 a63c
00000190: 0b8d 19bd f8f6 efbc 9b7c a2bc ed88 023c
000001a0: 1710 85bc b00f 20bd 73e3 20bc 9c8e 9e3c
000001b0: 8a29 abbc 2fde 7e3c 6908 593c b034 4cbd
000001c0: 8a0d 003d 1eca 193c be68 c43b 2b6f 2cbd
000001d0: b18a 883c a288 5cbd 0607 183d 8850 2cbc
000001e0: 2eb1 51bd 75ce 4bbd 28f8 eb3b 6ea8 9e3c
000001f0: 1076 a13c 4916 003d 4239 583d 8529 303d
00000200: 913e acbb 4938 c3bc 3610 0fbd 6a16 873c
00000210: 3970 c2bb 4d48 ab3c 0f04 783d 6492 41bd
00000220: 5fc3 1bbd 68b9 e9bc 618f 3e3d 0962 a13d
00000230: ea14 75bd 148e e4bc 69c9 b83c 7d25 1cbc
00000240: 9ae3 763d b55c 0fbd 535a cfba 114f ee3c
00000250: 934e 513d 4a12 203d 4fb2 2c3d 7c9f aebc
00000260: 86ad 07bd 1db6 c23c 1c25 24bd 7c36 953c
00000270: 2ada 97bb 92d8 623d 7af8 4a3b 2bd4 70bc
00000280: 54fe 65bd 1b18 63b9 968c da3c b5d8 f63b
00000290: 5b10 233d 2e9e a23b c93c d33c 6d60 febb
000002a0: 26b4 cd3c 7bc6 663d 73ac ebbc c391 273c
000002b0: 90c9 aabc cecc ac3c cdf2 4c3d f210 32bc
000002c0: 1980 f1bc ba36 203c 2f75 72bd 2577 d9bc
000002d0: bfa0 09bc df6d 1e3c 8e22 94bc 33dc ffbc
000002e0: 2dcc a23a bba1 983c 1e1f a3bc 9083 91bc
000002f0: 529b 5b3d a003 843d 97bb 8a3c f9b2 693b
00000300: 27a0 a3bc 0e76 503c eb0a 703c af80 66bc
00000310: 16da 2fbd 9b57 81bb 9f5f 1abc 0e8d 553d
00000320: 8400 40bd 8bc1 03bc 7a26 80bd f54e 57bd
00000330: 7be9 09bd 44c9 203c 4921 a6bc 7f71 9ebc
00000340: dabd aabc b2e8 133d 9bc0 6dbd ab32 8abb
00000350: 9291 a03c 6427 383c 3e54 263c 5adb f5bc
00000360: 9b16 97bc 4000 973b 3dde 6a3c 8037 83bc
00000370: 41a9 963c 7dfd 763c 170b 0fbb af0e 303c
00000380: b6ec 533d 0c1e 63bb 861a 85bb d251 003c
00000390: d6c6 5abd 0652 2dbd b1c2 2dbd 47d4 653b
000003a0: 271a cabc facc 8cbc f559 fcbc 318c af3c
000003b0: aee0 4dbc 59d5 923c f7e5 813a 9ed3 8dbd
000003c0: fb68 10bd e63f 20bd 5229 01bd d6b8 b4bc
000003d0: 7803 26bc 97b5 12bd 2c28 27bd c567 22bd
000003e0: 064a a83c 3a36 17b9 6839 dcbd 5228 6bbe
000003f0: 1c17 8cbe 6e84 21be d3fe eebd b014 13bd
-0.02535495 -0.028282214 0.0056411657 0.06019275 0.027688537 0.023252696 0.028750638 0.030634131
-0.0035573991 0.051948857 -0.01866167 0.061818235 0.01196093 0.048346724 0.056897484 0.0056531476
0.049975015 0.03433082 -0.029465726 0.013534968 0.018307898 -0.033580936 0.015656319 0.03940126
0.011484423 0.037772793 0.0193205 -0.018947773 -0.0037308116 -0.004308797 0.054803986 0.044203177
0.06088953 -0.014307336 0.04551703 0.048800144 -0.009528496 -0.009106602 0.058957998 0.026722597
0.04951787 -0.032368574 0.015123023 0.051477857 0.02450238 0.01598004 -0.008620294 -0.03549793
0.035121165 -0.017806586 -0.017148986 -0.0030424702 0.009319673 0.031668473 0.065056235 0.04875039
-0.0014106493 -0.022749333 0.04406159 0.080141336 -0.029448304 0.033002652 -0.021290813 -0.011674801
0.07891251 -0.024556348 -0.00022366225 0.00026697677 -0.0050035333 -0.013742625 0.02781745 -0.01409461
0.02221945 0.000749705 -0.009419331 0.00051792606 -0.046506863 -0.01587234 -0.012642008 0.017764483
-0.0036247435 -0.037065342 -0.012408125 0.041332446 0.03980762 -0.013435242 -0.049152803 0.003030207
-0.024859544 0.014467602 -0.013986314 0.0012182367 0.016013684 -0.035516527 0.056576237 -0.04211841
-0.038278844 -0.024334868 -0.02092166 0.02032072 -0.037488025 -0.029292569 -0.019834807 0.007967216
-0.016243024 -0.03907746 -0.009819853 0.01935511 -0.02089383 0.015555902 0.013246634 -0.049854934
0.03126291 0.009386567 0.0059939316 -0.042098206 0.016667696 -0.05384124 0.037116073 -0.010517247
-0.051194362 -0.04975744 0.0072012134 0.019367423 0.019709617 0.031271253 0.05278898 0.043008346
-0.005256482 -0.02383055 -0.03492757 0.01649018 -0.005933788 0.0209085 0.060550746 -0.04725875
-0.038028117 -0.028530791 0.046523456 0.07880027 -0.0598344 -0.02789978 0.022556977 -0.009530422
0.06027565 -0.03500052 -0.0015819765 0.029090436 0.051100325 0.03907994 0.042162236 -0.021316282
-0.03312447 0.023768479 -0.040074453 0.018214457 -0.0046341615 0.05538232 0.0030970857 -0.014699022
-0.05615075 -0.00021657387 0.026678365 0.0075331577 0.03981052 0.004962704 0.02578582 -0.0077629597
0.025110316 0.05634163 -0.028768754 0.010227623 -0.020848066 0.021093752 0.05003624 -0.010868298
-0.029480027 0.009778673 -0.059193786 -0.02654607 -0.008400141 0.00966975 -0.018082883 -0.031232929
0.0012420468 0.018631807 -0.019912299 -0.01776293 0.053614922 0.06446004 0.016935153 0.0035659655
-0.019973828 0.012723459 0.014651041 -0.0140687665 -0.042932592 -0.003947211 -0.009422212 0.052136473
-0.04687549 -0.00804175 -0.06257339 -0.052565534 -0.03366993 0.00981361 -0.020279543 -0.019341229
-0.020842481 0.036110587 -0.05804501 -0.004217466 0.019600663 0.01123986 0.010151921 -0.030011822
-0.018443396 0.004608184 0.014335212 -0.016017675 0.018391253 0.015075085 -0.0021826678 0.010745688
0.051739417 -0.003465536 -0.0040619997 0.0078320075 -0.05341228 -0.04231455 -0.042422 0.0035069154
-0.024670674 -0.017187584 -0.030804614 0.021429153 -0.012565775 0.017923998 0.0009910454 -0.069251284
-0.035256367 -0.03912344 -0.031533547 -0.022060793 -0.010132663 -0.03581771 -0.040809795 -0.039649744
0.02054311 -0.00014420683 -0.10753137 -0.229646 -0.2736138 -0.15773174 -0.116696976 -0.0359084

conv2.bias f4 [8]
00000000: 2b8d 3fbd 41ef 21bd b424 a03c aac8 2e3b
00000010: 14a7 e03c f858 1b3c 6eff 9a3c 878d 8abb
-0.046765488 -0.03953481 0.019548751 0.0026669898 0.027423419 0.009481661 0.018920626 -0.004228297

conv3.weight f4 [16, 8, 3, 3, 3]
00000000: a1f1 683d a3b7 52bd f795 063d 3d7f 813d
00000010: 967f 41bd 0c52 373d 148d 14bc 73c8 3d3d
00000020: c406 ffbc 4c15 fcbb 266d 033d 5f00 933b
00000030: cb7f 24bd b459 a73c 1d94 dabc e191 173d
00000040: 9b33 05bd a4ad e13c 7f61 a6bd c26c 26bd
00000050: 4634 8a3c 5767 7fbc 2e43 76bd a07c 45bc
00000060: e0bb 1b3a 3eb8 b0bc b194 3fbd f4d9 7fbd
00000070: af52 0bbd 2525 5bbc 046d 9b3c 16d7 07bd
00000080: c59e 82bd 3f02 93bc ef68 e53b 8847 19bd
00000090: 0133 11bd 493f 84bd 8cd6 ff3b fb4b 2bbd
000000a0: c822 073d 9d79 0f3d 7639 84bd abb1 d53b
000000b0: 2b9a f9bd 3390 06bd a263 263d 4d08 033d
000000c0: 46a0 053d 6178 ffbb b74a 68bc 9b4f 63bd
000000d0: 4aa9 9ebd a835 b0bd 20d1 08bd d901 babc
000000e0: e002 a03c 2ec9 2bbd e93b 47bd 0682 bbbd
000000f0: 8986 9fbc 7984 e83c bf7e 923d 1b8d f6bc
00000100: e956 a9bd ba7d 7abc 5022 75bd 893d f0bd
00000110: 96aa 53bd 750e 0ebd 088a 853c 5a30 72bd
00000120: cba0 c0bd 7483 223d dc8f 953c b16f a5bd
00000130: 5f39 bdbd d139 edbc 90e8 ccbb 746d ea3b
00000140: 7750 113c f083 093d 126b 10bd abcd 35bd
00000150: a1ff 4abc c900 08bd 2914 b5bc ab72 16bd
00000160: 7b57 80bd 3c95 dbbc 928e e53b 61fc 86bc
00000170: 13cd 483d 374c 603d fbe5 8f3d d136 e63c
00000180: 7177 803d 4c99 82bc d460 833c 07ea e23c
00000190: 441f 03bc 530b 13bd 9ed5 323b 9e9e 033d
000001a0: 7c1c 9bbc d444 9abb 4329 0d3d e5fc 23bd
000001b0: 0aac 843b d891 243d 7257 823c 40e9 17bd
000001c0: f309 c2bc 0c80 b1bc 4209 2abc bd49 f5bc
000001d0: 77d7 b93c d90b d6bb 2a78 413a 43b7 cabb
000001e0: b8f4 c5bc cae9 a7bd 2420 0a3d f4fb 9d3c
000001f0: 0618 aabc 7b91 87bc 9829 a5bd faaa 8ebd
00000200: 76cb d3bc 2133 d8bc 7c1b f3bd 8f20 04bd
00000210: c309 e2bd 0c0d 6fbd fdd8 32bd d6e4 22bd
00000220: 5d29 383d 1dc8 d03c 1a2c 583d 25ca 8b3d
00000230: 6cfb 503d 1a9d 443d 28f1 413a 4d9c 01bd
00000240: e2b6 773d 6a86 d53c 11ee ec3c 5ad3 133d
00000250: f0a7 1fbd cc28 5cbc 4edb cf3c 6c92 75bd
00000260: 4f2c 2a3d 50fd 643d fb64 ecbc 4b4f e93c
00000270: cdc6 1e3d addd 2bbd bc64 b5bb 4546 d2bb
00000280: fdbc e53c 83b1 823d c497 c3bc 6979 6f3d
00000290: bfe7 77bc 256d 513d c854 b5bc 5008 803d
000002a0: ba92 183c 6285 5e3d 3f6d 58bd 8402 213b
000002b0: 73d1 f9bb 0639 813c 9f87 40bd 0fb7 5d3c
000002c0: d73b 703c 72b1 5d3d ce23 32bd 562a 333d
000002d0: 040d 193b cdb8 0f3d 54aa 00bd 82a8 96bd
000002e0: 2053 2c3d 7d77 18b9 41aa 68bd c8eb 80bd
000002f0: 36a0 4dbd 67bc 593d f607 713d 92f8 473c
00000300: 920a 113d e2f2 86bd ad38 0ebd d0d3 5e3d
00000310: 42d6 33bd c6c7 aabc ffde a3bd 8f58 92bc
00000320: 8796 8e3c 24d9 65bd c909 8abd d443 deba
00000330: 68a4 c03c 80b2 d8bc 8fba fd3c 70a0 31bd
00000340: f5a8 de3c fd0f 073c 2f2d a8bd c4d7 9d3c
00000350: 0033 443d 7e43 35bd c607 b03c aae4 cd3b
00000360: 6e0e 62bc 2815 5ebd 6e12 663b 90d0 343d
00000370: 48ca 263d 1305 173c e5d8 6b3d 52ba cf39
00000380: f23d 583c c0df f43c 589b 97bd 4f70 18bd
00000390: 86a4 80bd a36b 573d f346 6e3d 60a3 2d3d
000003a0: aea7 04bd 7da9 143d d526 d93c 4282 cebc
000003b0: b72c 82bd 0391 a1bb 2afe 693a e222 1ebd
000003c0: a84e d1bc 2ec9 aabc f08c 5a3b af64 60bd
000003d0: 3876 6fbc 8fa0 333d 06fe 46bd 3762 293d
000003e0: 1315 f63d f8c4 513d 1eb3 aa3d 80fc 5f3d
000003f0: 2776 9abd 6a74 bdbc d0aa b93d f624 113b
0.05687106 -0.05144466 0.03285786 0.06323097 -0.047240816 0.04475598 -0.009066839 0.04633374
-0.031131156 -0.0076929685 0.032086514 0.004486128 -0.040160935 0.020428516 -0.026681954 0.037004355
-0.032519918 0.027548619 -0.08124065 -0.040631063 0.016870629 -0.015588603 -0.06012266 -0.012053639
0.00059407763 -0.021572229 -0.046772663 -0.062463716 -0.0340144 -0.013375555 0.018972881 -0.033164106
-0.06377939 -0.017945407 0.0070010344 -0.037421733 -0.03544903 -0.06457383 0.0078075584 -0.041820507
0.032992154 0.03502809 -0.06456272 0.006521424 -0.12187608 -0.032852363 0.04062236 0.031990338
0.03262355 -0.0077963327 -0.01417797 -0.05549584 -0.07747133 -0.08603984 -0.033402562 -0.02270596
0.01953262 -0.041939907 -0.04864112 -0.091556594 -0.019473331 0.02838348 0.07153081 -0.030096581
-0.0826853 -0.015288765 -0.059847176 -0.11730487 -0.051676355 -0.034681756 0.01630117 -0.059128143
-0.09405669 0.039676145 0.018257074 -0.08077944 -0.09239458 -0.028958233 -0.0062533095 0.007154161
0.008869282 0.03357309 -0.03525836 -0.044385593 -0.012390048 -0.033203874 -0.02210434 -0.03673045
-0.062666856 -0.026804559 0.007005521 -0.016477766 0.0490237 0.054760184 0.07026287 0.02810231
0.06272782 -0.015942238 0.016037382 0.027699484 -0.00800306 -0.03589947 0.002728797 0.03213369
-0.01893448 -0.004707912 0.03446318 -0.0400361 0.004048829 0.04017815 0.015910838 -0.03708768
-0.023686385 -0.021667503 -0.010378184 -0.029942388 0.02268575 -0.006532174 0.00073802716 -0.0061863973
-0.024164543 -0.081988886 0.033722058 0.01928518 -0.020763408 -0.016548863 -0.08064574 -0.06966205
-0.025853854 -0.026391568 -0.118704766 -0.032257613 -0.11037018 -0.05836205 -0.043663967 -0.039769016
0.044961322 0.025486046 0.052776434 0.068256654 0.051021025 0.048001386 0.0007398301 -0.0316432
0.060477145 0.02606507 0.028922113 0.036090232 -0.038978517 -0.013437461 0.025373127 -0.059954092
0.041546162 0.05590564 -0.028856745 0.028480193 0.03876381 -0.041959453 -0.00553569 -0.006417068
0.028044218 0.06381514 -0.023876078 0.058465395 -0.015130936 0.05112948 -0.022135153 0.062515855
0.009312326 0.054326423 -0.05283856 0.002456815 -0.0076238452 0.015774261 -0.04700434 0.013532414
0.014662704 0.054124303 -0.043491177 0.043741547 0.0023353705 0.03508835 -0.031412438 -0.07356359
0.04207146 -0.00014540362 -0.05680299 -0.06294972 -0.050201617 0.05315819 0.058845483 0.01220526
0.03541047 -0.06589295 -0.03472202 0.05440122 -0.043905504 -0.020847213 -0.080015175 -0.017864494
0.017405761 -0.056115285 -0.067401476 -0.001695747 0.023515895 -0.026452303 0.030972747 -0.043365896
0.027180174 0.008243558 -0.08211743 0.019267924 0.0479002 -0.04425382 0.021488082 0.0062833624
-0.013797386 -0.054219395 0.00351062 0.044144213 0.040720254 0.009217518 0.057579894 0.00039620936
0.013198363 0.029891849 -0.07402676 -0.03721648 -0.0628138 0.052592885 0.05817313 0.042392135
-0.032386474 0.03629445 0.026507774 -0.025208596 -0.06356185 -0.004930617 0.0008926118 -0.038607486
-0.025550202 -0.020847883 0.0033348165 -0.05478352 -0.014615588 0.043854292 -0.0485821 0.04135343
0.12015738 0.051213235 0.08334945 0.054684162 -0.07542067 -0.0231268 0.09065783 0.0022147275

conv3.bias f4 [16]
00000000: e449 8e3d 011a 353d a87a 0abd fa20 5b3d
00000010: a745 60bd 0eca 73bd 4f6e 093d 3d75 31bd
00000020: a0cf 01bd da83 e7bb cc8b f83c 870a 5e3d
00000030: 0baa a1bd a996 4abd 8eb9 8e3d 12ef 8dba
0.06947687 0.044214252 -0.03380838 0.053498246 -0.054753926 -0.059518866 0.033552464 -0.043324698
-0.031692147 -0.0070652785 0.030340098 0.05420926 -0.07893761 -0.049460087 0.069689855 -0.0010828695

conv4.weight f4 [32, 16, 3, 3, 3]
00000000: 0dd2 87bd 8b4d a53c 0b0e 41bd 2d42 9cbc
00000010: e6a2 37bd d8c3 4dbb 13a4 e33c c8b9 323c
00000020: e56a ce3b 9980 3dbc 4dce c3bc e322 abbc
00000030: 07dd e03c 7aa3 50bd c053 51bd c8d0 a33a
00000040: ddf2 36bd d41f 50bd 5def 90bd 5c9f f2bc
00000050: b4f9 1ebd 26f5 94bd 3c09 f9bb 00af e1bc
00000060: 6326 74bd 4d0b 07bd 0f8e 81bd 56d4 37bd
00000070: 3ea9 3abd 094a 46bd acd2 bebc 43c0 54bd
00000080: 0b05 c2bc 1af1 98bc a0e8 8d3c 33c0 46bd
00000090: 0d9b 25bc 58dc 87bd 07ff e4bc a079 55bd
000000a0: 26ab 74bd 195f 83bd e056 1dbd dc75 fbbc
000000b0: 0bc2 14bd c401 033c 9636 09bd 1011 7cbc
000000c0: 01a3 a8bd 111c ca3b 1128 eb3a e5b0 31bd
000000d0: 6bd0 95bd 768e c43b 02b5 9ebc b68d b1bb
000000e0: aa2a 0f3c 3d70 e6bb 57de a43b d7c9 9abb
000000f0: bc8d c1ba 3420 83bd 5941 05bd 9beb 333c
00000100: 1e60 67bd 5486 8d3c fb53 82bc 35da b9bb
00000110: 2933 953c 4765 a9bc b64c b2bb 80ca 43bc
00000120: 133e 10bd a5a8 89bc 421b de3c d322 cd3c
00000130: 39b0 0fbd 2034 9e3c dadd c6bc 6da9 82bd
00000140: e85b c5bc 7a24 3e3c 1c54 5fbc 5084 893c
00000150: 06ff 41bc 8983 b13b b8e1 2bbd a1c9 1ebd
00000160: aef7 ffbc aeb8 893c b88e ab3c 2d7a 95bc
00000170: bea0 7bbd 02e0 06bc c411 973b 54b0 bbba
00000180: 5919 2dbd 7a58 ea3c 1af7 f13c 10f2 d3bb
00000190: b7a0 c9bc 2ef3 0ebb 45ee 303d 650d a5bb
000001a0: ab8c 8c3c 842a 99bc cd08 08bd e886 2d3b
000001b0: a6ee 31bc 1e65 19bc 857d b7bc e76b 7ebc
000001c0: 3da4 bbbc f84e 82bd 83c1 13bc 9938 81bd
000001d0: e3fe 62bc b01a 84bc 3d43 99bb 97e6 30bd
000001e0: 76d1 483c df07 4d3c 7c82 03bc 9f73 34bd
000001f0: d79f 89bb f8e1 85bd b57d d6bc 4c86 87bd
00000200: 68c2 7ebd 211c 89bd f0cb 8abc cac5 9cbc
00000210: 49c2 1abd 9970 603b d4b0 fbbc 8513 7dbd
00000220: 9d5e 86bc 595c 533d 0701 63bd 9ba3 56bd
00000230: 21cf 403d 0672 16bc 9629 293c 8d5e cabb
00000240: cad6 b2bc 7e4b 653c 64ba a93c 780f b0bc
00000250: 0a84 dd3c d5b8 6d3b 2b75 d0bb 0af5 f33c
00000260: 511e 8ebb 542a edbb c4be 77bc 36b2 fb3c
00000270: bb45 b83b 5c9f 8a39 7e40 6dbc 93b9 79bb
00000280: 21ce e5bc ddd4 18bd 21ac 45bd a613 f0bc
00000290: 9255 1abc 9b93 35bd a4b6 cd3c b9aa 18bd
000002a0: 56b8 05bd 67c0 00bd af55 393c 7646 973c
000002b0: 5d18 d03b 291f 013d 5ac4 e8bb 6199 b03c
000002c0: c8bb 01bd d9d3 be3b 0013 3fba c36e 30bd
000002d0: e7bc 6c3c c594 abba ba7b 403c d051 48bd
000002e0: 7000 05bd 5945 14bd fa2a f23c ce65 80bc
000002f0: ca22 81ba 6dd2 69bc 0ae8 0abd bdde ff39
00000300: 9f2a 97bc f478 a4bb cea3 c03c 78c2 38bd
00000310: 7a50 023c 8155 043d 1ce8 b53b 7710 583a
00000320: 1fb5 55bc e472 5d3c 5c9d acbc f248 e4bc
00000330: b3aa 81bb 5553 eebc 191f 30bd 66f2 3a3d
00000340: 5b45 39bd 26b5 2ebd ee75 f43c b1f8 0b3c
00000350: aad1 55bc c6ee c63c b313 56bb ca9a 13bd
00000360: 291c 24bd aa49 aabc bbc1 c03b 9e5c af3c
00000370: c08a 47bd fde7 23bd bafa 8b3c 0a3d 6cbd
00000380: cd6d 88bd 8e2f 473d f074 2bbb 4f8f 95bd
00000390: fb9f b4bc b580 f9bc 0f9c 1c3c f167 613c
000003a0: 6e85 1fbd 07a1 1cbd a865 3b3d 410d 64bd
000003b0: 5f58 21bd 21f2 a43c 5707 5bbc c4cc 6abd
000003c0: 2b96 05bd 0e5c e93c 80e8 d3bc ea71 493b
000003d0: f932 37bd ea9d c5bb ba1a 223b 51fe 3fbd
000003e0: 5845 82bc c6f3 0cbd d0d6 e33b 5eef 333d
000003f0: f228 bcba 618b 35bc 260e 5d3d 6683 52bd
-0.06631861 0.020178577 -0.047132533 -0.019074524 -0.044833086 -0.003139725 0.027788198 0.0109085515
0.006299364 -0.011566305 -0.023902083 -0.020890659 0.027449144 -0.050937153 -0.05110526 0.0012498135
-0.044665206 -0.050811604 -0.07076905 -0.029617004 -0.038812354 -0.07273321 -0.007599978 -0.027549267
-0.05960692 -0.03296976 -0.06325924 -0.044880234 -0.04557156 -0.04841045 -0.023293816 -0.051941168
-0.023684045 -0.018669654 0.017322838 -0.04852314 -0.010107768 -0.06633824 -0.027953638 -0.052117944
-0.059733532 -0.06414623 -0.03841293 -0.030695848 -0.036317866 0.007996026 -0.033499323 -0.015384927
-0.082342155 0.0061678966 0.0017941018 -0.04338159 -0.07315143 0.005998428 -0.01937342 -0.0054185046
0.008738199 -0.007032423 0.005031388 -0.004723768 -0.0014766972 -0.06402627 -0.032533024 0.010981466
-0.05648815 0.017275967 -0.015909186 -0.0056717643 0.018212872 -0.020678176 -0.0054412736 -0.011950135
-0.03521545 -0.016804049 0.027112607 0.02504102 -0.03508017 0.019311965 -0.024275709 -0.06379972
-0.024091676 0.011605376 -0.013630893 0.016786724 -0.0118405875 0.0054172915 -0.04196331 -0.038766507
-0.031246033 0.016811695 0.020942077 -0.018246735 -0.061432593 -0.008232119 0.004610272 -0.0014319518
-0.0422605 0.028606642 0.029536773 -0.006468065 -0.024612768 -0.0021812427 0.04319598 -0.005036997
0.01715692 -0.01869703 -0.033211518 0.0026478115 -0.010860121 -0.009362487 -0.02239872 -0.015528656
-0.022905463 -0.06362718 -0.009018305 -0.06309623 -0.013854715 -0.016126007 -0.004677205 -0.043188658
0.012256971 0.012514084 -0.008026715 -0.044055577 -0.0041999626 -0.06537241 -0.026182989 -0.06617412
-0.06219712 -0.06694818 -0.016942948 -0.019137282 -0.03778294 0.00342468 -0.030723967 -0.061786193
-0.016402537 0.05160174 -0.0554209 -0.05240212 0.047072534 -0.009182459 0.010324856 -0.006175822
-0.021830935 0.0139950495 0.02071876 -0.021491751 0.0270405 0.0036273499 -0.0063616238 0.02977993
-0.00433711 -0.007237712 -0.015121166 0.030724626 0.005623547 0.00026440143 -0.014480708 -0.0038104996
-0.028052391 -0.037312377 -0.048259858 -0.029306244 -0.009419816 -0.04433022 0.025111504 -0.03727219
-0.0326465 -0.03143349 0.0113119325 0.018466216 0.0063505606 0.031523857 -0.007103485 0.021557512
-0.031673223 0.005823594 -0.0007288903 -0.04307438 0.014449335 -0.0013090601 0.011748249 -0.048906147
-0.03247112 -0.036198948 0.029561508 -0.015673544 -0.0009852287 -0.014271361 -0.033912696 0.00048803343
-0.01845294 -0.0050193015 0.023515608 -0.045107335 0.007953757 0.032308105 0.0055513512 0.00082421995
-0.013043671 0.013516162 -0.021071129 -0.027866814 -0.0039571165 -0.02909247 -0.042998407 0.045641325
-0.04523216 -0.042653225 0.02984139 0.008543179 -0.013050476 0.024283778 -0.003266555 -0.03603629
-0.040065918 -0.020787079 0.0058824695 0.021406468 -0.048716307 -0.040016163 0.01708733 -0.0576754
-0.06661568 0.048629336 -0.002616223 -0.073027246 -0.02204894 -0.03045688 0.009558692 0.013757692
-0.038945608 -0.038239505 0.045751244 -0.055676702 -0.039390918 0.020134987 -0.013368449 -0.057324186
-0.032613914 0.028486278 -0.0258677 0.0030738064 -0.044726346 -0.0060307877 0.0024735169 -0.046873394
-0.015902206 -0.034412168 0.006953098 0.04392945 -0.0014355464 -0.011080594 0.05396857 -0.051394843

conv4.bias f4 [32]
00000000: b4fe 55bc 36e7 9cbc a09b 923b c58d 463d
00000010: 9938 c83c 8881 333d 0b73 883d aeab 83bc
00000020: 6368 323d 3238 5e3c 3d30 723a 4522 4f3b
00000030: fe5a 26bd e5cd e3bc fd86 743d 88bc 763d
00000040: 793b 7b3d 413a 683d 3477 bbbd c4a6 813d
00000050: 9da1 5d3d 0c6f 513b 95d6 7abd ae85 4dbd
00000060: 3677 5dbc 958f 2dbc bebf e63c 1433 2cbd
00000070: 670a 3a3d c3ab 363d 9d98 393d 0b53 563d
-0.013061214 -0.019153219 0.0044741184 0.048475046 0.02444105 0.043824703 0.06662568 -0.016073074
0.043556582 0.013563203 0.00092387554 0.003160612 -0.04061412 -0.02780814 0.059699047 0.06023839
0.061336014 0.05669618 -0.091535956 0.06330636 0.054109205 0.0031957058 -0.061239798 -0.050176315
-0.013517192 -0.010593315 0.028167602 -0.0420409 0.045420077 0.0445974 0.04531156 0.05232529

conv5.weight f4 [64, 32, 2, 2, 2]
00000000: c723 403d 5127 39bd 00d5 323d 256f 69bd
00000010: 1dfb 8c3d 374d 323b 79ef adbc 4c9e 473c
00000020: e055 efbc 3332 593c d442 debc e626 61bc
00000030: 74e0 763c ebf6 573d af3b 39bd 37ee d43c
00000040: 486c 84bd df55 4fbd 5869 aabd c6f4 00bd
00000050: 7875 a0bd dfc4 c03c 415f b4bc 0c5b 34bd
00000060: 69ba a43c c9a8 283c 5917 44bb 217c 8f3d
00000070: d5cf 143e 6623 b03c ac57 bc3c ace1 b13d
00000080: 8e27 893d 3a30 c33c 4fa0 ed3b 73f7 c7bc
00000090: 5c84 82bc 2825 84bd 0157 be3c 6497 0bbd
000000a0: 066f d9bd 6716 a1bd 2fa8 bcbd b2d6 d4bd
000000b0: f7e6 88bc 223b b9bd 5f16 8bbd 2c64 25bd
000000c0: 0106 153d a9b3 f439 3b6a bdbc eda3 1dbd
000000d0: c74b 73bd d5cf 5fbd 43f7 76bc 6e57 76bd
000000e0: 740c e0bc 674e 78bd 7589 703d 7a1e 33b9
000000f0: 10dc 70bc 0770 dfbb 1488 04bd 0ac0 81bd
00000100: 2447 9b3b feae 80bc a029 c93d 0bad 2a3d
00000110: cd8c 4e3d 0fc4 343d 43cd a83b 55c1 ecba
00000120: f32d ef3c d815 043b e40f 14bd 7a86 5d3b
00000130: 80f7 223d 242e 963c c6d7 863b 53f2 bbbd
00000140: 5b72 4d3d fe3d d8b7 2f26 6a3d 29ea 00bd
00000150: b40f 4dbd 9e8d 733d d4a1 fa3b ccdd 503d
00000160: 5de2 1f3d de9a 5cbd 9ed0 84bc a343 f9bc
00000170: 08a5 2c3d 6e79 bbbc 8d77 57bd c80f 8dbc
00000180: 7168 323c 7cec ccbc 84a7 973c 1aa3 c43a
00000190: 3132 c53c 138f ef3c cd18 2f3d 4f3c d339
000001a0: afaf bfbc 0f52 563c 1920 c23b 0bf5 01bd
000001b0: 25f5 14bd b894 1f3d cd6a bf3c 16b5 b5bc
000001c0: 53b2 da3c af4b a7bc 189b 2ebd 1603 41bd
000001d0: 00a8 473c 3df2 2e3d 8afc babc 0135 723c
000001e0: 5137 2dbb b9c0 203d c303 b0bc d181 2a3c
000001f0: cbee 483d 568e 013d 1e6e cf3d cf89 89bc
00000200: 72ee 91bc ae1e 963b 4546 a83c 8c66 233d
00000210: b766 543d 7584 b63c 94a9 a9bc 56e3 5bbd
00000220: 2e57 5b3c ff41 89bc 2ee4 a4bb 71e5 803b
00000230: a9b4 01bd ff58 53bd 4ae2 3c3a a7ae 383d
00000240: 13ff 9fbc 61e6 54bd 8968 9dbc d56f 0dbd
00000250: 11c9 4cbd 0e3d 41bd 0579 88bd ee9a cdbd
00000260: c096 f1bd e2fb 83bd 714a 08be 646b f1bd
00000270: 96f5 6abd a28a 05be 7f84 96bd 6b82 13bd
00000280: c327 84ba 6d30 243d 06e6 d8bc bf66 ffbc
00000290: e54b 9a3c e61a 213c 7e55 f5bc 16fa 483c
000002a0: fafa 70bc 8205 383c 832b 1a3d 9348 10bd
000002b0: e42c 9cbd a428 783c fcf6 b53a 3c03 1d3d
000002c0: f1cd 9b3d 902e 983d e41d dc3d 2d46 d23d
000002d0: 40c3 81bc 4168 ffbc 5236 6c3d d788 bcb8
000002e0: 7b0c a93c f50a 5bbd cf79 61bd e175 02bd
000002f0: b66d 453d 8184 4bbd df82 e43c 0f64 9c3b
00000300: 629a ce3b 2ac1 073c c58a 8e3d fe22 543d
00000310: e9ee 06bd e526 373c a64e f7bc 2851 883d
00000320: 02a0 023d df78 6ebd 85f9 853d e629 a53c
00000330: 9a71 f83c 0d4e c73c eed8 843d 0478 353d
00000340: 361f 893d 354a f93d 88cb 323d b4f2 99bb
00000350: 4654 9b3d bf2f 083e 10dc b23d eb1b 963d
00000360: c14a 01bd be3e 21bd 3cfe 5c3c c095 4abd
00000370: 4f5c 463d 1465 40bd 4aa5 0cbd 410e 83bd
00000380: 0b48 dd3c feb4 db3c 1dc6 2cba 0a95 163d
00000390: 5e58 443c 3cd2 b13d 2df6 543c 79e7 023c
000003a0: 5488 7bbd 4394 9c3b 782e 053c b453 34bd
000003b0: 2016 d63c 4354 a8bd 451b 67bd e0d1 bf3c
000003c0: c87b 6a3d 2051 953d c90b bdbc 5316 a83d
000003d0: 113f 3f3d da3c f4bc 025c 43bc 7396 063c
000003e0: cef5 8e3d 4e4b 523d a663 693d 94c8 15bd
000003f0: e448 d23d fb76 9a3d d780 803d 382d 893d
0.04690912 -0.04520351 0.043660164 -0.05699076 0.068838336 0.0027206668 -0.021232354 0.012183737
-0.029215753 0.013256597 -0.027131476 -0.013742184 0.015068162 0.052725714 -0.045222934 0.025992496
-0.064659655 -0.050619002 -0.08320874 -0.031483434 -0.078349054 0.023531375 -0.022018077 -0.04403214
0.020108419 0.010294148 -0.0029921143 0.070060976 0.14532407 0.021501254 0.022991024 0.086856216
0.066969976 0.023826707 0.0072517763 -0.024409985 -0.015932254 -0.064523995 0.023234846 -0.034079924
-0.10616879 -0.07865601 -0.09211766 -0.103925124 -0.016711695 -0.09044482 -0.06791376 -0.040378734
0.03638268 0.00046673164 -0.023121944 -0.03848641 -0.05939844 -0.054641563 -0.0150736 -0.060141973
-0.027349688 -0.060621645 0.05872484 -0.00017082124 -0.0147009045 -0.0068187746 -0.032356337 -0.06335457
0.004738705 -0.015708443 0.098223925 0.041668933 0.050427247 0.04413229 0.005151422 -0.0018062989
0.029196715 0.0020154621 -0.036147967 0.0033802078 0.039786816 0.018332548 0.0041150777 -0.09177079
0.050157886 -2.5778074e-05 0.05716532 -0.031473313 -0.050063804 0.05946123 0.007648686 0.050992772
0.039034236 -0.05385863 -0.016212758 -0.03042776 0.042149574 -0.02288505 -0.052604247 -0.01721944
0.010889159 -0.025015108 0.018512495 0.0015002221 0.024071785 0.029243028 0.04274826 0.0004028999
-0.023399202 0.013081088 0.0059242365 -0.03172783 -0.0363666 0.03896019 0.023366356 -0.022181075
0.02669636 -0.020421831 -0.042628378 -0.047122084 0.01218605 0.042711485 -0.022825498 0.014783145
-0.0026430676 0.039246295 -0.021486169 0.010406927 0.049055856 0.031629883 0.10128425 -0.016789345
-0.017813895 0.004581294 0.02054132 0.03989272 0.05185577 0.022279957 -0.020710744 -0.0536836
0.0133874845 -0.016755102 -0.005032084 0.0039336015 -0.03166643 -0.051598545 0.00072053506 0.045088436
-0.019530809 -0.05197752 -0.019214885 -0.03453048 -0.04999644 -0.047177367 -0.06663708 -0.10039316
-0.117963314 -0.06444527 -0.13309647 -0.11788061 -0.057363115 -0.13041165 -0.073494904 -0.03601305
-0.0010082651 0.040085245 -0.026476871 -0.031176923 0.018835017 0.009833073 -0.029947992 0.012266656
-0.014708275 0.011231782 0.037639152 -0.035225462 -0.0762575 0.015146408 0.0013882811 0.038333163
0.076076396 0.07430756 0.10747889 0.10267291 -0.015840173 -0.031177642 0.05766899 -8.990027e-05
0.020635834 -0.053477246 -0.055047806 -0.0318507 0.04820033 -0.049686912 0.027894435 0.00477267
0.006305025 0.0082858 0.06960062 0.051791184 -0.032942686 0.011178707 -0.03018887 0.06656104
0.031890877 -0.05822074 0.06541733 0.02016158 0.030327607 0.02432921 0.064866886 0.04430391
0.06695406 0.12172357 0.043651134 -0.004698122 0.07584433 0.13299464 0.0873338 0.07329544
-0.03156543 -0.039366476 0.013488349 -0.04945922 0.048427876 -0.046971396 -0.03433732 -0.06399203
0.027011892 0.026819702 -0.00065908005 0.03676323 0.011983959 0.08682677 0.012998146 0.007989758
-0.06140931 0.0047784164 0.008128755 -0.044025138 0.026133597 -0.08219197 -0.05642249 0.023415506
0.057246953 0.07290864 -0.023076909 0.08207383 0.046691004 -0.029814173 -0.011923792 0.008214581
0.06980477 0.051341347 0.056979798 -0.03656824 0.10267809 0.07542225 0.06274574 0.06698078

conv5.bias f4 [64]
00000000: 3fb0 f63d 0c6e f13c b9ec cabc 0080 0abb
00000010: b241 febc 7f71 a73b 9822 d3bc f7eb c33d
00000020: 0669 fdbc d74a d43b 6d0e 37bd ff5f ffbc
00000030: b4c6 ca3c 173c aabc 5bae 7c3c 942d 09bd
00000040: be9c 893d 4253 bd3c d596 143d d882 09bd
00000050: 7926 2bbd 2a59 673d 8b72 8bbd ed4e 513c
00000060: 3ae6 223d 7be4 b73c 14c7 2abc 4de9 073d
00000070: 9f56 173d 7f21 e0bc ea3b 6b3a 6cfd e1bc
00000080: c9d9 843d fba1 a03c 49f4 9939 d708 7fbd
00000090: 4443 993d a8c9 c43d 11c1 973d 2791 c8bb
000000a0: ac47 d7bc 029c 3fbc 75c7 423d 008e 423d
000000b0: 495a ea3c b96c cf3d 5c67 273d b1d6 3cbd
000000c0: dbe5 c13d d258 cc3d 4fd5 d4bc 7a84 aeba
000000d0: 2597 54bc 08f1 553d 7f31 0b3d e03b 943d
000000e0: d757 35b9 f5d5 7cbd 3d5b ff3c aba8 083c
000000f0: 5e08 7e3d 2c47 173b 0b36 c53d 9ab5 4f3d
0.12045335 0.02947142 -0.024771081 -0.0021133423 -0.031037185 0.0051099653 -0.025773332 0.09566491
-0.030933868 0.006478648 -0.044691492 -0.031173704 0.024752952 -0.020780606 0.015422429 -0.033490732
0.06719349 0.02311099 0.036276657 -0.033572048 -0.041784737 0.056481518 -0.06808957 0.012775165
0.039770342 0.022447815 -0.0104234405 0.033181477 0.036947843 -0.027359722 0.00089734665 -0.027586661
0.06486852 0.019608488 0.0002936444 -0.06226429 0.07483533 0.096087754 0.07409871 -0.006120819
-0.026279293 -0.01169491 0.0475535 0.047498703 0.028607504 0.10128159 0.040870056 -0.046103183
0.094676696 0.09977879 -0.02598062 -0.0013314628 -0.012975489 0.05223182 0.03398275 0.07237983
-0.00017294228 -0.061727483 0.031171435 0.008340995 0.0620197 0.0023083193 0.096294485 0.050710298

linear1.weight f4 [128, 512]
00000000: c555 523d f6fb e23d 85af 003e f063 b83d
00000010: a345 843d 7433 8d3d b3d3 183d 2292 6a3d
00000020: 0949 263c d492 6bbc 5708 6e3d e8bd 1e3d
00000030: ac18 053d 2edf d4bc 65dd bc3c 34c2 233d
00000040: 9f6e d63c f195 a5b9 c900 cd3c 0f54 65bc
00000050: 5fe3 453d 85c4 8bbc 245b dabb ff13 1e3b
00000060: 7933 cf3c 2e2c 09bc 1dc3 c83c bc46 ef3c
00000070: 264c 633c 8457 c23c 18bf 95bb 7ba9 183b
00000080: 21ff 403d b1aa aa3b adb7 743c 2c90 b53c
00000090: 6aca c03c 4aa5 643c 80d7 733c b720 30bc
000000a0: 5a6d 823c a815 0f3d 3c9e 8539 295e f3bc
000000b0: 060a 4abb 3b17 07bd 1ace 8cb9 7c75 58bc
000000c0: a6fb 23bd 6c60 273d 1419 003d a24e dbbc
000000d0: fd74 ab3c 514b 9ebc 63df c2bc f42a 053d
000000e0: e256 683d 27a7 ba3d 8c09 2c3d fe97 ae3d
000000f0: 7675 763d 33fa 873c c4b1 653d 91ea d43d
00000100: 9509 d63c 6e33 a73a a606 02bd b5ce 263c
00000110: e872 843c fe61 92bc 75bf 13bc bb20 9bbc
00000120: 188d e5bc 0bee 953c b037 a6bc c761 9b3c
00000130: 60f8 23bd 5cb2 48bc a635 7fbb dc3a b23b
00000140: da4a df3c 3696 01bc c4a3 3abd aa41 973c
00000150: 6943 b6bc ade5 233d fd5c 39bd 3b6f 943c
00000160: 51e0 613c 63d6 62bc 7015 7f3d a1f7 bdbc
00000170: b8e8 073d a9db 08bc bae7 8bbb ad6f 8c3c
00000180: 0945 18bd 5dc4 db3c a2c9 e8bb 7b68 053c
00000190: 10f6 0abc 0da9 b7bb 7b0a 14bd a96c 8b3c
000001a0: 8c2f 963d 1945 0e3d eb1d 3e3b 50d9 ba3c
000001b0: d0d4 e13c 49d6 523b c26a 2e3d 3d7c 1dbc
000001c0: 8c6a 55bd 6e4c b7bc 2cc6 c6bc 6aa3 0f3d
000001d0: 4f90 3dbd 3ce3 133c 10a6 0b3c 4b1c f1bc
000001e0: 94e1 4f3d 78d9 64bc 8cfa d9bc 6a99 eb3b
000001f0: a9c5 433d 0345 1dbc 2061 7f3b 4112 df3c
00000200: 62f1 6fbd ff09 51bd 8686 01bd f695 f1bc
00000210: ddb8 0b3c 6514 313c 1c15 a43b e4ad 613c
00000220: 9824 cd3b ee48 1cbc a4d6 3dbd 871a 4dbc
00000230: 4c85 a0bc b4bb bf3c 1769 c0bc 19ba e1bc
00000240: 132a edbb e888 813c 225f 873d 2a8b 633d
00000250: f0c3 893d ac9a d33b 5b08 2f3d 74f7 0a3d
00000260: a05f 2b3c d898 68bc b8a6 793c 42a2 ea3c
00000270: f9a1 8b3a 55a0 c33c d6b2 16bd 3845 6cbc
00000280: 2dcd 30bd f349 50bc fc55 a4bc 66b1 c23c
00000290: a324 303d d11c 0fbc 6540 8ebc abb5 89bc
000002a0: 89bb 053c e65b a3bc 7ebf 23bc 064a 203c
000002b0: f7c0 a03c 9f8c 17bc 78be 19bd d0df 5f3c
000002c0: 996f ae3c f7f5 84bc 1a7c 3bbc 6981 a1bc
000002d0: 1f14 ed3b eac8 00bd 1926 1e3d 304f d23a
000002e0: c36e 25ba a384 5f3d 46a5 813d 9fe6 553d
000002f0: ebb0 31bc d1ec 813c 3a11 653c 87d4 1b3c
00000300: 3214 943c 0b5a 28bd f524 873c f92c 0cbd
00000310: 5be1 03bd ec3b 4abd ac10 2abc d5b8 05bc
00000320: cf96 ffbc 521f 8abc 9533 633c 30dc 313d
00000330: 6122 12bd 583b 0d3d 8251 e63c c7a0 f5bc
00000340: 4d2a b1bb d42d d93c c576 8e3c 169d 023d
00000350: a3a4 35bd 00df b3bc b2a6 1d3b 3611 04bd
00000360: 9ace f53c d50a 663d ab9e 34bc 9bb4 423d
00000370: 2e3e 593d 8599 063d d3c4 2f3d fa21 453d
00000380: f6cc 16bd 24d4 363a cc3a ad3c cd37 e1bc
00000390: 841e 193c f3f3 fa3c a825 3fbd ceb2 143d
000003a0: 57f3 a9bc 730b 8fba a618 233d a7f9 47bd
000003b0: b0cf c93c 303d 78bd ad8c 9e3c f589 f5bc
000003c0: 3016 413c 3ce8 59bc 1b69 3fbc 9d2a 323d
000003d0: ddb8 8bbc 2314 7a3a 9544 04bc e0b6 1bbc
000003e0: aac9 e23b 29a6 943d f2dd 883c 3318 883b
000003f0: d54d c6bc 73e6 2b3d f30c 5ebd b8a2 efbc
0.051351327 0.11083214 0.12566955 0.090034366 0.06458595 0.068945795 0.037311267 0.05726827
0.010149249 -0.014378268 0.058113422 0.038755327 0.032494232 -0.025985327 0.023054788 0.03998013
0.026175795 -0.00031582967 0.025024788 -0.013997092 0.04831254 -0.017061481 -0.006663697 0.0024120805
0.025293099 -0.00837235 0.0245071 0.029208533 0.013873136 0.023723371 -0.0045698993 0.0023294378
0.04711831 0.0052083363 0.01493637 0.022163473 0.023534019 0.013955424 0.014882922 -0.010749987
0.015921284 0.034932762 0.0002548563 -0.029707985 -0.0030828728 -0.03298114 -0.00026856438 -0.013211604
-0.040034913 0.04086344 0.031273916 -0.026770893 0.020929808 -0.019323023 -0.02378816 0.032511666
0.056723483 0.09113913 0.042001292 0.08525084 0.060170613 0.016598796 0.056077734 0.103963025
0.026127616 0.0012756416 -0.03174462 0.010181119 0.016168073 -0.017868992 -0.009017815 -0.018936506
-0.02802138 0.018301984 -0.020290226 0.018967522 -0.04003179 -0.012249555 -0.003894189 0.0054391455
0.027257372 -0.007909348 -0.045566335 0.018463928 -0.02224894 0.040013958 -0.045254696 0.018119445
0.013786391 -0.013845059 0.062276304 -0.023189368 0.033180922 -0.008353152 -0.0042695673 0.017143095
-0.037175212 0.026827032 -0.0071041146 0.008142586 -0.008481517 -0.005604869 -0.036142807 0.017019587
0.073332876 0.034733865 0.0029009532 0.0228087 0.027567297 0.003217118 0.04258228 -0.00961214
-0.052103564 -0.022375312 -0.024264418 0.035067953 -0.0462802 0.009026345 0.008523479 -0.029432436
0.050752237 -0.013967864 -0.026608728 0.0071899192 0.047795925 -0.009598973 0.0038967803 0.027230384
-0.05857981 -0.051034924 -0.031622432 -0.029490452 0.008527962 0.010808085 0.0050073992 0.013774369
0.006260466 -0.009538872 -0.046347275 -0.012518532 -0.01959481 0.023404934 -0.02348761 -0.027554559
-0.0072376817 0.015812352 0.06609942 0.05555264 0.06726825 0.0064576473 0.042732578 0.033927396
0.0104598105 -0.014196597 0.015237503 0.028641824 0.001065313 0.023880163 -0.036791645 -0.0144208
-0.04316442 -0.012712943 -0.020060532 0.02376623 0.04300369 -0.008734898 -0.01736469 -0.016810259
0.008162388 -0.019941282 -0.009994386 0.009783274 0.019623263 -0.009249835 -0.03753516 0.013664201
0.021293448 -0.016230566 -0.011443162 -0.019715028 0.0072350646 -0.031441607 0.03861055 0.0016045328
-0.0006310755 0.05456985 0.063303515 0.05222189 -0.010845403 0.015859993 0.013981158 0.00951112
0.018076036 -0.041101497 0.016497115 -0.034222577 -0.032197338 -0.049373552 -0.010379951 -0.008161743
-0.03119984 -0.016860638 0.013867279 0.043422878 -0.035677318 0.034480423 0.028115038 -0.029983891
-0.005406654 0.02651111 0.017390618 0.03188809 -0.044346463 -0.02195692 0.0024055657 -0.032242976
0.030005742 0.056162674 -0.0110241575 0.04753552 0.053037815 0.03286125 0.042912316 0.048128106
-0.03681656 0.00069743604 0.0211462 -0.027492428 0.009345654 0.030633902 -0.04666677 0.036303334
-0.020745916 -0.0010913446 0.03981843 -0.04882207 0.024635166 -0.060605228 0.019354189 -0.02997301
0.011785075 -0.013299998 -0.011682774 0.04349767 -0.017055923 0.0009539744 -0.008072992 -0.00950405
0.006921013 0.07258255 0.016707394 0.0041532754 -0.024207035 0.04196782 -0.054211568 -0.029252395

linear1.bias f4 [128]
00000000: ded9 9e3c cbbe 863d 3c5f 6c3d 982e 52bd
00000010: 32f6 8bba 2508 65bc e287 c43d 3dbf 093d
00000020: 1aa5 2c3c 2ea4 83bb 4def 2c3d c6bc 33bd
00000030: 4327 213d f557 cb3c 6329 f0bb 30c3 c93c
00000040: 5bca 75bc 9e2e 673d 23ae dabc 84c1 663d
00000050: d097 ca3a 6fed 243d 1e14 4ebd 7e84 f4bc
00000060: f223 7a3d 1698 7f3d 9199 23bd 5531 44ba
00000070: 5526 9c3d cee1 263d 9fc2 d1bc 8503 8abc
00000080: 741e 9b3c a80c 36bd 4ca9 5f3d b908 a0bc
00000090: c264 7e3d c839 9b3d 5b19 4a3d 282e 07bd
000000a0: 7b0c 14bd d177 d43c 4f59 773c 97f7 1f3d
000000b0: 6736 8cbc 8b8c 2bbd 5af9 1ebd 1ad7 96bc
000000c0: d7fb d53c d5fc 2e3d f70b c43c ce8a 6f3d
000000d0: e90c 283d 7c68 033d cbf9 0dbd a761 7dbc
000000e0: de06 23bd c1ca 59ba 91b1 643d d0f8 163b
000000f0: 7535 2f3d f59f 61bb c60f 4ebd 020e abbc
00000100: 75e8 cfbb 621b ca3c 3c8b e8bc b253 4bbd
00000110: 360b bc3c f8b2 373d f60b 42bc 2d1f 383d
00000120: 30fc 3a3d f465 52bd a3bf 6a3d dbf7 6a3d
00000130: 459b 6a3d 8d9a c33b 1c87 883d 154d bd3c
00000140: 6494 bc3c ca62 ec3c e05e 2c3d 3b33 203b
00000150: cd97 debc 24e8 8b3d 25fc ff3c 8002 493d
00000160: cade 183d 8c6e bf3c 15d2 283d 9e31 0bbd
00000170: fc1c 1abb e51a 00bd f64f 793d d3da 27bc
00000180: d22c 2f3d b498 dbbc e99a a23c 225a c3bc
00000190: b080 773d 2052 9f3c d962 7f3d bbf2 96b8
000001a0: fcfb 07bd dedb c9bb be63 513c 4bfa 68bb
000001b0: 93a2 80bb ff80 863d 645f aabb 6b56 9abc
000001c0: 1de6 4e3d 5c0f 80bc eedd 043d cf97 143c
000001d0: 3e12 28bd 3de2 843d d32a 1ebc e852 4f3c
000001e0: 3e22 cfbc c2bf 0ebd cd0a ecbc d152 0dbb
000001f0: 88ae 373d ee51 8d3d 4ea8 083d eea6 2b3d
0.019390997 0.065793596 0.05770801 -0.051313967 -0.001067823 -0.013978993 0.0959623 0.033629645
0.01053741 -0.0040173745 0.042220403 -0.0438812 0.039344084 0.024822215 -0.0073291524 0.024629205
-0.015001859 0.056440942 -0.026694363 0.056336895 0.0015456621 0.040265497 -0.050312154 -0.029848333
0.061069436 0.0624009 -0.039941374 -0.00074841577 0.07624499 0.040742688 -0.025605498 -0.016847381
0.01893542 -0.044445664 0.054604813 -0.01953541 0.06210781 0.0757938 0.049340587 -0.033003002
-0.036144715 0.02593604 0.015096976 0.03905448 -0.017115785 -0.04188208 -0.03881202 -0.018413115
0.026121063 0.04272159 0.023931487 0.058481984 0.041027937 0.032082066 -0.03466205 -0.015465177
-0.03980147 -0.0008308106 0.055833403 0.0023036487 0.04277559 -0.0034427617 -0.05030801 -0.020880703
-0.0063448497 0.02467126 -0.028386705 -0.049640365 0.022954565 0.044848412 -0.011843672 0.044951607
0.04565066 -0.05136676 0.057311665 0.05736528 0.057276983 0.0059693516 0.06666395 0.023108045
0.023019977 0.0288557 0.042082667 0.0024444598 -0.027171994 0.06831387 0.031248162 0.04907465
0.037321843 0.023368143 0.041215975 -0.033982866 -0.0023515811 -0.03127565 0.060867272 -0.010245043
0.042767353 -0.026806213 0.019849258 -0.02384669 0.06042546 0.01944834 0.062350128 -7.1977694e-05
-0.033199295 -0.0061602434 0.012780128 -0.0035549577 -0.0039256304 0.06567573 -0.0051993597 -0.018840035
0.050512422 -0.015632324 0.03243821 0.009069397 -0.041033022 0.06488464 -0.009653765 0.012654044
-0.025284883 -0.034850843 -0.028813744 -0.0021564255 0.04484418 0.069003925 0.033363633 0.041907243

linear2.weight f4 [1, 128]
00000000: 49a7 bdbd ccd4 3c3d 4038 e13d 66a3 09bd
00000010: 9195 273d 61ff 92bd 9ade 9ebd 9592 4f3d
00000020: a49d 9a3d 7790 af3d 9ba8 88bd a429 86bd
00000030: bd09 d83d a19a 1b3d fa04 a2bd 92ba a63d
00000040: 8f90 8fbd 5498 01be c569 9dbd 3fb8 e23d
00000050: fa7a 833d d31b c23d 1bb0 54bc 0c3d 81bd
00000060: a49c e1bd 4e7e ae3d db49 33bd cecd d2bd
00000070: e54d a5bd 8e2a e23d 86ef b43c 0545 4ebd
00000080: 5e79 5c3d c9fc 313d ba64 bb3d 7d49 1639
00000090: a98a 77bd 985c 73bd 8c3e c73d 225f a23c
000000a0: e290 66bd 0b3b 40bd d05a a13d f0cb ed3d
000000b0: 8f6d d5bc d218 2dbd 4c8f a9bd 10db f5bb
000000c0: f8cf ba3d 279e 803d 3446 b53d 2b67 b0bd
000000d0: fcbb 1c3d 6fee 2cbd 385d c3bd 87fc 8ebd
000000e0: b0bc 30bb 86d1 a03d 31e6 783d 2058 55bd
000000f0: a654 d4bd 576c bebd 47ec 7dbd 4ef4 15bd
00000100: 0f08 9fbd d347 e13d 70c8 be3b 3fba d7bc
00000110: aa58 3bbd 24a6 a73d 3824 22bd aa8d 87bd
00000120: 09c0 cd3d e883 9a3d b93f ab3d 981f 96bd
00000130: b36a 453d 5a72 da3d ce5a a33d 73da f13d
00000140: a394 ea3d d217 be3d e534 31bd 6066 6b3d
00000150: c280 bbbd 306e b7bd a04f 04be 4f71 7e3d
00000160: b08d 3a3d 3922 85bd ca71 9cbd b25b 06bc
00000170: 3fad 893d aa49 b03d 4ba9 1f3d 4c5c 5fbd
00000180: 244d cfbd 61b8 9e3d 26e0 2bbe 3a8c b6bb
00000190: 68ff a53d c0f8 f03d ad7c 99bd 2705 933d
000001a0: c998 e13e 2c75 0e3e bf42 f43d 2ecd 24bd
000001b0: 2ba2 40bd 0150 aabd bed8 6a3b 4ad8 783d
000001c0: 3f14 6e3d f270 d7bd a51e abbd dcef bb3d
000001d0: b2f0 403c 473c fbbd f736 9bbd cc18 b5bd
000001e0: 6180 7e3d 7374 d3bc e7e0 b73d 2ff0 29bd
000001f0: 3bf0 b2bd 137a 08be 38ee bd3d d760 933d
-0.09260423 0.046101376 0.10997057 -0.033603095 0.040914122 -0.07177616 -0.07757302 0.0506769
0.07549599 0.08572476 -0.06672784 -0.06550911 0.105487324 0.037989262 -0.079111055 0.08141054
-0.07009994 -0.12655765 -0.076861896 0.110702984 0.0641994 0.09477963 -0.01298144 -0.06310472
-0.11016205 0.085201845 -0.043771606 -0.102931604 -0.08071498 0.11043273 0.02208687 -0.05035879
0.053826682 0.043453965 0.091500714 0.00014332491 -0.06043497 -0.059414476 0.09728727 0.019820753
-0.056290515 -0.046931308 0.07878649 0.116111636 -0.026053218 -0.04226 -0.08279285 -0.007502921
0.09121698 0.06280165 0.08851281 -0.08613428 0.038265213 -0.042219575 -0.095392644 -0.069817595
-0.0026967935 0.078524634 0.060766403 -0.052085996 -0.10367708 -0.09298008 -0.06199291 -0.03660994
-0.07765209 0.110000275 0.005822234 -0.026333926 -0.045738854 0.08185986 -0.039585322 -0.06618817
0.100463934 0.0754469 0.083617635 -0.07330245 0.04819746 0.10666342 0.07976304 0.11809244
0.114541315 0.09281887 -0.043263335 0.05747068 -0.09155418 -0.089565635 -0.12921 0.06211978
0.04554528 -0.06500668 -0.07638891 -0.008200573 0.06722497 0.086078 0.03897981 -0.05453138
-0.10122135 0.07750011 -0.16784725 -0.0055709155 0.081053555 0.11766195 -0.07494483 0.07178717
0.44061878 0.13911885 0.11926793 -0.040234737 -0.047029655 -0.08316041 0.0035834755 0.060753144
0.058124777 -0.105195895 -0.08355454 0.09176609 0.011776136 -0.12267356 -0.07578843 -0.0884262
0.06213415 -0.025812363 0.089784436 -0.041488823 -0.087372266 -0.13327818 0.09273952 0.07196205
