models/1A_SSE_alpha.pth (torch, 421229 bytes, 13 tensors)

conv1.weight f4 [4, 1, 5, 5, 5]
00000000: a063 36bd 407e 96bd a27e e33c 4ddb 963d
00000010: 1a39 3abd a3fe 96bc b6b5 2dbd 4112 9abd
00000020: 09e6 a0bd a238 313d 6c72 023c 1e6f 24bd
00000030: d9dc 8f3d a877 a9bd b806 f33c cb52 8f3d
00000040: 7dad 44bd 12e2 383d b545 76bd 7653 893d
00000050: 11d0 03bd c331 88bd 4f84 903d e912 b0bd
00000060: 8bba 26bd 1c93 12bd b383 a23d 946b 60bd
00000070: 22e2 3a3d adbe 8e3c 36d0 8e3c 78b1 963d
00000080: 3424 6fbc cb83 8a3c b3a9 adbc 4dbf 423d
00000090: 5f84 35bd 427a c13d de2d e7bc e7f3 23bd
000000a0: 50f5 843c ece2 d33d cd4e a73d 0b93 303c
000000b0: 52a3 a0bd 107d 8b3d b67e 1b3c ad70 8a3d
000000c0: 4180 91bd 93c0 0f3d ba85 6dbd f27a 87bd
000000d0: ea73 3ebb 2f97 a4bd eab4 863d b70f 2ebb
000000e0: d04c 913c 8db6 413d 0416 8b3b 35d0 9ebc
000000f0: bc98 50bd 6a0b f23d f7d4 9c3d c428 32bd
00000100: df7b 253a b844 673d d627 ef3d a635 52bd
00000110: 3828 05bc 517b 7b3d 098a 90bd a186 6e3d
00000120: 267a ae3c f588 d7ba ad7f 943c daeb 9fbd
00000130: 3650 12bd 2c71 adbd bc1b b13c c16f 06bd
00000140: a626 f53b 3407 4d3d f28f 2a3b 00ba a03d
00000150: f876 e8bb 6336 923c fbe9 d93d 6f00 333c
00000160: cf91 4ebd 8457 92bd e763 663d f1df 923d
00000170: 5015 b03d 564f 89bd bc81 84bd 109d 883d
00000180: 6408 cc3d c948 3abd ac4e 513d bef5 323d
00000190: f2cd 9bbc a7de fc3c 7c01 493b 665b 0dbd
000001a0: 060d 10bd 50bd 6dbc bcfd f3bc 2334 bcbd
000001b0: 47c7 5c3d 0a40 acbd 24e6 2e3d 1b4b 9bbd
000001c0: 8b81 aabd 5b3e 133d 3709 92bd 21c5 a73d
000001d0: 31d1 663c 31c6 06bc 3295 bdbd a166 8ebd
000001e0: fda9 84bd 024c a3bd 7895 2e3d c770 19bd
000001f0: 4661 743d fe13 74bc 4c2c 99bc 7f30 59bd
00000200: cbd7 563d 0311 9abb 2e2b a9bc bef1 763d
00000210: dc05 573d 9d28 fdbc 07f0 493d 766c e8bc
00000220: ed3c 8f3c 1351 563c 6fb7 913d 6ef7 38bd
00000230: 1ad9 37bd 7201 6c3d f0c3 a73d 206c 3fbd
00000240: d169 0cbb 389e d1b9 164b 8c3d 7dc2 9b3d
00000250: a2e8 17bd fa29 873d d550 a4bd 5347 90bd
00000260: e574 3dbd 60f1 3f3d 5a8d 493c 2b28 adbd
00000270: acaa 4fbd 0cfe b2b6 0fd5 2cbd 51f8 103d
00000280: 0c62 313d cf02 48bd 243b b43c 0a74 a03c
00000290: c7f5 ef3c 0cc0 43bd 7b3f 0abd cde0 f8bc
000002a0: b2c0 3fbc b810 0e3d c1b0 b13d 7f48 94bd
000002b0: 0922 223b 1fab 7e3d 3bc9 0e3d 1610 7a3d
000002c0: 2518 373d 3fc8 e9bc 4775 313d 0702 3bbd
000002d0: 7a26 003d 1f9c 563c 217d a6bd 6cf5 453d
000002e0: 6db0 95bd e6c4 333d 1c01 1cbd 68cc 9a3d
000002f0: e2dd 653d 451b cc3d 6804 633d 3eb4 7abd
00000300: 55cf 5e3d 63e3 8cbd 21ff 853c ebf2 57bc
00000310: 6ec2 f739 02f0 143d 4ded a4bb 3e08 b93c
00000320: 6f74 323d b349 053d 5a4a 983d 3560 e93b
00000330: 6687 b63d b29d 7cbd 2e97 a3bc 6183 df3c
00000340: ea36 a63c f614 07bc b6a9 a9bc c3a8 cdbd
00000350: b280 7ebd c442 81bd 386a 403d 5248 e5bd
00000360: 874e 09be a78c 313c 2f0c e03c 2850 9c3d
00000370: 97ee 27bd 1dad cebd f48e 9fbd 10b7 963c
00000380: e6ea 963d b647 b3bc 2fd6 1c3d 6bec 3c3d
00000390: 297a 083d f747 6bbd 4fd2 723d ed7f 98bc
000003a0: f393 1a3d 2a52 ab3d 5fd0 2cbc 8fe2 e03c
000003b0: 982f 3abd 962f c1bd 59ba a63d d03b f1bc
000003c0: 2cee b5ba 5006 fdbd 2d6e 9fbd 870b 073c
000003d0: 4429 fe3c 2a56 2a3d 6382 89bd ca05 6bbc
000003e0: 9e0d e63b e87f 95bc f5b4 ba3d 0c85 4f3d
000003f0: 7e23 853d 6218 853d a389 263d 468a c43d
-0.044528604 -0.07348299 0.027770344 0.07366047 -0.045464613 -0.018431967 -0.04240962 -0.07523013
-0.07856376 0.0432669 0.007961851 -0.040145032 0.07024545 -0.08274776 0.02966629 0.069982134
-0.048017014 0.045137472 -0.06012507 0.06705372 -0.03218085 -0.06650116 0.07056486 -0.08597357
-0.040705245 -0.035784826 0.07935276 -0.054790094 0.045625813 0.017424906 0.017433267 0.07358068
-0.014596034 0.016908547 -0.021199083 0.04754572 -0.044315692 0.09447147 -0.028220113 -0.040027525
0.016230255 0.10346016 0.08169327 0.010777245 -0.07843651 0.06810963 0.009490659 0.067597724
-0.071045406 0.035095762 -0.05798886 -0.06615247 -0.002906079 -0.080366485 0.06577475 -0.002655966
0.017736822 0.047293235 0.004244568 -0.01938639 -0.05092691 0.11818583 0.07657807 -0.04349591
0.0006312709 0.05646202 0.1167752 -0.051320694 -0.008127265 0.0613969 -0.07057578 0.05823386
0.02129848 -0.0016444015 0.018127287 -0.07808657 -0.035721026 -0.084688514 0.02161967 -0.03282142
0.007481414 0.050055698 0.002602574 0.07847977 -0.0070942603 0.0178482 0.10640331 0.010925396
-0.050432023 -0.071455985 0.056247618 0.0717162 0.08597815 -0.06704585 -0.06470057 0.06670582
0.09962538 -0.04547957 0.051100418 0.04369139 -0.0190191 0.030867888 0.003067105 -0.034510992
-0.03516867 -0.014510468 -0.029784076 -0.09189632 0.053900983 -0.08410652 0.042699948 -0.075826846
-0.083254896 0.03594814 -0.07130664 0.08191896 0.014087961 -0.008225963 -0.092569724 -0.06953169
-0.06477735 -0.07973482 0.042623013 -0.03746107 0.05966308 -0.014897345 -0.01869788 -0.053024765
0.05245189 -0.004701735 -0.020650472 0.060289137 0.052495822 -0.030903155 0.049301174 -0.02837203
0.017485106 0.013080853 0.07115065 -0.045157842 -0.04488478 0.057618566 0.08191669 -0.046733975
-0.0021425376 -0.0003998147 0.06850259 0.07605455 -0.03708709 0.06599803 -0.0802323 -0.07044854
-0.046254057 0.046861053 0.012301767 -0.08454927 -0.050699875 -5.3343883e-06 -0.042195376 0.035393063
0.043306395 -0.048830803 0.022000857 0.019586582 0.029292 -0.047790572 -0.033751946 -0.03038063
-0.011703657 0.034683913 0.08676291 -0.0724039 0.0024739525 0.062174913 0.034859877 0.061050497
0.04470076 -0.028537868 0.043324735 -0.04565623 0.031286694 0.013098746 -0.08129335 0.048329756
-0.07309041 0.04388895 -0.038086995 0.07558519 0.056119807 0.09966139 0.055424124 -0.06120705
0.054396946 -0.06879308 0.016357007 -0.013180475 0.00047256373 0.0363617 -0.0050331713 0.022586938
0.04356807 0.03254099 0.074360564 0.0071220645 0.08912544 -0.061673827 -0.019969549 0.027284326
0.020289857 -0.008244744 -0.020710807 -0.10041954 -0.062134452 -0.06311563 0.046976298 -0.11195435
-0.13408862 0.010836757 0.02734956 0.07632476 -0.04099902 -0.100916125 -0.07790938 0.018397838
0.07369022 -0.02188478 0.0382902 0.046123903 0.033319626 -0.057441678 0.059282597 -0.018615687
0.03773875 0.08365281 -0.010547726 0.027451782 -0.045455545 -0.094329044 0.08141012 -0.029447466
-0.0013880185 -0.1235472 -0.07784686 0.008242494 0.031025536 0.04158608 -0.067143224 -0.014344642
0.0070206663 -0.018249467 0.09116546 0.050663993 0.0650091 0.06498791 0.040658604 0.09596686

conv1.bias f4 [4]
00000000: 4a7d 1fbd a2aa 0d3d 25ba e33b 99fb 07bd
-0.038937844 0.034586556 0.0069496804 -0.033198927

conv2.weight f4 [8, 4, 5, 5, 5]
00000000: 7a41 503d 9497 743d b9ab 953d c465 6e3d
00000010: b360 4b3d e2cb e93c 6f2d 873d 45e5 163d
00000020: fef0 2c3d d43b 293d e35f a73c cccb 3d3b
00000030: b66b 1c3d 9b99 583d 236f c03c ee5a a83c
00000040: 09af f6bc 5231 fa3c 7ec4 533d c388 de3c
00000050: 4ae1 243d 2f30 a4bc f058 313c 15cd a0ba
00000060: 5e3f c4bc dde9 92bc 91fe 9e3d cb15 a93d
00000070: 691b 5c3d eb0f 183d ec95 a23c b4aa 973d
00000080: 1a91 ff3b 047d 96bc 21c2 193b 702e 523d
00000090: 8ded 3f3d 1b42 063d 209a dd3c 3cb7 a9b9
000000a0: e1fe 353b 0745 553c 77e6 00bd d97b 7a3d
000000b0: d6a3 5bb9 f112 d73c 30e5 f2bb a337 3c3d
000000c0: ae48 213d aa78 5dbc b158 bf3c 8934 bdbb
000000d0: 23b8 793c 5e87 333c 951e 8d3c 4989 8b3d
000000e0: 710d 873d f1c1 ac3a a743 083d 995c 883d
000000f0: 2841 a23d 35ec c53c 357b 07bc fcb9 18bd
00000100: 782a fe3b 6903 5d3d 862e 8b3c 1ccb 0f3c
00000110: eabb a3bc 51e4 883d e82b c63c 04ff 5d3c
00000120: de66 c73c 4b08 213d 07ba 24bd 39df d13b
00000130: 1000 373b f9a8 873c 980f 743d 139b 233d
00000140: 07da a93c aab6 223d 1ab8 ebbb 5345 52bc
00000150: a608 113d 56e1 893d 2c1b de3c c49a 89bb
00000160: 0756 1ebc 2bc8 813d 0df4 98bc 04eb 123d
00000170: efd2 823c 019f 573d 9cee 653c 4a03 88bd
00000180: a136 a3bc 0861 ae3c 6a79 643d 6a39 963c
00000190: bea4 b5bd a1ef 033d 755b 4cbd f96d 883c
000001a0: 011d a03c 63dd 003c d645 a3ba a43d 003d
000001b0: 0f8c 803b 0b53 343d 817e 393c c318 873c
000001c0: 90ca 0fbc 74de 983d 3bbd f43c aa61 7cbd
000001d0: 3088 863c 9bb1 843b e9af da3c 2349 903c
000001e0: 021f 87bd f397 2e3c 662b 4fbc ab15 113c
000001f0: a82b 213d 3e85 4f3d cf8f a03c c4fe 4f3d
00000200: 4b48 3cbc 927b dc3d 342a 2d3c 71ed b4ba
00000210: a3ad 51ba 5025 eb3c b8c1 3f3c c1e9 af39
00000220: 7753 3a3d 36e6 803d b1b3 5c3c 0b98 683d
00000230: 75ea 6fbc dd00 a2bc 05fd c03a b41f 383b
00000240: 35c6 cf3a bb60 7d3d 2ef2 e3bb b4ce 8f3d
00000250: e293 b23d a0e8 e43d 342b d13c ef84 583d
00000260: 89d2 f63c 9064 953d bc82 1c3d bdb3 0c3d
00000270: e50b 3a3d 6abb 743d d0c6 f43b 5e78 d8bb
00000280: e749 cebc 0f75 3e3d 628b 24ba fe31 49bc
00000290: 8824 39bd 9150 403c 8cb1 1f3d f053 1d3d
000002a0: 5222 f4bc 6582 6b3a 757a 923c f408 5e3d
000002b0: 1a84 d83c fcfd 603c 3d85 863d 278c 3c3d
000002c0: 8d62 5a3d aea4 1a3d ef73 3b3c fe8c 303d
000002d0: bac4 d73c 5507 babc b7ed fe3a 32a2 60bc
000002e0: 47b4 093d bc65 35bc a7c0 c7bc a007 513d
000002f0: 77d8 8ebb d626 84bd 2bbd 14bb 316d 823c
00000300: df44 efbb 2ba8 90bc 132c a03c 0874 203d
00000310: d05b 60bc 8f56 e43c 4132 a23d 3b48 c73c
00000320: 8102 c4bb bc5f 4c3d aec6 b3bb 468a aebc
00000330: ee9f 873d 5bf1 763b 8038 6e3d ad73 d2bb
00000340: 3a6f 64bd d015 fa3c e7cd 823d f419 87bc
00000350: 07c9 183d 4485 4e3c 2e48 323d 34e4 833c
00000360: c88b 843b 3806 34bb 307b 733d 1e2c 303d
00000370: a5b5 da3b 24b3 1e3d 7645 493c 6f31 9e3c
00000380: 3c23 863c a639 903b f072 1dbc 6c46 f43c
00000390: fe64 0a3d 1098 353d bd73 3abb b845 3a3c
000003a0: a9ba 2cbd b3e8 34bd c19d da3b 2c08 403c
000003b0: a5e4 143d dc11 00bd fbe1 c43c 245a 8c3d
000003c0: 38e0 003d 3b8f 52ba d693 673b 6eef 7c3d
000003d0: 6713 ac3d 9300 b7bc 8139 093c f6f6 833d
000003e0: d03a e73c c505 603d 0d46 29bd 73d8 6d3c
000003f0: a13e 893a 1c03 50bd dda4 7f3d 258e 413b
0.050843693 0.05971487 0.07308144 0.05820252 0.049652766 0.028539602 0.06600463 0.036839742
0.042222016 0.041316822 0.020431465 0.0028960584 0.03818866 0.052880865 0.023490494 0.020551171
-0.03011276 0.030541096 0.05170106 0.027164822 0.040253915 -0.020042507 0.010824427 -0.001226815
-0.023955997 -0.01793378 0.077633984 0.0825611 0.053737078 0.037124556 0.019846879 0.07405606
0.00779928 -0.018370159 0.0023461657 0.051313818 0.046857405 0.032777887 0.027051032 -0.00032370712
0.0027770328 0.013016946 -0.03146979 0.061153267 -0.00020946501 0.02625415 -0.007412575 0.045951497
0.039375953 -0.013517538 0.023357721 -0.005774085 0.0152416555 0.010957567 0.017226497 0.068132944
0.065943606 0.0013180358 0.033267643 0.066582866 0.07922584 0.024160484 -0.008269121 -0.037286744
0.0077565275 0.05395833 0.016989958 0.008776452 -0.019987065 0.06684173 0.024190858 0.01354957
0.024341043 0.03931455 -0.040216472 0.006404784 0.0027923621 0.016560065 0.059585184 0.039942812
0.020733846 0.039724983 -0.0071935775 -0.012833911 0.03540864 0.067324325 0.027112566 -0.0041993577
-0.009664065 0.06337007 -0.01867106 0.03586866 0.015969722 0.052641872 0.01403394 -0.06641252
-0.01992351 0.021286502 0.055779852 0.018337924 -0.08869313 0.03221095 -0.049891908 0.016654002
0.01954508 0.007865283 -0.0012456726 0.031308785 0.0039229463 0.04402451 0.011321665 0.0164913
-0.008776322 0.074643046 0.029875388 -0.061616577 0.016422361 0.0040494925 0.026695209 0.017613
-0.06597711 0.010656345 -0.012644624 0.008855264 0.039348274 0.05066418 0.019599823 0.050780073
-0.011491845 0.10765757 0.010569144 -0.0013803673 -0.0007998591 0.028704315 0.011703901 0.0003355276
0.045489755 0.06293909 0.013470576 0.056785624 -0.014643301 -0.019775802 0.0014723843 0.0028095068
0.0015851917 0.061859827 -0.0069563603 0.07021847 0.08719613 0.11177182 0.025533296 0.05286115
0.030129688 0.072945714 0.038210616 0.0343511 0.0454215 0.059749044 0.0074699894 -0.0066061458
-0.025181724 0.046498355 -0.0006276873 -0.0122799855 -0.045200855 0.0117379585 0.03898768 0.038410127
-0.029801521 0.0008983969 0.017880658 0.054207757 0.026430178 0.01373243 0.06568382 0.046032097
0.05331664 0.037754707 0.011441215 0.04310321 0.026338924 -0.022708574 0.0019449507 -0.013710545
0.03361919 -0.011071619 -0.024383856 0.051032662 -0.0043593007 -0.0645272 -0.002269576 0.015921207
-0.0073019112 -0.017658314 0.019552266 0.039173156 -0.013693765 0.027873306 0.079197414 0.024326434
-0.005981744 0.049895987 -0.005486331 -0.021306168 0.06622301 0.003768048 0.05815935 -0.006422481
-0.055770136 0.03052798 0.06386929 -0.016491868 0.03730109 0.012605015 0.043525867 0.016100027
0.0040449835 -0.0027469527 0.059443653 0.043010823 0.0066744857 0.03874506 0.012284627 0.019310681
0.016374223 0.0044014035 -0.009609923 0.029818736 0.03378772 0.04433447 -0.0028450333 0.011369161
-0.0421702 -0.04416723 0.0066716378 0.011720698 0.036350865 -0.031267032 0.024033537 0.068531305
0.03146383 -0.0008032207 0.003533592 0.061751775 0.08402138 -0.022339141 0.008375526 0.064435884
0.028226286 0.054693002 -0.04132657 0.014516938 0.0010470935 -0.050784215 0.062413085 0.0029534188

conv2.bias f4 [8]
00000000: 3228 e83a 5f39 ad3c f466 173d 9609 f5ba
00000010: c25b 80bb a28e 47bc d6d4 263a cb18 96bb
0.0017712174 0.02114552 0.036963418 -0.0018694873 -0.0039171884 -0.012180002 0.00063641125 -0.0045805923

conv3.weight f4 [16, 8, 3, 3, 3]
00000000: 237c 83bd 4aea 04bd e2fb 34bd eef0 613d
00000010: 582e 68bc b530 e0bc 7682 723b 7072 5e3d
00000020: 3394 8f3c b696 05bd 9663 883a a3fe 8bbd
00000030: 8990 4dbd b614 483d 87cd 87bc 926a 89bc
00000040: 45fc bb3c 49b3 38bd 197b 7fbd b493 a63b
00000050: 3410 073d 9b62 90bc 8ab1 183d d62f 95bb
00000060: 90a3 273d 5909 cfbc 1da8 c13c be33 d5bc
00000070: 5e57 b03c 7d46 efba 0e3b 98bd dc60 a93c
00000080: 8b10 50bd e9ed a4bb 61b2 e83c 9593 53bd
00000090: 8a09 353d 1f63 86bd 985d cbbc d682 453d
000000a0: 4d78 43bd 65e5 e43c dd8d 87bd 7082 7abd
000000b0: bf3f 213d 3a0d 53bd 8378 6ebd 4462 3c3d
000000c0: 43c4 e9bc 7f3b 493d 9db9 2f3d 660d 35bd
000000d0: c39f 223c 8f84 9c3c 0555 af3c 65cb 7dbd
000000e0: c9ea 6f3d 0cd7 14bd c9e2 c1bc 72d1 0d3d
000000f0: 652e 4bbd db67 8ebd dd89 66bd 068b 99bc
00000100: d476 c73b 644b 79bd aebe 4fbd 1b80 cc3c
00000110: 5b68 103d b66e 123d 13f4 d8bc b68b 35bc
00000120: a7a2 2a3d 4d28 23bb 9aef 773c 8c41 aa3c
00000130: b218 693d b5ee 8ebd ff09 823c 10a5 52bd
00000140: f751 72bd 06df 473d 43b9 b33b ee09 5fbd
00000150: 4f6b f73c ee81 96bd 6a2d 48bd 246d 4c3d
00000160: 6e45 80bd 5a2f dfbb 7001 89bd bf3a 82bd
00000170: 925f 8abc 7135 69bd 8e13 d23c 11a9 99bd
00000180: dc99 60bd bfd3 2ebd 9d1f 323d a4f8 83bd
00000190: 5a33 1fbd 8afd 01bc 4454 c73b 3a08 43bd
000001a0: 27d5 95bd 2b5c c5bc f97c 02bc 6f6a 1a3d
000001b0: f816 403d 668a ccbc 6373 64bd 3ccf 863c
000001c0: 902d 613d 3e1f 043b 373c 01bd 3c95 663c
000001d0: fc50 59bd e02e 0dbd 62e8 6f3c bfb5 07bd
000001e0: d3e7 90bd 836e f53c f230 79bc 889d 063c
000001f0: 7bbc 4fbd 0424 c1bb a31b 683d 388b 8fbd
00000200: 0adf 32bd 93a2 9d3c 3e38 60bc cc35 adba
00000210: db72 0c3c e9b7 09bb c9fc 0b3d f722 6ebd
00000220: a1f3 9a3b 589b b93c f08a 98bd 893b d7bb
00000230: 3e9f 7c3c 3e49 1fbc fd01 df3c a2d9 663c
00000240: df00 a53c ac38 943c 4529 88bc ac61 373d
00000250: 79ee 71bd 14bb b53c 529a 323d f356 803a
00000260: b62b 98bd 507d 11bd 359b 9bbb 9395 543d
00000270: a4eb 29bd 736a 28bd d01f f13c 1d98 88bd
00000280: 9ff1 19bd 1ad3 14bd 406e 653d eab5 28bd
00000290: 7267 213c c793 663d 9e74 8fbd 27d5 40bd
000002a0: abc8 1c3d eb51 353d e86f 1a3b b1c2 983c
000002b0: 98ed e03b 92ef 5fbd 9c0e 40bc 3f09 973c
000002c0: d9e2 d4bc 7b02 4fbd ecb4 c6bc b92d 83bd
000002d0: 41f4 04bd 8979 333d 3e23 c0bb e248 503d
000002e0: 2ef0 f53c 1d30 99bd ef38 92bc 322d 9aba
000002f0: 2064 91bd 5277 82bd 318b 553a 5640 83bd
00000300: 4f89 9a3c 4cc3 de3b 9e51 a8bc 475d fbbb
00000310: b8b1 6fbd 0b68 00bd 95ff 41bc 8031 733c
00000320: 4b97 b83b d076 0e3d fabd 66bd 67e5 c03b
00000330: 8e4e 89bd dfd7 ad3c 81fc acbc 21bd dfbc
00000340: 09a7 19bc ff3a 80bd 64af ef3a 53e2 933c
00000350: bca4 d7bc 10d6 46bd 6daa 763d 8ce8 fa3b
00000360: 067c 683d 96e5 283c 862f 79bd 686b cabb
00000370: 8d49 88bd 4901 c9bd cbe6 163d 51f0 0dbe
00000380: 8667 a3bd 4888 a53d e249 97bd 25a2 14bd
00000390: 1d94 0f3d 5586 f5bd 989d 54bd 0abd 593c
000003a0: 1afa e5bd dffc 3fbd 06ed 9a3c 5fc7 2dbc
000003b0: 5910 31bd 4b46 f4bb 87ef 1ebb 29f5 05be
000003c0: e83c d63d 1938 94bb 4517 3abd 0006 0cbd
000003d0: ec7d 20bd f192 afbd 6d6b dd3b 1302 89bd
000003e0: b3b5 17bc 44d0 bfbc 5cdb 1abc 191f 9dbd
000003f0: 6e77 0d3d a125 dabc 4812 c2bd fb6c 84bd
-0.064201616 -0.032449998 -0.044185527 0.05516141 -0.014171205 -0.027366975 0.003700403 0.054308355
0.017526722 -0.032614432 0.0010405655 -0.068356775 -0.050186668 0.048847876 -0.016577495 -0.01677445
0.02294744 -0.045092855 -0.062373254 0.0050835256 0.032974437 -0.017625144 0.03727869 -0.0045528216
0.04092747 -0.025273012 0.023639733 -0.02602565 0.021526035 -0.001825526 -0.07433139 0.020676069
-0.050797027 -0.005033244 0.02840537 -0.051654417 0.04419855 -0.065618746 -0.024824902 0.048220478
-0.04772215 0.027941415 -0.06618855 -0.06115955 0.039367434 -0.051526286 -0.058220398 0.04599215
-0.028535968 0.049129006 0.042901624 -0.04420223 0.0099257855 0.019106178 0.021402845 -0.06196155
0.058573518 -0.036337897 -0.02366771 0.03462357 -0.049604792 -0.069534026 -0.05628382 -0.01874305
0.0060871635 -0.060862914 -0.050718956 0.02496343 0.03525577 0.035750113 -0.026483571 -0.011080673
0.041659024 -0.0024895847 0.015132809 0.020783208 0.056908317 -0.069791235 0.015873907 -0.051426947
-0.0591602 0.048796676 0.0054847314 -0.05445283 0.030202536 -0.07349001 -0.048871435 0.049908772
-0.06263243 -0.0068110647 -0.06689727 -0.06358861 -0.016891275 -0.05693573 0.02564409 -0.0750295
-0.05483423 -0.042682406 0.04348718 -0.06443909 -0.038867332 -0.007933984 0.0060830433 -0.047615267
-0.07316046 -0.0240918 -0.007964366 0.03769916 0.046896905 -0.024968337 -0.055774104 0.016456239
0.054975092 0.0020160223 -0.031551566 0.014073666 -0.05305575 -0.03446853 0.014642807 -0.03313231
-0.07075467 0.029959923 -0.015209423 0.008216269 -0.05071686 -0.005894186 0.05666698 -0.07008976
-0.043669738 0.01924256 -0.013685284 -0.0013214885 0.008572306 -0.002101416 0.03417662 -0.058138814
0.00472875 0.022657081 -0.07448375 -0.0065683764 0.015418826 -0.009722052 0.027222628 0.014089974
0.020142017 0.01809343 -0.016621241 0.04477088 -0.059065316 0.022183932 0.043604203 0.0009791538
-0.07430212 -0.035519898 -0.0047487267 0.051900458 -0.04148449 -0.041117143 0.029434115 -0.06669638
-0.037583943 -0.036334135 0.056013346 -0.04118911 0.009851323 0.056293275 -0.07004665 -0.047078278
0.03827731 0.044267576 0.0023565236 0.018647524 0.006864261 -0.05467183 -0.011722233 0.018437026
-0.025987076 -0.050539475 -0.024256192 -0.06405205 -0.0324595 0.043817077 -0.005863576 0.050850756
0.030021753 -0.0747988 -0.017849414 -0.0011762737 -0.070991755 -0.06370415 0.00081460463 -0.064087555
0.018864302 0.0067981835 -0.02054673 -0.0076710316 -0.058519095 -0.031349223 -0.011840721 0.014843345
0.00563327 0.034781277 -0.05633352 0.005886722 -0.06704436 0.0212211 -0.021116497 -0.027311863
-0.009378203 -0.062612526 0.0018286523 0.018052256 -0.026323669 -0.04854399 0.060221124 0.0076571163
0.056758903 0.010308644 -0.060836338 -0.0061773546 -0.06654654 -0.09814698 0.036841195 -0.13861205
-0.0797873 0.08082634 -0.07387139 -0.036287446 0.03505336 -0.119885124 -0.051908106 0.013289699
-0.11229344 -0.046872016 0.01891185 -0.010606616 -0.04322848 -0.0074546686 -0.0024251656 -0.13081802
0.10460836 -0.004523289 -0.045432348 -0.03418541 -0.03918259 -0.08572949 0.006757191 -0.06689849
-0.009259629 -0.023414738 -0.009451713 -0.07671947 0.034537725 -0.026629271 -0.09476143 -0.06466099

conv3.bias f4 [16]
00000000: e474 49bd 582e 2f3d c20b 79bd 3cf6 043c
00000010: 3f0a 1c3d a0e2 503c 2c58 34bc 8839 a5bd
00000020: 834a 693d 05c0 af3c c4c1 053d 1da9 533d
00000030: 70a0 24bd 4636 1cbc 5c49 63bd 48ac 533d
-0.04918374 0.042768806 -0.06080223 0.0081153475 0.03809571 0.012749344 -0.01100735 -0.08067614
0.056955826 0.021453867 0.032655492 0.05167495 -0.040192068 -0.009534424 -0.055489883 0.051677972

conv4.weight f4 [32, 16, 3, 3, 3]
00000000: be8b 1b3d 5646 643c 8a85 4abc 5da2 0dbd
00000010: 1e5d e13c fe19 6abc 0bba 82bc add1 323d
00000020: d975 b83c 6beb c8bc fa2a 35bc a330 f33c
00000030: 7ec1 9a3c 6708 173d 9eab 5b3d f401 ef3c
00000040: 46e3 81ba 1872 aa3c a994 f0bc 7545 09bc
00000050: 6e7f 7cbc 4114 6d3d cb9b 103d 5d52 1d3c
00000060: d81d 8cbc 8d0d d23c 193e 353d 6fe7 c1bb
00000070: dd04 183d 4365 63ba 2fe1 163d 0fdf cdbc
00000080: c875 01bd c4f5 083d f898 013d 9697 13bd
00000090: f2c6 033d 744e 5a3b ef38 df3c 2173 943c
000000a0: 8347 3dbc e925 2db9 96d8 2cbd dfe4 11bd
000000b0: a778 013d 98e5 efbc 8ce9 bdbc 120b 9cbc
000000c0: 26c4 eabb d2b7 5d3b ed82 053c 834e 983c
000000d0: 0121 cb3b 17b7 ae3c 3314 82bd 52aa 333d
000000e0: 3e0f 7fbb e6d7 32bd 3680 4bba 4fca 9e3c
000000f0: 3bef a7bc 1a9a 1abd 3e8a 2dbc 7058 bfbd
00000100: 9114 adbc cf83 be3c 7ee7 babd 617f c13b
00000110: 0155 123d bc75 b8bc 194b 3c3b 6338 0f3c
00000120: 46a2 23bb 3605 73bb 5277 283d d96e 0abd
00000130: 3b89 e13c 2cd8 fdba b74d 78bc 7d59 763d
00000140: 1a19 2d3d 58e6 943b 9ca1 683c 775b eb3c
00000150: 77a5 3fbd 2dee 12bc 51c7 813d 7ff0 143d
00000160: ddd4 233b d383 103c 0198 d33c e6b2 9c3c
00000170: 12a9 c6bc d9d1 063d 9658 d1ba 8251 90bc
00000180: 1c0a 2f3d 4763 efbc d66e f73b 62d6 47bc
00000190: d742 f53c ddc7 c03b 52f1 7c3d 2cba d73c
000001a0: eb66 fdbc f67e 563d 3933 8cbc ff0c 403d
000001b0: 1580 54bd 72b3 99bc 18c9 c93b de94 d93b
000001c0: bba5 14bd 10e9 0c3c 1f13 66bc c3a3 9939
000001d0: 77e6 0c3d d42e 5abd 6c2d e9bb bc8c 2e3c
000001e0: c2cc c73c 49a5 c8bc 5cb9 ffbc d3d4 dfbc
000001f0: eac9 68bb 3b3f 603d ceaf 6439 ea50 cd3c
00000200: 3fd2 793d 04b6 25bc bc2b dfb9 1ab0 c73c
00000210: bd9f 773d 01ae 643d ac9f 57bb df8c 1e3d
00000220: dc2d 9fbb 6031 6c3d 2f8f 3c3b c71a 61bc
00000230: ac5c 47bc 03b8 21bd 526d b4bb 2217 823d
00000240: 25b1 c0bc 0717 7fbc e974 153d 9f72 0abe
00000250: 9cbb c5bc 5c9a ce3c 7920 9e3c 89f8 3c3d
00000260: 0fd8 a33c 43cb f839 9eac 8c3c 157b 8b3d
00000270: d2a4 38bd da5d 23bd 7ce9 383c 998c 83bc
00000280: 2b02 483d c33c 6a3d 3238 f0bc 27dd 3cbd
00000290: 90db 57bd 311b 0e3c fab5 a7bc 75a7 153d
000002a0: d9b2 5fb7 5cd3 a6bc f2ee 4d3d 2abc dfbb
000002b0: 8eb3 c3bb 5938 a7bd b7af 49bc 1b3f 14bd
000002c0: 3b63 b2bc ee24 e23b aee0 70bd d8bf 34bd
000002d0: f3c6 a23d dc39 2a3d ea34 91bd 37f4 453d
000002e0: f3e3 853c 640e 45bc ab2c 883d 49ff b43c
000002f0: 0dd9 13bd 15a7 823d 2ea6 a83d 1059 e43d
00000300: eb7b a53d fecc f93c 51d5 3c3d d4c0 cabc
00000310: 7eeb 3ebd 6242 73bc df03 2d3d 715f a43c
00000320: b9e1 143c dd16 c83b dbb9 59bd c51c 753c
00000330: daf1 58bd 2528 68bd dec8 82bd b5f9 9f3c
00000340: 09f6 f5bb 94d2 58bd 7434 c9bc 8a30 61bd
00000350: 4c4c ae3a a504 01bc 1a17 cabd 3a95 98bd
00000360: 01d0 9b3c a7b4 233c 2dd5 013d 261d 043d
00000370: b1c0 bbbc 6cf1 313c 68c6 3d3d 25ad 8cbc
00000380: 8bfe 463d d34e e9bc 0881 2abd c1c6 c7bc
00000390: a2b2 9e3d ebbf 49bc 4f1d b0bc 08a5 ad3c
000003a0: b3eb ff3c 493c 0dbc 7291 463d 9318 fd3c
000003b0: 959c d4bc c04d ba3d 62d2 383d 6b1d 8a3c
000003c0: 1861 e33d daa6 d63c 4b8e 0c3d 88a1 163d
000003d0: 104c d9bd b7e3 10bd 24de e0bb 8b43 a43c
000003e0: 553d e23c 9a60 013d 98a0 bdbc e1d3 993d
000003f0: bff3 943d 6f03 04bd 20fd 71bc d0a3 e43d
0.037975065 0.013932785 -0.01236094 -0.03457867 0.027510222 -0.014288424 -0.015957853 0.043656994
0.022517132 -0.024526319 -0.01105761 0.029686278 0.018891092 0.036873247 0.053630464 0.029175736
-0.0009909652 0.020806357 -0.029367762 -0.008378376 -0.015411241 0.057880644 0.035304826 0.0096021565
-0.017104074 0.025641227 0.044248674 -0.0059174816 0.037114013 -0.0008674452 0.036835846 -0.025130777
-0.031606466 0.033437505 0.031640023 -0.036033235 0.03217215 0.0033310922 0.027248828 0.018121304
-0.011552694 -0.00016512688 -0.04219874 -0.03561866 0.031609204 -0.029284284 -0.023182653 -0.019048247
-0.007164496 0.003383149 0.008148891 0.018592125 0.0061990027 0.021327538 -0.06351509 0.043863602
-0.0038918997 -0.043662928 -0.00077629404 0.019383578 -0.020499816 -0.03774462 -0.010592042 -0.0934304
-0.02112797 0.02325621 -0.09126185 0.0059050773 0.035725597 -0.022517078 0.0028731285 0.008741471
-0.0024968549 -0.0037081963 0.041129418 -0.03379712 0.027531257 -0.0019366792 -0.015155247 0.060143936
0.042260267 0.0045440607 0.014198687 0.028730137 -0.04678866 -0.008967918 0.06336845 0.036362167
0.0024998703 0.008820492 0.025829317 0.019128274 -0.02425054 0.03291497 -0.0015971835 -0.017616991
0.04273425 -0.029222144 0.0075510545 -0.012197109 0.029939098 0.0058832006 0.06175358 0.02633389
-0.030932864 0.052367173 -0.017114269 0.046887394 -0.05187996 -0.018762324 0.0061580054 0.006640061
-0.036290865 0.008600488 -0.014042645 0.00029304446 0.034399476 -0.053267315 -0.0071160104 0.010653671
0.024389628 -0.024492877 -0.031216316 -0.027323162 -0.003552074 0.0547478 0.00021809267 0.025062997
0.060991522 -0.010114197 -0.0004256646 0.024375964 0.060455073 0.055830006 -0.0032901568 0.038708564
-0.004857762 0.057664275 0.0028771868 -0.013739294 -0.012168091 -0.039482128 -0.005506196 0.063520685
-0.02352197 -0.015569455 0.036488447 -0.13520287 -0.02413731 0.025220089 0.019302594 0.04613546
0.020000486 0.00047453688 0.017172154 0.068105854 -0.04507906 -0.039884426 0.011286136 -0.016058253
0.048830193 0.057186853 -0.029323671 -0.046109345 -0.052699625 0.008673475 -0.020472515 0.036536653
-1.3333477e-05 -0.020364456 0.050276704 -0.006827851 -0.0059723323 -0.08165044 -0.01230996 -0.036192995
-0.021775832 0.006901375 -0.05880802 -0.04412827 0.07948103 0.041559085 -0.07090171 0.048328605
0.016344046 -0.012027357 0.06649145 0.022094386 -0.036095668 0.063795246 0.08234821 0.111498
0.08080276 0.030493256 0.046101872 -0.02475015 -0.0466113 -0.01484737 0.04224002 0.020065041
0.00908702 0.006106241 -0.05315576 0.0149604725 -0.052965023 -0.05667891 -0.063859686 0.01952825
-0.0075061363 -0.052935198 -0.024561144 -0.05497793 0.0013297885 -0.0078746425 -0.098676875 -0.07450338
0.019020082 0.009991801 0.03169744 0.03225436 -0.02291903 0.010860782 0.046331793 -0.017172405
0.048582595 -0.02847997 -0.04162696 -0.024386765 0.07748915 -0.012313823 -0.02149835 0.021196857
0.03124032 -0.00862033 0.04847855 0.030895507 -0.02595357 0.09096861 0.04512251 0.01685973
0.111025035 0.026202608 0.03431539 0.036775142 -0.10610211 -0.035373416 -0.0068624187 0.020051738
0.027617136 0.031586267 -0.023147866 0.07511116 0.072730534 -0.032229837 -0.014769822 0.11164057

conv4.bias f4 [32]
00000000: 50dc 143d 6154 723d a149 163d 20d3 ae3d
00000010: 2095 d53c ffdf 583d e4bb 953c 4abc 4c3d
00000020: b8b1 80bd 11f1 3c3c 1782 95bd df57 01bd
00000030: f124 143d 6a87 e8bc a175 a83b 6f62 543d
00000040: 4b54 e33b 2bb2 cdbc 1ec4 433d 32bb 73bd
00000050: b6d3 1c3d 22b9 353d bda8 e1bc 7921 aa3c
00000060: 710d 763d 48d3 ff3c 86a4 c93c 0510 893d
00000070: fea8 cfbc 25d6 843c 81ba e33c aa85 333d
0.03634292 0.0591625 0.03669131 0.08536363 0.026072085 0.052947994 0.01827807 0.049984254
-0.06283897 0.011532084 -0.07300203 -0.03157794 0.036168043 -0.028384883 0.0051409756 0.051851686
0.0069375387 -0.025109371 0.047794454 -0.059504695 0.03828784 0.04436601 -0.027546281 0.020767914
0.060071412 0.031228676 0.024614584 0.066925086 -0.025349136 0.016215393 0.027798893 0.043828644

conv5.weight f4 [64, 32, 2, 2, 2]
00000000: 94d6 aebc 1c8b 73bc 13ed 80bd 3045 5cbd
00000010: 6438 10bd 56e3 cfbc cce1 62bd 4b7c 703d
00000020: 06ab 363c a276 283c b8a2 07bd 8b18 4fba
00000030: 3ce9 a93c 9b0b f5bc 90c4 b2bc 21a8 103d
00000040: cf35 843d 6dd6 ecbc 6ce4 823d e7bc 04bd
00000050: a6fb 793d 6813 3a3d eb4d 9e3d ce88 683d
00000060: f571 72bc 2316 24bd 5cad 413d 621e d1bb
00000070: eb98 a6bc e337 00bc 8762 773d 4a01 6f3d
00000080: 07be 033d b886 59bc 9c9e bdbd 84d5 d7bd
00000090: eec5 f1bc 842d 42bd 0971 803c 219b 70bd
000000a0: 71bd f43c 4741 933c da18 a5bd 384e 12bc
000000b0: 930a 5abc 4185 8abb 5a40 2a3d bff5 23bc
000000c0: 30ad 0f3c fdf2 e6bc 697d 303c 33b9 bdbc
000000d0: fbdb 1e3d c09b 8d3d 5e1c 10bd 6d59 973c
000000e0: 11af bbba 3ba5 37bd 1db9 883d e8e4 1ebd
000000f0: a43f d03c cb12 ccbc 3ba2 273d caca 993d
00000100: 259a 33bd 5414 833c 55b1 d33c c047 723d
00000110: 0df1 1a3c 033e aa3b 2154 5bbd a39b 50bd
00000120: d722 193d cf66 823d 683e 523d d00c 9b3d
00000130: 8965 0f3d 7532 b63c 245f d83c 5323 803c
00000140: cf05 193d 7783 8f3d 7b74 323d 3c1a 6e3d
00000150: f1e0 a63c f48e b5bc a661 2bbc 462b 08bd
00000160: 87fe d1ba 9bee 6bbd 5dd7 9fbc 7a1c d53c
00000170: b391 423d 5f2c 753c 4644 7ebd 688b 69bc
00000180: 73c1 0b3d 5044 2cbd 5fc0 7d3d 896f c43c
00000190: 0219 aabb c65f 71bc 36db df3b 563b 06bd
000001a0: 2eff 4d3d 974f a6bc 9826 a3bc f374 1f3b
000001b0: 4532 a33b 2ab0 873d e82e 033d 0957 2bbd
000001c0: 01fb 66bd ac57 5ebd 62b8 8bbc eb26 bf3c
000001d0: 9645 0b3d 677e 813c 58cd 05bd d53c 35bc
000001e0: bff1 183d b11c 99bd a16e 9cbd 650a a0bc
000001f0: d55f 51bc a7c3 07be 176d 98bd 2e4c 9dbc
00000200: 5cf3 cebc 75ee 783d 1e59 2f3d 83f7 94bd
00000210: 6f4a ffbc a3ce 7c3d 1be4 323d 51b3 afbd
00000220: c630 4e3d 28d4 873d 447b 4b3d 9b5c aabc
00000230: 2acb 3ebc 597e 823d 68a1 973c 5d0d debc
00000240: 9b65 c6bc db4d 323d 0a9f d13c 71ff 63bc
00000250: 44d0 4bbd c5ef e23c 311b 71bd e9c8 3abd
00000260: e9ec 993b abec 86bd 9da1 153b 6781 32bd
00000270: 3b21 87bd ac45 a83c 3f3e 6ebd 4064 683b
00000280: 8df4 433c f45a 5b3c 12ea 253d 4818 e2bc
00000290: c791 ce3c a693 f33c 1871 ea3c 74ae 9dbc
000002a0: a3e6 a3bd 9b91 0d3b 9d6a 6dbd 6ef3 aebd
000002b0: cb24 56bc 0a89 94bc 9dac 193d 63bd 06ba
000002c0: a97d fc3c 0a5e a63d 91f0 d93c 457d 0ebd
000002d0: faca b6bc 3d2a 5d3c 2d74 a23b 1f8b dbbc
000002e0: b3e0 163d a22b 643c c239 6b3c b5ac e0bc
000002f0: b8c8 7ebc a83b 523d 50cf 5c3d 9b49 64bd
00000300: 1afb 6fbd 0829 27bd 5deb 0d3d a6cb 693c
00000310: 7a03 9bbc 1329 94bd 8f40 14bc b6ee 9abd
00000320: 414d d1bc 4d41 bbbc 5ed4 d13c 61f2 243c
00000330: 644d 42bd e015 ecbc ce20 15bd 9975 08bd
00000340: 9979 95bb 5783 6cbc b0f4 793d 6198 643d
00000350: 95af bc3c 7148 863c 3aca 41bc 1841 b0bc
00000360: 91cc 5f3d 29b1 23bd 87fb b8bb 55b8 253d
00000370: fbe4 c6bb daef 41bc 8f95 3bbd 8e2e 4b3d
00000380: 5fff 26bc 2b85 8b3d 6a09 eabc 7d1b 62bc
00000390: fc06 023b fcaf 3fbd 615b c0bb 9417 083d
000003a0: abfc 12bd 8ea0 3b3d a9a2 933d 5819 bb3d
000003b0: 0a31 f9bd 4ccf d3bd 21f1 b63d 4ad7 063e
000003c0: b709 29bd c699 20bd 7781 42bb 331d 2c3d
000003d0: c4b1 ac3c e4f4 f23b dba8 993b 53da 82bd
000003e0: a2bf c83b c903 a7bd 4b06 c6bd e776 acbd
000003f0: ecdb 5dbd ee19 87bb f26b 42bd 1575 0abd
-0.021342553 -0.014864709 -0.06295218 -0.05377692 -0.03521003 -0.025376957 -0.055391118 0.058712285
0.011149174 0.0102821905 -0.033114165 -0.00079000805 0.020741098 -0.02991276 -0.021822244 0.03531659
0.06455576 -0.02891084 0.06391224 -0.032406714 0.061031006 0.045428663 0.077297054 0.056771092
-0.014797677 -0.040060174 0.04728447 -0.0063817957 -0.020336589 -0.007825824 0.060396697 0.05835084
0.032163646 -0.013276748 -0.09258768 -0.10538772 -0.029513326 -0.04740669 0.0156789 -0.058741692
0.029875489 0.017975463 -0.08061381 -0.008929782 -0.013308185 -0.004227311 0.041565277 -0.010007321
0.008769318 -0.028192038 0.010772088 -0.023159599 0.03878401 0.069144726 -0.035183303 0.018475259
-0.0014319142 -0.04483531 0.066759326 -0.03879252 0.025420971 -0.024911305 0.0409262 0.07509382
-0.043848176 0.016000904 0.025841394 0.059150457 0.009456885 0.0051953807 -0.05354703 -0.050929677
0.03738674 0.063672654 0.051329046 0.07570803 0.03500894 0.022240857 0.026412554 0.015641844
0.037359055 0.07007497 0.043568116 0.058130488 0.020370932 -0.022162892 -0.010460293 -0.033244394
-0.001602129 -0.0576006 -0.019511873 0.026014555 0.04750223 0.014964192 -0.06207683 -0.014254428
0.034120034 -0.042057335 0.061951037 0.023978965 -0.0051909694 -0.014732307 0.006831552 -0.03277143
0.050292186 -0.020301623 -0.019915864 0.0024331182 0.004980358 0.066253975 0.032027155 -0.04183105
-0.05639172 -0.05428283 -0.017055694 0.023333987 0.03400191 0.015807344 -0.032666534 -0.011061867
0.037339922 -0.074761756 -0.07638288 -0.019536206 -0.012779196 -0.13258229 -0.07442682 -0.019201364
-0.025262527 0.060774285 0.0428096 -0.072737716 -0.031163422 0.0617205 0.04367457 -0.08579124
0.050339483 0.066322625 0.049678102 -0.02079611 -0.011645118 0.06371755 0.018509582 -0.027105981
-0.024218371 0.04353128 0.025588531 -0.013915882 -0.049759164 0.027702222 -0.058863822 -0.04560176
0.0046974313 -0.065881096 0.0022831925 -0.04358044 -0.06598135 0.020541035 -0.05816483 0.0035460144
0.011960161 0.013388384 0.04050643 -0.027599469 0.025215996 0.02973349 0.02861838 -0.019248225
-0.08002975 0.002160168 -0.057963002 -0.08542524 -0.013070296 -0.018131752 0.037518132 -0.0005139915
0.030821638 0.08123405 0.026603969 -0.034787435 -0.022313584 0.01349884 0.004957697 -0.026799737
0.036835384 0.0139264185 0.014357032 -0.027426103 -0.015550785 0.051326424 0.053908646 -0.05573426
-0.05858908 -0.040810615 0.034648288 0.014269745 -0.018922556 -0.07234397 -0.009048595 -0.07565062
-0.025549533 -0.022858286 0.02561396 0.010067553 -0.047437087 -0.028819025 -0.036408238 -0.033315275
-0.0045616147 -0.014435611 0.061024368 0.055809382 0.023032943 0.016391965 -0.011828 -0.021515414
0.05463845 -0.039963875 -0.005645219 0.040458996 -0.006069777 -0.01183697 -0.045796927 0.049604945
-0.010192721 0.06812509 -0.028568942 -0.013800499 0.0019840589 -0.04679869 -0.005870268 0.03322561
-0.035885494 0.045807414 0.07208759 0.09135693 -0.121675566 -0.10342273 0.089327104 0.13168064
-0.04126903 -0.03920915 -0.0029679218 0.042020034 0.021080859 0.007414447 0.0046893186 -0.06389298
0.00612636 -0.08155019 -0.09669169 -0.08421116 -0.054164812 -0.004122964 -0.047466226 -0.033803064

conv5.bias f4 [64]
00000000: fde8 c03c 064d 903d 25ea efbc da78 a13b
00000010: 2b99 0dbc 2812 4d3c ca60 923d 5e88 9fbc
00000020: c476 793d af57 bd3d 50d7 bdbc e80b f53c
00000030: ebf1 9abd 2743 8ebd 45fc 21bd e2d2 fc3c
00000040: 524d 93bd f448 86bb bf30 71bc b767 f43c
00000050: 81bf 193d ae84 ad3c 397c 8bbd c630 febc
00000060: 6d1d 5ebd 57fc 91bd 347e 083d 6e10 593d
00000070: 8d75 0b3d 6866 0a3d 1003 d13d f86e 763d
00000080: 89dc 753d c2e0 773d 84c8 44bc 3c02 e3bc
00000090: 8625 93bc 1e53 5f3d 1879 bd3c 4c03 083c
000000a0: b203 3e3d ce58 ad3c 8ca3 c83c 0ec2 9b3a
000000b0: d6a8 083c 8df2 893d d760 83bc 3bda 003c
000000c0: 3cd2 7abd 626c f6bb f20b ad3c 70cf be3b
000000d0: d927 88bd 0c4f 6e3c 0904 6abc e75e 41bd
000000e0: 6fda 9a3d f0e6 5f3d c95a 153d 113b f23c
000000f0: 6091 a63d cf48 cf3d 910f a63d f1e5 c0bc
0.023548597 0.07045941 -0.029286454 0.0049277367 -0.008642475 0.012516536 0.07147367 -0.019474205
0.06090428 0.0924524 -0.023173958 0.029912904 -0.075656734 -0.06946402 -0.039547224 0.030862276
-0.07192482 -0.004098052 -0.014721095 0.029834611 0.037536148 0.02118143 -0.06810803 -0.031029116
-0.05422728 -0.07128208 0.03332348 0.052994184 0.034047652 0.03378907 0.10205662 0.06016442
0.06002477 0.06051708 -0.012010697 -0.027711026 -0.017962229 0.054522626 0.023129031 0.008301567
0.046390243 0.02116051 0.024492048 0.0011883394 0.008341035 0.06735716 -0.016037388 0.00786453
-0.06123565 -0.0075202445 0.02112386 0.0058230683 -0.06648225 0.014545213 -0.014283189 -0.047209647
0.07561194 0.0546636 0.036463533 0.02956918 0.08133197 0.10121309 0.08108438 -0.023547145

linear1.weight f4 [128, 512]
00000000: 2464 4ebc 36d9 e83c 8703 5bbc a632 563d
00000010: afb4 c6bb 451c 9abc 3214 a53c d785 2b3d
00000020: c277 01bd 7e93 02bd 2999 4cbd b8a9 47bd
00000030: 7110 25bd b0ee b73c 2758 aabc 7b62 25bd
00000040: c068 943c 5b05 903c 8c41 ac3c 2a3b 1bbd
00000050: 0fd5 6ab9 140b c5bb 24ed 14bd ce0a 1bbc
00000060: 5b5d 0c3c 2145 173d 3846 4fbc 5301 523d
00000070: 8139 6d3c 1ef6 f73c a643 953c 484a 1bbc
00000080: 1d08 a33a 6a70 c63a 4926 2d3d 1428 a4bb
00000090: eb68 793b 7421 fa3c 9478 0c3d dcb4 3e3d
000000a0: 45b8 6136 d646 803c 42e0 453b 0641 b538
000000b0: 9207 04bc 8a69 863c bd9c a9bb 1a20 323d
000000c0: fb77 b3bc 09d5 80bc 10c0 3b3b caf4 bdbc
000000d0: 4793 35bd c29c 8a3c e7b5 79bd d0ad 46bb
000000e0: b815 a9bb c8b5 09bc 54ba 0e3d 918f 5fbc
000000f0: 8416 adbc 3bd7 38ba 60d6 3c3c 5b3d 58bc
00000100: 1722 68bc a564 8f3d ee46 c03c 49af d23c
00000110: c0a8 fd3c 952d 813d 2499 e6bb ab51 953d
00000120: f893 4d3c f029 6ebb bfd6 ce3b c465 4e3d
00000130: bd8b 9dbc 7efa ea3b 8f8c 203d d96f 443d
00000140: 66e2 5bba fae8 cd3c 7bdc 0a3d 3954 cd3c
00000150: 5c9e 403d 536e b83c b128 883c 7427 663c
00000160: 7948 873c cd4b b53c 5157 3f3d 925d 5e3d
00000170: 5ee1 20bc 4ca6 2b3d b67e 9c3b 3d1c f53c
00000180: 4ccf 4d3c d645 5d3c bac9 993c 53d7 8b3c
00000190: efc5 9a3b c605 e83b 5557 04bd ac71 41bc
000001a0: 16bd f1bc 2b9c 58bb d8ae 2b3d bb42 b7bb
000001b0: 6ee0 53bc 9a7d b23b 9736 b8bc 625c 68bb
000001c0: 5a9e 193c 8d04 1c3c dcc6 073d 8261 453c
000001d0: 5f6b 253c 7482 a9bc c413 303c c97e acbb
000001e0: 3727 f4bb 3f83 303d 23fe 1d3d 1e75 853c
000001f0: ee1e 14bc cde9 6c3d 944f cbbc 769e 7b3c
00000200: d978 49bd b7f8 013d 251f a3bc 0b6a c23c
00000210: 839e c9bb 8fa3 56bc f890 72bc 49ec 91bb
00000220: b533 65bb f7c2 75bb a1a1 b83b dcc6 093d
00000230: fe91 8abc 24f7 283c c2a0 213d ab87 de3b
00000240: eabd 0b3c 2fdc 31ba a289 0b3d b5ba b43c
00000250: efdc fb3d 0c2e 0e3e cf93 1b3e 2147 1e3e
00000260: 9b64 7b3d d4ba 793c c719 73bb c867 743c
00000270: 3be5 2bbc 9093 583c 44a7 fb3c c15d d83c
00000280: 5a43 36bc cff4 8cbc 9551 c73c 7cf4 603d
00000290: 37b5 e7bc ba68 a53b 564f ffbc dfd2 f23c
000002a0: 5072 2c3d 503f 3e3d c2dc 5f3d cb07 473c
000002b0: 0ee5 513d d399 1a3d 3c11 473d 6683 733d
000002c0: c26c b1bc 32aa 9d3c 6f81 babb 18e8 b8bc
000002d0: c826 b13c 8677 1dba bfd6 df3b e549 6eba
000002e0: b5e8 213b 7f9f 193d a2cd f2bc ad0c c53c
000002f0: 84b4 0bbb 7ad3 8bbc fd70 8539 d024 083d
00000300: acb0 22bd 10b4 753b 99ae b63c cffd 133d
00000310: 514d 503c 13c0 553c 41a7 31bd 9b3f a6bc
00000320: 763b 99bc edf7 debc c5b7 ddbc 3133 23bd
00000330: 37d5 e4bb 689c 7c3c 083d b23b ee69 1a3d
00000340: 0c52 463b 5b53 403b 48ac b63c cf3e b43a
00000350: 7025 b73c 7182 583c 72bf 173c 5a81 1c3a
00000360: 81d6 ddbb 62c1 d2bc 82ec 303c a757 00bd
00000370: 51be 65bc b853 a2ba 0f62 37bb 495a 113d
00000380: 7abc 833c 9db1 a03c 09b0 a13c 80ad 6c3d
00000390: e876 153d edc8 e53b c301 24bc 759a b53c
000003a0: af4e 593d f2ec 693b 8c43 eaba 7968 fb3c
000003b0: 2146 1abd 700c cdbc c63f ddbc 2bc3 abba
000003c0: b2bc aebc e284 40bb ee64 2cbd b20e 00bd
000003d0: 9621 d9bc 9ec8 2f3c 5b78 34bd 5538 e3bc
000003e0: 05b8 01bd ecd2 c83c 3cc6 cebb b7e6 d93c
000003f0: 54a6 5e3c 0890 a5bc eca0 eb3c d678 153c
-0.012597118 0.028423887 -0.01336754 0.052294396 -0.0060640196 -0.018812308 0.020151231 0.041875686
-0.03160835 -0.03187894 -0.049950752 -0.04874584 -0.040298883 0.022452682 -0.020793987 -0.04037712
0.018116355 0.017580679 0.021027349 -0.03789822 -0.0002239535 -0.0060132835 -0.036358967 -0.009463025
0.00856718 0.03693116 -0.012651019 0.051270794 0.014479042 0.030268725 0.018220734 -0.009478159
0.0012438331 0.0015139703 0.04227284 -0.0050096605 0.003805692 0.03053353 0.03429468 0.0465592
3.3634872e-06 0.015658777 0.0030193483 8.642864e-05 -0.0080584455 0.016407747 -0.0051761554 0.043487646
-0.021907797 -0.015726583 0.0028648414 -0.023188014 -0.044329908 0.016920451 -0.06096449 -0.0030316003
-0.00516006 -0.008405156 0.034845665 -0.013645069 -0.0211289 -0.0007051115 0.01152572 -0.013198222
-0.014168284 0.07001618 0.023471322 0.025718348 0.030964255 0.06307522 -0.0070372988 0.072909676
0.0125474855 -0.0036340915 0.006312221 0.05039002 -0.019231671 0.0071709743 0.039196547 0.04795823
-0.0008387923 0.025135506 0.033901673 0.025064575 0.047026023 0.022513544 0.016620966 0.014047492
0.01651405 0.022130871 0.04671413 0.054288454 -0.009819357 0.04190664 0.0047758473 0.029920692
0.01256163 0.01350542 0.018772949 0.017070448 0.0047233026 0.0070807664 -0.03230985 -0.011806887
-0.029509109 -0.0033052068 0.04191479 -0.0055926717 -0.012931926 0.005447102 -0.022486968 -0.0035455455
0.009376133 0.009522569 0.03314863 0.012047173 0.0100964 -0.020692088 0.0107469 -0.0052641374
-0.007450964 0.043093916 0.03857244 0.016291197 -0.009040577 0.057840157 -0.02481822 0.015357604
-0.049187515 0.031731334 -0.019912312 0.023732206 -0.0061529293 -0.013100519 -0.014805071 -0.004453216
-0.0034973447 -0.0037500241 0.005634502 0.033636913 -0.016915318 0.010312829 0.03945995 0.006791075
0.008529166 -0.0006784824 0.034066804 0.022061685 0.12297999 0.13884753 0.15193103 0.15456821
0.06137524 0.015242297 -0.0037094222 0.0149173215 -0.0104916645 0.013218775 0.030719407 0.026411893
-0.011124456 -0.017206578 0.024330894 0.05492066 -0.028284652 0.005047885 -0.03116576 0.029641567
0.042101204 0.0464471 0.05465389 0.012147854 0.051243834 0.037744354 0.04860042 0.059451483
-0.021658305 0.019246195 -0.005691699 -0.022571608 0.021624938 -0.0006006885 0.0068310197 -0.00090899906
0.0024705355 0.037505623 -0.029639069 0.024053896 -0.0021317312 -0.017068613 0.0002545192 0.033238232
-0.03971927 0.0037491359 0.022300052 0.036130723 0.012713746 0.013046282 -0.043372396 -0.020294001
-0.018705111 -0.02721783 -0.027065167 -0.03984374 -0.006983425 0.0154181495 0.0054394044 0.03769868
0.0030261306 0.0029346559 0.022298947 0.0013751629 0.022356719 0.013214693 0.009261953 0.00059702026
-0.0067699556 -0.025726978 0.010798575 -0.03133359 -0.014022426 -0.0012384569 -0.0027982031 0.035486493
0.016081084 0.019615943 0.01973726 0.05778265 0.03649035 0.0070124776 -0.010010186 0.022168377
0.053053554 0.003569421 -0.0017872914 0.030689465 -0.037664536 -0.025030345 -0.027007949 -0.0013104429
-0.021330211 -0.002937608 -0.04208844 -0.031264015 -0.026505273 0.010728983 -0.044060092 -0.027736822
-0.031669635 0.024514638 -0.0063102525 0.026599271 0.01358946 -0.020210281 0.028763257 0.009123048

linear1.bias f4 [128]
00000000: bfd0 b83c 71b2 97bb 6f91 8b3c 0213 753d
00000010: 05f7 56bd 4870 793d 873b 39bd 6858 b53d
00000020: 470e d9bc 4a9b 183d 4dbe 2bbc 844b 673d
00000030: 6b76 c03c d1d2 b63c 98ae 44bc c566 883d
00000040: c462 82bd 2569 17bd 9c2f 353d 0d2c 023d
00000050: fe76 5dbc 7304 b9bc db9f d3bc 0a3b a93d
00000060: 5143 37bd 301b d3bc f37e 643c b1ef 7b3d
00000070: 74f6 2fbc d2c9 7c3d f345 4cbd c4c1 6e3c
00000080: f719 9b3d bda0 20bc d2f1 39bc fc49 1bbd
00000090: 75f6 c73b 75f5 183d 83da 26bc d4df 7fbd
000000a0: fa88 b93d bebb 603d f2a3 913c a534 b43d
000000b0: 6036 8f3d 0f99 4abc 5911 d2ba 658d 303d
000000c0: 1bf3 54bd 559f b33d 0347 18bd 975c 623d
000000d0: b91c 24bd b00b ba3b d54b 8abd 9be3 4a3d
000000e0: 423e 22bd 27da 18bd 40c9 43bc db4d b9bc
000000f0: 3753 433d 53aa 29bc 883e 02bd b53c 753d
00000100: e147 343d 25fd b63c 1fde 313d 321d d83c
00000110: 6ad4 a53d 1697 55bd 1a65 fcbc f40e 43bd
00000120: fc00 a23d bb9f a8bc 0545 c7bb 7280 66ba
00000130: 6952 0c3b 8ae8 d03c 507a 0fbd bc1c 9d3d
00000140: f829 3b3d 6dff 01bd c4fe bd3c 5d59 0cbd
00000150: 1221 963d 03fe b53c 9959 903c 4067 e43b
00000160: 090c 263d 2f4b 803d 1785 113c 2d44 223d
00000170: 7ef6 1abb 3646 ac39 c173 3a3d c81e c43b
00000180: 4c50 843d e91a ba3c 55e7 223d de61 85bd
00000190: 90a3 dc3b 1cda d9bc fc24 26bd 5409 3a3b
000001a0: 7a33 2e3d a02c f03d 23f7 853d 28f9 d53b
000001b0: 337f 293c f972 95bc fe65 3b3d d47f aebb
000001c0: 950a 82bd 2c0d 083e 4329 7c3d b2b8 14bd
000001d0: 9754 a63d 9a24 013d 95c5 653c 1ee4 a83d
000001e0: f847 cabc 18a2 9abc 703a 3dbd d370 443d
000001f0: d023 523d 7c7d 653d b4f9 e8bb b1eb 643d
0.022560475 -0.004629426 0.017037122 0.05983258 -0.05248167 0.060898095 -0.045222785 0.08854753
-0.026496066 0.03725747 -0.010482383 0.0564685 0.023493966 0.022317322 -0.012004517 0.06660227
-0.06366494 -0.036965508 0.044234857 0.03178029 -0.0135171395 -0.02258513 -0.025833061 0.08263214
-0.044741932 -0.0257698 0.013946283 0.061507884 -0.010739911 0.06171591 -0.049871396 0.0145725645
0.07573312 -0.009803948 -0.011349158 -0.037912354 0.006102378 0.03734346 -0.010183933 -0.06246932
0.09059329 0.054866545 0.01777837 0.08799104 0.06992793 -0.012365594 -0.0016026899 0.043103594
-0.051989656 0.087706245 -0.037177097 0.05526408 -0.040066455 0.005677663 -0.06752745 0.049533468
-0.039610155 -0.03731742 -0.011949837 -0.022620132 0.04768678 -0.01035555 -0.031797916 0.059872348
0.04401386 0.022337506 0.04342472 0.026381109 0.080971554 -0.05214604 -0.030809928 -0.047621682
0.07910344 -0.020583978 -0.006081226 -0.00087929436 0.0021411425 0.025501508 -0.035028756 0.07671496
0.04569432 -0.031737734 0.02319277 -0.03426491 0.073305264 0.022215849 0.017620848 0.006970316
0.04053882 0.0626434 0.008881829 0.0396158 -0.0023645456 0.00032858708 0.045520548 0.0059851147
0.06460628 0.02271791 0.039771397 -0.06512807 0.0067333654 -0.02659326 -0.040562615 0.0028386908
0.04252956 0.117272615 0.06541278 0.006529946 0.010345268 -0.0182433 0.045751564 -0.005325297
-0.063496746 0.13286275 0.061562788 -0.03630895 0.08121603 0.031529047 0.014024158 0.08246635
-0.02469252 -0.01887612 -0.04619831 0.04795916 0.051303685 0.056027874 -0.007109845 0.055888835

linear2.weight f4 [1, 128]
00000000: 5d99 86bd 5302 d9bd 4f96 e1bd 845a 033e
00000010: b7f5 99bc 29be 913d 1f36 a43d 86dd 9c3d
00000020: 49f9 523d 7cbe 763d 6baa 5ebd 09c6 82bd
00000030: 1e8d bbbd cc0e 9abd b7f2 f9bb 40ae b73d
00000040: 3f8e d7bb 4ebe a2bd f9c7 13bd 8e3a e4bd
00000050: 3455 bb3b cbb0 b4bc 5f41 373c 5044 a33d
00000060: 8a50 1e3c c8ae 6e3d b994 923d d248 b03d
00000070: 4e5a 4ebd 6170 c43d 3aee 62bd 20cc cfbd
00000080: 41a0 da3d 8279 4abd 20c4 9dbd 43fd 4fbb
00000090: f21e a3bd 60f5 72bd 18ea 7bbd 7b45 8d3c
000000a0: 450e 943d b04f 96bd 0407 e3bd 7a77 cf3d
000000b0: 10e2 ad3d 7f08 7ebe df80 9b3d 26fa b33d
000000c0: 12ed edbc 0a72 c93d ac58 acbc 80ce 9f3d
000000d0: 2bd5 46bd 9b31 8dbd 3041 533d 77d6 813e
000000e0: 88f2 ae3c 30d3 35bd f5f9 39bd 63af debc
000000f0: 15f1 9cbd fd2b 25ba 4a67 c0bb 31e5 9f3d
00000100: b2b4 ca3d d3c9 ca3d 3535 b5bd f8b3 913d
00000110: 1ac0 853d cc11 74bd 3c34 4cbb 84a6 9cbd
00000120: 0bd1 083e 2a00 dfbc 8249 eebd e891 e63d
00000130: 2995 f63d 494e 18bd 36fd 85bd f2b7 ec3d
00000140: ce3e d93d 3158 42bd ab8e 4abd dc26 e03c
00000150: 782b c93d 545a e1bd cb21 123e 70f8 8dbd
00000160: 0923 fc3d b040 fc3d 1e25 23bd 5c04 e0bd
00000170: fc0a 0dbd 52e9 573d 42f5 38bd 5d10 8e3d
00000180: 9cfb a33d 7dc0 8ebd 292f abbd 2f84 7bbd
00000190: 3deb 843d 9f5a c5bd e7a9 78bd 123f febc
000001a0: d669 903d 95a2 223e 914c 123e 6c1d f4bc
000001b0: d827 0fbd c2f1 62bd e301 013e b4ea 5d3d
000001c0: 4172 a9ba fbec 093e 7500 f13d 28f7 cebd
000001d0: 214c 783d f3a3 eabd b2a7 96bd 09d5 c53d
000001e0: 831e f23c b22a 7ebd 215a 3f3d 6a62 8cbd
000001f0: 54ba 8fbd d3b3 d4bd 540c bebc 8aaf 8cbd
-0.065722205 -0.105961464 -0.11014997 0.12827498 -0.018793924 0.07116348 0.08018135 0.0765944
0.051507268 0.060240254 -0.054361742 -0.063854285 -0.09157775 -0.075223535 -0.007627811 0.089687824
-0.0065782364 -0.07946454 -0.03607938 -0.11143981 0.005716944 -0.022056958 0.011185019 0.07972014
0.009662757 0.058272153 0.07157273 0.08607639 -0.05037909 0.09591747 -0.05540297 -0.10146356
0.10675097 -0.049432285 -0.077034235 -0.003173665 -0.07964887 -0.05931604 -0.061502546 0.017245045
0.07229284 -0.07339418 -0.110853225 0.1013021 0.084903836 -0.24807929 0.075929396 0.087879464
-0.029043708 0.09836204 -0.021038376 0.078030586 -0.048543137 -0.06894227 0.05157584 0.25358936
0.021355882 -0.044390857 -0.045404393 -0.02718324 -0.0766317 -0.0006300805 -0.005871688 0.07807387
0.09897746 0.09901776 -0.08848039 0.071144044 0.06530781 -0.059587285 -0.0031159064 -0.07648948
0.13360994 -0.027221758 -0.11635114 0.11258298 0.12040169 -0.037184034 -0.06542437 0.11558522
0.10607682 -0.047447387 -0.049452465 0.02736228 0.09822744 -0.11003557 0.14270703 -0.06932151
0.1231137 0.12317026 -0.03983032 -0.109383315 -0.034434304 0.052712746 -0.04515577 0.06936715
0.08006975 -0.06970308 -0.083586045 -0.061405357 0.06490181 -0.09636425 -0.060708907 -0.031035934
0.070514366 0.15882333 0.1428702 -0.029799186 -0.034950107 -0.05540634 0.12598376 0.05417891
-0.0012927727 0.13469307 0.11767665 -0.10105735 0.060619477 -0.11457052 -0.07356204 0.09659774
0.029555565 -0.062052436 0.046716813 -0.068547085 -0.07017961 -0.10385861 -0.023199238 -0.06869419
