models/3A_hand_beta.pth (torch, 421229 bytes, 13 tensors)

conv1.weight f4 [4, 1, 5, 5, 5]
00000000: ca5d 593d 0a5a 223d e630 f3bc d92a a43c
00000010: 86cf 673c 490a 03bd 7fee adbd 065f c0bd
00000020: 3174 5cbc b82c 583d c03a dfbc 1e11 10bd
00000030: 8703 18bd ffa6 813c 8f09 a03d eac6 573d
00000040: edba 78bd 3016 9b3d 1b3b c33d 83e0 e63b
00000050: 6ad6 5ebd 5cc0 6fbd b990 3cbc 7b65 7d3d
00000060: 4e75 27bd b7f6 223d 9ddb 59bd 292b 173d
00000070: 87cd 86bd e94d 4b3d a322 41bc 97a1 a13d
00000080: b1b0 5abd 5f7a 13bd 443a ffbc ceb9 233d
00000090: b0b2 96bd e091 c53d e003 a33d d434 87bc
000000a0: 9d40 743c e228 01bd e0d4 a23d 9848 2b3c
000000b0: dcef 883d 9634 313d 4d91 3f3d 3e0b 163d
000000c0: 9b62 6ebd 4955 073d adf4 253d 569c 88bd
000000d0: 4ee2 a03c 19e7 fa3c 7dce a6bd 0d2f 12bc
000000e0: 9224 c13d 65a2 b9bc 710f 9bbd d065 913d
000000f0: c16c 60bc a17e ee3b 5640 0dbd 2f06 623d
00000100: 5983 483d ec58 e4bc 9e45 923d ed72 6f3d
00000110: f4e2 a5bc 9f72 863c 4f40 833d a0ab 853d
00000120: e9e3 c23c 9ab5 2a3d 24fb 5e3d b4dc 683d
00000130: 483e b43d 401e bc3d 3e90 b53d a341 a8bd
00000140: 8167 4bbc d50a c63b 7cbd a33d 16e4 88bc
00000150: 6730 a0bd 90ca d0bd edbe 5dbd b630 1abd
00000160: d1b2 3a3d 3756 033d ad4b cbbd a819 5fba
00000170: 1f2f dfbc 0305 fe3c 7be8 bdbb d3c1 6f3d
00000180: bf78 123d 1f3d 913d b342 68ba 3d0f cb3d
00000190: 1520 c2bc b645 c33b 7998 983d 6d0f b23d
000001a0: 9514 8bbd dc47 a1bd 8cd1 98bd d719 e1bb
000001b0: 886d 9b3d bdbe 153c d912 85bc c245 4abc
000001c0: 387e 2d3c 7ef3 21bd f054 adbb aedd 943c
000001d0: 60a7 42bd 16cb e43c ad4a 85ba 17d4 413a
000001e0: de22 a33d 3a10 0bbd ac26 023d 01eb 1cbd
000001f0: 40ee 14bd 7fd0 c43c 40fd df3d 5425 6ebd
00000200: fb27 22bd 33bc a0bd 2608 7c3d 31e5 c4bc
00000210: 4dd0 67bd 0c15 d33c 1cdf bfbd e2b2 56bc
00000220: a67b cd3d e373 6f3d fe54 ad3d 4ee5 5cbb
00000230: 8f6c f7bc d173 b23d 56c4 743d 26d7 7c3d
00000240: da4a 743d ca92 5bbc b408 013d f0bf 6f3a
00000250: 5d34 96bc 3d27 adbd 8e28 243d a168 28bd
00000260: ac6d 953c 875a a4bd 3749 8e3d 2b42 aa3b
00000270: 564b 393d 0143 b63d 7e11 5c3d 3f0b babd
00000280: c94c d53d eb51 c23d b7c6 e23d 9dff 35bc
00000290: dbf3 13bd 4572 c73b 8de3 953d 28d1 a83d
000002a0: 6e37 4dbd 892d b0bd ff59 663c 44dd 7ebd
000002b0: bd7d 643d 5fd4 953d 3bcc 4b3d 5161 86bd
000002c0: 3517 e6bc 8734 edbc 992c 173c adc2 093d
000002d0: 3599 a33d cf35 e73c 12f2 b93d d7f2 86bd
000002e0: 2ecc 1f3c 86dd fe3c 2b37 82bb 2b7a 923d
000002f0: c09e b1bd 318f 24bd 5dee 033d 3996 9a3d
00000300: cff6 1abc eac2 29bd de3e ed3c 8088 933d
00000310: 19f7 a0bd 8673 a1bd f639 91bd 50f5 0fbd
00000320: 2602 0d3d 4922 eebc 1644 97bd b49c f3bc
00000330: 80a5 5d3d 4117 a9bb 7383 813d 028a a93d
00000340: c94c 62bb 111b afbd e6b7 75bc a908 60bd
00000350: b5b3 9dba d6e6 23ba d2f8 90bd 3687 8a3d
00000360: f55b 53bd 2415 a63c 4ec1 89bd 3a05 87bd
00000370: 4ad7 62bd 6a97 4c3c cddc 02bd 8002 9b3c
00000380: b4f1 4d3d 7799 9b3d 4aff 363d 3ec3 9abc
00000390: 5eb5 bb3d 4d04 d43b b8ba 253d 44d7 65bd
000003a0: 7e16 023d 52e6 b13b c14e a93d 9d05 c23d
000003b0: 1ffd 99bd 35d8 aa3c 91aa 863d 656a 873d
000003c0: 308a ebbc 2b51 5ebd 0158 7b3d 4f01 903d
000003d0: 6bdd abbd 06d6 b23d f07e 39bc a4b0 6a3c
000003e0: 036c 163d 79cf 9a3d e291 a93d 5842 33bd
000003f0: a72b 92bc f675 773c 47e3 4b3d 8e62 aabd
0.05306796 0.03963665 -0.029686403 0.020039963 0.014148599 -0.03199223 -0.08492755 -0.09393124
-0.013455437 0.052777022 -0.027249694 -0.035172574 -0.03711274 0.0158267 0.07814323 0.052679934
-0.06072514 0.07572591 0.09532758 0.007045807 -0.0544037 -0.058533058 -0.011509114 0.061864357
-0.040883355 0.039786067 -0.053187955 0.036906395 -0.0658217 0.049634848 -0.011788043 0.07892149
-0.053391162 -0.036005374 -0.031155713 0.03997212 -0.07358301 0.09646964 0.079597235 -0.016504683
0.014907983 -0.03153313 0.07950759 0.010454319 0.066863745 0.04326304 0.04676943 0.036631815
-0.058199506 0.03304032 0.040516544 -0.06670444 0.01963916 0.030627774 -0.08144853 -0.008922351
0.09430803 -0.022660444 -0.075713046 0.07099497 -0.013697804 0.007278279 -0.034485184 0.05518168
0.048953388 -0.027874433 0.07142185 0.05845921 -0.020249821 0.016412077 0.0640875 0.065268755
0.023790317 0.041677095 0.054438725 0.056851104 0.08800942 0.09185457 0.08865403 -0.08215644
-0.012414814 0.0060437717 0.07995126 -0.016710322 -0.07821732 -0.10194886 -0.05413716 -0.03764411
0.04558069 0.032064643 -0.099265434 -0.0008510598 -0.027244149 0.03100825 -0.005795536 0.058534455
0.035759684 0.07091736 -0.00088600366 0.09915016 -0.023696939 0.005959238 0.07450957 0.086943485
-0.06791035 -0.07875034 -0.07461843 -0.0068695354 0.07589251 0.009139714 -0.016244339 -0.012345733
0.010589175 -0.039538853 -0.0052896664 0.018172111 -0.047522902 0.02792887 -0.001016935 0.00073939696
0.07965635 -0.03395102 0.03177516 -0.038310055 -0.036360025 0.0240252 0.109369755 -0.058141068
-0.03958891 -0.07848396 0.06153121 -0.024035068 -0.056595135 0.025766872 -0.093687266 -0.013104172
0.1003335 0.058460128 0.084634766 -0.0033706012 -0.030203132 0.087134965 0.059757553 0.06172862
0.059641697 -0.013401696 0.03150244 0.00091457274 -0.018335516 -0.0845475 0.04007774 -0.041115407
0.018240772 -0.08025079 0.069475584 0.005195876 0.04523786 0.08899499 0.05372762 -0.09084176
0.10415036 0.09488281 0.11073058 -0.011108306 -0.03612123 0.00608662 0.073187925 0.082430184
-0.05010169 -0.08602435 0.014059543 -0.062222734 0.055783976 0.07315897 0.049755316 -0.065615304
-0.028087238 -0.028955711 0.0092269415 0.033632923 0.07988206 0.0282239 0.090793744 -0.06589287
0.00975327 0.03111149 -0.0039738617 0.07152208 -0.08672857 -0.04017562 0.032209743 0.07548184
-0.009458258 -0.04144565 0.028960641 0.0720377 -0.0785963 -0.078833625 -0.07091133 -0.035146058
0.034425877 -0.029069083 -0.07386033 -0.029737808 0.05411291 -0.005160243 0.063239 0.08278276
-0.003453063 -0.085500844 -0.014997458 -0.05469576 -0.0012031706 -0.0006252354 -0.07078709 0.06764071
-0.05160137 0.020273753 -0.06726323 -0.06592794 -0.055381097 0.012487272 -0.031948853 0.01892209
0.050279334 0.075976305 0.044677056 -0.018891927 0.091654524 0.0064702393 0.040461272 -0.056113496
0.03175973 0.0054290676 0.08266974 0.09473727 -0.07518982 0.020855049 0.06575502 0.0661209
-0.028752416 -0.054276627 0.061363224 0.070314996 -0.083918415 0.08732228 -0.011321768 0.014324341
0.0367241 0.075591035 0.08279778 -0.043764442 -0.01784308 0.015103808 0.049777295 -0.08319579

conv1.bias f4 [4]
00000000: 0cf3 dbbd 99c8 ddbd 8939 e4bd 0704 0fbd
-0.10739717 -0.108292766 -0.111437865 -0.03491595

conv2.weight f4 [8, 4, 5, 5, 5]
00000000: 68a4 94bc 06d4 233c d553 913c 5452 683d
00000010: 0d7e af3c 0580 f5ba bfe7 77bc 5fb7 0e3d
00000020: 89b3 ca3c d47b 733c 5734 34bd a260 4dbb
00000030: c1b4 bb3c 2a55 bcbc 073e 80bd 49d4 f0bc
00000040: c461 5c3c 641a 9c3d 3954 163d b04e 68bb
00000050: 4e4d 4ebc 68c9 163b 4762 873d d5ba e43c
00000060: 26b7 363d fbfe d2bc 6f28 703b 265f 2d3c
00000070: d323 d33c 4456 373d 10e1 f03c b8ac 73bc
00000080: 3208 783d 51b8 54bc f724 adb9 58e5 23bd
00000090: 167b f73c 7f2c 84bc 7e3c 5ebc d307 a63c
000000a0: a10c 24bd ebca 11bd 8cd6 043d f78b 803d
000000b0: 6021 663d bd5c 3fbd a36f 42bd 87ed cab9
000000c0: 7e70 993d 9172 a73c 6765 4abd 36b2 6e3c
000000d0: 4862 9b3a 4767 5f3d c99e 27bc 2ff7 fe3c
000000e0: 0ba9 5f3d 3466 923d fe6c df3a 3a91 2bb6
000000f0: f4ae 3c3d 5bb4 163c 5775 893c 1aa8 313d
00000100: 6438 22bd 3a09 153d 36de f13c d76d 46bd
00000110: 7809 10bc 81a3 623c 76cb 463c 90a4 893c
00000120: 7fd5 8bbb d3e4 e93c 4dff a63d 537d 1fbd
00000130: 69ef 293d ed41 b6bc 2062 853d c9be dbbc
00000140: 9753 c2bb 88de 773d cd6f 833d c1a6 503d
00000150: d3bf 16bd 3809 86bc 59cc 21bc 7df5 24bc
00000160: a5b6 18bb cbe0 f83c 1851 ea3c c226 ca3c
00000170: bdba 993c d01e 933c 340a 04bd 8c34 c43b
00000180: 7e0b b3bc c324 de3c d781 fa3c dec3 aa3c
00000190: aef6 9f3c 73e2 373d e959 38bb bfb4 abbb
000001a0: 599c 863c 4889 8e3b 6ea4 aa3c ea8b f83c
000001b0: 5b55 2cbd bc2b b73c 6b8a 243d 2afa 5a3d
000001c0: 14d4 303d 47ac 5bbd 483e bfbc 5cc9 233d
000001d0: c4b3 663d d31d 463d 873f c63c 9661 bdbc
000001e0: 58fc 1f3d c195 bf3c b330 8b3a 651b 553d
000001f0: 8e87 223d 1d2f c9ba 9b9d 3f3c d895 fdbb
00000200: 347e 79bb d04f 4e3d 53b1 323c 8261 2ebd
00000210: 2087 173c 7492 613c 1a92 aabc 8758 bf3c
00000220: 2715 b439 2d02 6cbc f157 1a3d a95f 203d
00000230: 9598 97bc c388 3f3d 5f81 52bc 9223 8d3c
00000240: cefb cf3a e423 9e3c a29c f03c 93b7 2dbd
00000250: 59c3 8abc 9387 3fbc b8a4 f1bc 31b8 ebbb
00000260: 236a 25bd debe 2d3d 29ac ef3c 056d 95bd
00000270: 109b d2bc e08e 99bc ef22 89bc d212 f8bb
00000280: 1a97 8abc 2fed 07bd 39a4 763c d8e9 803d
00000290: 0664 66b9 20fa 80bd a03b 06bd e66c d4bc
000002a0: 9a83 24bd 4c01 db3b 8262 45bb 899a a13a
000002b0: cb40 1bbb 07ab 7ebd b254 14bd daa5 4fbc
000002c0: 885d e6ba 4acb cd3c d628 dbbb a9c7 223d
000002d0: 8605 23bd 1690 debc f5af 8dbb fe0d 233d
000002e0: 4cff 453d 2ec4 63bd 1437 7bbd 438b 943c
000002f0: c9eb 183d 0b9e 0d3d 734d 25bd 90a9 30bd
00000300: 01fa d83c abed 0a3d dad8 7d3b d9be 0d3d
00000310: cc6a 03bc 0b51 6dbd bf4b 79bd 0862 af3b
00000320: 9efd 62bd 4f77 fabc c3db 393d 986f 8ebb
00000330: c6ef 393b 99e4 f53b caa9 0a3d 0083 d53b
00000340: e7a5 203d dfc1 3f3d 7296 a23b 4baf 10bd
00000350: 31b5 c5bc 85c2 4f3d 80d6 593d 9e3a b2bc
00000360: 59cd 24bd 4450 c9bc 7a94 05bd c2fb 363c
00000370: 5b6e 39bd 67a7 55bd 0953 98bc 58eb 263c
00000380: e508 8239 f1af bb3b 3f6a b5bc b1b2 673d
00000390: 9ed8 a53c ff53 023d 8a08 8f3c 75e9 18bc
000003a0: bd63 e03b 9827 053d 482e f93c a753 de3b
000003b0: 7b6d ccbb 65be 313d 1496 ff3c 0361 3d3d
000003c0: 87be 303c 799e b9ba 3c9d 44bd 6234 c13c
000003d0: bffe f73b f3e0 303d 5892 a8bc a9ac 3abd
000003e0: 9c7d bc3c 2bbf 033c 5c08 93bc bebf 0a3d
000003f0: 3a0b f3bb 92dd 45bc a699 6b3d f878 db38
-0.018144801 0.009999281 0.01774017 0.05671914 0.02142241 -0.0018730169 -0.015130936 0.034842845
0.024743812 0.014861066 -0.043995228 -0.0031338115 0.022913339 -0.022989828 -0.06261831 -0.0293981
0.0134510435 0.07622221 0.036701415 -0.0035447292 -0.012591673 0.002300823 0.06610542 0.02792112
0.044608258 -0.02575635 0.0036645194 0.010581767 0.025773918 0.044760004 0.029404193 -0.014872722
0.06055469 -0.012983398 -0.00033024672 -0.04001364 0.03021006 -0.016134499 -0.013564227 0.020267403
-0.040051106 -0.03559391 0.03243117 0.06276696 0.056184173 -0.0467193 -0.047469746 -0.00038705414
0.07492159 0.020440372 -0.04941311 0.014568856 0.0011854852 0.054541852 -0.010230728 0.031123726
0.05460457 0.071484 0.0017046032 -2.5565519e-06 0.046065286 0.0091982735 0.016779585 0.043373205
-0.03960456 0.036385752 0.029524904 -0.048444595 -0.00879132 0.013832928 0.01213347 0.016802102
-0.004267394 0.028551495 0.081541635 -0.038937878 0.041488085 -0.022248233 0.065128565 -0.026824372
-0.005930375 0.060514957 0.06417809 0.05094028 -0.03680403 -0.016361818 -0.00987538 -0.010068295
-0.0023302224 0.030380627 0.028603122 0.024676684 0.018765802 0.017959028 -0.032236293 0.0059877094
-0.021856066 0.027117139 0.03057949 0.02084535 0.019526806 0.044893693 -0.0028129763 -0.0052400525
0.016431974 0.0043498613 0.02083036 0.030340154 -0.04207359 0.022359721 0.04017107 0.05346123
0.043171003 -0.053631093 -0.023345128 0.039986953 0.05632378 0.048368286 0.024200214 -0.023117822
0.039059013 0.023386838 0.0010619372 0.05202808 0.039680056 -0.0015349124 0.011695291 -0.00773881
-0.0038069608 0.050369084 0.010906535 -0.04257346 0.009248525 0.013767827 -0.02082162 0.023357643
0.00034348035 -0.014404816 0.037681524 0.03915373 -0.018505374 0.046761286 -0.012848227 0.017228875
0.001586789 0.019304223 0.029371563 -0.0424114 -0.016938852 -0.011690038 -0.02949749 -0.007193588
-0.040384423 0.042418353 0.029256897 -0.072961845 -0.025708705 -0.018744886 -0.01674029 -0.007570603
-0.016917754 -0.03318518 0.015053802 0.06294602 -0.00021971771 -0.062977076 -0.032771707 -0.025930833
-0.040164568 0.006683504 -0.003011853 0.001232938 -0.0023689743 -0.062174823 -0.036213584 -0.012673819
-0.0017575482 0.02512135 -0.0066882176 0.039741192 -0.03980019 -0.027168315 -0.004323954 0.039808266
0.048339173 -0.055607013 -0.061331823 0.018132811 0.037334237 0.03457455 -0.040357064 -0.043130457
0.026486399 0.033918064 0.003873399 0.034605835 -0.008021068 -0.057938617 -0.060863253 0.0053522624
-0.05541765 -0.030574469 0.045375597 -0.004346799 0.0028371676 0.0075040576 0.03385333 0.0065158606
0.039220717 0.04681575 0.004961782 -0.035323422 -0.02413425 0.050722618 0.05318308 -0.021756466
-0.040234897 -0.024574406 -0.0326123 0.011168422 -0.04527126 -0.0521616 -0.018594282 0.010187946
0.0002480216 0.005727761 -0.022145389 0.056566898 0.020244893 0.031818386 0.017460126 -0.009333004
0.006847827 0.032508463 0.030417576 0.0067848745 -0.006238637 0.043394465 0.031199493 0.046235096
0.010787613 -0.0014161608 -0.048001513 0.023584548 0.00756821 0.04318328 -0.020577595 -0.045574818
0.023009114 0.008041183 -0.017948322 0.033874266 -0.00741711 -0.012076752 0.057519577 0.00010465266

conv2.bias f4 [8]
00000000: 5934 89bd 2da8 46bd 162b 853d f78f a7ba
00000010: 6350 d2bc c634 09b8 f670 703d dbde a1bd
-0.06699438 -0.04850023 0.065023586 -0.0012783994 -0.025673097 -3.2712494e-05 0.058701478 -0.079038344

conv3.weight f4 [16, 8, 3, 3, 3]
00000000: af0d 663c 067a 46bd 787c 843d 251b e93c
00000010: 1d50 9c3c 0255 debc 0cd9 cbbc 8c87 6f3c
00000020: 02b1 8a3d 587d 943c 4e4a 01bd 58b6 be3c
00000030: 84bf fa3c 92c7 f33c 0800 50bb bf3a 52bd
00000040: 1394 27bd 0da1 e73c 73c2 043d 0121 313d
00000050: 0932 013d fe27 91bc de7d 403c 962f a03d
00000060: be24 85bd 07a6 783c acf5 2b3d 3495 1ebd
00000070: cb99 f53c 2c1e 25bd 0fdd 263d 9df9 7fbd
00000080: f7a2 0a3d cc9e d63c d0df 78bb f4ab f5b8
00000090: 058c 00bd a0d8 46bc aad5 3fbd cdbc 56bc
000000a0: e64b 2a3c 81a7 6c3d 02fa 9e3b 0e67 51bd
000000b0: f25f ae3d db55 01bd c991 6c3c d70d 50bd
000000c0: 5909 d7bc 31ee 583d cd10 61bd 1a50 c43c
000000d0: 3b98 2ebc ffe8 9c3d bf3b ba3c cbc7 f53c
000000e0: e4f0 b63b 964f 463d 9a0d 863d 0579 25bd
000000f0: f3a2 b63c 0578 c7bc ccb4 733d e7fb 76bc
00000100: 67dc 10bc 09d5 8dbd afff 423d d0f1 4c3d
00000110: e7b6 80bd 98f5 923d 84a3 963d 6025 823d
00000120: c334 e63c 8356 de3c 69a7 b83c 5018 953c
00000130: 7f47 cb3c 2f74 edbb e0cf f93b e458 8c3c
00000140: d5fa 9b3c a06a 543d 0e1a b23c 0df3 2a3d
00000150: e20a 8d3d 3f30 c33d db19 963d a4ed 04bd
00000160: ded8 853c f18f 0fbc 02e6 f63b 87b6 803d
00000170: a232 9dbc 5d6c 9f3b 5a49 3b3d 3d57 bd3d
00000180: 5738 7fbd 4702 b83c abb4 463d ac0c 9abc
00000190: a6df a93d de5e 713c 42ab 24bb e50e cbbb
000001a0: bcd3 153d bf55 013d 50f7 06bd 70a9 e73d
000001b0: 318d 863d f888 c93c d215 323d 5b60 1c3d
000001c0: 86a1 6cba 68c0 bdbb 900b 923d e190 3d3d
000001d0: 187e 76bd 85b0 893d 1578 383d f04f a13d
000001e0: 2191 943d 32f9 74bd 2ff7 83bc 557f 1a3d
000001f0: 9989 5abd aa50 79bc 5f54 14bd ca46 963d
00000200: d74e 783d 5e23 763d 441d 833d 1dfb 593d
00000210: 7a3f 69bd 2590 d9bc c4bf 273d d023 183d
00000220: aaed c8bc e514 f3bb bf6f 903d fe91 533c
00000230: f241 063d 530f 0c3c b914 98bb 60d7 9b3d
00000240: ad38 9e3b 0474 27bd 5464 79bb 32a4 203b
00000250: 5e76 85bd 875d 5fbd c989 253d e5cc d6bb
00000260: c8b5 073d 6391 3f3c 6bfa 4039 6e90 7e3c
00000270: b3fa c4bd e63e 043d 9d98 2f3d 39c0 b7bc
00000280: 4c57 a83c 87ba f8bc 219e d2bc 136e 0f3c
00000290: 5360 7e3d 6414 b2bd 0f77 51bc 588f a13c
000002a0: ec21 39bd d20c 5abd a3df 4b3d bd2c f9bc
000002b0: 08e6 95bd cd47 e63b 1447 86bd ef9a 51bd
000002c0: 600f 46bd b833 97bd 08c9 a8bc 5f1c 1dbc
000002d0: 227e 9d3d 0896 74bc 4d93 45bd 671f 1abd
000002e0: 843e 883d ecf8 8fbc 2bd7 b43c 7f34 363d
000002f0: 7e9f 8bba 77c4 8bbc 83a3 76bd a1a8 6bbc
00000300: e1eb 66bc 51f9 573c f62d 74bc b1a5 11bc
00000310: 0bbe ecbc 696f b4bc 3793 4fbd 87ed 2ebc
00000320: 0a45 9d3d d924 123c a1cf 49bd 095f edbc
00000330: 7e7f 53bd d52a a03d 53c7 343d ec90 8bbc
00000340: 92bc 133b 70d7 d13c 54b3 6b3d e633 7c3a
00000350: 4e24 a23b 48ad 863d 030b fd39 d8e3 273d
00000360: 1558 9bbc 2cc7 203c 3375 82bd fe88 52bd
00000370: c602 c33c a514 363d c4a4 18bd 88d5 3d3b
00000380: b1cd 95b9 6ed3 01bd a915 2b3c 9e38 82bd
00000390: e7d9 a3bc 1d2d 3cbd f4f4 7dbd 77ef 8bbd
000003a0: 4ddb 08bd d31f 33bd 5566 b23c 8c9b 853d
000003b0: 88c0 d13c 4909 313d 384f c4bc 41b6 5e3d
000003c0: a031 2fbd 0be2 96bd 06b3 20bd d857 383d
000003d0: d961 bdbb 8268 1f3d 4f66 533d e027 9b3c
000003e0: 7451 17bd bca3 33bd e828 0a3d 80fc 59bd
000003f0: eba2 8a3d 14cd adbb 233b dfbc 2240 03bd
0.014041348 -0.048456214 0.06469053 0.028455326 0.01908117 -0.027140144 -0.02488377 0.014619719
0.06772043 0.018126175 -0.031565003 0.023280308 0.0306089 0.029758248 -0.00317383 -0.051325556
-0.0409127 0.028275037 0.032412004 0.043244366 0.031541858 -0.017719265 0.011748759 0.07821576
-0.06501149 0.015176303 0.041982338 -0.03871651 0.02998056 -0.040311977 0.04073816 -0.06249391
0.03384682 0.026198767 -0.00379752 -0.00011714539 -0.031383533 -0.012136608 -0.046834625 -0.013106537
0.010394072 0.05777693 0.0048515806 -0.05112367 0.08514394 -0.03157602 0.014439055 -0.05079445
-0.026249574 0.052961532 -0.054947663 0.023963977 -0.010656412 0.07661628 0.022733567 0.030002495
0.0055829156 0.048415743 0.06545563 -0.040398616 0.022294497 -0.024349222 0.059498593 -0.015074707
-0.0088416105 -0.06925399 0.04760712 0.050035298 -0.06284886 0.071757495 0.07355407 0.06354785
0.02810133 0.027140861 0.022540765 0.01820007 0.024814365 -0.007246516 0.0076236576 0.01713223
0.019040504 0.051859498 0.02174094 0.041735698 0.06886841 0.095306866 0.0732915 -0.032453194
0.016338762 -0.008762346 0.0075347433 0.06284814 -0.019189183 0.004865213 0.04572425 0.09245155
-0.06230959 0.022462023 0.048512142 -0.01880487 0.08294611 0.014732091 -0.0025126492 -0.006196844
0.03657888 0.031575914 -0.0329507 0.113116145 0.06569899 0.024601445 0.04347784 0.03817783
-0.00090267544 -0.005790759 0.071311116 0.046280745 -0.060178846 0.067231216 0.045036394 0.07876575
0.07254244 -0.059807964 -0.016109077 0.03771909 -0.05335388 -0.015216986 -0.036213275 0.07337721
0.060622063 0.060092323 0.06402066 0.053217996 -0.0569453 -0.026557991 0.040954366 0.03714353
-0.02452739 -0.0074182623 0.07052564 0.012913225 0.032777734 0.008548575 -0.004641142 0.07609439
0.0048285336 -0.040882125 -0.0038054185 0.002451193 -0.065167174 -0.054532554 0.040414605 -0.006555187
0.033132344 0.011692378 0.00018403835 0.015537364 -0.096181296 0.032286547 0.042870153 -0.022430526
0.020549439 -0.03036238 -0.025710167 0.008754271 0.06210358 -0.086952955 -0.012784733 0.019721672
-0.045198366 -0.053234883 0.049773823 -0.03041684 -0.073192656 0.0070276023 -0.06556526 -0.051173147
-0.048354506 -0.073829114 -0.020603672 -0.009589284 0.076900735 -0.014928348 -0.04823618 -0.037627604
0.06652549 -0.01757475 0.022075256 0.044483658 -0.0010652391 -0.017061455 -0.06021453 -0.014383466
-0.014094324 0.013182 -0.014903536 -0.008889602 -0.028899213 -0.02202578 -0.050677504 -0.010676748
0.07679184 0.008919918 -0.049270276 -0.02897598 -0.051635258 0.078206696 0.044135403 -0.017036878
0.0022542817 0.025615424 0.057544068 0.00096207706 0.0049481755 0.065760195 0.00048264125 0.040988773
-0.0189629 0.009813111 -0.0637001 -0.051400177 0.023805033 0.044453282 -0.037266508 0.0028966386
-0.00028572747 -0.031695776 0.010442176 -0.06358455 -0.020001365 -0.04594146 -0.062001184 -0.06832784
-0.033412267 -0.04373152 0.021777311 0.06523809 0.025604501 0.043221746 -0.023963556 0.05437303
-0.042771935 -0.07367333 -0.03923323 0.04500565 -0.0057794866 0.038918026 0.05161124 0.018939912
-0.036942914 -0.04385732 0.033730417 -0.05321932 0.067693554 -0.0053039882 -0.027249878 -0.032043584

conv3.bias f4 [16]
00000000: 0cb6 21bd 7c2e 4c3c 2cd6 c0bc b57a a03d
00000010: c538 25bd d3ad f3bc 034f babc f9cb e4bc
00000020: ec78 d8bc 5007 89bc b748 e63c 3b89 b8bc
00000030: 6f42 813c 0901 1cbd 73f7 673d 03f5 54bc
-0.039480254 0.012462255 -0.023539625 0.078359045 -0.040337343 -0.029745972 -0.022742754 -0.027929293
-0.026424848 -0.01672712 0.028110845 -0.022526374 0.015778748 -0.038086925 0.05663247 -0.0129978685

conv4.weight f4 [32, 16, 3, 3, 3]
00000000: c6b7 2f3d 4be9 5d3c a818 173d 94be 123d
00000010: 20cf 7c3d 2620 ea3b 2c88 833c 4d01 c1bc
00000020: 2cc6 1bbd 9f9f 8ebc 0dea 8a3d 0181 0b3d
00000030: ed55 1d3d e421 bd3c 24e9 883d 8be1 2fbd
00000040: 7ad0 4b3d 0473 ebbc faf8 91bb dd97 f33c
00000050: 692d 10bd e6e1 29bc dbaa 4f3d 77b0 25bc
00000060: 52b8 ef3c 62d7 263d e2e7 07bd c7a5 ce3b
00000070: 200d 7f3d 3cf8 34bc 5885 b53b 4fe1 8abc
00000080: c6b4 eb3c 8faf ea3c 1ba2 76bc a3b9 c73c
00000090: 41d3 373d 5837 91ba 522d 793d dbbb 1ebd
000000a0: 1f44 36bd 471b 09bc e8bf 5dbd 7556 34bd
000000b0: a70d f3bb 9957 7a3d 7577 24bd ef5e 23bc
000000c0: fc50 e4bc 7673 a23b 97f4 b0bd bbf9 103c
000000d0: d307 04bd 4ed0 2fbd 3bae 343d f0c5 6dbc
000000e0: 1dd4 de3c d5d6 3d3d ec58 753c 83ba 1f3c
000000f0: b86e 823c 1a87 773d 451c 3abb bd19 48bd
00000100: ee17 e93a d6a5 b83c f64b 9dbc 4b17 a63d
00000110: 4d84 e13c 2737 653d edfd 203c 3b1f 513d
00000120: dc29 29bd 1c1c b0bd d8f9 e63b aa93 26bc
00000130: c35d 3dbd 1faf 04bd b8bd de3c e906 0f3d
00000140: 638a 1fbd a282 bf3b 2668 a23c a313 64bc
00000150: 077a e63c 189d 24bc fa31 103d 9832 483d
00000160: 665b d4bb 0b2c cfbb a971 173d 545c fe3b
00000170: 1c83 6d3c bfbb fb3c 1a94 9d3d 7fa7 803c
00000180: 99d9 523c 7ea2 373d e29e 153d a5cb 183c
00000190: 0590 fdbc 6b00 343c 196b 86bc ef61 05bd
000001a0: 17ec 153d 04c2 0b3b c874 5fbb 0238 9b3a
000001b0: a0fd a1bc 4210 d5bc 9afa d23c 86ca 183d
000001c0: ac08 d6bc e0fc 483d 2f0c e83b 27f2 fa3c
000001d0: 04ef a53c ac88 2a3c 44b0 293a 4bf6 09bd
000001e0: 5c1c a3bc c546 d0bc 2311 363c 01f4 063d
000001f0: 9ea8 a93c e4c7 133d 992f d83c 195e 79bb
00000200: 057e 143d 7fe9 643d 00fb 5b3c fa6f ee3c
00000210: e172 2a3d fac1 b8bc 1271 ebbc 79ee b63c
00000220: 0853 da3c 0a5e 493d 6e19 103d 9bae 273c
00000230: f7af 14bd f9d5 223c 88e4 3dbd ec57 95bc
00000240: 989e 8c3d 3fd1 3a3d bed3 9cbc 704f ce3a
00000250: 6cf8 9dbc 8c38 4c3c a3f0 aebc be34 063b
00000260: 47e3 9fbc 128b b33c 1d3b 15bc 051e b2bc
00000270: 1d5d dcbc 9f24 6fbd 4c22 8ebd 1e36 d3bc
00000280: ead3 0bbd 041c 6dbc d315 173d 632b 8fbb
00000290: 9c35 98bb 4908 32bd 7a01 183c 0f9f 113b
000002a0: 4c86 0abd 7449 94bc f3d2 fdbb 8411 e83c
000002b0: bff4 0fbc 3f44 5fbd 34f9 c73c b392 cdbc
000002c0: 4259 9dbc b7df 5c3c 136e 1f3c a3b1 2b3d
000002d0: ac9d c2ba ece3 38bd cac7 86bb 077d 3c3d
000002e0: f330 073c 3aa2 8cbc e157 a83c 45b9 3e3d
000002f0: 8645 61bc 20b7 f63c 84c9 803c 1183 5bbc
00000300: 2a92 38bd 37ca 2b3d 8419 3cbd 527d 82bc
00000310: 9676 04bd 6f1c 6f3c 660d 1d3d 8975 09bd
00000320: c1ef 433d e10f 223d a737 cdbc e000 9b3c
00000330: d2f9 39bd 8fd2 8ebc aa9a 3bbd 90c8 e23b
00000340: 1108 173d aeca 063d 15c7 35bc 8e7e 3abd
00000350: c7b4 72bc 89f6 30bc ec12 debc 76b3 c13a
00000360: 9f2d 80bc 7e0d 143d 2aff 0b3d 5a6e 15bd
00000370: e43a a9ba b1ec 8cbd 28ea 85bd 00f7 d7bc
00000380: 26b0 4cbd d0fd 383d b675 e7bc be54 173d
00000390: 6483 47bd 9267 6fbc 2255 4bbc b018 40bd
000003a0: c397 26bc 54a2 cabc 273d 70bc 72de 503d
000003b0: b387 d8bc 607c 5b3a 33ed 583c a45e 49bd
000003c0: f62a 78bd 119e e0bc f8cc 39bd dfda 6fbc
000003d0: b2cb 653d 353e b43c 858e 23bd da8d b53b
000003e0: 13f6 21bd eb63 62bc 3284 29bd 0b3a 7bba
000003f0: b025 473c 8654 3d3d 2273 b7bc 8176 c73c
0.04289987 0.013544391 0.03688875 0.03582628 0.061720967 0.0071449457 0.016056143 -0.02356019
-0.03803079 -0.017410098 0.06782923 0.034058575 0.038412023 0.02308745 0.06685093 -0.042939704
0.049759366 -0.028741367 -0.004454729 0.0297355 -0.035199556 -0.0103688 0.05070005 -0.010112873
0.029262695 0.04073275 -0.033180125 0.0063063833 0.062268376 -0.011045512 0.0055395775 -0.016953139
0.028772723 0.028648166 -0.015053297 0.02438051 0.0448792 -0.0011079116 0.060834236 -0.03875337
-0.04449856 -0.00836832 -0.054138094 -0.044027764 -0.007417399 0.061118696 -0.040152986 -0.009971364
-0.027870648 0.0049576117 -0.08640402 0.008848603 -0.032234024 -0.042923264 0.04411147 -0.014512524
0.027200753 0.046347458 0.014974814 0.009749058 0.015921935 0.060431577 -0.0028398198 -0.04885267
0.0017783621 0.022540014 -0.01920126 0.081099115 0.027528906 0.0559608 0.009826166 0.051055174
-0.041299686 -0.085991114 0.0070488267 -0.010167042 -0.046231996 -0.03239357 0.027190074 0.0349187
-0.038950335 0.00584443 0.019825052 -0.013920697 0.028134359 -0.01004722 0.03520391 0.048876375
-0.006480622 -0.006322389 0.03697363 0.007762471 0.014496591 0.030729173 0.07694264 0.015704868
0.012869262 0.0448327 0.036528476 0.009325896 -0.030952463 0.010986428 -0.01640849 -0.0325641
0.036602106 0.002132536 -0.0034096707 0.0011842253 -0.019774258 -0.026008729 0.025754262 0.037302516
-0.026127182 0.049069285 0.0070815305 0.030633045 0.020255573 0.010408562 0.0006473104 -0.03368215
-0.019910984 -0.02542437 0.011112484 0.032947544 0.020710286 0.036079302 0.026389884 -0.0038050471
0.036252994 0.05588674 0.013426542 0.029106129 0.041613463 -0.022553433 -0.02874044 0.02233051
0.02665092 0.04916195 0.0351805 0.0102345 -0.036300626 0.00993871 -0.046360523 -0.018230401
0.06866187 0.04560971 -0.019143935 0.0015740227 -0.019283496 0.012464654 -0.021354979 0.0020478214
-0.019517554 0.0219169 -0.009108332 -0.02174283 -0.026899869 -0.058384534 -0.06940135 -0.025782641
-0.034137644 -0.0144720115 0.036886048 -0.004369186 -0.0046450626 -0.043464933 0.009277696 0.002222005
-0.03381948 -0.018101431 -0.0077460944 0.028328665 -0.008786379 -0.054508444 0.024410821 -0.025094366
-0.0192076 0.013481072 0.009730834 0.041917454 -0.0014848015 -0.04513924 -0.004113172 0.046017673
0.0082514165 -0.0171672 0.020549716 0.046563406 -0.013749486 0.030116618 0.01572109 -0.013397948
-0.045061268 0.041940894 -0.04592277 -0.015928898 -0.032339655 0.014594181 0.038342856 -0.033559356
0.04783607 0.039565925 -0.025050951 0.018921316 -0.045404263 -0.017434387 -0.045801796 0.0069208816
0.036872927 0.032908134 -0.011094828 -0.04553085 -0.0148136085 -0.010800966 -0.027108632 0.0014778215
-0.015646754 0.03614568 0.03417889 -0.036482193 -0.0012911228 -0.06881083 -0.065388024 -0.026362896
-0.049972676 0.04516393 -0.028254371 0.03694605 -0.04870929 -0.014612095 -0.012410434 -0.046898544
-0.010168019 -0.024735607 -0.014663017 0.05099339 -0.026431894 0.00083727203 0.013240146 -0.049162522
-0.060587846 -0.027419122 -0.04536149 -0.014639585 0.056102462 0.022002319 -0.03993084 0.0055405917
-0.039541315 -0.013817768 -0.041385837 -0.0009583539 0.0121549815 0.046223186 -0.022393767 0.0243485

conv4.bias f4 [32]
00000000: 6781 4dbd 5cfa 323d 6c80 393d 1e70 2f3c
00000010: 6179 993c aee6 a33c ca5d cb3c d202 ec3c
00000020: f6e0 0dbd 3116 22bc 8cb8 58bd 60ff 23bd
00000030: 5913 203d efdf 05bd e152 7fbc 0ca4 1a3c
00000040: 954b 5dbc 62b7 123d 5f75 603d 748f fb3c
00000050: 476e e1bc dcc7 6dbd 2956 253c 2d2f cebc
00000060: b9b1 c63a b046 1ebd 0841 163d d6ee b33b
00000070: fbba 93bc e4a6 83bc 9b57 f73c 9419 38bd
-0.050172236 0.043695793 0.04528849 0.010707883 0.018734636 0.020007458 0.024824996 0.028809939
-0.034638368 -0.009892986 -0.052910373 -0.040038466 0.03908095 -0.032684263 -0.015583725 0.009438526
-0.01350679 0.03581942 0.054799434 0.030708052 -0.027518405 -0.05805193 0.010091343 -0.02516898
0.0015159167 -0.03864163 0.036683112 0.005491118 -0.018033495 -0.01607079 0.03019314 -0.04494627

conv5.weight f4 [64, 32, 2, 2, 2]
00000000: 85a4 c5bc c3e3 8f3c 63b7 503d 2bda de3c
00000010: 74b7 043d 3790 1a3d d2cf 50bc 26ec 003d
00000020: f687 6d3d 2689 59bd 2686 8c3c 62c6 b3bd
00000030: cf62 343d 7f52 0b3b aa4f 9e3c 7250 32bc
00000040: c44f 14bd 189d 6cbd 5b59 87bd 4b30 243c
00000050: 45a5 343d 6f02 caba c89b e23c e6c5 833b
00000060: c9b4 8b3d 31a2 f03c ed00 5c3d 236b b73d
00000070: 741d 4cbd 42c3 293d 3c40 453d 3e12 773c
00000080: bf22 1d3d b41e 7d3d aa67 6a3c 351f 583d
00000090: a71c 973c e0f9 e4bc d7e8 e93c 2899 a1bd
000000a0: b1a5 32bd a899 16bd 79ac 88bd 48cc 253c
000000b0: 0751 eebb 0e0d 163c 678c 713d f178 76bc
000000c0: c3c3 3e3d 7726 7c3d 8b9d 463d 29f1 b0bc
000000d0: af02 99bd 34e5 56bd c657 6bbd 3398 8cbd
000000e0: 8b40 4cbd 536d 36bd 7937 303d edc9 5fbc
000000f0: 6e22 5abc 61a0 c1bd e37c 7bbd ddb1 74bd
00000100: 940d 253d c0d3 a7bb 045e 52bd f431 7dbd
00000110: 25e6 743d 325f 5abd 1fbf 78bd 928a aa3c
00000120: 3a06 aebc 3428 453d 8fcc 73ba eeda 24bd
00000130: a6b6 003c 82ef 923c 1082 583d e291 553d
00000140: d291 16bd f41b eb3c e82e 573c 30e6 953b
00000150: 935d c63c 3d5f d03c f871 54bd 6604 d3bc
00000160: 8abe 263d d0fe 5b3d b644 14bd 208f 933c
00000170: e0ac 19bb d5a3 cb3b 1944 18bd 1afa 343d
00000180: 7e6a 6cbd 3e89 c8bc 2850 dd3c 06dc 003d
00000190: a307 373d 1da4 503d 394e 033e 3c34 9d3c
000001a0: 2d2e 2b3d ceb8 b3bc e0ef 413d a09c d93c
000001b0: f263 ad3c 2d6d 1a3c f5e4 bdbc 9c04 29bd
000001c0: a191 543d a90a 49bd 41c2 c9bc 5cdc b4bc
000001d0: 91f5 2f3d a609 85bd 884f 0b3b 0678 46bd
000001e0: 83e1 913c 4fae d5bd 5672 3ebd c8f2 0abe
000001f0: c014 0f3e e1ce 143b 9a6c a33d 590b 803d
00000200: b37a 8c3d c6b9 9e3d cfef 2cbc 6a1e 23bd
00000210: f0b4 28bd c113 a33d f513 d4bc 1024 4b3b
00000220: e52b 0cbc c411 77bc 3448 33bd 143b 253d
00000230: dba0 28bd de8d afbb 8d5e cd3d f99a 903b
00000240: 1948 c3bc dbff 90bd 2deb 6f3c 167b 99bd
00000250: 928b d13d 4190 f8bc 6fbb ac3d ce25 07bd
00000260: 119e d6bc bf51 353d e734 39ba 843e db3b
00000270: 96fb 083d 0db2 ff3b f391 84bd 4784 1a3d
00000280: 4ab2 44bd 1a9b 133d 65db 15bd ed5c 173e
00000290: 9945 59bd 70db 08ba a9cc 683b e36b 51bd
000002a0: a32a 66ba 3c0e 71bb c082 133d b0c0 8c3c
000002b0: 3ef0 ff3c 0b4a a53c 813a fabc c0a4 c1bc
000002c0: 47c0 8bbc bb92 e2bc 8551 b23c f339 253d
000002d0: 179d 303d aaab 9dbd 8330 03bd 95aa adbd
000002e0: 9f60 c4bb e43f 4fbd 8da6 eebc cb0d ceb9
000002f0: fc51 32bd 6e7f a13c 1c7d 30bd 5bae 4f3d
00000300: b0be 9fbc 8869 18bd 7cc2 07bc 6741 45bd
00000310: 792d 83ba 3952 873c 0197 b0bb a8d5 0fbd
00000320: 0614 24bc 9864 b8bc c93c dabc a55d debc
00000330: b9cb bdb9 f45a 763d 833f c238 fc30 1abd
00000340: 03df be3c 15fe e8bc e344 c5bd 34f8 1cbb
00000350: dd7a de3c 5bf0 56bd 3a48 3f3d 187f 98bd
00000360: 7d32 75bd cea3 7b3c 0efb 5abd e13c 8e3d
00000370: 946b b93b 42e3 0a3d f29c 6cbd cbc5 cdb9
00000380: f350 ac3d d7f3 a8bb c861 19bd be30 f1bd
00000390: 1b03 993d 7d36 d43d 7585 a03d 860d 39bb
000003a0: 189f 7d3c d1f6 7abc 70b4 89bc c90a 4d3d
000003b0: 4dca 303d 5422 e6bc 0eaa e0bc fb3f 57bd
000003c0: 38a6 4f3d 498d 52bc c814 c5bc e3e2 8a3d
000003d0: b882 69bc f605 34bd 3f49 3c3d 1a54 04bd
000003e0: 7d47 523d 9034 0a3d 0f1a 283d cecb 6dbd
000003f0: 14f3 3ebd 56db 25bd 985a 51bd cd2b ecbc
-0.0241263 0.01756466 0.05095614 0.02720364 0.032401517 0.03773519 -0.012744861 0.03147521
0.05799099 -0.05310931 0.01715381 -0.08778073 0.044039544 0.0021258888 0.019325096 -0.0108834375
-0.036208883 -0.057767004 -0.0660884 0.01002128 0.044102926 -0.0015412102 0.027662173 0.004021394
0.068215914 0.029374214 0.05371182 0.089559816 -0.049832776 0.041445978 0.04815696 0.015080033
0.038363215 0.06179686 0.014306942 0.052764136 0.01844628 -0.027951181 0.02855341 -0.0789054
-0.043615047 -0.03676763 -0.066735215 0.010119505 -0.007272843 0.009158386 0.05897179 -0.015043483
0.04657341 0.06156012 0.04849009 -0.02159937 -0.07471215 -0.05246468 -0.057456754 -0.06864967
-0.04986624 -0.044537853 0.043021653 -0.013658983 -0.013313873 -0.09454418 -0.061398398 -0.059739936
0.040296152 -0.005121678 -0.05135919 -0.061815217 0.059789795 -0.05331344 -0.060729142 0.020818029
-0.021243203 0.048134044 -0.0009300196 -0.04024785 0.007856047 0.017936472 0.052858412 0.052141078
-0.03676016 0.028699853 0.013133742 0.0045745596 0.024214542 0.025436038 -0.0518665 -0.025758933
0.040709056 0.053709805 -0.03619834 0.018012583 -0.0023448989 0.0062145987 -0.037174318 0.044183828
-0.057718746 -0.024479505 0.02701576 0.03145983 0.044685017 0.05093776 0.12822808 0.019189946
0.041792084 -0.021938708 0.047347903 0.026563942 0.021165822 0.009425444 -0.023180464 -0.04126416
0.051896695 -0.049082432 -0.02462876 -0.022077732 0.0429588 -0.06495981 0.002125712 -0.048454307
0.017807728 -0.10433637 -0.046495758 -0.13569176 0.13972759 0.0022706317 0.079796985 0.062521644
0.068593405 0.07750277 -0.010555222 -0.039823927 -0.04118818 0.07962752 -0.025888423 0.0030996837
-0.008555387 -0.015079919 -0.04377003 0.040339544 -0.04116903 -0.005357488 0.100278 0.0044130054
-0.02383809 -0.070800506 0.014643473 -0.0749418 0.10231699 -0.030342223 0.084341876 -0.032995038
-0.026198419 0.044267412 -0.0007065073 0.006690802 0.033443056 0.0078032077 -0.0647315 0.037723806
-0.048021592 0.03603659 -0.036586184 0.14781542 -0.05304489 -0.0005220687 0.0035522378 -0.05112828
-0.0008780157 -0.0036782166 0.036013365 0.017181724 0.031242486 0.020176908 -0.030545475 -0.02363813
-0.017059458 -0.027657857 0.021767387 0.040338468 0.043118563 -0.07698758 -0.032028686 -0.084798016
-0.0059929634 -0.05059804 -0.029132152 -0.00039301658 -0.043535218 0.019714084 -0.043088064 0.050703388
-0.019500107 -0.037210017 -0.008286115 -0.048158076 -0.0010008059 0.016518699 -0.005389095 -0.035115868
-0.01001454 -0.022508904 -0.026640313 -0.027144263 -0.00036200674 0.060145333 9.262471e-05 -0.03764437
0.0232997 -0.028441468 -0.0963228 -0.0023951652 0.027158195 -0.052475315 0.04669974 -0.07446116
-0.059862603 0.015358878 -0.05346208 0.069452055 0.0056585763 0.033908136 -0.057766862 -0.00039248014
0.08413877 -0.005156021 -0.037446767 -0.11776875 0.074712954 0.10361955 0.07837955 -0.002823682
0.015479825 -0.015317635 -0.016809672 0.050059114 0.04316168 -0.02809254 -0.027424838 -0.05255125
0.050695628 -0.012851068 -0.02405776 0.067815565 -0.014252357 -0.043950997 0.04596829 -0.032306768
0.051337708 0.033741534 0.041040476 -0.05805569 -0.046618536 -0.04049238 -0.051111788 -0.02882948

conv5.bias f4 [64]
00000000: cc2b 763d 4f12 0fbd 7f4e 32bd fdac 08bc
00000010: f07f 433d 6c14 0cbd 77d6 2b3d a8ab be3c
00000020: ee2c a1bc f315 163d 9bdd 49bd 1365 d33c
00000030: 1417 1d3c e0ed 003d e38b 023d 7cd5 03bd
00000040: 6528 a9bc 1338 5b3d 8f13 a23c 2c8f 6d3c
00000050: 47d7 76bd 2d0b 533c 54b0 a9bb a277 c2bc
00000060: 3c8d b43b b3df 83bb 1976 163d 48be 403c
00000070: d3bc 58bb 3c9e 8a3c a9d1 583d a3b6 e3bc
00000080: 8961 973b fc72 933c 3200 9f3c 29ec 3c3d
00000090: e5fb 29bc 72b6 413d 2f50 5f3c 1d69 29bd
000000a0: ce78 44bd bac3 63bd 1d5c 673d 9f85 6d3d
000000b0: 062b 293d ad1b 18bd 2b70 bfbc 0195 67bd
000000c0: 19f5 22bd 52ec 3d3d 3236 083d 5a7b 13bc
000000d0: fc46 b83a f70d 84bc 937b 113b cfdc 67b9
000000e0: 32ae fd3b 7f50 37bd 5288 5bbd d567 6d3c
000000f0: b5fb f93c 2677 4bbc d577 be3b 74ab 0a3d
0.06010036 -0.03492957 -0.04353189 -0.008342025 0.047729433 -0.034199163 0.041952576 0.023275211
-0.019674744 0.036642026 -0.049283605 0.025805032 0.009588022 0.031476855 0.031871688 -0.032186016
-0.020649144 0.053520273 0.019784717 0.014499467 -0.0602639 0.0128810825 -0.0051784907 -0.023738686
0.0055100005 -0.0040244698 0.03673372 0.011764117 -0.0033071532 0.016921155 0.052934323 -0.027797049
0.0046197814 0.017999165 0.019409273 0.046123657 -0.010374998 0.047293134 0.013629957 -0.04136001
-0.04796677 -0.05560658 0.05648433 0.05798876 0.041300796 -0.03713577 -0.023368916 -0.056538586
-0.039784525 0.04636795 0.03325481 -0.009001577 0.0014059241 -0.01611994 0.00221989 -0.00022112134
0.007741713 -0.0447545 -0.053596802 0.0144900875 0.030515531 -0.012418544 0.005812625 0.033854917

linear1.weight f4 [128, 512]
00000000: e235 8dba 5774 6cba e0b9 6e3d d81a 513d
00000010: 0e4f e93b 6160 1f3d cf1c 773b da4e 1abb
00000020: d3f5 143d 5b31 3d3c 41db 77bc 87c0 c9bc
00000030: c523 913c f18e e2bc 0208 2ebd 10b5 6bbc
00000040: 4b76 cbbc 0cc7 4fba cb72 033d 1556 1dbd
00000050: 504b cd3b c51d 493b b158 903a b2e4 7ebc
00000060: 9966 8abc 70c1 e5bc 104c 33bd d0f5 61bd
00000070: 8808 a3ba a906 393d da89 8c3d 1746 bb3c
00000080: 3f78 983c 298d e5bc 2be0 063d 7edb ddbc
00000090: 41dc 823c 4124 763c a873 0d3d a260 33bd
000000a0: cd05 ea3c fe79 da3c 2ee9 c53c f553 8fbc
000000b0: 533b 2abd aecf 3f3c 4601 51bd bba5 98bd
000000c0: db71 2dbb 9bba e7bc 9a55 cf3c 7273 303d
000000d0: 99b4 3cbc 316c 06bd 58e5 19bd 30ff 48bc
000000e0: 124e 5a3c f09e 7a3b c8f0 2f3d 72e9 793c
000000f0: d0bf 7f3b e6cd 1bbb 68d7 35bd 0d4e ad3c
00000100: c898 113d 3b5d a7bb 7cf1 25bc 9771 fbbb
00000110: 022d 1abd e02e e93c 71e0 10bb f111 d8bc
00000120: 118c 7b3c 3512 253d cf68 b13c 8dca adbc
00000130: fd87 c13c 30b4 d9bc ceec d6bc 63bb f33c
00000140: 68d8 fabb ccfe 353c 114f c83c 76f5 23bd
00000150: 1e36 7d3c d531 203c 6779 e83a 8510 5b3c
00000160: 95c3 b1bc c04f 543a 0e5d ca3b b835 bf3c
00000170: d79c a7bc f151 d03b 1a64 13bc a142 dc3c
00000180: 9fd8 48bd 83bd b2bc ebbd e0bd f629 56bd
00000190: 0e1e ddbd a066 23bd d928 12bd 9217 ebbc
000001a0: 329e aaba 066b 0cbd 0fae 453d 9ed0 153d
000001b0: 86e5 9dbc ab72 553d b6da f0bb 68fd 2a3d
000001c0: 864d bbbc 7e6b 3dbd 21ad 65bc 1c5e 193d
000001d0: 26a4 223b 6cc1 22bd ff48 123d 963d ba3c
000001e0: 3f0f ca3c d2c8 823b 3b49 6c3d f14d 3e3d
000001f0: 2633 8dbc 4421 3d3c edbf e23b 0562 8dba
00000200: b2e1 523c 3a20 dc3c 099a 07bd 030e 093d
00000210: dc71 6bbd 414b 43bb 3a6c 69bd d521 a8bb
00000220: 8d8f 493d c4a1 a6bc 3a59 ea3c 43aa 79bc
00000230: 2e13 673d d127 a0bc 8065 7b3d 44ce eb3c
00000240: d5b3 5cbb 31e1 b63c aa6e b9bc 5b7f 663b
00000250: 43ad a33c 1945 9a3c ea58 a23c eb2a 0b3a
00000260: 4107 d9bd 759a 98bd a53a 4ebd 69b5 313c
00000270: 433f 24bd d49a a7bd e06d 7bbd 164a 35bd
00000280: 4013 0cbd b17f b73b dcf6 e63c 7bab dabc
00000290: 2007 043c bbee 823b fc01 053d b68c 03bd
000002a0: 66e9 83bd af0a 003d d564 f8bc fffc 3dbc
000002b0: c0eb 39bd 0752 033c 9696 3fbc 122f 173c
000002c0: af42 a9bc ec13 273d 8707 36bc 1a5f 833d
000002d0: c75f 4c3c d3e8 82bc 04c9 913c 776c 273d
000002e0: 3d19 973d 3eb5 8e3d 1f57 9a3c df52 6dbd
000002f0: ab0f 333c 9d7b 18bd ee44 32bb 50e4 aebd
00000300: 3e5d b1bc 0835 213c 6a3b e23c 5ecc ebbc
00000310: ef0f 32bc e043 2b3c 6532 49ba 89f9 013d
00000320: 182d a63d c021 90bb 1e6c 6e3d 016f 97bc
00000330: 8c21 463c 284a d23c 19d9 0abd 5b16 4bbd
00000340: 8bcd af3c 96d5 a43d 3399 873d 19f9 ee3c
00000350: 050c 7f3d 0534 d2ba 313f 3cbb ca5c 8e3c
00000360: 9bc6 873c ae3d 453c 2101 4d3d 64a4 2a3c
00000370: 5758 bb3c 25d9 b03b bc98 9b3d 851b a13d
00000380: 639c 17bd 726b 943b d3a3 483d d870 5a3d
00000390: cb88 05bd d0a0 ee3b 4d44 c63c ba00 403d
000003a0: 8865 7abd 1467 0f3b ab25 2fbd 9648 233d
000003b0: 593f 93bc 776e 193d 0cc4 af3c bf0e 493d
000003c0: 101c eb3b 5269 493c ef63 11bd 8756 a7ba
000003d0: 06a2 76bc 4691 47bd 0461 7cbb 1958 8abd
000003e0: 1dc8 a4bc c92e 5ebb 3e98 b0bc e08b f43a
000003f0: abfd 753c 5bf5 253d 1555 dbbc e487 2ebd
-0.0010773505 -0.00090200215 0.058282733 0.05105099 0.0071200198 0.038910273 0.003770638 -0.0023545534
0.03636725 0.011547412 -0.015127958 -0.024627937 0.017717252 -0.02765605 -0.042488106 -0.01438643
-0.02483668 -0.00079260836 0.032091897 -0.038412172 0.0062650815 0.003068791 0.001101276 -0.015557455
-0.016894625 -0.02804634 -0.04377371 -0.055166066 -0.0012438456 0.045172367 0.068622306 0.02286057
0.018612025 -0.028021412 0.032928627 -0.027082201 0.015974166 0.015023292 0.034534127 -0.043793328
0.02856722 0.026669499 0.02415904 -0.017496089 -0.041560482 0.01170723 -0.051026605 -0.074534856
-0.0026465568 -0.028287223 0.025309373 0.043078847 -0.011517667 -0.032818023 -0.037572235 -0.012267873
0.0133242775 0.0038241707 0.042954236 0.015253412 0.0039024241 -0.0023773848 -0.04439488 0.021155382
0.035546094 -0.0051075495 -0.010128375 -0.007673453 -0.03764058 0.028464735 -0.0022106434 -0.026375743
0.015353219 0.040300567 0.021656422 -0.021214748 0.023624415 -0.026575178 -0.026235964 0.029752439
-0.007655192 0.011108112 0.024451764 -0.04002901 0.015454797 0.009777506 0.0017736376 0.013370638
-0.021699706 0.0008099042 0.0061756438 0.023341045 -0.02046053 0.0063574244 -0.008996034 0.02688724
-0.04903471 -0.021818882 -0.10973724 -0.05228611 -0.10796748 -0.039892793 -0.035683487 -0.028697763
-0.0013017117 -0.034281753 0.0482617 0.036575906 -0.019274484 0.05211131 -0.007350291 0.041745573
-0.022864114 -0.04624509 -0.014018328 0.037443265 0.0024817078 -0.039735243 0.035714146 0.022734445
0.024665473 0.003991225 0.057687026 0.04646105 -0.017236304 0.011543576 0.006919852 -0.0010786658
0.012871193 0.026870836 -0.033105884 0.03346063 -0.05748163 -0.0029799493 -0.05698798 -0.005130986
0.049209166 -0.020340808 0.028607 -0.015238347 0.056414776 -0.019550236 0.061376095 0.028784879
-0.0033676524 0.022324177 -0.022635777 0.0035171125 0.019980079 0.018831776 0.019817788 0.00053088245
-0.10597087 -0.07451335 -0.050348897 0.010846474 -0.040099394 -0.08183828 -0.06138408 -0.044260107
-0.034198046 0.005599939 0.028193884 -0.026693096 0.008058339 0.003995744 0.032472596 -0.032116614
-0.064410016 0.03126019 -0.030321518 -0.0115959635 -0.045390844 0.008015162 -0.011693617 0.009227531
-0.02066168 0.040790483 -0.011110193 0.064146236 0.012474007 -0.01598016 0.017796047 0.040874925
0.07377861 0.06968163 0.01884037 -0.05794036 0.0109290285 -0.03722726 -0.002720173 -0.08539641
-0.021650907 0.009839304 0.027616221 -0.028783973 -0.010868057 0.010453194 -0.0007675051 0.031732116
0.0811407 -0.0043985546 0.058208577 -0.018485548 0.012092959 0.025670126 -0.033898447 -0.049581867
0.021460315 0.08048551 0.06621017 0.029171513 0.062267322 -0.0016037232 -0.0028724188 0.01737823
0.016574195 0.012038631 0.050049905 0.01041517 0.022869272 0.0053969794 0.07597491 0.07866577
-0.037014376 0.00452941 0.04898436 0.053330272 -0.03260116 0.007282354 0.02420249 0.046875693
-0.061131984 0.0021881508 -0.042760532 0.039864145 -0.017974542 0.037458863 0.021455787 0.04908633
0.007174976 0.012293177 -0.035495695 -0.0012766876 -0.015053278 -0.048722528 -0.0038509974 -0.067550845
-0.020114953 -0.0033902398 -0.02155697 0.0018657409 0.015014092 0.040517192 -0.026773969 -0.042610064

linear1.bias f4 [128]
00000000: 0d30 483c e788 943d 68cb 59bc 844b 38bd
00000010: dae1 153d 8cab 2a3d c143 56bd f8b6 e23c
00000020: 7b7c 393d b410 3c3d 7d82 8ebc d5ec 96bc
00000030: 2fc5 6a3d f4f7 07bd dc40 01bb 89a5 5c3c
00000040: 9462 173d 0a04 423b 7996 803b e6c8 753d
00000050: c48b 003d 1842 013d b57a 083d bb44 75bd
00000060: b0c1 ddbc 8d0f 133c 93e1 1bbb 1886 f13c
00000070: 3ec5 4e3d deca 3fbd 2053 1fbb d5ec 023d
00000080: c27b 4d3b 1122 353d f71d 6ebb fa0f d43c
00000090: f187 a3bc 28c9 59bd 7a3b 88bc 308e 2e3c
000000a0: 408b 00bd f076 ffb9 29ff 463d 785d ce3b
000000b0: e8fe bfbb 8617 263c e35e 94bc 1773 683b
000000c0: d09f 1fbd 1f35 45ba a5f2 ecbc d837 623b
000000d0: 3088 013d 9a07 98bc 1b21 6a3d 506a bcbc
000000e0: ccfd 6b3c ff11 29bd 1224 8d3d 4c3a 02bd
000000f0: 5ab6 433c e1ff b33c bfbf 06bd 09b8 7cbb
00000100: 16b3 423c 347b 133d 09ce fcbb a448 d13c
00000110: 2443 a73c ff8c 0b3c 5716 9dbc 8329 d4bc
00000120: dc0e 0ebd 125c f73c a237 653c ed1b 86bc
00000130: fcc2 1abc f757 44bd 8249 1c3d 042f bf3c
00000140: 756d 8ebc 8cc4 d73c cb1c 12bd 6252 063d
00000150: e574 9f3c 04ff e03c d196 c1bb 8652 673d
00000160: 4f1b d3bc 3b35 9a3c a71d ed3b 0c94 0dbc
00000170: 75d3 f13c 4951 373c 7275 8abc 7c51 02bd
00000180: cb7a 973c 3315 473d 3e3f 09bd 9fb9 1abd
00000190: 69eb e4bc c12d 223d 3f14 0f3d e3b3 0dbd
000001a0: a43f 04bb 2b9f 993b 963e 573c faca f5bb
000001b0: 5205 873c 6173 e8bb 183a 10bd ef72 49bd
000001c0: 08b9 00bc ea4e d9bc 80b5 503c 2ac3 1cbd
000001d0: bc14 bebc 7465 d83c a9c4 8bbc 4d3f a73a
000001e0: dc5b 9bbc 5198 863c 9cf4 b3bc 41d7 fa3c
000001f0: ade7 3e3d b6a4 d2bc 8e5a 0bbd 3307 8ab9
0.012218487 0.072526745 -0.013293125 -0.044993892 0.036592342 0.041667506 -0.05231071 0.027675137
0.04528473 0.045914367 -0.017396206 -0.018423477 0.057316955 -0.03319545 -0.0019722497 0.013467201
0.036959246 0.0029604458 0.0039241877 0.060006045 0.03138329 0.031557173 0.033320148 -0.05988
-0.027069896 0.008975876 -0.0023785576 0.029482886 0.050481074 -0.04682433 -0.002431102 0.031964142
0.0031354283 0.04422194 -0.0036333778 0.025886524 -0.019962283 -0.053170353 -0.016629923 0.010654017
-0.0313828 -0.00048726005 0.048583183 0.0062977634 -0.0058592446 0.010137444 -0.018111652 0.003546899
-0.03897077 -0.0007522869 -0.028924296 0.0034518149 0.03162402 -0.018558312 0.057160478 -0.022999913
0.014403772 -0.041276928 0.068916455 -0.031793877 0.0119453315 0.021972599 -0.032897707 -0.0038561842
0.011883518 0.036006168 -0.007714991 0.025547333 0.020417757 0.008517503 -0.019175692 -0.0258987
-0.03468214 0.03019527 0.013990315 -0.016370738 -0.009445902 -0.047935452 0.03815604 0.023337848
-0.017386178 0.026338838 -0.03567199 0.03279341 0.01946492 0.02746535 -0.0059078713 0.056475185
-0.025769858 0.01882421 0.007236201 -0.008641254 0.029519776 0.0111888135 -0.016901705 -0.03181599
0.01849117 0.0486042 -0.033507578 -0.03777468 -0.027944284 0.039594416 0.034931418 -0.03459538
-0.0020179534 0.0046881638 0.01313748 -0.0075010033 0.01648203 -0.0070938324 -0.035211653 -0.049181875
-0.007856615 -0.026526887 0.0127385855 -0.03827206 -0.023203246 0.026415564 -0.017061548 0.0012759954
-0.0189647 0.016430052 -0.021967225 0.03062022 0.046607662 -0.025713306 -0.034021907 -0.00026326775

linear2.weight f4 [1, 128]
00000000: fd02 f13d f4fb 153e 9299 273d d500 963d
00000010: 2526 883d 27c9 0a3d fd21 44bb dee2 c63d
00000020: b0ee cf3d 5675 b43d 7b5a ecbd 0d4e f0bd
00000030: f634 d63d 4da5 34bc 911b bfbd adab afbd
00000040: 390f b73d 71b3 04bd 95a0 8b3d 542c d43d
00000050: 4286 c73d 877c a83d 1df3 7ebd c878 b43c
00000060: 7c08 1abd 296d fabc be31 6bbc 65bb 073e
00000070: e416 113e eec1 ac3d 03f1 61bd 4003 38bd
00000080: 5737 043d 4e8d b33d d008 8dbc 0287 88bd
00000090: 0e0d ab3d 43bf d03d 25f3 dabd 3bb2 e23d
000000a0: 53c1 b2bd ff83 c43c 1060 c73d dfd2 77bd
000000b0: faa3 9c3d 6d2e 82bd dd6d c1bd b4ab 063e
000000c0: 7232 403d b194 9c3d 3af2 f2bd 3182 abbd
000000d0: aae6 903d 5289 0bbe 0b1d be3d 93fa 9639
000000e0: 660c a4bd f423 893d 8e0f 853d 1f97 cdbc
000000f0: c8ab 543d 7bbd 18bd 557e 9f3c 99d7 7fbd
00000100: 77b4 0d3e 2bed 88bd 582e ee3d c220 bd3d
00000110: 4b14 373c 27a4 6bbd c4ec cd3d 36d9 433c
00000120: c843 403b 7e0f ec3d 65f8 28bc 2a48 063d
00000130: a97b 80bd 9ecc 3a3d bb50 be3d 9f66 c1bd
00000140: 9a1d 8fbd 0639 49bd af89 aabd 7b31 84bd
00000150: bf4b 09bd 1faf f3bc 3eac 323d 6b54 bf3d
00000160: 5bbd dfba 7102 37bd 3030 9cbd 81af 963c
00000170: 3dea f73c 4d00 bb3d f38b 773d 0a4a bc38
00000180: 976f a8bd d5d4 ab3d 2da5 e1bc 5397 8c3c
00000190: 02d2 f13d 8861 85bd 2ed6 90bd a58c 833d
000001a0: ce50 52bd 30ed 5bbd 33b7 b6bd 3877 e23d
000001b0: 55a2 8dbd 5d95 04bd cdf4 92bc 7a67 953a
000001c0: c911 ccbd 1aa0 a6bd 9cf1 8fbd 22de 87bd
000001d0: 8719 993d b4a9 823c c675 013d 5d5c 2dbd
000001e0: 720b 753d 136a 83bc 5c28 77bd 5c8e 5b3d
000001f0: 69ed 1f3d 7899 833d 1d1a 0bbb 7692 99bd
0.11768148 0.14646894 0.04091794 0.073243774 0.066479005 0.03388324 -0.0029927485 0.0971124
0.10152948 0.088114426 -0.11540695 -0.11733637 0.1045932 -0.011025739 -0.0933143 -0.085776664
0.0893845 -0.03239769 0.06817738 0.103600174 0.097424045 0.08226877 -0.06224357 0.02203025
-0.037605748 -0.03056963 -0.014355121 0.13255079 0.14168888 0.08435427 -0.055161487 -0.044924974
0.03227934 0.08767186 -0.017216116 -0.06666376 0.08352099 0.1019273 -0.106909074 0.11069151
-0.0872828 0.023988722 0.09735119 -0.060503837 0.076484635 -0.06356511 -0.09444783 0.13151437
0.04692311 0.07645548 -0.11862607 -0.083744414 0.07075246 -0.13626602 0.09282883 0.00028796922
-0.08010177 0.06696311 0.064971074 -0.025096474 0.051921636 -0.037290078 0.01946942 -0.06246147
0.13838373 -0.06685861 0.11629933 0.09234764 0.011174272 -0.057529595 0.10054925 0.011953643
0.0029337276 0.115263924 -0.010313128 0.032783665 -0.06273586 0.045605294 0.09292742 -0.094434015
-0.06988068 -0.049126647 -0.08327042 -0.0645475 -0.033519503 -0.02974659 0.043621294 0.09342273
-0.0017069982 -0.044680063 -0.076263785 0.018394234 0.03026306 0.09130917 0.0604362 8.9783294e-05
-0.08224409 0.08390204 -0.027544582 0.017162 0.11807634 -0.06512743 -0.070721015 0.0642331
-0.051346593 -0.053692997 -0.08921661 0.110578954 -0.06915728 -0.032369006 -0.017938996 0.0011398636
-0.0996433 -0.08136006 -0.07028505 -0.06634165 0.07475572 0.015950061 0.031606458 -0.042324413
0.05982537 -0.016041791 -0.060341224 0.05360256 0.03904477 0.06425756 -0.0021225282 -0.07498638
