models/3A_hand_alpha.pth (torch, 421229 bytes, 13 tensors)

conv1.weight f4 [4, 1, 5, 5, 5]
-0.043428637 0.033989277 -0.07343221 0.06268753 -0.049877636 -0.021991197 -0.0075550075 -0.00353074
0.08282793 -0.046647307 -0.055986755 -0.03192661 0.028906465 0.083960325 0.017815266 -0.054711893
0.071564 0.057207216 -0.06818283 0.039945457 -0.04141063 -0.012060678 0.027323466 0.0023414765
-0.0018452953 0.041058086 -0.03263583 0.07160411 -0.03072303 -0.086110316 0.041020352 0.053161718
0.04737356 -0.06539453 0.00045152951 0.09085331 0.009400663 -0.04217197 -0.061995264 0.0106633995
0.017946841 0.10119909 -0.04451918 0.06922077 0.040076 0.0007425699 0.087120585 0.056522284
0.098538935 0.091833994 -0.014527908 0.039083485 0.0041991756 -0.048313685 -0.0947363 0.080803744
-0.013812941 -0.08195003 -0.16474342 0.037713613 -0.08955041 -0.04937373 -0.033902947 -0.15099193
-0.05065263 0.0198357 0.028795047 0.0109661445 -0.023988854 0.015917294 0.051930893 -0.03565363
0.055078723 0.040578987 0.021916663 0.042200226 -0.12731032 -0.097799264 0.06256647 -0.049011696
-0.07157936 -0.13094154 -0.0449247 -0.0987422 -0.03375641 -0.034038827 0.060370266 -0.119809076
-0.048290916 0.049640708 0.033007007 -0.06359589 -0.027799942 -0.027460236 0.028729226 -0.04500099
0.052440494 0.055163424 0.030903123 0.0644764 -0.04228593 -0.11693144 -0.028018923 0.05754072
0.038417503 -0.0146223 0.005783576 0.022465749 0.016220856 -0.055521302 0.033231758 0.059055984
0.09017124 -0.022300048 0.07898838 0.056074817 0.016747028 0.043929573 0.074251816 0.062322594
0.037531924 0.013096569 0.059828393 -0.02083648 0.005056014 -0.010932219 -0.0057820533 -0.073426634
-0.06844276 0.0012465247 -0.046932504 0.028604064 -0.0536048 -0.10994406 -0.08949609 0.038305372
-0.09046618 -0.06124493 0.006771463 -0.0054129083 0.028374102 0.016437529 -0.03299712 -0.085031
-0.07951846 0.011475636 0.0543525 0.024346378 -0.07100717 0.025299873 -0.073011234 0.015241488
0.02514828 -0.0067512332 -0.014607209 0.021318557 0.0050941207 0.00039388333 -0.10304015 -0.025639229
0.01441283 0.092744544 0.04834682 -0.089474976 0.0038861826 0.027011158 0.10719095 0.10920187
-0.08658359 0.03423388 0.051337626 0.028804643 0.053349238 0.05107044 0.04454904 0.06902463
-0.074534245 0.036506522 -0.021053612 -0.070753515 0.06549257 0.11923942 0.05792527 -0.01607607
-0.05635369 -0.02053864 0.1556644 0.08302279 -0.10274461 -0.04751847 0.0376066 0.055384535
0.004815162 0.05266079 -0.10332547 0.0019531038 0.04538646 -0.0028226424 -0.030814536 -0.0007016041
0.032898076 -0.066527806 0.0003655236 -0.08058751 0.091139734 -0.07683554 0.09713802 0.025451772
-0.09736088 -0.051368356 -0.00016079526 0.069875374 0.048600744 0.0340339 -0.08395764 -0.0049933465
0.10415654 0.05324643 0.012724808 0.07751096 -0.05446001 0.024209244 0.06618381 -0.062384207
0.04783099 -0.040884767 -0.015961178 -0.017812427 0.049679413 -0.0035403902 0.045413785 0.019318037
0.02240975 -0.06928641 0.014589942 0.0052227573 0.0760154 0.026611032 -0.08810201 0.058694538
-0.015760122 -0.030297803 -0.05357843 -0.044681925 0.036025424 0.052972812 0.06230945 -0.01590879
0.06322333 -0.061675098 0.048012733 0.09809459 -0.028727474 -0.0920347 -0.02745829 0.0025562353
00000000: 3ae2 31bd 5738 0b3d a063 96bd 5262 803d
00000010: 7e4c 4cbd e226 b4bc ff8f f7bb fd63 67bb
00000020: b1a1 a93d 3f11 3fbd 5e52 65bd 7ac5 02bd
00000030: 40cd ec3c 64f3 ab3d 52f1 913c 9419 60bd
00000040: 2590 923d 1d52 6a3d 71a3 8bbd d99d 233d
00000050: 319e 29bd 269a 45bc 76d5 df3c 7573 193b
00000060: d6dd f1ba 862c 283d 26ad 05bd 2da5 923d
00000070: ddae fbbc 9b5a b0bd f504 283d 1ac0 593d
00000080: c70a 423d 91ed 85bd 44bb ec39 4d11 ba3d
00000090: 3d05 1a3c 84bc 2cbd bfee 7dbd 8ab5 2e3c
000000a0: 4105 933c 7841 cf3d be59 36bd 9ec3 8d3d
000000b0: bb26 243d 06a9 423a 476c b23d e983 673d
000000c0: c8ce c93d 7613 bc3d 7606 6ebc 0116 203d
000000d0: 3d99 893b 92e4 45bd 1b05 c2bd 6f7c a53d
000000e0: ac4f 62bc 6bd5 a7bd 80b2 28be 9779 1a3d
000000f0: 3566 b7bd 1c3c 4abd d1dd 0abd a19d 1abe
00000100: 2279 4fbd 7a7e a23c 97e3 eb3c 58ab 333c
00000110: 4684 c4bc fc64 823c 7db5 543d 8a09 12bd
00000120: 3a9a 613d 2736 263d 938a b33c 25da 2c3d
00000130: a35d 02be fb4a c8bd d922 803d 7dc0 48bd
00000140: 3398 92bd 8a15 06be f602 38bd 5a39 cabd
00000150: 2944 0abd 4c6c 0bbd d046 773d 765e f5bd
00000160: b2cc 45bd 0e54 4b3d 5b32 073d 903e 82bd
00000170: b4bc e3bc 4af4 e0bc 8e59 eb3c f552 38bd
00000180: d8cb 563d 0bf3 613d 8c28 fd3c 340c 843d
00000190: 0334 2dbd c079 efbd f187 e5bc d1af 6b3d
000001a0: ac5b 1d3d 5f92 6fbc 2784 bd3b 170a b83c
000001b0: 9ae1 843c 4e6a 63bd 061e 083d b0e4 713d
000001c0: b3ab b83d 97ae b6bc a9c4 a13d b5ae 653d
000001d0: 1031 893c 7fef 333d 5611 983d fa45 7f3d
000001e0: 13bb 193d fe92 563c 9e0e 753d 44b1 aabc
000001f0: ebac a53b 0d1d 33bc 6177 bdbb b460 96bd
00000200: b82b 8cbd 6e62 a33a 4c3c 40bd 1253 ea3c
00000210: b590 5bbd 5a2a e1bd ba49 b7bd 18e6 1c3d
00000220: 5546 b9bd f7db 7abd 26e3 dd3b c45e b1bb
00000230: ce70 e83c ffa7 863c fd27 07bd bc24 aebd
00000240: 93da a2bd 4e04 3c3c baa0 5e3d 0e72 c73c
00000250: 356c 91bd ae41 cf3c ea86 95bd 6fb7 793c
00000260: c403 ce3c 7339 ddbb 1353 6fbc 41a4 ae3c
00000270: 95ec a63b 2082 ce39 b706 d3bd 5c09 d2bc
00000280: ca23 6c3c daf0 bd3d 5107 463d a83e b7bd
00000290: 53af 7e3b 8146 dd3c ee86 db3d 3ba5 df3d
000002a0: bd52 b1bd d338 0c3d 6747 523d b7f7 eb3c
000002b0: bb84 5a3d 3d2f 513d 0e79 363d c95c 8d3d
000002c0: 69a5 98bd dd87 153d a078 acbc 38e7 90bd
000002d0: f820 863d cc33 f43d 0c43 6d3d f6b1 83bc
000002e0: 20d3 66bd a640 a8bc 7d66 1f3e da07 aa3d
000002f0: c46b d2bd baa2 42bd 6109 1a3d e5da 623d
00000300: 82c8 9d3b d7b2 573d 4e9c d3bd 4aff ff3a
00000310: 27e7 393d 15fc 38bb c46e fcbc dbeb 37ba
00000320: 22c0 063d bb3f 88bd bfa3 bf39 100b a5bd
00000330: 78a7 ba3d f45b 9dbd 4cf0 c63d 3c80 d03c
00000340: 2465 c7bd a067 52bd 269b 28b9 d21a 8f3d
00000350: 9311 473d 2167 0b3d fcf1 abbd 3a9f a3bb
00000360: 0650 d53d ee18 5a3d b77b 503c 11be 9e3d
00000370: 7611 5fbd 7752 c63c 618b 873d 9586 7fbd
00000380: 6eea 433d c976 27bd 04c1 82bc 5eeb 91bc
00000390: a47c 4b3d e405 68bb ce03 3a3d dc40 9e3c
000003a0: a794 b73c 09e6 8dbd a70a 6f3c aa23 ab3b
000003b0: f6ad 9b3d 61ff d93c d46e b4bd af69 703d
000003c0: 5f1b 81bc 1933 f8bc 0e75 5bbd 6504 37bd
000003d0: 658f 133d 05fa 583d 3238 7f3d 2753 82bc
000003e0: 3c7b 813d 079f 7cbd 00a9 443d d1e5 c83d
000003f0: e155 ebbc b07c bcbd 35f0 e0bc 8386 273b

conv1.bias f4 [4]
0.005029052 0.0646974 0.011966044 0.020518884
00000000: bfca a43b 1280 843d 3a0d 443c 3817 a83c

conv2.weight f4 [8, 4, 5, 5, 5]
0.059275493 0.070251204 0.015542882 0.047378212 0.014544893 0.13211048 -0.004614429 -0.025336092
-0.02390009 -0.012466638 0.10136243 0.0068473727 -0.14848854 -0.044388015 -0.027972894 -0.02291979
-0.1188097 -0.15123916 0.020185906 0.041974105 0.0042278073 0.06060266 -0.034515496 0.03883497
0.042743158 -0.014042394 0.036838733 0.013613223 0.0093441615 0.034301966 -0.048010692 -0.109843545
-0.030503666 0.010354116 0.0041382285 -0.19807993 -0.26857722 -0.016794879 0.033924915 -0.016321087
-0.2531266 -0.1465398 -0.03416765 0.08518958 -0.016297014 -0.051158633 -0.01679173 -0.09285999
0.0024947047 0.025341706 0.029448992 0.028837828 0.016044244 0.04541449 -0.027137063 -0.07144373
-0.08728513 0.0019192663 0.019201992 -0.017463598 -0.09470485 -0.042012278 0.048665196 -0.011975398
-0.026625462 -0.06737724 0.026261168 0.027626583 -0.022318814 -0.025988016 -0.025204115 0.027191894
-0.01192016 0.02791993 -0.020119717 0.028222341 -0.0021881831 0.03571045 5.785679e-05 0.024242051
-0.063388444 -0.08038837 -0.03027358 -0.050075848 0.008797345 0.039210785 -0.030100482 0.004961181
-0.057702664 -0.021488499 0.029682646 0.05289541 -0.040567644 -0.07678546 -0.008717081 -0.029827952
0.03289803 -0.062796645 -0.059245657 -0.014955149 0.015357036 0.023028662 0.052634362 0.05793646
0.03867782 -0.010914659 -0.008112125 -0.04162463 -0.018497152 0.03077053 0.042477775 -0.028422127
-0.02182065 0.03693075 0.113659635 0.050163496 -0.032094777 0.0021241046 0.03988106 0.053953316
-0.021886043 0.03451944 -0.028774144 0.030059174 0.06414109 -0.0519665 -0.011477202 -0.032393076
0.03578675 -0.008567259 -0.05770809 0.0066088797 0.051725168 -0.004482662 -0.040742207 -0.08426113
-0.001820311 0.034299377 0.041619495 -0.023791678 -0.027530449 -0.027621849 0.049861047 0.025446896
0.014217726 0.05216556 -0.060280092 -0.05216724 0.030446632 -0.025482703 -0.023874061 0.025901556
-0.005969613 0.03285729 -0.024684677 -0.042989388 0.0058789994 0.04807131 -0.014202162 -0.041259266
-0.035637934 -0.016892392 0.033847198 -0.004644594 -0.030440412 -0.07498393 0.0012099359 0.011081611
0.0108111715 -0.06599114 0.021375176 -0.026076049 0.016757766 0.022437489 0.004774428 -0.054242697
0.02959043 0.04861049 -0.009000464 0.0073766354 -0.023589583 0.03450441 0.06892004 0.046282064
0.02994634 -0.09268152 -0.008382229 0.060535043 -0.035561547 -0.017938865 -0.027158966 0.012181976
0.007953 -0.023166578 -0.059994817 -2.0177462e-05 -0.0038764977 0.0029160131 -0.025264189 0.020427002
-0.053496115 0.030771524 0.026001085 -0.0027970257 0.04122904 -0.11552212 0.01035433 0.019605897
0.015820425 -0.03824509 -0.07520079 -0.062075358 -0.040614747 -0.05863919 -0.030457832 0.01620706
-0.08320941 -0.07731508 -0.09290625 -0.03362743 0.009621202 0.007514816 0.0005667292 -0.06312463
-0.00042642435 -0.07903397 0.016381426 0.055702202 0.032025035 0.023380522 0.032954093 -0.029759299
-0.037218522 -0.044712175 0.0059328517 0.057290558 -0.0865736 -0.065822385 -0.037492346 0.0026159792
0.011874268 0.03217708 -0.043773748 -0.060834687 0.027283773 0.053359963 0.057885014 0.06666468
0.028322138 0.05030591 -0.019056423 -0.0039193192 -0.009102139 0.03558827 0.04181616 0.014779606
00000000: dcca 723d dddf 8f3d 92a7 7e3c a80f 423d
00000010: b44d 6e3c f847 073e a334 97bb a38d cfbc
00000020: 1fca c3bc df40 4cbc 1b97 cf3d ed5f e03b
00000030: 610d 18be 35d0 35bd 6927 e5bc 49c2 bbbc
00000040: 8052 f3bd 70de 1abe ea5c a53c 0aed 2b3d
00000050: 6b89 8a3b 7f3a 783d 1f60 0dbd 6b11 1f3d
00000060: 7313 2f3d 1212 66bc 36e4 163d ff09 5f3c
00000070: 4118 193c 3880 0c3d dca6 44bd a7f5 e0bd
00000080: d3e2 f9bc 4fa4 293c fa99 873b 77d5 4abe
00000090: f482 89be 6a95 89bc daf4 0a3d cdb3 85bc
000000a0: cf99 81be 880e 16be 61f3 0bbd e077 ae3d
000000b0: 5181 85bc b78b 51bd cf8e 89bc 612d bebd
000000c0: 337e 233b 6999 cf3c 033f f13c 4f3d ec3c
000000d0: 386f 833c 8b04 3a3d 8c4e debc 1751 92bd
000000e0: 8cc2 b2bd e48f fb3a 7f4d 9d3c d20f 8fbc
000000f0: 9ef4 c1bd 1115 2cbd 2855 473d 7634 44bc
00000100: a41d dabc 14fd 89bd a921 d73c 2551 e23c
00000110: f2d5 b6bc d2e4 d4bc dc78 cebc 89c1 de3c
00000120: c64c 43bc 56b8 e43c 1bd2 a4bc 8a32 e73c
00000130: 9f67 0fbb 1f45 123d 41ab 7238 4497 c63c
00000140: cdd1 81bd a8a2 a4bd 4d00 f8bc 551c 4dbd
00000150: bd22 103c 7d9b 203d 4995 f6bc 6791 a23b
00000160: a159 6cbd a608 b0bc 0529 f33c dca8 583d
00000170: 422a 26bd b241 9dbd 16d2 0ebc c059 f4bc
00000180: 16c0 063d 879b 80bd 93ab 72bd 7106 75bc
00000190: 149c 7b3c 9ba6 bc3c 2197 573d c84e 6d3d
000001a0: a26c 1e3d 66d3 32bc b8e8 04bc 977e 2abd
000001b0: 5787 97bc 7b12 fc3c 2dfd 2d3d 85d5 e8bc
000001c0: 38c1 b2bc b344 173d 62c6 e83d 3d78 4d3d
000001d0: d075 03bd 9034 0b3b 535a 233d 27fe 5c3d
000001e0: 5c4a b3bc 4264 0d3d c1b7 ebbc a83e f63c
000001f0: 675c 833d d3da 54bd e00a 3cbc 9aae 04bd
00000200: 2195 123d b05d 0cbc 515f 6cbd 4d8f d83b
00000210: c5dd 533d 4be3 92bb 4de1 26bd 1991 acbd
00000220: 8097 eeba 817d 0c3d 3479 2a3d c4e6 c2bc
00000230: 8987 e1bc 3747 e2bc 193b 4c3d 0276 d03c
00000240: 77f1 683c 8eab 553d 42e8 76bd 51ad 55bd
00000250: 376b f93c 1ac1 d0bc 8993 c3bc 802f d43c
00000260: be9c c3bb 5e95 063d 8537 cabc a415 30bd
00000270: 9fa4 c03b 6ce6 443d 2fb0 68bc 7aff 28bd
00000280: 15f9 11bd ea61 8abc 5ca3 0a3d ae31 98bb
00000290: 2c5e f9bc 2d91 99bd b696 9e3a a58f 353c
000002a0: 5721 313c 5d26 87bd fe1a af3c 709d d5bc
000002b0: 9547 893c d3ce b73c ce72 9c3b 972d 5ebd
000002c0: a167 f23c cb1b 473d af76 13bc b4b7 f13b
000002d0: f13e c1bc 7f54 0d3d f325 8d3d 4392 3d3d
000002e0: 0752 f53c cfcf bdbd 9e55 09bc 98f3 773d
000002f0: fca8 11bd 87f4 92bc 7b7c debc e996 473c
00000300: 4d4d 023c d6c7 bdbc 20bd 75bd c542 a9b7
00000310: d70c 7ebb 951a 3f3b d8f6 cebc 8756 a73c
00000320: be1e 5bbd 9014 fc3c 3a00 d53c 4e4e 37bb
00000330: c8df 283d dc96 ecbd 35a5 293c 8c9c a03c
00000340: d699 813c e2a6 1cbd df02 9abd bb42 7ebd
00000350: a65b 26bd a62f 70bd b482 f9bc abc4 843c
00000360: b269 aabd 5e57 9ebd a245 bebd ebbc 09bd
00000370: 3fa2 1d3c d83e f63b 8e90 143a 7c47 81bd
00000380: b591 dfb9 90dc a1bd 5732 863c fe27 643d
00000390: af2c 033d 8288 bf3c dffa 063d c6c9 f3bc
000003a0: 7372 18bd 1d24 37bd 5e68 c23b 81a9 6a3d
000003b0: 804d b1bd e3cd 86bd 9391 19bd d970 2b3b
000003c0: 4a8c 423c 1dcc 033d 1a4c 33bd cb2d 79bd
000003d0: 3882 df3c fa8f 5a3d d618 6d3d 7e87 883d
000003e0: d403 e83c 920d 4e3d 371c 9cbc a26d 80bb
000003f0: 2321 15bc 01c5 113d 6c47 2b3d 2926 723c

conv2.bias f4 [8]
0.030960482 -0.004828038 -0.0070958864 -0.029496806 0.01386273 -0.007101306 0.01860613 0.02399761
00000000: d6a0 fd3c 8534 9ebb 9c84 e8bb 49a3 f1bc
00000010: 8120 633c 13b2 e8bb e26b 983c a396 c43c

conv3.weight f4 [16, 8, 3, 3, 3]
-0.037511308 0.0025496902 0.059595104 0.025192816 0.1184833 0.0023542477 -0.014925178 0.08235263
-0.0034038357 0.07357246 0.0046928264 0.14833885 -0.01609985 -0.029678058 0.088025466 -0.065649785
0.082450844 0.061945755 -0.06676125 -0.03144717 -0.016365549 -0.018787086 -0.09187717 -0.14111726
0.02222829 -0.08223985 -0.08098145 0.0073205326 -0.1330613 0.025276357 0.009312544 -0.1923575
-0.1418676 0.012802132 -0.011017045 -0.28101224 0.012830712 -0.03180566 -0.16606867 0.13314588
-0.018765045 -0.2635945 -0.013886809 0.08140312 -0.12758681 -0.060432184 -0.03692244 0.004918375
0.117224455 -0.039460443 0.013948341 0.067956544 0.07491031 -0.016484797 0.057840265 0.0141732115
-0.02062649 -0.046402168 0.06607262 0.042676117 0.01427959 0.03589469 -0.04551996 0.08766159
0.0056713843 -0.0012435874 0.03933153 -0.037656236 0.013086445 0.051998254 0.08997078 0.03927114
-0.058223974 0.0044212253 0.0034679493 0.02876936 -0.023338823 0.024915963 -0.032111917 -0.06302999
-0.04647468 0.062295515 0.044850174 0.034332376 -0.04492807 0.03771009 -0.03610272 0.040040683
-0.011512244 -0.046440702 -0.042204924 -0.049253196 0.03475088 -0.067557976 0.030976677 0.059023403
-0.002215917 0.007999431 -0.059821352 -0.042726275 0.063963994 0.056989174 -0.033893343 0.037675954
-0.055986796 -0.015071376 -0.0072785895 -0.03614196 0.086318366 -0.08655068 -0.06911423 0.070700966
0.043600135 -0.13859576 0.055869814 0.03961874 -0.09634076 0.062162384 -0.013335677 -0.08983116
0.05621765 0.07599124 0.028084146 0.14713834 0.090805136 0.037780028 -0.066957705 0.006348093
-0.046686225 0.04397307 0.09107263 0.06656034 0.04542216 0.13554955 0.13028884 -0.08018031
-0.016445221 -0.034430776 -0.058603995 -0.090356015 -0.08926121 0.05681458 0.048055436 -0.113614134
-0.030088622 -0.004068667 -0.010292196 -0.021154057 0.04629755 -0.051765557 0.10456418 -0.039363302
-0.07320599 0.014654553 0.04890538 -0.048063796 0.008335024 0.043445766 -0.05272422 0.1093133
-0.043964714 -0.064222194 0.033624057 0.0021460534 0.073766224 0.004134654 -0.038717188 0.09318461
-0.04223191 0.008946169 0.06578408 -0.017143087 0.02448109 0.04944651 -0.071680345 -0.052561507
0.03776604 0.036692645 -0.052817434 -0.10533019 -0.07215796 -0.025844645 0.050129544 -0.067195475
0.004704242 -0.028968722 -0.049344588 -0.103008054 2.149944e-05 -0.024525207 0.049860377 0.03188355
0.0026467144 -0.042798143 0.0043825866 0.013074466 -0.11293805 0.021069953 -0.042089697 -0.06731794
0.011640075 -0.0067641293 -0.026341625 -0.062760405 0.015100317 -0.12202164 0.02065987 0.06500098
-0.032842387 -0.06442312 0.03781755 0.026012 -0.046963286 0.054107513 0.062021207 -0.054366056
0.018918915 -0.0065587536 0.08979382 0.014024254 0.057491485 0.0071796975 0.089958236 -0.0020435485
0.07078161 0.0026778749 -0.031958986 0.04065041 -0.039917573 -0.053473458 0.025702411 0.04814902
-0.027915664 -0.026918912 -0.035163946 -0.077824645 -0.037645083 0.051960457 -0.06996245 -0.09053041
0.00806828 0.014407936 -0.053422414 0.017925536 -0.060256265 -0.083366625 -0.029245203 0.035329755
-0.15557691 -0.18058015 -0.013300273 -0.08333476 0.019757356 0.08705327 0.03561838 -0.052538093
00000000: 75a5 19bd b418 273b ff19 743d 2a61 ce3c
00000010: 5fa7 f23d b949 1a3b bc88 74bc 7fa8 a83d
00000020: e312 5fbb 28ad 963d 48c6 993b 24e6 173e
00000030: d5e3 83bc 661f f3bc b246 b43d 6573 86bd
00000040: fddb a83d d5ba 7d3d 1fba 88bd bfce 00bd
00000050: 0b11 86bc 60e7 99bc 192a bcbd 0b81 10be
00000060: 1a18 b63c 5e6d a8bd 9ad9 a5bd 14e1 ef3b
00000070: 3941 08be 5d10 cf3c a493 183c 5df9 44be
00000080: bd45 11be 09c0 513c d680 34bc d6e0 8fbe
00000090: e837 523c a746 02bd e80d 2abe 6557 083e
000000a0: 27b9 99bc dcf5 86be 8085 63bc aeb6 a63d
000000b0: 1ea6 02be bd87 77bd fc3b 17bd 522a a13b
000000c0: 6013 f03d 46a1 21bd 9587 643c cd2c 8b3d
000000d0: 946a 993d 200b 87bc eae9 6c3d c236 683c
000000e0: e2f8 a8bc 3310 3ebd 1551 873d 27cd 2e3d
000000f0: f1f4 693c 4f06 133d 2373 3abd eb87 b33d
00000100: 05d7 b93b deff a2ba 191a 213d 6d3d 1abd
00000110: 8768 563c 1ffc 543d 9a42 b83d c6da 203d
00000120: 437c 6ebd eddf 903b 8946 633b b9ad eb3c
00000130: 0f31 bfbc 901c cc3c c987 03bd de15 81bd
00000140: 3c5c 3ebd 9529 7f3d d1b4 373d 1ba0 0c3d
00000150: 7f06 38bd e575 1a3d 72e0 13bd b301 243d
00000160: da9d 3cbc 9b38 3ebd 12df 2cbd b8bd 49bd
00000170: f056 0e3d d65b 8abd cdc2 fd3c 86c2 713d
00000180: eb38 11bb 0c10 033c 3c07 75bd bf01 2fbd
00000190: 8eff 823d 7b6d 693d bfd3 0abd 1a52 1a3d
000001a0: 6952 65bd efed 76bc 3c81 eebb 9809 14bd
000001b0: afc7 b03d 7c41 b1bd c38b 8dbd abcb 903d
000001c0: 0e96 323d 0cec 0dbe bfd7 643d 4347 223d
000001d0: 4e4e c5bd fc9d 7e3d e27d 5abc 66f9 b7bd
000001e0: 7b44 663d 4ca1 9b3d b910 e63c 6fab 163e
000001f0: 0bf8 b93d 3bbf 1a3d 1f21 89bd aa03 d03b
00000200: 0e3a 3fbd 1b1d 343d 4984 ba3d ca50 883d
00000210: 960c 3a3d 80cd 0a3e 706a 053e 9335 a4bd
00000220: 21b8 86bc 4907 0dbd be0a 70bd 930c b9bd
00000230: 95ce b6bd 68b6 683d c7d5 443d 87ae e8bd
00000240: 6a7c f6bc 7452 85bb 99a0 28bc 464b adbc
00000250: 80a2 3d3d 1f08 54bd bf25 d63d 6a3b 21bd
00000260: 06ed 95bd a619 703c 0251 483d 8bde 44bd
00000270: a08f 083c 30f4 313d 5af5 57bd a7df df3d
00000280: 5814 34bd ed86 83bd 61b9 093d cda4 0c3b
00000290: bf12 973d fe7b 873b ea95 1ebd 93d7 be3d
000002a0: 5efb 2cbd f492 123c ceb9 863d a96f 8cbc
000002b0: 918c c83c 6c88 4a3d 25cd 92bd bc4a 57bd
000002c0: 90b0 1a3d 074b 163d 1857 58bd 5bb7 d7bd
000002d0: 8dc7 93bd 26b8 d3bc a354 4d3d c89d 89bd
000002e0: 0b26 9a3b d04f edbc 8d1d 4abd e3f5 d2bd
000002f0: b259 b437 16e9 c8bc 653a 4c3d 5398 023d
00000300: 8074 2d3b 1b4d 2fbd cd9b 8f3b 4936 563c
00000310: 104c e7bd e59a ac3c 3f66 2cbd fddd 89bd
00000320: 03b6 3e3c a1a5 ddbb 64ca d7bc 8788 80bd
00000330: 5267 773c 7be6 f9bd e33e a93c 3c1f 853d
00000340: bd85 06bd 45f0 83bd 93e6 1a3d 1e17 d53c
00000350: 935c 40bd d79f 5d3d f309 7e3d f1ae 5ebd
00000360: d7fb 9a3c d0ea d6bb d3e5 b73d fcc5 653c
00000370: 317c 6b3d ab43 eb3b 063c b83d 0eed 05bb
00000380: f3f5 903d 497f 2f3b 6de7 02bd 0b81 263d
00000390: 9c80 23bd fc06 5bbd dd8d d23c e837 453d
000003a0: 64af e4bc 0d85 dcbc 1208 10bd 8762 9fbd
000003b0: bb31 1abd 7dd4 543d 7948 8fbd 0268 b9bd
000003c0: d230 043c 430f 6c3c 76d1 5abd 93d8 923c
000003d0: 46cf 76bd 1fbc aabd a393 efbc efb5 103d
000003e0: 8e4f 1fbe 01ea 38be 63e9 59bc 6aab aabd
000003f0: 2eda a13c fc48 b23d 94e4 113d 2f32 57bd

conv3.bias f4 [16]
-0.026824415 -0.03387925 -0.014530193 -0.044957433 -0.040734712 -0.043715242 -0.001449871 -0.01907175
-0.043869156 -0.012250802 -0.0119098015 0.016763758 0.018661793 -0.011820082 -0.011387791 -0.032836277
00000000: e0be dbbc f8c4 0abd 0c10 6ebc 4925 38bd
00000010: 71d9 26bd c10e 33bd 9909 beba 5c3c 9cbc
00000020: 25b0 33bd 96b7 48bc 5421 43bc 2654 893c
00000030: 9ee0 983c 04a9 41bc db93 3abc 557f 06bd

conv4.weight f4 [32, 16, 3, 3, 3]
0.041615948 0.054774385 0.03524889 0.023914777 -0.020567 -0.06499795 -0.059922468 -0.06697707
-0.050161503 0.049871095 0.06787915 0.060028482 0.013522594 -0.021378065 -0.039655358 0.0042161318
-0.021193445 -0.07603169 -0.030145578 -0.0051791356 0.040123757 -0.02746445 -0.025488727 0.013388703
-0.0029748802 -0.045859493 -0.103140764 0.010416377 0.07103148 0.04349469 -0.05185309 -0.0507382
0.04467076 0.027572958 0.013962818 -0.03469912 0.004285389 0.044996835 -0.02414265 -0.04859875
-0.03576624 -0.013515119 0.014183931 -0.046695095 -0.013093418 -0.018207181 -0.0013203413 -0.01253086
-0.016810976 0.029480072 -0.007591042 -0.04604665 0.048351884 0.006963743 0.027648654 -0.04048293
-0.008257243 0.0046726093 0.037794147 -0.03974963 0.022818316 -0.02436213 0.018256018 -0.015182886
-0.043099776 -0.06933623 -0.06119199 -0.041495528 0.0046269954 -0.030741213 0.019805135 -0.030317271
0.007124133 -0.012670076 -0.042356536 0.019156108 0.040007163 0.00830947 0.024405446 -0.020403123
0.025514025 -0.014312268 -0.008884882 -0.02476623 0.032350022 -0.05966567 -0.105252735 0.0031424488
-0.047496628 -0.034116723 -0.0017378435 0.04115893 0.026219996 -0.03307457 0.019750744 0.003155002
-0.018324059 -0.0078227045 -0.01295717 0.0895633 0.021266986 0.05494251 -0.030330738 0.03835458
-0.035523202 0.01134158 0.0116526615 0.009311159 0.013294176 0.0004903718 0.028821092 0.06280184
0.03056608 0.02036649 0.037780475 0.000981381 -0.022494318 -0.0022767582 0.043501966 0.011663861
0.0408887 0.06095982 -0.032103408 0.0050443737 -0.030937998 -0.01519798 0.051650494 0.03948558
-0.02418918 0.042241823 0.050264258 0.04331128 0.07724577 0.04534075 0.007230137 -0.07371436
0.034677267 0.08018277 0.053251833 -0.010877877 0.04972852 -0.034841172 0.0559373 0.014591196
-0.03028045 -0.060045328 0.032168027 -0.047108665 -0.026374733 0.015938755 -0.07112665 -0.008181676
0.004603793 0.0638337 -0.012401452 0.017186256 -0.008589816 -0.027445104 0.043217953 0.0004685159
-0.020736717 0.034576852 0.061999366 0.048464537 -0.0037393374 -0.01888143 0.034711838 -0.017412815
0.032575373 0.047706075 -0.034127824 0.04627009 0.022827769 -0.05165912 0.052696694 0.020303447
0.0171538 0.053425536 0.044474687 -0.04380174 0.068770796 0.00038544065 0.008735534 0.031909823
-0.028400827 -0.025739789 0.04900478 -0.04735984 -0.043179207 0.0021226741 0.01453945 0.046150308
0.032442346 0.03295433 0.0098818615 0.050357763 0.033484116 0.05573192 0.026123703 0.055266544
0.023926416 0.028096378 0.028045198 0.090586916 -0.019673975 0.05011322 0.005951492 0.01387476
-0.036167324 -0.04444396 -0.009613263 -0.017020699 0.030534191 -0.055951435 0.019998882 0.0069420966
0.040666312 0.002126455 0.023192478 -0.027259687 0.0134529425 -0.015902463 -0.007798046 0.013174133
-0.025043422 -0.00055266113 0.011823125 -0.017207108 -0.0009028798 0.006278731 -0.029501665 0.029423803
-0.015209656 0.029848268 -0.0044242186 -0.035358217 -0.00993275 0.030600108 -0.05120647 -0.0076964204
0.01916155 0.013485915 -0.023060396 0.06581797 0.09851307 0.009730297 -0.012993607 0.05982793
0.06610654 0.005019761 0.03276077 0.06739459 0.05119255 0.0645964 -0.045368724 -0.021006428
00000000: 7c75 2a3d 1b5b 603d 2461 103d ece8 c33c
00000010: 207c a8bc a51d 85bd 4371 75bd 462b 89bd
00000020: 2676 4dbd a245 4c3d 3904 8b3d 6de0 753d
00000030: df8d 5d3c 0d21 afbc a86d 22bd 7a27 8a3b
00000040: e09d adbc 81b6 9bbd dcf3 f6bc bdb5 a9bb
00000050: cf58 243d 20fd e0bc bccd d0bc 4a5c 5b3c
00000060: 35f6 42bb 2ad7 3bbd 773b d3bd 74a9 2a3c
00000070: f478 913d 7d27 323d e863 54bd dcd2 4fbd
00000080: b0f8 363d afe0 e13c 4ec4 643c aa20 0ebd
00000090: 736c 8c3b 9a4e 383d cfc6 c5bc 7c0f 47bd
000000a0: 9f7f 12bd 856e 5dbc b863 683c 5b43 3fbd
000000b0: c785 56bc 3a27 95bc 4d0f adba 3c4e 4dbc
000000c0: 2cb7 89bc 3180 f13c 47be f8bb 699b 3cbd
000000d0: a00c 463d 1c30 e43b 6e7f e23c 6ed1 25bd
000000e0: 6349 07bc b01c 993b 09ce 1a3d 82d0 22bd
000000f0: 7aed ba3c 1793 c7bc a58d 953c a4c1 78bc
00000100: 6489 30bd 2700 8ebd 74a4 7abd 37f7 29bd
00000110: 0d9e 973b ffd4 fbbc 613e a23c ed5b f8bc
00000120: 8f71 e93b 2796 4fbc 0c7e 2dbd 45ed 9c3c
00000130: 8dde 233d 7124 083c eeed c73c 7324 a7bc
00000140: ca02 d13c 017e 6abc e591 11bc 8ce2 cabc
00000150: 7581 043d fd63 74bd bf8e d7bd 8bf1 4d3b
00000160: d38b 42bd fabd 0bbd 5ac8 e3ba 4496 283d
00000170: 51cb d63c 3379 07bd 50cc a13c 26c4 4e3b
00000180: 561c 96bc cd2a 00bc 4f4a 54bc f76c b73d
00000190: 1a38 ae3c 660b 613d 2b78 f8bc b119 1d3d
000001a0: c780 11bd 09d2 393c ceea 3e3c d58d 183c
000001b0: d1cf 593c 4b8c 003a 361a ec3c 409e 803d
000001c0: b765 fa3c a0d7 a63c b3bf 1a3d afa1 803a
000001d0: 0146 b8bc aa35 15bb 1e2f 323d c719 3f3c
000001e0: e97a 273d 01b1 793d dd7e 03bd 464b a53b
000001f0: af71 fdbc f300 79bc 788f 533d a2bb 213d
00000200: 6328 c6bc c305 2d3d e5e1 4d3d 2b67 313d
00000210: 0833 9e3d 39b7 393d c9ea ec3b 8ef7 96bd
00000220: c009 0e3d dd36 a43d 981e 5a3d 1f39 32bc
00000230: 22b0 4b3d 9eb5 0ebd 831e 653d e90f 6f3c
00000240: b50e f8bc 17f2 75bd 9fc2 033d 04f5 40bd
00000250: d30f d8bc fe91 823c d9aa 91bd 700c 06bc
00000260: 6adb 963b 3ebb 823d 762f 4bbc 31ca 8c3c
00000270: 4dbc 0cbc 8ed4 e0bc 4f05 313d 24a3 f539
00000280: 0ce0 a9bc 75a0 0d3d 0cf3 7d3d c082 463d
00000290: ac0f 75bb 3bad 9abc 002e 0e3d 52a5 8ebc
000002a0: c16d 053d 7267 433d 9ec9 0bbd b585 3d3d
000002b0: 4d01 bb3c 8398 53bd 7dd8 573d 6a53 a63c
000002c0: 2086 8c3c bcd4 5a3d 172b 363d 7469 33bd
000002d0: b4d7 8c3d f814 ca39 7c1f 0f3c e0b3 023d
000002e0: daa8 e8bc 40dc d2bc 3cb9 483d 64fc 41bd
000002f0: aedc 30bd 901c 0b3b e036 6e3c 1b08 3d3d
00000300: 44e2 043d 1ffb 063d 88e7 213c f143 4e3d
00000310: a426 093d 2747 643d 6001 d63c 2c5f 623d
00000320: 5501 c43c 602a e63c 0bbf e53c a285 b93d
00000330: 512b a1bc 8543 4d3d bc04 c33b f652 633c
00000340: 3024 14bd df0a 36bd f380 1dbc fe6e 8bbc
00000350: d722 fa3c 552d 65bd b2d4 a33c 877a e33b
00000360: b891 263d ff5b 0b3b 27fe bd3c b54f dfbc
00000370: bb69 5c3c e245 82bc c086 ffbb 52d8 573c
00000380: dd27 cdbc 76e0 10ba c8b5 413c ecf5 8cbc
00000390: 3daf 6cba d0bd cd3b 7aad f1bc 300a f13c
000003a0: ec31 79bc 5b84 f43c 09f9 90bb c7d3 10bd
000003b0: f9bc 22bc 14ad fa3c e0bd 51bd 4132 fcbb
000003c0: aff8 9c3c 07f4 5c3c 28e9 bcbc 92cb 863d
000003d0: 38c1 c93d d36b 1f3c 23e3 54bc 220e 753d
000003e0: de62 873d cf7c a43b 2830 063d 2d06 8a3d
000003f0: 48af 513d 1e4b 843d 8ed4 39bd ac15 acbc

conv4.bias f4 [32]
-0.015813353 0.012508145 0.03500625 0.044514578 0.013911703 -0.042156003 0.01620381 0.026975656
-0.01720153 0.03375893 -0.011444074 -0.0013016604 -0.018277815 0.025439419 0.017167 -0.04880594
-0.03823547 -0.02230269 -0.053358562 0.02152532 0.008799073 0.033115473 0.04133797 -0.0073343255
0.031655967 -0.018875742 0.01631733 -0.08178745 0.00049377553 -0.011247042 0.0060629165 -0.0016230473
00000000: 018b 81bc f6ee 4c3c b762 0f3d eb54 363d
00000010: e9ed 633c c6ab 2cbd dabd 843c 0dfc dc3c
00000020: 39ea 8cbc ce46 0a3d ed7f 3bbc 7a9c aaba
00000030: 5bbb 95bc 5466 d03c cfa1 8c3c bde8 47bd
00000040: cc9c 1cbd 22b4 b6bc 828e 5abd de55 b03c
00000050: fd29 103c 17a4 073d 0152 293d c854 f0bb
00000060: b0a9 013d 4da1 9abc ecab 853c 2e80 a7bd
00000070: b770 013a 8345 38bc 6eab c63b 6ebc d4ba

conv5.weight f4 [64, 32, 2, 2, 2]
0.04005131 -0.046797514 0.026734784 -0.04624405 -0.050097425 -0.03594487 -0.0116327815 -0.0019123125
-0.10960918 -0.08459462 -0.086772114 -0.027689679 -0.06661411 -0.13649005 -0.15557468 -0.13732372
0.043877713 -0.09006312 0.022401074 0.0048395796 -0.04979404 -0.09174674 -0.039440483 -0.019223765
0.039406057 0.038814284 0.03993748 0.054930203 -0.010024988 0.021754235 0.0073170345 0.035523303
-0.082043216 -0.036566142 0.005597583 -0.047314074 -0.07518293 0.008903319 -0.10109487 0.010713625
-0.008425727 0.06751346 0.030635785 0.04931497 -0.01784645 0.018433321 -0.049099658 0.057949096
0.078489624 0.036607284 0.051393464 -0.042315546 0.107188925 0.07586012 0.079933606 -0.014576731
-0.037666243 -0.03230266 0.0279208 -0.015849665 0.03728922 0.043454807 0.078473344 0.031183144
-0.006219543 -0.07888716 -0.06543678 -0.02657017 -0.026575645 0.01849705 -0.08096889 0.013900123
-0.056585893 -0.01246061 -0.04608431 -0.07252917 -0.013773616 -0.06186695 0.01816606 -0.030172087
0.17763616 0.18627533 0.129073 0.014745018 0.18550982 0.1822734 0.10509681 0.030175056
-0.0748936 -0.008481437 0.035294615 0.0021150096 -0.058521017 0.092563026 0.056112923 0.037836604
-0.02696848 0.041318804 -0.086040206 -0.0031336006 -0.039010826 0.047495622 -0.07673146 0.013921467
0.00574945 0.06952485 -0.027930109 -0.040997315 0.0684103 0.022381553 0.037642624 0.06871045
0.03343176 -0.0454952 -0.06623888 -0.010389212 0.04060965 -0.06615537 -0.0059398585 -0.07962014
0.030556446 -0.005547285 0.0035183255 -0.0045755655 0.060420692 -0.016583204 -0.031530846 -0.0022109374
-0.07367222 -0.06069806 -0.054844763 -0.07310513 0.0070118527 -0.012026635 -0.04007322 -0.009704964
-0.056407187 0.020653538 0.022852825 -0.0046296665 0.007377941 0.02154307 0.013960846 0.05817427
-0.024914132 -0.0129296845 0.0025869613 0.0107118115 0.045486826 0.058208816 -0.037405 -0.04623864
0.006259133 -0.09357954 0.0040067774 -0.009659604 -0.08812542 -0.07191093 -0.09243972 -0.02457627
0.006351515 0.032817535 0.0026424967 0.064357944 0.025126345 -0.032358117 0.03229129 0.09082623
0.014114556 0.044457052 0.009727831 0.030705884 0.030404173 0.040593922 0.019942408 0.056602344
0.06266417 0.06540206 0.030919265 -0.051017143 0.06783116 0.06644508 -0.025859294 0.005328277
0.024002824 0.074241616 0.13533452 0.1414817 0.11308805 0.12526679 0.063649766 0.11200336
-0.06300265 -0.040749364 0.01079266 0.00056631916 -0.0497146 0.037433546 0.025504977 -0.028714584
-0.019057747 0.035063095 -0.014324673 0.009495609 0.02772544 -0.071431585 -0.02184717 -0.07655802
-0.04019835 0.040072028 0.03794449 -0.011107762 0.042768613 -0.010159056 0.033236057 -0.016005142
-0.023325128 0.026410423 -0.039106674 0.020052569 0.023603546 0.0010602671 -0.05495573 -0.032803237
-0.06359454 0.02775957 -0.056502715 -0.0042253067 0.02015187 0.040580947 0.009158967 -0.02873686
0.10607665 0.09071777 0.03247474 0.030670516 0.17944255 0.19927943 0.15666696 0.057282094
-0.046943024 -0.017021565 0.005963373 0.027637176 -0.06406468 -0.0014349443 -0.019194953 -0.03227995
-0.009247204 0.02439025 -0.07403695 0.0076788124 -0.018330926 0.041545037 -0.030490642 -0.0022900698
00000000: d80c 243d c0ae 3fbd e802 db3c 676a 3dbd
00000010: f532 4dbd ee3a 13bd 6c97 3ebc 8fa6 faba
00000020: c77a e0bd f23f adbd 94b5 b1bd 77d5 e2bc
00000030: fa6c 88bd 0cc4 0bbe f84e 1fbe 979e 0cbe
00000040: 1eb9 333d 0373 b8bd 7582 b73c 5695 9e3b
00000050: d6f4 4bbd b7e5 bbbd 588c 21bd 287b 9dbc
00000060: 3f68 213d bafb 1e3d 7c95 233d 7efe 603d
00000070: d93f 24bc f035 b23c bcc3 ef3b e280 113d
00000080: 4606 a8bd 61c6 15bd ee6b b73b 67cc 41bd
00000090: 82f9 99bd 3adf 113c d40a cfbd 3388 2f3c
000000a0: 0f0c 0abc 7f44 8a3d e6f7 fa3c 7efe 493d
000000b0: b832 92bc 7a01 973c b91c 49bd 085c 6d3d
000000c0: 2bbf a03d 85f1 153d f481 523d 1153 2dbd
000000d0: de85 db3d 8d5c 9b3d 3bb4 a33d 3ed3 6ebc
000000e0: eb47 1abd cb4f 04bd 29ba e43c 28d7 81bc
000000f0: 95bc 183d abfd 313d a2b6 a03d cb73 ff3c
00000100: 4fcd cbbb 978f a1bd b803 86bd afa9 d9bc
00000110: 2bb5 d9bc 2087 973c 04d3 a5bd 57bd 633c
00000120: 9cc6 67bd 9627 4cbc e7c2 3cbd 2c8a 94bd
00000130: bcaa 61bc 3368 7dbd fdd0 943c 742b f7bc
00000140: 41e6 353e f6be 3e3e b62b 043e 1795 713c
00000150: 49f6 3d3e e1a5 3a3e ff3c d73d ae31 f73c
00000160: d161 99bd baf5 0abc 1691 103d f99b 0a3b
00000170: bcb3 6fbd af91 bd3d aad6 653d 8efa 1a3d
00000180: 00ed dcbc e83d 293d d935 b0bd 185d 4dbb
00000190: d1c9 1fbd c58a 423d 6225 9dbd dd16 643c
000001a0: e265 bc3b 0b63 8e3d afcd e4bc cdec 27bd
000001b0: b31a 8c3d 8559 b73c 272f 1a3d 10b8 8c3d
000001c0: beef 083d 2d59 3abd 40a8 87bd 8337 2abc
000001d0: 4e56 263d 777c 87bd 25a3 c2bb e20f a3bd
000001e0: 8351 fa3c 00c6 b5bb b593 663b a0ee 95bb
000001f0: b07b 773d 80d9 87bc 7d26 01bd 60e5 10bb
00000200: 76e1 96bd 879e 78bd e7a4 60bd 24b8 95bd
00000210: afc3 e53b 5d0b 45bc d123 24bd 9201 1fbc
00000220: 390b 67bd 9c31 a93c d935 bb3c 75b4 97bb
00000230: a8c2 f13b 187b b03c 08bc 643c 2548 6e3d
00000240: b918 ccbc 07d7 53bc 028a 293b 9880 2f3c
00000250: 6550 3a3d 5e6c 6e3d fc35 19bd ba64 3dbd
00000260: 6a19 cd3b a1a6 bfbd 494b 833b 5143 1ebc
00000270: 1a7b b4bd 0a46 93bd 0951 bdbd 2c54 c9bc
00000280: 5f20 d03b ae6b 063d bd2d 2d3b 19ce 833d
00000290: c4d5 cd3c f289 04bd df43 043d 1a03 ba3d
000002a0: bd40 673c 9918 363d 7b61 1f3c e88a fb3c
000002b0: 2c12 f93c d045 263d 435e a33c dcd7 673d
000002c0: 1356 803d 84f1 853d 664a fd3c 5af7 50bd
000002d0: 10eb 8a3d 5c14 883d dfd6 d3bc d498 ae3b
000002e0: 92a1 c43c fd0b 983d 2295 0a3e 94e0 103e
000002f0: b59a e73d f045 003e cf5a 823d 0562 e53d
00000300: 8907 81bd cee8 26bd b2d3 303c 0975 143a
00000310: 89a1 4bbd eb53 193d d0ef d03c d93a ebbc
00000320: fe1e 9cbc 529e 0f3d 09b2 6abc 7993 1b3c
00000330: 7620 e33c b94a 92bd d6f8 b2bc 74ca 9cbd
00000340: 06a7 24bd 9122 243d ae6b 1b3d 55fd 35bc
00000350: 242e 2f3d 2b72 26bc 8822 083d 371d 83bc
00000360: 5714 bfbc ac5a d83c 522e 20bd 4945 a43c
00000370: 395c c13c a9f8 8a3a 4219 61bd b05c 06bd
00000380: db3d 82bd 0a68 e33c 646f 67bd 7174 8abb
00000390: 8915 a53c 3538 263d 7e0f 163c 9069 ebbc
000003a0: b73e d93d 3dca b93d 3c04 053d bc40 fb3c
000003b0: cabf 373e e80f 4c3e 4e6d 203e a1a0 6a3d
000003c0: 5447 40bd cf70 8bbc 6668 c33b 5c67 e23c
000003d0: 5834 83bd be14 bcba bc3e 9dbc fb37 04bd
000003e0: 9681 17bc 10ce c73c afa0 97bd 8c9e fb3b
000003f0: bd2a 96bc 212b 2a3d 83c7 f9bc ff14 16bb

conv5.bias f4 [64]
0.03824783 0.052330475 0.0020325184 0.05552741 0.002454639 0.05917419 -0.028046977 0.026509758
-0.0092811035 0.07048656 0.0072500114 0.04688628 -0.05873637 -0.048235275 0.0755554 -0.025038168
0.06636242 -0.049963284 0.04266197 -0.018787974 0.061336912 -0.050134018 0.016422292 -0.04166068
0.01278648 -0.023641838 -0.04479043 -0.0017850386 0.0030461957 0.06835363 0.07278459 -0.06745991
0.076579876 0.07305242 -0.013857715 0.00085086346 -0.06666827 0.0047557177 -0.032351084 0.014633752
-0.010754955 -0.01996845 -0.04000539 -0.06488845 0.07444337 -0.06668616 -0.030139616 -0.061761633
-0.05909867 -0.002869129 -0.037158385 0.027329596 -0.053798422 0.05778854 -0.013093871 -0.046538454
-0.017160848 -0.048820205 0.010143343 -0.0395191 -0.017517654 -0.07531404 -0.06326098 0.016829195
00000000: c2a9 1c3d 7b58 563d 0034 053b b670 633d
00000010: 02de 203b a360 723d c6c2 e5bc fe2a d93c
00000020: c50f 18bc 425b 903d 8191 ed3b d40b 403d
00000030: 8c95 70bd 5a92 45bd cabc 9a3d d81c cdbc
00000040: 05e9 873d 4da6 4cbd 51be 2e3d 3de9 99bc
00000050: 6a3c 7b3d 5459 4dbd 0b88 863c 64a4 2abd
00000060: 627e 513c 87ac c1bc 2c76 37bd f5f7 e9ba
00000070: afa2 473b fdfc 8b3d 1610 953d 6c28 8abd
00000080: e9d5 9c3d 829c 953d 780b 63bc 7b0c 5f3a
00000090: 6089 88bd dad5 9b3b 9282 04bd 68c2 6f3c
000000a0: 8d35 30bc e094 a3bc b1dc 23bd 3ce4 84bd
000000b0: c475 983d c192 88bd 5be7 f6bc c4f9 7cbd
000000c0: 7211 72bd ff07 3cbb 6433 18bd 51e2 df3c
000000d0: bc5b 5cbd adb3 6c3d ad87 56bc 1b9f 3ebd
000000e0: e894 8cbc b2f7 47bd 4430 263c c8de 21bd
000000f0: 2f81 8fbc 3f3e 9abd f98e 81bd 61dd 893c

linear1.weight f4 [128, 512]
0.03131272 -0.043298222 0.002606533 -0.047878373 -0.04156007 0.019727377 -0.022621527 -0.040150147
-0.034931734 -0.052605763 0.025226286 0.02088623 0.027457587 0.020941067 0.038702138 0.03597807
0.014872616 -0.013315464 -0.007454822 -0.04052488 0.006872249 -0.039652538 0.011039608 0.03403034
0.0302852 0.048218977 0.03168373 0.019295162 0.014758961 -0.026713282 -0.028388446 0.04107233
-0.045506224 -0.014606285 -0.024667466 -0.03521522 0.02664058 -0.037636686 -0.03727189 0.037555356
-0.018798253 -0.0035619186 -0.02808333 -0.026329432 0.018784167 0.021174934 0.038246382 0.029752735
-0.045769464 -0.018843874 -0.051033475 0.030162996 0.015746927 -0.004521808 -0.038836565 -0.052694745
-0.029897783 0.0042322967 -0.035400197 0.03909459 -0.0207144 0.022233505 -0.014427972 0.041556828
0.00097293116 -0.0085042175 -0.00043151565 0.007527296 0.008004065 -0.009631603 0.029667847 -0.0144017525
-0.008934232 -0.010916797 0.03865784 -0.022162896 -0.040149983 -0.026929816 -0.030307585 -0.005863567
-0.03643342 -0.0055107954 0.010983679 -0.020838244 -0.03868895 0.03716874 0.015731432 0.018095927
0.010771554 -0.03912326 -0.038229134 -0.0005028646 0.02639773 0.042464294 -0.018424485 -0.017725557
0.033133484 0.04238263 0.03732259 0.033395976 0.041330785 -0.030990645 -0.02700652 0.03061332
0.014748352 -0.018411571 0.019013228 -0.03173924 -0.0016374367 -0.010997709 -0.012447982 -0.030890383
-0.025721421 0.019261189 -0.023218852 -0.037154607 0.015383473 0.005970606 -0.0206299 0.028017024
0.043547746 0.030299215 -0.013052538 0.028789885 0.02474589 -0.032516137 -0.002565555 0.006511532
-0.03695115 0.016850628 -0.026332453 -0.0013866664 0.022724662 0.033426657 0.02851464 -0.036190953
0.027253274 -0.01548275 0.014330108 0.011381108 0.041378953 0.041387 0.031722534 -0.01866804
0.031900946 0.0064777276 0.023692237 -0.01357092 -0.032094885 -0.009979875 0.004637042 0.016025709
-0.0114811035 -0.02639638 0.044378825 0.028485294 -0.020790739 -0.04084248 -0.0025658843 0.006702896
-0.014420553 -0.04075722 -0.048076533 0.013134702 0.016454795 -0.021309912 -0.03008782 -0.035871565
-0.0045624645 -0.02538481 0.0010888849 0.027749727 0.01884169 0.015184608 -0.0004999828 0.018673614
-0.034774303 -0.031654548 0.04300275 0.018537115 -0.017773727 -0.024753023 -0.0041704727 0.03962378
-0.025574723 0.021709071 0.030241016 0.024704823 -0.03402359 0.03151727 0.0047813333 0.021488898
0.019367274 -0.0658028 -0.023064148 -0.021068942 -0.060015876 -0.040788714 -0.011784761 -0.025420304
0.030336576 0.024530577 0.007920641 -0.014379115 0.014217876 -0.035203617 -0.014280674 -0.008629372
-0.018590653 -0.026378015 0.02487686 0.016249938 -0.003880966 0.03291326 0.031687234 -0.031565897
0.021721087 0.0031900697 -0.017259864 -0.022876015 0.016803855 -0.009036141 -0.013113357 -0.0022465293
0.025402816 0.018394902 -0.00052914314 -0.003831649 0.01636697 -0.0068628713 -0.022722214 0.008115028
-0.03425239 0.03919309 0.008117872 0.033161122 -0.027863113 0.0023978185 -0.00592699 -0.023561668
0.036904022 0.03855592 0.01524793 -0.027822291 -0.034197003 -0.01138151 0.028994933 0.034597293
0.022178805 0.012379573 -0.042453196 0.011405907 -0.0011947788 -0.027044784 0.04056455 0.00987409
00000000: c441 003d 7a59 31bd 5ed2 2a3b 1d1c 44bd
00000010: e43a 2abd 4f9b a13c c850 b9bc 7b74 24bd
00000020: 9414 0fbd 2479 57bd 5ba7 ce3c 9919 ab3c
00000030: bcee e03c 9a8c ab3c 2286 1e3d be5d 133d
00000040: 46ac 733c 1b29 5abc 9447 f4bb 6bfd 25bd
00000050: 9a30 e13b b36a 22bd 79df 343c 6663 0b3d
00000060: ab18 f83c 4381 453d cdc6 013d e310 9e3c
00000070: 92cf 713c d0d5 dabc e38e e8bc 763b 283d
00000080: bc64 3abd 334f 6fbc 6d13 cabc d63d 10bd
00000090: 583d da3c ed28 1abd 69aa 18bd a5d3 193d
000000a0: cbfe 99bc 146f 69bb 030f e6bc d2b0 d7bc
000000b0: 41e1 993c 0e77 ad3c 3da8 1c3d 02bc f33c
000000c0: c378 3bbd 785e 9abc 7a08 51bd 6318 f73c
000000d0: b3ff 803c ad2b 94bb 1713 1fbd 72d6 57bd
000000e0: 32ec f4bc 14af 8a3b ccff 10bd a621 203d
000000f0: 3fb1 a9bc 0a23 b63c 4d63 6cbc 7e37 2a3d
00000100: 4e0c 7f3a 4655 0bbc 0d3d e2b9 89a7 f63b
00000110: 7b23 033c dfcd 1dbc fc09 f33c 54f5 6bbc
00000120: e360 12bc 5edc 32bc af57 1e3d f68e b5bc
00000130: 4f74 24bd eb9b dcbc 9d47 f8bc 2a23 c0bb
00000140: 363b 15bd e793 b4bb e4f4 333c f7b4 aabc
00000150: 4e78 1ebd 403e 183d 34df 803c e93d 943c
00000160: 2c7b 303c b63f 20bd 2796 1cbd acd2 03ba
00000170: 0d40 d83c 0aef 2d3d f2ee 96bc 3035 91bc
00000180: fab6 073d 6999 2d3d 92df 183d 38ca 083d
00000190: 784a 293d 18e0 fdbc c73c ddbc c9c8 fa3c
000001a0: 12a3 713c ddd3 96bc a1c1 9b3c 0101 02bd
000001b0: 429f d6ba bc2f 34bc 9ff2 4bbc d40d fdbc
000001c0: bbb5 d2bc a4c9 9d3c 7635 bebc 6e2f 18bd
000001d0: f60a 7c3c 13a5 c33b 0900 a9bc f583 e53c
000001e0: 1f5f 323d 0f36 f83c 50da 55bc c4d8 eb3c
000001f0: e5b7 ca3c a42f 05bd df22 28bb b05e d53b
00000200: 175a 17bd 540a 8a3c 28b7 d7bc cec0 b5ba
00000210: 1229 ba3c 64ea 083d 8997 e93c f73c 14bd
00000220: 4242 df3c 5cab 7dbc d4c8 6a3c d477 3a3c
00000230: fa7c 293d 6a85 293d 7def 013d b8ed 98bc
00000240: 91aa 023d 1e43 d43b 3916 c23c 9058 5ebc
00000250: ed75 03bd a182 23bc 54f2 973b 5948 833c
00000260: 3d1b 3cbc 393d d8bc 92c6 353d fe59 e93c
00000270: 5751 aabc 724a 27bd 6528 28bb f8a3 db3b
00000280: 2f44 6cbc 0bf1 26bd e6eb 44bd ef32 573c
00000290: 35cc 863c 2092 aebc bb7a f6bc 10ee 12bd
000002a0: ba80 95bb cef3 cfbc eab8 8e3a 6553 e33c
000002b0: e359 9a3c ddc8 783c 4711 03ba 68f9 983c
000002c0: 806f 0ebd 33a8 01bd a723 303d 26db 973c
000002d0: 359a 91bc dac6 cabc 76a8 88bb 8b4c 223d
000002e0: 1582 d1bc 39d7 b13c 02bc f73c c561 ca3c
000002f0: 525c 0bbd 4118 013d bbac 9c3b 7c09 b03c
00000300: 1ea8 9e3c 9ec3 86bd 06f1 bcbc c698 acbc
00000310: 35d3 75bd 1112 27bd df14 41bc 3e3e d0bc
00000320: 6984 f83c 59f4 c83c 94c5 013c 6196 6bbc
00000330: 18f2 683c ab31 10bd 7df9 69bc 3662 0dbc
00000340: 6d4b 98bc b516 d8bc 8fca cb3c 971e 853c
00000350: ce57 7ebb 0ed0 063d 79ca 013d 3e4b 01bd
00000360: 6cf0 b13c 7d10 513b 8f64 8dbc 7b66 bbbc
00000370: 3da8 893c 530c 14bc 68d9 56bc 823a 13bb
00000380: 9119 d03c e8b0 963c 32b6 0aba 671c 7bbb
00000390: 0614 863c f0e1 e0bb f023 babc e5f4 043c
000003a0: 3c4c 0cbd ef88 203d d300 053c f5d3 073d
000003b0: 2f41 e4bc b824 1d3b 3237 c2bb 6604 c1bc
000003c0: ac28 173d d0ec 1d3d 74d2 793c 93eb e3bc
000003d0: 2812 0cbd 8379 3abc c886 ed3c e4b5 0d3d
000003e0: 53b0 b53c b1d3 4a3c 67e3 2dbd d7df 3a3c
000003f0: 209a 9cba 068d ddbc 0327 263d efc6 213c

linear1.bias f4 [128]
-0.033986986 0.04472017 0.0521923 -0.0038526098 -0.032926846 -0.013257593 0.036996476 0.032974318
0.040407635 -0.015414595 -0.004308443 0.055897474 0.04500345 0.06144035 0.06998429 -0.041653514
0.044854656 -0.03957238 0.051251158 0.03415994 0.03908649 0.0014178867 0.012016582 0.04839718
0.03242828 -0.100649334 -0.03967199 -0.022398027 0.02862541 0.016083933 0.057629425 0.0061709145
0.06652079 -0.022176743 0.035462327 0.030535256 0.02856147 -0.025685482 -0.022119148 -0.025172867
0.03660035 0.00559929 0.06957235 0.051319912 -0.013926511 0.045330252 0.062434632 0.05577051
-0.043538522 0.04994773 0.060582284 0.04766748 -0.0056949775 0.01115417 0.03916854 0.0046758694
0.047386643 -0.012080585 -0.016942138 0.07046258 0.03441771 -0.013709394 -0.06294749 -0.021741575
0.0270075 0.038890485 0.061102968 0.05489141 0.043601204 -0.004513268 0.056030124 -0.028644204
0.00036439544 -0.055152416 0.028833354 0.038610127 0.055300947 0.044781722 -0.04151925 0.0068282993
0.007988967 0.066521876 -0.032009523 -0.0063800686 0.0357267 -0.040917464 0.06058591 0.03312719
0.05761193 0.06407602 0.062580876 0.056814812 0.03368008 -0.024619984 0.044509802 -0.013214104
0.07076354 0.055843852 0.06273843 -0.0015743849 0.06508026 -0.020879628 0.046522997 0.06924402
-0.0041182116 -0.040268462 -0.0068320315 -0.020716272 0.07158507 -0.04542536 0.05508422 0.059174594
-0.05118943 0.042387377 -0.040987477 0.054809254 -0.014600068 0.056155946 0.042316385 0.057795998
-0.01312456 0.007330406 0.015736043 0.057437636 0.036650673 0.055434823 0.01267893 4.4347402e-05
00000000: f035 0bbd 7f2c 373d 98c7 553d 117c 7cbb
00000010: 4dde 06bd 6036 59bc 9e89 173d 1410 073d
00000020: 7a82 253d 7f8d 7cbc d72d 8dbb c0f4 643d
00000030: 8a55 383d e0a8 7b3d ec53 8f3d e09c 2abd
00000040: 84b9 373d a616 22bd bcec 513d 4beb 0b3d
00000050: 2819 203d 62d8 b93a 33e1 443c 1f3c 463d
00000060: 84d3 043d 3d21 cebd 197f 22bd 117c b7bc
00000070: d67f ea3c 74c2 833c d50c 6c3d 6235 ca3b
00000080: 0d3c 883d 00ac b5bc f240 113d 1325 fa3c
00000090: bef9 e93c 5c6a d2bc 3733 b5bc 5437 cebc
000000a0: 40ea 153d 407a b73b f37b 8e3d d434 523d
000000b0: 052c 64bc 37ac 393d 75bb 7f3d 9e6f 643d
000000c0: 7355 32bd fe95 4c3d 2125 783d fa3e 433d
000000d0: ef9c babb fbbf 363c 316f 203d 0938 993b
000000e0: 7f18 423d a5ed 45bc 3dca 8abc af4e 903d
000000f0: 96f9 0c3d 5e9d 60bc 9dea 80bd 631b b2bc
00000100: d53e dd3c a14b 1f3d 1b47 7a3d d1d5 603d
00000110: 2d97 323d 09e4 93bb d87f 653d 40a7 eabc
00000120: 540c bf39 80e7 61bd ed33 ec3c a725 1e3d
00000130: 3f83 623d 0a6d 373d 1710 2abd edbf df3b
00000140: 28e4 023c 9f3c 883d 6b1c 03bd e50f d1bb
00000150: 2956 123d 1299 27bd ee28 783d 60b0 073d
00000160: 7dfa 6b3d 4a3a 833d 672a 803d a6b6 683d
00000170: 20f4 093d d9af c9bc e94f 363d f87f 58bc
00000180: 7aec 903d 86bc 643d 027d 803d 975b ceba
00000190: cd48 853d c10b abbc e68e 3e3d cfcf 8d3d
000001a0: 10f2 86bb 8bf0 24bd 3cdf dfbb 2cb5 a9bc
000001b0: 319b 923d f10f 3abd fe9f 613d 0f61 723d
000001c0: 02ac 51bd 639e 2d3d 7ce2 27bd ab7f 603d
000001d0: 2035 6fbc c703 663d f253 2d3d 7fbb 6c3d
000001e0: 6508 57bc e733 f03b e0e8 803c ba43 6b3d
000001f0: 041f 163d a00f 633d 49bb 4f3c a901 3a38

linear2.weight f4 [1, 128]
0.01016527 0.12713511 0.09073016 0.0027134803 -0.024526857 -0.059230417 -0.16107623 0.082628496
0.16608284 0.065150045 0.020277647 0.1595524 0.12993348 -0.098553576 0.16559096 0.06272768
-0.14038265 0.06478316 0.10378679 0.16647369 -0.104464434 -0.14339004 -0.065649815 -0.122262046
-0.1595219 0.1550023 0.0079821665 0.073511176 -0.17112702 -0.14571823 0.123571895 -0.04103019
0.07579325 0.010693731 -0.130604 -0.09211658 -0.14593726 -0.021244999 -0.06615191 0.050768025
-0.13580742 -0.06200446 0.0963295 0.15827473 0.01888016 -0.09936251 -0.09061665 -0.08094479
-0.008725332 -0.16527194 0.09530074 0.14438517 0.011734236 -0.03924542 -0.16270947 0.06447421
-0.12435891 0.0446156 -0.057002507 0.09726064 -0.13118367 -0.120099366 -0.040999413 0.017909724
0.00045410355 0.094179146 0.11507912 0.14099808 0.13114497 -0.07669618 0.1615695 0.053146355
-0.08254204 0.1038389 -0.1396052 -0.1053641 -0.08650439 0.11956243 0.005370812 -0.10463271
-0.1300697 0.1582564 -0.0019818186 0.04835786 0.11835248 0.057652287 0.12946771 -0.1262628
0.13123335 0.1598967 -0.10984147 -0.13748683 0.13591531 0.12850262 0.13226439 -0.037063822
0.090164445 0.1284644 0.0905936 -0.011413221 0.108587846 -0.096948 0.12321644 0.16680261
-0.07157383 -0.08330274 -0.12999564 0.07381059 0.16541977 0.07049351 -0.13771626 0.124186575
-0.06108668 -0.13851959 -0.054672405 0.16278468 0.028065195 -0.13950092 -0.109378904 -0.12180647
-0.013817716 -0.09071382 -0.029616386 -0.15297735 -0.12752168 0.15047465 -0.16925037 -0.14836766
00000000: 3c8c 263c b52f 023e bcd0 b93d a5d4 313b
00000010: 8cec c8bc 989b 72bd 2bf1 24be 2139 a93d
00000020: 9f11 2a3e 636d 853d 4f1d a63c b461 233e
00000030: 480d 053e 75d6 c9bd ad90 293e 5f77 803d
00000040: 78c0 0fbe 09ad 843d 2b8e d43d 1478 2a3e
00000050: 73f1 d5bd d7d4 12be 6973 86bd 8664 fabd
00000060: b559 23be ecb8 1e3e a2c7 023c 078d 963d
00000070: ec3b 2fbe 2937 15be 4313 fd3d 460f 28bd
00000080: 7e39 9b3d c234 2f3c 0ebd 05be 9ea7 bcbd
00000090: 9470 15be fe09 aebc a77a 87bd 22f2 4f3d
000000a0: 1a11 0bbe 63f8 7dbd 6748 c53d c512 223e
000000b0: 91aa 9a3c 927e cbbd 3995 b9bd 62c6 a5bd
000000c0: b2f4 0ebc 0c3d 29be 092d c33d b5d9 133e
000000d0: f440 403c cebf 20bd 509d 26be 0e0b 843d
000000e0: e2af febd d9be 363d 767b 69bd 9630 c73d
000000f0: 0355 06be a8f6 f5bd 00ef 27bd 6ab7 923c
00000100: bf14 ee39 ffe0 c03d 9aae eb3d cd61 103e
00000110: de4a 063e e312 9dbd 7a72 253e feaf 593d
00000120: cd0b a9bd 7da9 d43d aaf4 0ebe 22c9 d7bd
00000130: 3729 b1bd 26dd f43d a3fd af3b ad49 d6bd
00000140: fe30 05be f70d 223e 66e1 01bb e412 463d
00000150: c962 f23d ce24 6c3d 2f93 043e 094b 01be
00000160: 0962 063e f6bb 233e 91f4 e0bd 59c9 0cbe
00000170: 622d 0b3e 3196 033e 5170 073e 3cd0 17bd
00000180: 23a8 b83d 2c8c 033e 2389 b93d 85fe 3abc
00000190: 4e63 de3d ac8c c6bd e758 fc3d 4ece 2a3e
000001a0: 4d95 92bd a09a aabd 941d 05be 022a 973d
000001b0: cd63 293e e75e 903d 7e05 0dbe 8855 fe3d
000001c0: 0736 7abd 14d8 0dbe 2cf0 5fbd 07b1 263e
000001d0: fbe8 e53c 54d9 0ebe 0c02 e0bd ac75 f9bd
000001e0: b463 62bc 2bc8 b9bd 109e f2bc 18a6 1cbe
000001f0: 0b95 02be 0716 1a3e f84f 2dbe b1ed 17be
