models/3A_SSE_alpha.pth (torch, 421229 bytes, 13 tensors)

conv1.weight f4 [4, 1, 5, 5, 5]
0	0xbd0b0046	-0.033935808
1	0xbda54347	-0.08069473
2	0xbd030270	-0.031984746
3	0x3d731131	0.059342567
4	0xbcd4acb9	-0.025961267
5	0x3d4b407a	0.049622037
6	0xba8ae46d	-0.0010596641
7	0x3d8e48b6	0.06947462
8	0x3d0cc9dd	0.0343722
9	0xbbc837cb	-0.0061101667
10	0xbd310c49	-0.043224607
11	0x3d41da0f	0.047327098
12	0x3dbb0a07	0.09132772
13	0x3d3d4ec4	0.046217695
14	0xbda21521	-0.07914186
15	0xbcb6d6ed	-0.022319281
16	0x3e0afede	0.13573787
17	0x3cdfb5be	0.027308341
18	0xbd611452	-0.05495102
19	0x3aff1662	0.0019461627
20	0xbc68a986	-0.014200574
21	0x3defeae4	0.11714724
22	0xbd58e1ea	-0.052949823
23	0xbdd471e2	-0.10373284
24	0xbd10124a	-0.03517369
25	0x3babbba6	0.0052408753
26	0xbd55e51c	-0.05222045
27	0x3d561156	0.052262627
28	0xbd10629d	-0.035250295
29	0xbd8fe5d1	-0.07026256
30	0xbcdb2e45	-0.026755461
31	0x3dd4ec58	0.103966415
32	0x3db456de	0.08805631
33	0xbcc81ca1	-0.024427714
34	0xbd498016	-0.049194418
35	0x3d3847a3	0.044990193
36	0x3e427cb9	0.1899289
37	0x3e0c01a8	0.13672507
38	0x3dd73b03	0.105093025
39	0xbdbcfe59	-0.092282005
40	0x3cad4f00	0.021155834
41	0x3de57751	0.112043984
42	0x3e2ea19d	0.17053838
43	0x3cc26400	0.023729324
44	0xbdc9b356	-0.09848659
45	0xbc4d049a	-0.012513304
46	0x3d1c1ccb	0.038113397
47	0xbca5e5e7	-0.020251228
48	0x3cd1c5c6	0.025607001
49	0xbd4498f4	-0.04799743
50	0xbd31cb71	-0.043406907
51	0xbd7462f5	-0.059664685
52	0xbd85babd	-0.06529758
53	0x3d8f0bce	0.069846734
54	0x3c4fed42	0.012690844
55	0xbb516baa	-0.0031955042
56	0x3bd8dba6	0.006617981
57	0x3c06dd42	0.008231463
58	0xbb07f50f	-0.0020745432
59	0xbdd374d8	-0.103250206
60	0xbd6b9ee7	-0.057524588
61	0x3e05a5ad	0.13051482
62	0x3e0d7441	0.13813879
63	0x3d32d7cc	0.04366283
64	0x3cf30f1a	0.029670287
65	0xbb985453	-0.004648724
66	0x3e405431	0.18782116
67	0x3e4984d1	0.19679572
68	0x3dc5c75f	0.09657168
69	0x3c1bfe8b	0.009521137
70	0xbcd4efb3	-0.025993204
71	0x3dbae87f	0.09126376
72	0xbce82375	-0.02833722
73	0x3d91571f	0.07096695
74	0xbdc80f30	-0.09768522
75	0x3ceeb7a5	0.029140303
76	0x3d0f5242	0.034990557
77	0xbddb7103	-0.10714915
78	0xbd8fa6fe	-0.07014273
79	0x3c330da5	0.010928546
80	0xbd6dbe4b	-0.058042806
81	0xbd17ba0b	-0.03704266
82	0x3d986a7d	0.07442186
83	0x3c1767ad	0.009241027
84	0x3d937edb	0.0720193
85	0x3cd3fa1e	0.025876101
86	0xbcd31d2d	-0.025770748
87	0x3b06c49e	0.002056397
88	0x3db3db6b	0.08782085
89	0xbd78b8da	-0.060723163
90	0x3d55d260	0.052202582
91	0xbc94597a	-0.018109072
92	0x3e1393de	0.14411876
93	0xbd47e31f	-0.048800584
94	0xbc2e6ab0	-0.0106455535
95	0x3d12b961	0.035821322
96	0xbc7b3f8f	-0.015334978
97	0xbd8c6c0e	-0.06856547
98	0x3c902117	0.017593903
99	0xba7cb6c1	-0.00096402696
100	0xbd6c2dca	-0.057660855
101	0xbd781240	-0.06056428
102	0x3c9e5e3d	0.019332046
103	0xbd9bc416	-0.0760576
104	0xbd493774	-0.04912515
105	0x3d0717f9	0.032981846
106	0x3d146963	0.036233317
107	0xbd6f1159	-0.058366153
108	0x3d901da4	0.070369035
109	0xbd7bdc62	-0.06148947
110	0x3cc49541	0.023996951
111	0x3b8168b4	0.003949249
112	0x3c9e980e	0.019359615
113	0x3d2d89c4	0.04236771
114	0x3c8c072a	0.01709326
115	0x3c1f309c	0.009716179
116	0x3d941649	0.07230813
117	0xbd24e9e7	-0.04026213
118	0x3c401fbf	0.011726319
119	0x3d3b7c97	0.045773115
120	0xbdcb812f	-0.09936749
121	0xbd349737	-0.044089522
122	0xbd85b88d	-0.06529341
123	0x3cde82a2	0.0271619
124	0xbd30a61e	-0.04312717
125	0x3d893f08	0.067014754
126	0x3dbf77bb	0.09349009
127	0xbd954f30	-0.072904944
128	0xbddc866c	-0.107678264
129	0xbdf73a50	-0.12071669
130	0x3d751c7f	0.05984163
131	0x3dc8eaa2	0.09810378
132	0xbdaaa5d6	-0.08332412
133	0xbd33ce23	-0.04389776
134	0x3d013330	0.031542957
135	0x3de5616e	0.11200224
136	0xbd063d43	-0.032773267
137	0x3d96dee0	0.07366729
138	0xbde59bbd	-0.11211345
139	0x3ac17086	0.0014758266
140	0x3da43afe	0.08019064
141	0x3cf0e770	0.029407233
142	0xbda5881a	-0.080826
143	0xbde206bf	-0.11036443
144	0xbc9163f9	-0.017747866
145	0x3d0ec7c3	0.034858476
146	0x3a98d91b	0.0011661382
147	0xbc1e2956	-0.00965341
148	0xbc8a1126	-0.01685388
149	0xbdfcce60	-0.123440504
150	0x3d5b2803	0.053504955
151	0xbd8fd09d	-0.07022212
152	0x3db3e619	0.08784122
153	0x3dadcfbb	0.08486887
154	0x3a9bf10c	0.0011897399
155	0x3d0a561a	0.03377352
156	0xbd86b59d	-0.06577609
157	0xbdbbf500	-0.091775894
158	0x3cc47a4e	0.0239841
159	0xbd419a7f	-0.04726648
160	0xbc30a430	-0.010781333
161	0x3d95aaf0	0.07307994
162	0x3c12993e	0.008947669
163	0xbcb6a745	-0.022296557
164	0x3d5cb0d9	0.053879593
165	0x3bacba83	0.0052712574
166	0x3d9255ce	0.07145272
167	0xbd79b20c	-0.060960814
168	0xbd33fad5	-0.043940384
169	0x3cd90ba6	0.026494812
170	0x3d430bb0	0.047618568
171	0xbdccb223	-0.099949144
172	0xbb8f94e6	-0.0043817637
173	0xbd7353be	-0.059406035
174	0x3d17d991	0.037072722
175	0xbcd7c866	-0.026340675
176	0xbd886a98	-0.06660956
177	0x3c8bc9ee	0.017064061
178	0xbcf019f5	-0.029309252
179	0xbd682fc4	-0.056686178
180	0x3db77de5	0.08959559
181	0x3d0a7804	0.033805862
182	0x3d35a672	0.044348188
183	0x3d978ddd	0.07400105
184	0xb9191a0d	-0.00014600922
185	0x3daa5163	0.083163045
186	0xbdbdd6f7	-0.09269517
187	0xbdf470bc	-0.11935565
188	0xbd224edd	-0.03962599
189	0x3bbad091	0.0057011326
190	0xbd414827	-0.04718795
191	0xbd9d2dbe	-0.0767474
192	0xbdad4065	-0.08459548
193	0xbd7e12f2	-0.062029786
194	0xbcc32c26	-0.023824763
195	0x3d3f346a	0.046680845
196	0xbd54d8b7	-0.051964488
197	0x3cca2fe2	0.024681035
198	0xbc23690b	-0.009973775
199	0xbd90106f	-0.070343845
200	0xbd0b3dcd	-0.033994485
201	0xbde51f04	-0.111875564
202	0xbdb8938e	-0.09012519
203	0xbd9ad382	-0.07559873
204	0x3dbd12f6	0.09232132
205	0xbd4ce04c	-0.050018594
206	0xbdb0fb6f	-0.08641707
207	0xbd5e62d8	-0.054293483
208	0x3c31fc8d	0.010863435
209	0x3dd45969	0.10368616
210	0x3d09de10	0.03365904
211	0xbc6923dd	-0.014229742
212	0xbdae621a	-0.08514805
213	0xbd33c46d	-0.043888498
214	0x3db43e57	0.08800953
215	0x3da21360	0.07913852
216	0xbd2994b8	-0.041401595
217	0x3c176f34	0.0092428215
218	0x3d5abf81	0.05340529
219	0x3d071212	0.032976218
220	0x3d9a2e3e	0.07528351
221	0x3d99b47b	0.07505127
222	0x3bd2027c	0.0064089876
223	0xbbf1edf6	-0.0073831035
224	0xbd5d44a5	-0.054020543
225	0x3ddbc36d	0.10730634
226	0x3d96a2af	0.07355248
227	0xbd8c2e7d	-0.068448044
228	0xbc3e2cbe	-0.011607347
229	0xbd0e7bf6	-0.034786187
230	0xbcbf1265	-0.0233242
231	0x3d3d6292	0.046236582
232	0xbcbbc4be	-0.022920962
233	0xbcbf3fdf	-0.023345886
234	0x3bed4c4d	0.007241762
235	0xbbb74cdd	-0.0055938796
236	0xbdc8feec	-0.098142475
237	0x3d199ba3	0.037501942
238	0x3d6d91f4	0.05800052
239	0xbd496494	-0.049168184
240	0x3dc406f2	0.09571637
241	0xbda1d348	-0.07901627
242	0x3b9b560c	0.004740482
243	0xbce07c5f	-0.027403055
244	0xbdb637a5	-0.08897332
245	0x3c13eba8	0.009028353
246	0x3ddb00c7	0.10693508
247	0xbc5f9341	-0.013645948
248	0x3c4d88f0	0.0125448555
249	0x3c0415c2	0.008061828
250	0xbd853ebc	-0.06506106
251	0xbc8dab2b	-0.017293533
252	0xbdaf3c64	-0.085564405
253	0x3ce515af	0.027964441
254	0xbd81e931	-0.06343306
255	0xbdaddcac	-0.084893554

conv1.bias f4 [4]
0	0x3d2a8e2f	0.041639503
1	0x3d8c84f4	0.06861296
2	0x3b87f95f	0.0041496004
3	0xbd4d9e3f	-0.050199743

conv2.weight f4 [8, 4, 5, 5, 5]
0	0x3d1bfa1f	0.03808033
1	0xbc0f4821	-0.008745224
2	0x3c832e3b	0.016013255
3	0xbcdd4b5d	-0.027013475
4	0x3bbe6e21	0.005811468
5	0x3d0358f0	0.03206724
6	0x3d4f3f43	0.05059744
7	0x3d14e93b	0.03635524
8	0xbc6802f6	-0.014160862
9	0x3c6d7aa8	0.014494576
10	0xbcfc36c5	-0.030787835
11	0xbc55fb07	-0.013060338
12	0xbd1e90de	-0.038712375
13	0xbd27b394	-0.040942743
14	0xbca07a9c	-0.019589715
15	0x3d0b3713	0.03398807
16	0x3bb5034f	0.005524076
17	0xbca944fc	-0.020662777
18	0x3d2ffd08	0.04296592
19	0x3c191a6b	0.009344677
20	0x3d149ed7	0.036284294
21	0x39d8c23a	0.0004134344
22	0x3cff5333	0.031167602
23	0x3c8348c8	0.016025916
24	0x3cdacee1	0.026709976
25	0x3d1a4520	0.03766358
26	0xbca45bab	-0.020063242
27	0x3c432d6d	0.011912686
28	0x3ce39f9b	0.027786067
29	0xbc97cd60	-0.018530548
30	0x3cecda39	0.02891265
31	0xbce022e5	-0.027360389
32	0xbc0e13e3	-0.008671734
33	0xbd3a2c59	-0.04545245
34	0xbd141962	-0.03615702
35	0xbc81c477	-0.015840752
36	0xbcbc4626	-0.022982668
37	0xbd07e0ec	-0.033173487
38	0x3ce3e609	0.02781965
39	0xbd6695fd	-0.056295384
40	0x3d28c489	0.041203056
41	0xbb97665f	-0.004620358
42	0x3d28aca2	0.04118026
43	0xbc847895	-0.01617078
44	0xbc7d4b8a	-0.015459904
45	0x3d09de59	0.033659313
46	0x3a7d8905	0.00096716016
47	0xbc66ff6d	-0.014098984
48	0x3c8312f1	0.016000243
49	0x3d452725	0.048133034
50	0x3cde8de1	0.027167263
51	0xbce26bcf	-0.027639298
52	0xbc19ea87	-0.009394295
53	0xbc47c081	-0.012191893
54	0xbce95dab	-0.028487047
55	0xbb7aa023	-0.0038242422
56	0x3d159a14	0.036523893
57	0xbc4677c9	-0.01211352
58	0x3d06c9eb	0.032907408
59	0x3d0a6dff	0.033796307
60	0x3d009b57	0.031398144
61	0x3d423303	0.04741193
62	0x3d589018	0.052871794
63	0x3c127233	0.00893836
64	0xbd31aeb0	-0.043379486
65	0x3c29b4eb	0.010358076
66	0x3cf9defb	0.030501833
67	0x3ca4148a	0.020029325
68	0x3c71567e	0.014730094
69	0x3cadc60e	0.021212604
70	0x3ca1b295	0.019738475
71	0x3c07ebde	0.008295981
72	0x3be2e8b7	0.0069247144
73	0x3c4c9d28	0.012488641
74	0x3c07bfa5	0.008285438
75	0x3993c6c4	0.00028186117
76	0x3d0d6bc1	0.03452659
77	0x3d5ef5de	0.054433696
78	0xbcde37f4	-0.02712629
79	0xbc971eaf	-0.018447248
80	0x3d2d6ff3	0.04234309
81	0x3cc0b45a	0.023523498
82	0x3ce2cc74	0.027685381
83	0xbcfa0bbf	-0.03052318
84	0xbd240160	-0.040040374
85	0x3d086f04	0.033308998
86	0x3c96890b	0.018375894
87	0xbc69a704	-0.014261011
88	0x3ccb25fd	0.024798388
89	0xbcd8c532	-0.026461218
90	0x3d2ac4c2	0.04169155
91	0x3d60b4d8	0.054859966
92	0xbc1a568b	-0.0094200475
93	0xbcb26b54	-0.021779694
94	0x3c876722	0.01652867
95	0x3cb13dea	0.021635968
96	0x3bb49cf3	0.005511874
97	0x3ce1427b	0.02749752
98	0xbc052005	-0.00812531
99	0x3d2937ed	0.0413131
100	0x3c805a33	0.01566801
101	0x3c790772	0.015199529
102	0xbbda6a82	-0.0066655288
103	0x3d452945	0.04813506
104	0x3ae9a89b	0.0017826738
105	0x3abd36b5	0.001443586
106	0x3cd755dd	0.02628606
107	0x3d6b8031	0.0574953
108	0xbc7ecf20	-0.015552312
109	0xbd2b8041	-0.04187036
110	0xbd027dd9	-0.0318583
111	0xbc3df8db	-0.011594976
112	0x38a3f54e	7.818137e-05
113	0xbc01b2dc	-0.007916179
114	0xbcc0faab	-0.023557028
115	0x3ae20260	0.001724314
116	0x3be1b841	0.00688842
117	0x3d6615a8	0.056172997
118	0x3d647a4a	0.055780686
119	0xbd042ce9	-0.032269392
120	0xbd125291	-0.035723273
121	0xbc5122fd	-0.0127646895
122	0xbcada519	-0.021196889
123	0x3d0e97fa	0.034812905
124	0xbc3bec27	-0.011469877
125	0x3d24ad39	0.04020426
126	0x3c8f6615	0.017504731
127	0xbd12cf82	-0.035842426
128	0xbc208f6c	-0.009799819
129	0x3b93f8b6	0.0045157326
130	0x3d13bb9b	0.036067586
131	0xbc95c6f3	-0.018283343
132	0xbcfacfe6	-0.030616712
133	0xbd078cf9	-0.033093426
134	0xbc855e66	-0.016280364
135	0xbd15befb	-0.036559086
136	0x3c865577	0.016398175
137	0x3d16e117	0.036835756
138	0x3cbd7426	0.023126673
139	0x3ba7c4be	0.005119889
140	0x3d2cf8c3	0.042229425
141	0xbd0816dc	-0.033224925
142	0xbd16226f	-0.036653932
143	0x3cee815d	0.02911442
144	0xbbd3eaaf	-0.0064671854
145	0xb77ccb15	-1.5067654e-05
146	0x3c85798c	0.01629331
147	0xbd43434d	-0.047671605
148	0x3c1f6d36	0.009730628
149	0xbcc6e345	-0.024278292
150	0xbb129225	-0.002236494
151	0xbc9119e9	-0.01771255
152	0x3d2d7f3b	0.042357665
153	0x3bab70ac	0.0052319374
154	0xbc8ffbe2	-0.017576162
155	0xbd1873eb	-0.037219923
156	0xbc0eacba	-0.008708173
157	0x3d2d62de	0.042330615
158	0xbc1b4185	-0.00947607
159	0xbd028f1f	-0.031874772
160	0x3c134518	0.008988641
161	0x3c4b5063	0.012409302
162	0xbc9d8461	-0.019228162
163	0xbd35b8d5	-0.044365723
164	0x3cf32f7e	0.029685732
165	0x3cb9bf24	0.02267415
166	0x3cdc4a85	0.026891002
167	0x3cc569db	0.024098327
168	0x3ce4f64e	0.027949478
169	0x3c24f913	0.01006915
170	0x3c853f92	0.016265664
171	0xbb46db9a	-0.0030343295
172	0x3b3cb1ca	0.0028792494
173	0xbcd20975	-0.025639275
174	0x3cc9eb60	0.024648368
175	0xbcf167f0	-0.029468507
176	0xbd0b4b60	-0.03400743
177	0x3ba86039	0.0051384238
178	0xbceb49c5	-0.0287217
179	0xbcb9e6ba	-0.022693027
180	0xbc7750e5	-0.01509497
181	0x3d2ff149	0.042954717
182	0xbd022f14	-0.03178318
183	0xbd321325	-0.04347529
184	0xbd124a87	-0.035715606
185	0x3c2735b8	0.010205679
186	0xbd2016a9	-0.03908411
187	0x3ca31b5a	0.019910503
188	0x3d07e595	0.03317793
189	0xbc5ad38f	-0.013356104
190	0x3be1a7cb	0.0068864576
191	0x3d30d43d	0.043171156
192	0x3ce477a5	0.027889082
193	0x3c8813bd	0.016610974
194	0xba6d8734	-0.00090609794
195	0xbcb57172	-0.022148822
196	0x3c205ec5	0.00978822
197	0xbd4f4d3d	-0.05061077
198	0xbd460d99	-0.04835281
199	0xbd168c22	-0.036754735
200	0x3ca61db1	0.02027783
201	0xbd351ba2	-0.044215806
202	0x3ca4e3df	0.020128189
203	0x3d14630d	0.036227275
204	0xbd6b8334	-0.057498172
205	0xbceeaac2	-0.029134158
206	0x3c6c252c	0.014413159
207	0xbc621dfe	-0.013801096
208	0xbc105acf	-0.008810713
209	0xbd4f82a6	-0.050661705
210	0xbc618ffc	-0.013767239
211	0x3ad849e1	0.001650151
212	0x3ba8564c	0.0051372405
213	0x3cec070b	0.028811952
214	0xbcef6b85	-0.029226074
215	0x3d1d4c8b	0.038403075
216	0xbd08085b	-0.033211093
217	0x3c99d35d	0.018777544
218	0xbbd48a59	-0.006486219
219	0x3c3b62a4	0.011437092
220	0x3c04ba21	0.008101017
221	0xbc2915bf	-0.010320126
222	0xbcbf87cb	-0.02338018
223	0xbd4777fd	-0.048698414
224	0xbc64433e	-0.013932047
225	0x3b87c938	0.00414386
226	0xbd26ab62	-0.040690787
227	0x3c16fa8f	0.009215011
228	0xbc6b5d34	-0.014365483
229	0xbd418347	-0.047244336
230	0xbc3c199e	-0.011480717
231	0x3d041172	0.0322432
232	0x3cd1ab15	0.025594274
233	0xbbe41cd1	-0.006961443
234	0x3cb7f479	0.02245544
235	0x3c9935b9	0.018702375
236	0xbd1f554d	-0.03889971
237	0x3b9a136f	0.0047020237
238	0x3b82a147	0.003986511
239	0xbd336500	-0.043797493
240	0xbd3307db	-0.043708663
241	0xbd46c4fd	-0.048527706
242	0xbd650b09	-0.055918727
243	0x3c953089	0.01821162
244	0xbccd4bc8	-0.02506055
245	0x3ce4f333	0.027947998
246	0x3ccf3302	0.025292877
247	0xbcedff4a	-0.029052395
248	0xbd61ec73	-0.055157136
249	0x3bd5d720	0.006525889
250	0x3cc313a1	0.02381307
251	0xbc2e9001	-0.01065445
252	0x3cc4bdc6	0.024016272
253	0xbbbe4e59	-0.0058076796
254	0x3cc2e97c	0.023792975
255	0xbc87ecdc	-0.016592436

conv2.bias f4 [8]
0	0xbd6017f6	-0.05471035
1	0xbd92c093	-0.07165637
2	0xbc14125b	-0.009037579
3	0xbbef8479	-0.007309493
4	0x3defd88a	0.117112234
5	0xbd074305	-0.0330229
6	0xbd0af803	-0.03392793
7	0x3bcd9b80	0.0062746406

conv3.weight f4 [16, 8, 3, 3, 3]
0	0xbacc9488	-0.0015608231
1	0xbba7d99d	-0.005122377
2	0xbcd1f948	-0.025631562
3	0xbd171b99	-0.036891554
4	0x3baa2040	0.005191833
5	0xbc994d08	-0.01871349
6	0x3cba701f	0.022758542
7	0x3ce624e1	0.028093757
8	0x3d02abed	0.031902242
9	0x3d1716e0	0.03688705
10	0x3d4b9a6a	0.049707808
11	0x3ce378ac	0.027767502
12	0x3d7d9e71	0.06191868
13	0x3d54b432	0.05192966
14	0xbd8bd59a	-0.06827851
15	0x3d9c3ef1	0.076291926
16	0xbce16988	-0.027516142
17	0x3a78609d	0.0009474846
18	0x3d2376b1	0.039908115
19	0x3c29face	0.010374738
20	0x3cf926ff	0.030414103
21	0x3d9840f5	0.074342646
22	0xba7f75c8	-0.0009745029
23	0xbd68aed1	-0.056807343
24	0x3d635191	0.05549771
25	0xbd242cca	-0.040081777
26	0xbb0c06a8	-0.0021366272
27	0xbd864a73	-0.06557169
28	0xbc1059e2	-0.008810492
29	0xbd4f8ea3	-0.05067314
30	0xbd79610a	-0.06088356
31	0xbc74ff5c	-0.014953461
32	0xbd0ccca6	-0.034374855
33	0xbd8f838b	-0.07007512
34	0xbd9fab01	-0.07796288
35	0xbd5baff5	-0.053634603
36	0x3d134e7c	0.03596352
37	0x3d132800	0.03592682
38	0x3d8ad062	0.06778027
39	0x3bb2e7cf	0.0054597626
40	0x3c37f5f5	0.011228074
41	0x3d8c0497	0.06836813
42	0xbde55a26	-0.11198835
43	0xbd0071dc	-0.031358585
44	0x3d8d94d5	0.06913153
45	0xbd3c6067	-0.045990374
46	0x3ced0299	0.028931903
47	0x3d2a329a	0.041552164
48	0xbd5b9252	-0.05360634
49	0x3b521afe	0.0032059546
50	0x3db3082d	0.08741794
51	0xbde79a8b	-0.113087736
52	0x3d242642	0.040075548
53	0x3d764ead	0.060133625
54	0x3d246904	0.040139213
55	0x3916bb44	0.00014374877
56	0xbd5b60cc	-0.05355911
57	0x3dbf3d5c	0.09337875
58	0xbc0a30ad	-0.008434457
59	0x3d954d21	0.07290102
60	0x3debb851	0.11509765
61	0xbb8762c8	-0.0041316487
62	0xbd774185	-0.06036522
63	0x3dad5229	0.084629364
64	0x3daedf03	0.0853863
65	0xbcb92fe9	-0.022605853
66	0x3e0bfaae	0.13669845
67	0x3d76e0f6	0.060273133
68	0xbd0df72d	-0.034659553
69	0x3dd29dac	0.1028398
70	0x3d6c3279	0.057665322
71	0xbd7ed725	-0.062216897
72	0x3ce94284	0.0284741
73	0x3cdcaa09	0.026936548
74	0xbcc931f2	-0.024559949
75	0xbbdd0257	-0.0067446637
76	0x3d5513f8	0.052020997
77	0x3cd77829	0.026302414
78	0x3cd86b9f	0.026418505
79	0x3c8bc2a2	0.017060582
80	0x3bcc7f3d	0.006240754
81	0x3c6c803f	0.014434873
82	0xbc983668	-0.01858063
83	0x3d24279d	0.04007684
84	0x3bbfa436	0.005848433
85	0xbd9593de	-0.07303594
86	0xbd6ff5b7	-0.05858394
87	0x3d0095f0	0.03139299
88	0xbcb91f15	-0.022597829
89	0xbd325922	-0.043542035
90	0x3c8d26be	0.017230388
91	0x3d422626	0.047399662
92	0xbca01193	-0.01953963
93	0xbd03c9c1	-0.03217483
94	0xbc546c6d	-0.012965304
95	0xbda3c793	-0.0799705
96	0xbdb1cdd1	-0.086818345
97	0x3c42e4d4	0.011895377
98	0xbd19b012	-0.03752143
99	0xbd32f726	-0.04369273
100	0x3c980517	0.018557115
101	0x3d7fa494	0.062412813
102	0xbc3b9005	-0.011447911
103	0xbd8dd8cf	-0.069261186
104	0x3ce46a8d	0.027882839
105	0xbcb0b738	-0.02157174
106	0x3c974671	0.018466206
107	0x3ce6f713	0.028193986
108	0xbd57a59b	-0.052648168
109	0xbc5fc27b	-0.013657208
110	0x3dcc3e3d	0.099728085
111	0x3c1b2fcb	0.009471844
112	0x3db89e12	0.090145245
113	0x3d806db1	0.06270922
114	0x3ceca865	0.02888889
115	0x3deee78b	0.11665257
116	0x3e075fcc	0.13220137
117	0xbd7c5bca	-0.061610974
118	0x3d6a37e0	0.057182193
119	0x3d7e4ea8	0.06208673
120	0x3c657336	0.014004519
121	0x3dd1c1b5	0.10242025
122	0x3abc83fd	0.0014382597
123	0xbc90d271	-0.017678471
124	0x3d6c094b	0.05762605
125	0xbce57797	-0.028011126
126	0x3d5b1c88	0.053494006
127	0xbbc87832	-0.006117844
128	0xbc82d29a	-0.015969563
129	0x3d8f3b6c	0.06993756
130	0x3da7ecf4	0.08199492
131	0x3d6f0628	0.05835548
132	0x3dcd8229	0.10034592
133	0x3de8de9d	0.11370585
134	0x3c423585	0.01185358
135	0x3c596158	0.013267837
136	0x3bea1692	0.007143804
137	0xbc99acba	-0.01875912
138	0xbd46a086	-0.04849293
139	0x3c952719	0.01820712
140	0xbab20b38	-0.0013583666
141	0xbd5ea0f3	-0.054352712
142	0x3ced4522	0.02896363
143	0x3c43f8ec	0.011961203
144	0xbbda3c2e	-0.006660006
145	0x3d0856d3	0.033285927
146	0xbb0597f8	-0.002038477
147	0xbd926ccb	-0.07149657
148	0xbd237ca8	-0.039913803
149	0xbbc4ce2c	-0.006006023
150	0xbd741f20	-0.059599996
151	0xbdaa3369	-0.08310587
152	0xbda13d70	-0.078730464
153	0x3dab4b7a	0.083640054
154	0x3d865ba5	0.065604486
155	0x3ccc953e	0.024973508
156	0xbd008c8f	-0.031384047
157	0xbc8b2211	-0.016984018
158	0xbd3b806f	-0.04577678
159	0x3c237e1d	0.009978798
160	0xbd7f441c	-0.062320814
161	0x3c0e19a2	0.0086731035
162	0x3c8bcec2	0.017066363
163	0xbbfd1560	-0.0077234954
164	0x3cc86465	0.024461934
165	0x3d413f63	0.04717959
166	0xbcbdc1a9	-0.023163633
167	0xbbc80c2f	-0.006104968
168	0x3d20ac9e	0.03922712
169	0x3d41fc18	0.047359556
170	0x3c34fa92	0.011046069
171	0xbd720ad8	-0.059092373
172	0x3cafd6bb	0.021464696
173	0x3c29fb89	0.010374912
174	0x3d0d9b60	0.034572005
175	0xbd012c82	-0.031536587
176	0x3cfbb667	0.030726625
177	0xbc222f1e	-0.009898929
178	0xba1abdf8	-0.00059029413
179	0x3d918ddf	0.07107138
180	0xbd55fedc	-0.052245006
181	0xbd778e74	-0.06043859
182	0xbd3602d3	-0.044436287
183	0x3d176e65	0.036970515
184	0xbd87cc6f	-0.066307895
185	0xbca28e1a	-0.01984315
186	0xbd0dd85e	-0.034630172
187	0xbd84ae05	-0.06478504
188	0x3c23469f	0.009965568
189	0x3d390a15	0.04517563
190	0xbda2583e	-0.07926987
191	0xbd522b3e	-0.05131077
192	0x3b465d59	0.0030268042
193	0x3c5fe309	0.013664969
194	0x3d3c5a15	0.045984346
195	0xbd366cdb	-0.044537406
196	0xbd2cef07	-0.04222014
197	0xbcbab484	-0.022791155
198	0xbd031f63	-0.032012355
199	0x3be15397	0.0068764198
200	0xbd777761	-0.060416583
201	0xbd4d2761	-0.050086383
202	0x3ca431d1	0.020043286
203	0xbd2a8824	-0.04163374
204	0x3da22bfe	0.07918547
205	0x3ca08cfe	0.01959848
206	0x3d3c78c0	0.046013594
207	0xbd6cb01b	-0.057785135
208	0x3d6de5e3	0.058080565
209	0xbc87dc0a	-0.016584415
210	0x3c13ad56	0.0090134945
211	0x3d9fea8d	0.07808409
212	0x3da0b976	0.07847874
213	0x3c037997	0.008024595
214	0x3d8d6c41	0.069054134
215	0x3c2d868e	0.010591162
216	0x3d0172c1	0.03160358
217	0x3c7577a1	0.014982135
218	0x3ccaf7de	0.024776395
219	0xbc53c510	-0.012925401
220	0xbd13e968	-0.036111265
221	0x389b1352	7.394575e-05
222	0xbd01ca76	-0.031687222
223	0x3d482364	0.048861876
224	0xbd20239d	-0.039096463
225	0xbd84b898	-0.06480521
226	0xbd366652	-0.044531174
227	0x3bbfd3b1	0.005854093
228	0x3aa6dbd7	0.0012730312
229	0x3d783f06	0.06060698
230	0xbd90b507	-0.07065778
231	0x3d89d814	0.06730667
232	0xbd8596b9	-0.06522889
233	0xbc0072d7	-0.00783988
234	0xbd3d030a	-0.046145476
235	0xbd0df144	-0.034653917
236	0xbc86d8a8	-0.016460732
237	0xbd21c40b	-0.0394936
238	0xbd09507f	-0.033524033
239	0xbd119467	-0.035541918
240	0x3ce10f6f	0.02747318
241	0x3c2bac94	0.010478158
242	0x3d4a8596	0.049443804
243	0xbd859186	-0.06521897
244	0xbd86311a	-0.06552334
245	0x3d2e3148	0.042527467
246	0xbd38c882	-0.045113094
247	0x3b8bfd2c	0.004272124
248	0x3c90ada7	0.017660929
249	0xbd82e842	-0.06391956
250	0xbc5f44ad	-0.013627213
251	0xbd89c809	-0.06727607
252	0x3d7505fe	0.059820168
253	0x3d34139d	0.043964017
254	0xbd55fb4a	-0.0522416
255	0xbc8318a5	-0.016002962

conv3.bias f4 [16]
0	0x3c8489b6	0.016178947
1	0x3d236c72	0.039898343
2	0x3d244550	0.040105164
3	0x3c49b2c4	0.012310687
4	0xbd96076e	-0.07325636
5	0xbc8aef08	-0.016959682
6	0xbc52738d	-0.012844932
7	0x3c0b3d35	0.00849848
8	0xbc4bb9e5	-0.012434457
9	0x3d054703	0.032538425
10	0x3d3112bc	0.043230757
11	0xbd4c4169	-0.049867067
12	0x3d78310f	0.06059366
13	0xbb19ccdf	-0.002346806
14	0x3ba2194e	0.004946864
15	0xbe1f2e77	-0.15545069

conv4.weight f4 [32, 16, 3, 3, 3]
0	0xbba5c030	-0.005058311
1	0xbd5f39d6	-0.054498516
2	0xbd782420	-0.060581326
3	0xbd4858cd	-0.048912812
4	0x3be5dbf0	0.007014744
5	0xbc5e61c1	-0.013573111
6	0xbd4d6da8	-0.050153404
7	0xbd33586f	-0.04378551
8	0xbd012018	-0.031524748
9	0xbcf66295	-0.030076304
10	0xbc906dff	-0.017630575
11	0xbda90289	-0.08252437
12	0xbda52e52	-0.080654755
13	0xbd29a754	-0.041419342
14	0xbd02d44c	-0.031940743
15	0xbc53626e	-0.012901885
16	0xbd34b463	-0.044117343
17	0xbd1db1d5	-0.038499672
18	0xbb2b01ac	-0.0026093526
19	0xbd5aaf4a	-0.053389825
20	0xbc2d21ab	-0.010567109
21	0xbd043aeb	-0.03228275
22	0xbc2d15d3	-0.010564285
23	0xbd4a8c6c	-0.049450323
24	0xbc27ff13	-0.0102536855
25	0x3c3f15a6	0.011662876
26	0xbd21d3a2	-0.03950847
27	0xbd1fd27e	-0.0390191
28	0x3c2a2015	0.0103836255
29	0xbc221bf8	-0.009894364
30	0xbd8c069d	-0.06837199
31	0xbcb7867d	-0.022402996
32	0x3ab71c7c	0.0013970281
33	0xbc2265f0	-0.009911999
34	0xbc95688e	-0.018238332
35	0xbd0985c9	-0.033574853
36	0x3cf031f7	0.0293207
37	0xbc8eeb41	-0.017446162
38	0xbd556c05	-0.05210497
39	0xbd8bc9a4	-0.06825569
40	0x3d125ebd	0.03573488
41	0x3cc3ff07	0.023925317
42	0xbbc5c59e	-0.0060355207
43	0x3a68a959	0.00088753324
44	0xbc19e52f	-0.0093930205
45	0x3cec894d	0.028874064
46	0x3ce6e474	0.028185107
47	0xbce6ccac	-0.028173767
48	0xbc938cae	-0.018011417
49	0xbc6bebd8	-0.014399491
50	0x3ccc9cd4	0.024977125
51	0xbd2bf6b1	-0.04198331
52	0xbd3c631f	-0.045992967
53	0x3bb1930f	0.005419142
54	0x3cbb696d	0.02287742
55	0xbd5988c7	-0.053108957
56	0xbd3b5a9d	-0.045740712
57	0xbd9e52dd	-0.07730649
58	0xbd164d7d	-0.036694992
59	0xbd3b2324	-0.04568781
60	0xbc47f5e6	-0.012204623
61	0xbca4abb7	-0.020101411
62	0xbd241c8f	-0.040066298
63	0xbd1112f8	-0.03541848
64	0xbca955f0	-0.020670861
65	0x3ca4e20d	0.02012732
66	0xbd8a2e53	-0.06747117
67	0xbd91519f	-0.07095646
68	0xbda8d02e	-0.08242832
69	0xbd3552d0	-0.04426843
70	0xbc8d76b3	-0.017268514
71	0xbd8d7462	-0.06906964
72	0xbcffdb88	-0.03123261
73	0x3ca2eb91	0.019887717
74	0xbc9de8de	-0.019276079
75	0xbd865c4e	-0.065605745
76	0xbd8bcdab	-0.068263374
77	0x3bde97f4	0.0067930166
78	0xbd76960c	-0.06020169
79	0xbd9a196b	-0.07524379
80	0xbd241c39	-0.040065978
81	0x3c92ba15	0.017910996
82	0xbc26e5d8	-0.010186635
83	0xbd6b88e3	-0.057503592
84	0xbd229460	-0.039692283
85	0xbcc39a31	-0.023877235
86	0xbb67a68d	-0.0035347075
87	0xbc504cfc	-0.012713667
88	0xbc76122e	-0.015018983
89	0xbb56f533	-0.0032799959
90	0xbd432795	-0.04764517
91	0x3b095abe	0.0020958628
92	0xbcf505a4	-0.029909916
93	0x3ce49c67	0.02790661
94	0xbbe9399a	-0.0071174623
95	0xbc8b4e02	-0.01700497
96	0xbd6a7f0e	-0.057250075
97	0xbacc1b0e	-0.0015572028
98	0xbd051650	-0.032491982
99	0x3c801cf9	0.015638815
100	0xbd1c3ca4	-0.03814377
101	0xbbae0836	-0.0053110374
102	0xbd2024fc	-0.03909777
103	0x3c432a0e	0.011911882
104	0x3cf185ef	0.02948281
105	0xbd885462	-0.0665672
106	0x3c5a52ef	0.013325437
107	0xbc5bafdf	-0.01340863
108	0x3cf285a2	0.029604737
109	0xbc621fe7	-0.013801551
110	0x3c4b6f96	0.012416741
111	0xbd858a48	-0.06520516
112	0xbd09ad26	-0.033612393
113	0x3cde35e5	0.027125308
114	0xbcee60da	-0.029098917
115	0x3c57ea03	0.013178351
116	0x3d51fa01	0.051263813
117	0x3ce281e3	0.027649825
118	0x3ca8cf62	0.0206067
119	0x3bf788bb	0.0075541413
120	0xbcfe8eef	-0.031074015
121	0xbcf4d070	-0.029884547
122	0x3d020b8e	0.0317493
123	0xbd3fd5c9	-0.04683474
124	0x3c0d507a	0.008625144
125	0xbcf1a786	-0.029498827
126	0x3cbd31c3	0.023095017
127	0xbc558449	-0.0130320275
128	0xbcf5612b	-0.02995356
129	0xbb4e3027	-0.0031461807
130	0x3d3dc94d	0.046334554
131	0xbc5b63c5	-0.013390486
132	0xbc9814ec	-0.018564664
133	0x3cdabf09	0.02670242
134	0xbd41256d	-0.047154833
135	0xbda28ec1	-0.079373844
136	0xbd11e6ad	-0.03562038
137	0xbd78f7c5	-0.060783166
138	0xbd4f094a	-0.050545968
139	0x3a24fb74	0.0006293573
140	0xbd07f410	-0.03319174
141	0xbc0163fb	-0.007897372
142	0xbcf0df90	-0.029403478
143	0xbc3782a7	-0.011200584
144	0xbd9a2b3c	-0.075277776
145	0xbd8e8d9d	-0.06960604
146	0x3ca39347	0.019967688
147	0x3bc2f408	0.005949501
148	0xbcba71f9	-0.022759425
149	0x3c42e071	0.011894331
150	0xbd70f132	-0.05882377
151	0x3bf42b5b	0.0074514574
152	0xbd1a25e5	-0.037633795
153	0xbc6cdb10	-0.014456525
154	0x3b867af5	0.004104013
155	0x3d3fad04	0.04679586
156	0xbc3ddc3f	-0.011588155
157	0xbd2e1279	-0.042498086
158	0xbd2ab8e3	-0.041680228
159	0xbca69b56	-0.020337742
160	0xbda02c01	-0.07820893
161	0x3b0a2669	0.0021080023
162	0xbd3e351a	-0.04643736
163	0xbd1da0a9	-0.038483296
164	0x3c89435d	0.016755754
165	0xbd35d9e4	-0.04439725
166	0x3ca97ff2	0.020690892
167	0xbd37359f	-0.04472887
168	0x3a815743	0.0009867925
169	0x3cea5b72	0.028608058
170	0xbd271392	-0.040790148
171	0x3bd7a0aa	0.006580432
172	0xbd58eabc	-0.052958235
173	0xbc8cbe91	-0.017180713
174	0xbd31fb34	-0.043452457
175	0x3cbe2235	0.02320967
176	0xbcd8163c	-0.02637779
177	0x3d4d79f4	0.05016513
178	0x3c58d299	0.013233804
179	0xbbccb8ae	-0.0062476015
180	0xbcdf1bff	-0.02723503
181	0xbcf2f3e4	-0.029657312
182	0xbbe1119f	-0.0068685557
183	0x3d074264	0.0330223
184	0x3ccfa628	0.025347784
185	0xbcd6893d	-0.026188487
186	0xbcadf354	-0.021234192
187	0xbd36e7c5	-0.044654626
188	0x3d094054	0.033508614
189	0xbcf78c64	-0.03021831
190	0xbd68bda5	-0.056821484
191	0xbd87547d	-0.06607912
192	0x3cbbf15a	0.022942234
193	0xbd32d6d4	-0.043661907
194	0xbb947884	-0.004530968
195	0xbd1322a8	-0.035921723
196	0x3c66d1ee	0.014088137
197	0xbd4fe48e	-0.050755076
198	0xbd734602	-0.059392937
199	0xbd863a3a	-0.065540746
200	0xbd747744	-0.059684053
201	0x3c563750	0.013074711
202	0xbc3dc0a1	-0.011581571
203	0xbd22c7ca	-0.039741315
204	0xbd42fc7d	-0.047604073
205	0xbd0f0d68	-0.034924895
206	0xbd8e23c2	-0.06940414
207	0x3b715257	0.003682276
208	0xbd063b27	-0.032771256
209	0xbd80ba19	-0.06285495
210	0x3af4ccc7	0.0018676751
211	0xbd4e6866	-0.05039253
212	0xbd3c05da	-0.045904018
213	0x3b8d871b	0.0043190843
214	0xbd835c67	-0.06414109
215	0xbd5c7e62	-0.053831466
216	0xbd2b2e9a	-0.04179249
217	0x3cc86633	0.024462795
218	0xbc3f8345	-0.011689012
219	0x3c99fbf2	0.018796895
220	0xbc842bb8	-0.016134128
221	0x3cc77704	0.024348743
222	0x3c5a7ac4	0.013334934
223	0x3c2a2ceb	0.010386686
224	0xbc94f35a	-0.018182445
225	0xbd413034	-0.04716511
226	0xbc75c5b6	-0.015000751
227	0xbd32f28b	-0.04368834
228	0xbbb58c66	-0.0055404184
229	0x3d13ad1d	0.036053766
230	0xbc46a60c	-0.01212455
231	0xbd173817	-0.036918726
232	0xbc26479f	-0.010148912
233	0x3b5c2414	0.003359084
234	0xbc509128	-0.01272992
235	0xbc85d159	-0.016335176
236	0x3c69f548	0.014279671
237	0xbcb5e158	-0.022202179
238	0x3d274d1d	0.040845025
239	0x3c80329f	0.015649138
240	0x3d162474	0.03665586
241	0xbd1920cd	-0.037384797
242	0xbc6382dc	-0.01388618
243	0xbd842b08	-0.0645352
244	0x3a633c13	0.00086683145
245	0xbb8642be	-0.0040973118
246	0xbd145dc0	-0.03622222
247	0xbd0c335f	-0.03422868
248	0x3a806b28	0.000979756
249	0xb9f8de2d	-0.0004746778
250	0xbd73d0f2	-0.059525438
251	0xbcb8568b	-0.022502204
252	0xbd7ae430	-0.061252773
253	0xbd02a8ba	-0.03189919
254	0xbdb6e9ff	-0.0893135
255	0xbd3a5b88	-0.045497447

conv4.bias f4 [32]
0	0xbdaa789b	-0.08323785
1	0xbc83179e	-0.016002472
2	0xbcb81556	-0.022471111
3	0xbcf073f5	-0.029352168
4	0xbe048ae4	-0.12943608
5	0x3ccd0c02	0.02503014
6	0xbd4c4c82	-0.04987765
7	0x3d698768	0.0570139
8	0x3d8dc708	0.06922728
9	0xbc306231	-0.010765598
10	0x3bb5ea8b	0.0055516413
11	0x3ce7f7ff	0.028316496
12	0x3e21b968	0.15793383
13	0xbd53ed18	-0.051739782
14	0x3ca6626c	0.020310603
15	0xbd901c97	-0.07036703
16	0xbd288daf	-0.041150745
17	0xbd6ec0f9	-0.0582895
18	0xbb28c528	-0.002575228
19	0x3cce459b	0.025179675
20	0x3c5953a2	0.0132645685
21	0x3d08cd6b	0.033399027
22	0x3c87d4f6	0.01658104
23	0xbd4f662a	-0.05063454
24	0xbcfd5e6f	-0.030928819
25	0xbd629127	-0.05531421
26	0x3d674b7b	0.05646847
27	0xbd6964ad	-0.056980778
28	0xbd9339a3	-0.07188728
29	0xbd9a855f	-0.0754497
30	0x3d2d5ab6	0.042322837
31	0x3bd2c69c	0.0064323675

conv5.weight f4 [64, 32, 2, 2, 2]
0	0xbc96f54f	-0.01842752
1	0x3c488e08	0.012240894
2	0x3d69a48c	0.05704169
3	0xbcf4cdb6	-0.029883247
4	0xbce398f7	-0.0277829
5	0xbd4ebffc	-0.05047606
6	0xbd8283f5	-0.06372825
7	0xbd0b3f72	-0.033996053
8	0xbc1ce84f	-0.009576871
9	0xbbbab1da	-0.005697471
10	0xbc85a3a3	-0.01631338
11	0xbd8c6083	-0.06854346
12	0x3c3f6820	0.01168254
13	0xbc4093a9	-0.011753955
14	0xbbde73e7	-0.006788719
15	0xbc806c46	-0.015676629
16	0x3d5cdf45	0.053923864
17	0xbb149835	-0.002267373
18	0xbd05ecd0	-0.032696545
19	0xbd23ee2b	-0.040022057
20	0x3a1a68fe	0.0005890279
21	0x3cffbd75	0.03121827
22	0x3bbf27ee	0.0058336174
23	0xbdaf1525	-0.08548955
24	0xbdb0f1b6	-0.08639853
25	0xbd885039	-0.06655926
26	0xbe073e68	-0.132074
27	0xbd7feb1f	-0.06248009
28	0xbdc3e0e3	-0.09564378
29	0xbe157f59	-0.1459936
30	0xbdbe02c4	-0.09277871
31	0xbd9fa34c	-0.07794818
32	0x3d53f334	0.05174561
33	0xbd281e97	-0.041044798
34	0xbd14722a	-0.036241688
35	0xbd20e461	-0.0392803
36	0xbd7f6a80	-0.062357426
37	0xbcb125f3	-0.02162454
38	0xbcae2605	-0.021258364
39	0x3d44b00f	0.048019465
40	0xbb404eca	-0.0029343837
41	0xbd3a83f3	-0.045535993
42	0xb91a7c8f	-0.00014732986
43	0xbd68da42	-0.056848772
44	0x3c32f868	0.0109234825
45	0xbb4ad539	-0.0030949845
46	0xbc50414d	-0.012710881
47	0xbc853be2	-0.016263906
48	0x3d414083	0.047180664
49	0xbce64a94	-0.028111733
50	0xbd53ee2f	-0.05174082
51	0xbd1243e4	-0.035709277
52	0x3d320253	0.043459248
53	0x3d859ab1	0.06523646
54	0x3d668806	0.056282066
55	0x3d936aad	0.07198081
56	0xba14c0aa	-0.0005674461
57	0xbd14a115	-0.036286432
58	0xbd2de7b4	-0.042457297
59	0x3d9caa1f	0.076496355
60	0xbc8d493a	-0.017246831
61	0xbd48b0c0	-0.048996687
62	0x3b68d751	0.003552873
63	0x3cf97d64	0.030455299
64	0xbd0b6252	-0.034029312
65	0x3d868891	0.06569017
66	0x3c9d3789	0.01919152
67	0x3da9b533	0.08286514
68	0xbd0e0f96	-0.034682833
69	0x3c26becb	0.0101773245
70	0x3d958cf4	0.07302275
71	0x3d34e57d	0.04416417
72	0xbd064081	-0.03277636
73	0x3c3d8835	0.011568119
74	0x3d01fed8	0.03173718
75	0x3ce313cb	0.027719399
76	0x3c5c1245	0.01343209
77	0x3d8c8155	0.068606056
78	0x3be86273	0.007091814
79	0x3c88be15	0.0166922
80	0x3da0cca5	0.07851533
81	0x3da4a074	0.080384165
82	0xbd3577c9	-0.04430369
83	0xbd3035da	-0.043020107
84	0xbc839a55	-0.016064802
85	0x3da8fb97	0.08251112
86	0x3d06ca57	0.03290781
87	0x3d002c5f	0.031292316
88	0x3cbfbb01	0.0234046
89	0xbd3ad90b	-0.045617145
90	0xbd905325	-0.070471086
91	0x3d591303	0.052996647
92	0x3c0e922a	0.00870184
93	0x3d0a6e61	0.03379667
94	0xbd9df567	-0.077128224
95	0x3c92713d	0.017876262
96	0x3e841357	0.25796005
97	0x3de7e62e	0.113232
98	0x3cd6a78e	0.026202943
99	0x3da11e31	0.07867087
100	0x3dacfda6	0.08446817
101	0xbce0fa5a	-0.027463127
102	0xbd5c3a03	-0.05376626
103	0xbc123a14	-0.00892498
104	0xbb562b72	-0.0032679704
105	0xbbb97baf	-0.005660496
106	0x3d2da956	0.04239782
107	0x3d031d3d	0.032010306
108	0x3d9cd3a4	0.07657555
109	0x3d9d5dc7	0.07683902
110	0x3d85be2b	0.06530412
111	0x3d48a37a	0.04898403
112	0x3b0289c7	0.0019918547
113	0x3d868d5d	0.06569932
114	0x3d5989cd	0.053109933
115	0x3d4de4fc	0.050267205
116	0x3cf9099b	0.030400088
117	0x3d743f04	0.05963041
118	0x3d658f01	0.056044582
119	0xbc2ec024	-0.010665927
120	0x3acfd783	0.0015857074
121	0xbd2a5ef1	-0.04159445
122	0x3d444406	0.047916435
123	0x3cd5d0fc	0.026100628
124	0xbd648099	-0.055786703
125	0x3c2e45f0	0.010636792
126	0xbd004cb7	-0.03132316
127	0xbca2cc9d	-0.019872958
128	0x3ce21398	0.027597234
129	0x3c68c389	0.014206775
130	0x3d36a129	0.044587288
131	0xbc88992c	-0.0166746
132	0xbcad3af3	-0.021146273
133	0xbc0994c4	-0.008397285
134	0x3d0834a6	0.033253334
135	0xbd1d964d	-0.038473416
136	0xbdb63c2d	-0.08898196
137	0xbda71bce	-0.081596
138	0xbd9eb105	-0.077486075
139	0xbc75b028	-0.014995612
140	0xbdb3f300	-0.08786583
141	0xbd34ac5c	-0.044109687
142	0xbbb30588	-0.005463306
143	0xbda7df40	-0.081968784
144	0x3c9e444c	0.019319676
145	0x3b1c11e7	0.0023814382
146	0x3d095137	0.033524718
147	0xb99b2170	-0.00029588817
148	0x3cc638c6	0.024196994
149	0xbd11f04c	-0.035629556
150	0xbcf178c0	-0.029476523
151	0x3d6509f6	0.055917703
152	0x3d4df258	0.050279945
153	0xbc2951f6	-0.010334482
154	0xbd4e482a	-0.05036179
155	0xbd894f6c	-0.06704602
156	0xbd546e4a	-0.051862992
157	0xbcaea788	-0.02132012
158	0xbd8b515a	-0.06802626
159	0x3ba4a28d	0.0050242604
160	0x3cf6ba7c	0.03011822
161	0x3a284c56	0.00064200663
162	0xbba02293	-0.004886934
163	0xbcc2fb6f	-0.023801534
164	0xbcbb6241	-0.022874
165	0xbcfb8db0	-0.03070721
166	0x3ca5c769	0.020236688
167	0xbd39f3bf	-0.04539847
168	0xbbfcb0f8	-0.007711526
169	0xbd7862c6	-0.060641073
170	0xbc4f0979	-0.012636536
171	0x3d60c7b6	0.05487796
172	0xbcc038b3	-0.023464536
173	0xbce17967	-0.02752371
174	0x3cddb259	0.027062582
175	0xbd80113f	-0.062532894
176	0xbcf61b56	-0.030042332
177	0x3c93aea2	0.018027607
178	0x3d9dd6c2	0.077069774
179	0xbce95f5f	-0.02848786
180	0x3cca6720	0.024707377
181	0x3d4cc165	0.049989123
182	0x3c92f22c	0.017937742
183	0x3cfaeca4	0.030630417
184	0x3d0671e2	0.03282345
185	0xbd3e0d3b	-0.046399336
186	0x3d09907a	0.03358505
187	0xbc9f39a4	-0.019436665
188	0xbbc5b546	-0.0060335724
189	0xbd3bedec	-0.045881197
190	0x3ca68f4c	0.020332001
191	0x3c509c66	0.012732601
192	0xbd820cea	-0.063501194
193	0xbd14ba30	-0.036310375
194	0x3c1db3e7	0.009625412
195	0xbd68ffc7	-0.056884553
196	0xbd873e3e	-0.06603669
197	0x3cc45bb1	0.023969503
198	0xbb10de65	-0.0022105214
199	0xbd7f5c51	-0.0623439
200	0x3b96d0c3	0.004602523
201	0x3c99d02e	0.018776026
202	0x3a9089b9	0.0011027373
203	0x3d39cec9	0.04536322
204	0xbce0eecf	-0.027457623
205	0x3cdae7fd	0.026721949
206	0x3d9a509e	0.07534908
207	0x3d5afcd6	0.05346378
208	0x3d1aeedb	0.037825447
209	0xbc1e8f79	-0.009677761
210	0xbd70bbac	-0.058772728
211	0xbd3e644f	-0.04648238
212	0x3d7f7311	0.062365595
213	0xbb9656ff	-0.0045880075
214	0xbd39e037	-0.045379844
215	0x3c6c454d	0.0144208195
216	0xbd112631	-0.035436813
217	0x3d70464a	0.058660783
218	0x3d4eea8b	0.050516646
219	0x3d10c661	0.03534544
220	0x3cea7b15	0.028623143
221	0xbd706030	-0.05868548
222	0x3cf73512	0.030176673
223	0xbd5b0ce2	-0.053479083
224	0xbd1ae51c	-0.037816152
225	0xbc6eac38	-0.014567427
226	0x3d196741	0.037451986
227	0x3d31bd58	0.043393463
228	0xbbd629b1	-0.0065357317
229	0x3d19c588	0.037541896
230	0x3c7266f0	0.01479505
231	0x3c55f11f	0.013057976
232	0x3d167514	0.03673275
233	0x3d6e79e8	0.058221728
234	0x3d316225	0.04330649
235	0x3d203e0c	0.039121673
236	0x3d238dc7	0.03993013
237	0xbd32272b	-0.043494385
238	0x3d4c35b0	0.049855888
239	0x3d0fb2c9	0.035082612
240	0x3c3d78a1	0.011564405
241	0x3dc5a47a	0.09650512
242	0x3da114a9	0.07865269
243	0x3d3935a5	0.045217175
244	0x3d2d5680	0.04231882
245	0x3d9d289b	0.076737605
246	0x3d370e16	0.044691168
247	0x3b9970f2	0.0046826536
248	0xbcb129ee	-0.021626439
249	0x3d341ce3	0.04397286
250	0x3d2003ec	0.03906624
251	0x3cdc204a	0.026870865
252	0xbd598c99	-0.0531126
253	0x3d3d3603	0.046194088
254	0xbca92420	-0.020647109
255	0x3ce4ff4a	0.027953763

conv5.bias f4 [64]
0	0x3db6c5c7	0.08924442
1	0x3d78ec14	0.060772017
2	0x3bcdec29	0.006284256
3	0xbdaf97c7	-0.08573871
4	0x3ce16369	0.027513223
5	0xbc8972f7	-0.016778452
6	0x3db34e07	0.08755117
7	0x3d88e20c	0.0668374
8	0x3cfbcbbe	0.0307368
9	0x3c553afb	0.01301455
10	0x3d63eaea	0.055643953
11	0x3d3d1a3d	0.0461676
12	0xbd951c9e	-0.07280849
13	0xbd5433e4	-0.0518073
14	0x3d38a4ba	0.04507897
15	0xbc84e4f4	-0.016222455
16	0x3cf331ee	0.029686894
17	0xbca2c692	-0.019870076
18	0x3d0a0549	0.033696447
19	0xbd8587bd	-0.06520031
20	0x3d1a5836	0.03768178
21	0x3d8f5857	0.06999271
22	0x3d19516c	0.037431166
23	0xbb34cb58	-0.0027587023
24	0xbd33ae0f	-0.043867167
25	0xbd732208	-0.059358627
26	0x39b1ca48	0.00033910782
27	0x3d1f698b	0.038919013
28	0xbcd46ae4	-0.025929876
29	0x3d462430	0.048374355
30	0xbd3de40a	-0.046360053
31	0x3ce8fbc7	0.02844037
32	0xbd3cc6c1	-0.046087984
33	0x3d769653	0.060201954
34	0xbd93d0e3	-0.07217576
35	0xbd6a8a62	-0.05726088
36	0x3d0ddcae	0.034634285
37	0x3a908430	0.0011025723
38	0xbd0389ac	-0.032113716
39	0x3cb9c072	0.022674773
40	0x3da906c5	0.08253244
41	0xbd4ba393	-0.049716543
42	0xbbb9f18c	-0.0056745466
43	0x3d2653ad	0.040607143
44	0x3d6c2a36	0.057657443
45	0x3c565ab3	0.013083148
46	0x3d5c0458	0.05371508
47	0x3d369c8c	0.04458289
48	0xbd73ba3b	-0.059503775
49	0x3cff8214	0.031189956
50	0x3c88eca0	0.016714394
51	0x3d2839f3	0.04107089
52	0x3cc6ed04	0.02428294
53	0x3d8c2860	0.068436384
54	0x3cda269e	0.026629742
55	0x3cff916e	0.031197276
56	0x3d27be0e	0.040952735
57	0xbd2b9fbe	-0.04190039
58	0x3c5c42c1	0.01344365
59	0x3b5eb8c0	0.0033984631
60	0xbd129421	-0.035785798
61	0xbd3da0ac	-0.046295807
62	0x3c11c8bc	0.008897956
63	0x3d9eddee	0.077571735

linear1.weight f4 [128, 512]
0	0x3b72b32c	0.0037033064
1	0xbd265d7e	-0.040616505
2	0x3c22e9d2	0.009943442
3	0xbc7be57c	-0.015374538
4	0xbb78608b	-0.003789934
5	0xbbb765ae	-0.005596838
6	0xbcb1be17	-0.021697087
7	0xbcb86363	-0.022508329
8	0xbcdf1a7f	-0.027234314
9	0x3ca8e085	0.020614872
10	0xbd0f6e6d	-0.03501742
11	0xbc46bf67	-0.012130595
12	0xbad395cb	-0.0016142664
13	0xbc8001b4	-0.015625812
14	0xbc6d4ef2	-0.014484154
15	0xbc9534de	-0.018213686
16	0xbd05a303	-0.032626163
17	0x3cf94312	0.03042749
18	0x3cdb41f0	0.02676484
19	0xbbf52738	-0.007481482
20	0x3d1410a5	0.036148686
21	0xbbfd7626	-0.0077350317
22	0xbd300aff	-0.042979237
23	0x3d041d72	0.032254644
24	0xbca2112f	-0.019783584
25	0xbcbf5774	-0.02335713
26	0xbc849493	-0.016184127
27	0xbc07ceea	-0.008289078
28	0xbc7858a9	-0.015157857
29	0xbc3be44c	-0.011468004
30	0x3b9917bf	0.00467202
31	0xbd1daf0d	-0.03849702
32	0x3ca5e6bc	0.020251624
33	0xbb0661ce	-0.0020505073
34	0x3c0e2ab2	0.008677172
35	0xbd22a7a5	-0.03971066
36	0xbbf4e2fb	-0.0074733472
37	0x3ceb05b1	0.028689237
38	0xbd0f379e	-0.03496515
39	0xbc6fcb96	-0.014635941
40	0xbc111359	-0.0088547105
41	0xbd2c943e	-0.042133562
42	0xbbd419fa	-0.006472823
43	0xbc3b6b07	-0.0114390915
44	0x3b8f70fc	0.0043774825
45	0xbc518add	-0.012789455
46	0x3c2c44e7	0.0105144745
47	0x3cac91f1	0.021065684
48	0xbb17da41	-0.002317086
49	0x3d0e0ab8	0.03467819
50	0x3bd0ad4c	0.006368315
51	0xbd33f34b	-0.043933194
52	0xbc6fa9b6	-0.014627865
53	0x3d1e82d0	0.03869897
54	0xbd090798	-0.033454508
55	0xbd04724e	-0.032335572
56	0x3c7c716d	0.015407902
57	0x3cd05ddf	0.025435386
58	0x3bf010c5	0.007326218
59	0xbca46975	-0.020069817
60	0xbc1a9568	-0.009435035
61	0xbcfd13da	-0.030893255
62	0x3d0cb550	0.0343526
63	0x3c80857d	0.015688652
64	0xbbcf153a	-0.006319669
65	0x3c0c53be	0.008564888
66	0xbcd28e3e	-0.025702592
67	0xbd09a914	-0.03360851
68	0x3d1bd4a9	0.038044605
69	0xbcef76b0	-0.0292314
70	0xbc7ba743	-0.0153597025
71	0xbc975f4c	-0.018478058
72	0xbc226b43	-0.0099132685
73	0x3d18f886	0.037346385
74	0xbd554190	-0.05206448
75	0x3cf98629	0.03045948
76	0xbd1aaf4d	-0.037764836
77	0xbb294ea4	-0.0025834227
78	0xbd68d8fa	-0.05684755
79	0x3c9bf490	0.019037515
80	0x3d2b2b39	0.041789267
81	0xbd126bff	-0.035747524
82	0xbbbcb22d	-0.005758545
83	0xbc69cf32	-0.014270591
84	0x3cd7d443	0.026346331
85	0x3cb42776	0.021991473
86	0xbd11357a	-0.03545139
87	0xbd2033d0	-0.039111912
88	0x3cfb426e	0.030671325
89	0xbbdd5346	-0.0067543117
90	0xbb89cb20	-0.0042051226
91	0xbc9aa2dd	-0.018876487
92	0x3c9a086b	0.018802842
93	0xbcd65b93	-0.026166713
94	0x3d2f8681	0.042852882
95	0xb91ea562	-0.00015129664
96	0xbccb1d92	-0.024794374
97	0x3c2b5ebd	0.010459599
98	0x3cc63ec1	0.024199845
99	0xbc4b1645	-0.012395446
100	0xbc1ca4dd	-0.009560791
101	0xbccdbbeb	-0.02511402
102	0xbd160391	-0.036624495
103	0x3c2c3295	0.010510107
104	0xbc7e2aaf	-0.015513106
105	0xbbbcfe67	-0.005767632
106	0x3cc98547	0.024599684
107	0xbd6083cf	-0.054813202
108	0xbcdfa610	-0.027300864
109	0x3ccad171	0.024758073
110	0xbd182932	-0.037148662
111	0x3c089382	0.00833595
112	0xbd0ad8dd	-0.033898223
113	0xbc9dfb97	-0.019285006
114	0x3ce58643	0.028018123
115	0xbb71c9eb	-0.0036894034
116	0x3af37fe2	0.0018577541
117	0xbbd7128f	-0.0065634917
118	0x3c964f26	0.018348288
119	0xbce50956	-0.027958553
120	0x3ce1765e	0.027522262
121	0xbd301dd8	-0.04299721
122	0x3c1150cc	0.008869361
123	0x3d0fed08	0.03513816
124	0xbd0c3d48	-0.03423813
125	0xbc83f6c4	-0.016108878
126	0xbd65cd4e	-0.056103997
127	0x3ceaed8c	0.028677724
128	0xbcf65a01	-0.030072214
129	0x3d214773	0.03937478
130	0xbd1745c8	-0.036931783
131	0x3cc72222	0.024308268
132	0xbc35d7c2	-0.011098804
133	0xbcc16d10	-0.023611575
134	0xbd153627	-0.036428597
135	0xbd03ae90	-0.032148898
136	0x3bbbb951	0.0057288785
137	0xbc60ac9e	-0.01371303
138	0xbbea163d	-0.0071437643
139	0xbb5e5dcf	-0.0033930426
140	0x3d02fec1	0.031981234
141	0xbc6790f0	-0.014133677
142	0xbd0e1ab1	-0.034693424
143	0x3c14ed52	0.009089785
144	0xbc930704	-0.017947681
145	0xbd549e4d	-0.05190878
146	0xbc8e86db	-0.017398288
147	0xbd0d489e	-0.03449308
148	0x3a4a9b8a	0.00077288656
149	0xbd19d1be	-0.03755354
150	0xbbd9810a	-0.006637697
151	0xbd1fa6bb	-0.038977366
152	0x3cafdc8f	0.021467475
153	0x3c6154a5	0.013753091
154	0x3a9b013e	0.0011825932
155	0x3c117c22	0.008879693
156	0xbb4d730b	-0.0031349089
157	0xbca3f84d	-0.02001586
158	0x3cbc2141	0.022965075
159	0xbcc63acd	-0.02419796
160	0x3d13e0bd	0.036103
161	0x3cb85d44	0.02250541
162	0x3d299adc	0.04140745
163	0x3cd552d7	0.026040478
164	0xbb829c62	-0.0039859274
165	0xbc715c89	-0.014731535
166	0xbcaee6e2	-0.021350328
167	0xbcfd203d	-0.030899161
168	0x3c2d6f42	0.010585608
169	0xbd284e44	-0.041090265
170	0x3cead58b	0.028666278
171	0xbce781fd	-0.028260225
172	0xbd2e252c	-0.04251592
173	0xbc087768	-0.00832925
174	0x397f05c1	0.00024320839
175	0xbcc4b1cb	-0.02401056
176	0x3d34a3e5	0.044101615
177	0xbd1e0883	-0.038582336
178	0x3cf1e587	0.029528392
179	0x3d2f3072	0.04277081
180	0xbccd3d4e	-0.025053646
181	0xbc5ddaf8	-0.013540976
182	0xbc9cb154	-0.019127525
183	0xbccfd68c	-0.025370859
184	0xbd5d51e9	-0.054033194
185	0x3c18a56c	0.009316783
186	0xbd5e0766	-0.054206274
187	0xbcf5db7b	-0.030011883
188	0xbcb523ce	-0.0221118
189	0x3a0802f5	0.0005188429
190	0xbcf51860	-0.02991885
191	0xbd5f9dda	-0.0545939
192	0x3cf1ca56	0.029515427
193	0x3c9b2871	0.018940182
194	0xbcde15a9	-0.027109938
195	0xbd05af2b	-0.032637756
196	0xbd1bafd6	-0.038009487
197	0x3d1686ac	0.036749527
198	0x3cff148f	0.031137733
199	0x3d2cb94c	0.0421689
200	0x3cde4f85	0.027137527
201	0x3c03f9b2	0.0080551375
202	0x3ba2e3fd	0.004971026
203	0x3c82681a	0.01591878
204	0x3d2de269	0.04245225
205	0x3d1d73f4	0.03844066
206	0x3cef794e	0.029232647
207	0xbbb683b7	-0.005569901
208	0xbd169801	-0.036766056
209	0xbd249752	-0.040183373
210	0x3c160cc8	0.009158321
211	0x3cc6ccc0	0.024267554
212	0x3b9c770b	0.004774933
213	0xbd43cc5e	-0.04780232
214	0xbca3be3f	-0.019988177
215	0xbc132515	-0.008981009
216	0xbc5d1aae	-0.01349513
217	0xbbb72900	-0.0055896044
218	0xbd0539b3	-0.03252573
219	0xbcb03f12	-0.02151445
220	0x3bcf2ba9	0.0063223434
221	0x3d1b51a4	0.037919655
222	0x3c1f8e6c	0.009738546
223	0x3c865aef	0.016400782
224	0xbc602716	-0.013681194
225	0xbd173772	-0.03691811
226	0xbd215ce0	-0.039395213
227	0x3caf87aa	0.021426994
228	0xbcf7e407	-0.0302601
229	0xbd0e17f4	-0.034690812
230	0x3cdd57e1	0.027019443
231	0xba9acacb	-0.0011809705
232	0x3c0108f9	0.007875674
233	0xbd4e8c9e	-0.05042707
234	0xbbb4a4ee	-0.005512825
235	0xbd2babc2	-0.041911848
236	0xbd69ad2b	-0.05704991
237	0xbc99c59c	-0.018770985
238	0x3c10bdca	0.008834312
239	0x3b836c33	0.004010701
240	0x3ce2e5c6	0.027697455
241	0xbcacca39	-0.021092521
242	0x3cd3cd55	0.025854746
243	0xbd07b563	-0.03313197
244	0xbca1cfaa	-0.019752342
245	0xbc049cc0	-0.008094013
246	0x3d1dce63	0.038526904
247	0x3cb7c441	0.022432448
248	0xbd6d7d23	-0.057980668
249	0x3d222c66	0.039593123
250	0xbaef1e69	-0.0018243316
251	0xbd0b8b28	-0.034068257
252	0xbcf55cd2	-0.029951487
253	0x3cada32a	0.021195967
254	0x3d0d8113	0.034546923
255	0xbbc118dd	-0.0058928565

linear1.bias f4 [128]
0	0xbd1c08ed	-0.03809445
1	0x3d5534aa	0.052052177
2	0xbd64d0e7	-0.055863287
3	0x3bf152b7	0.0073645967
4	0xbcf2a5b3	-0.029620027
5	0x3d8a2291	0.06744874
6	0x3bd1a239	0.0063975123
7	0xbc97554a	-0.018473286
8	0xbd0d2540	-0.034459352
9	0xbccbb7d0	-0.024867922
10	0xbd06ab25	-0.03287806
11	0xbd182d7e	-0.03715276
12	0xbd4033d6	-0.046924435
13	0xbcb6e4d6	-0.022325914
14	0xbd48d042	-0.049026735
15	0x3d57b306	0.052660964
16	0xbcac98d6	-0.021068972
17	0xbd105ee8	-0.03524676
18	0x3cb12772	0.021625254
19	0xbd80f021	-0.06295801
20	0xbcf06273	-0.02934382
21	0xbd2f5411	-0.04280478
22	0xbcceef67	-0.02526064
23	0x3c895f69	0.016769128
24	0xbd330051	-0.043701474
25	0xbb215183	-0.0024615235
26	0x3d5b7d21	0.05358613
27	0xbcffb94c	-0.031216286
28	0x3d639069	0.055557642
29	0xbbeef4d0	-0.0072923675
30	0xbc201765	-0.009771203
31	0xbd7177b5	-0.058952052
32	0xbca85219	-0.02054696
33	0x3d872395	0.065985836
34	0x3d2eab7e	0.042644016
35	0x3d51000d	0.05102544
36	0x3d1eab68	0.038737684
37	0x3ce6f148	0.028191224
38	0x3c027ca2	0.007964285
39	0xbbbede32	-0.0058248276
40	0x3ab59ff5	0.0013856875
41	0x3cff444f	0.031160502
42	0x3d611ac9	0.054957185
43	0xbce8e562	-0.02842969
44	0xbb7e1f30	-0.0038775913
45	0xbd4af7e8	-0.049552828
46	0x3d749556	0.05971273
47	0xbcd51657	-0.026011629
48	0x3cc4dabb	0.02403008
49	0xbcfc9c8f	-0.030836372
50	0xbb741a38	-0.0037247073
51	0xbc830ef0	-0.015998334
52	0x3a95773d	0.0011403334
53	0xbc4a7c71	-0.012358771
54	0xbcfae865	-0.030628392
55	0xbd6bcf2e	-0.05757063
56	0xbc65ec4a	-0.0140333865
57	0x3d0bcadc	0.03412901
58	0x3d63988b	0.0555654
59	0x3d974ea3	0.07388046
60	0x3d234c6c	0.039867803
61	0xbb6c24ae	-0.0036032605
62	0x3d9e158e	0.07718955
63	0xbd2cf468	-0.04222527
64	0x3d97242f	0.07379948
65	0x3d0b7a79	0.034052346
66	0xbcbb55f3	-0.022868132
67	0x3ce390da	0.027779032
68	0x3cc40d45	0.023932109
69	0x3ca7f428	0.020502165
70	0xbb9b50cc	-0.0047398563
71	0xbc1e66ba	-0.009668047
72	0x3d30a0eb	0.043122213
73	0xbc87da26	-0.016583513
74	0x3d8d058e	0.06885825
75	0xbd17754f	-0.03697711
76	0x3de3c826	0.1112216
77	0xbd6d839a	-0.057986833
78	0x3cf7faf5	0.030271033
79	0xbc977c04	-0.018491752
80	0xbcfc5a51	-0.030804785
81	0x3cb140e1	0.021637382
82	0xbbed2ec3	-0.0072382404
83	0x3d1a9125	0.037736077
84	0x3d95cae2	0.073140875
85	0x3cdd11fc	0.026986115
86	0x3ced679b	0.028980067
87	0x3d7960bd	0.060883272
88	0x3d25227f	0.0403161
89	0x3d1b260c	0.03787808
90	0x3d822c6b	0.06356128
91	0x3d241f91	0.040069167
92	0xbd12024e	-0.03564673
93	0xbc1bebdf	-0.009516685
94	0xbd1645e5	-0.03668775
95	0xbd1759ae	-0.03695076
96	0x3dd4c1a6	0.10388498
97	0xbc50b961	-0.01273951
98	0xbc8ce120	-0.017197192
99	0xbc6ed138	-0.014576249
100	0xbcc744c4	-0.024324782
101	0x3d425cb6	0.047451697
102	0x3beb66d6	0.00718389
103	0x3d80dbe5	0.062919416
104	0x3ca3841e	0.01996046
105	0xbbb49a89	-0.005511586
106	0xbd08369f	-0.033255216
107	0x3d21bdec	0.039487764
108	0xbccd5e07	-0.02506925
109	0x3c168c92	0.009188788
110	0xbd5c6bf1	-0.05381388
111	0xbae0b6c8	-0.0017144317
112	0xbd61235e	-0.05496537
113	0x3c9195d2	0.017771635
114	0xbc99fae2	-0.018796388
115	0x3a993fd2	0.0011691994
116	0x3d913908	0.07090956
117	0x3d810ccd	0.0630127
118	0xbcb0500f	-0.02152255
119	0x3da6440a	0.08118446
120	0x3ce47529	0.027887898
121	0x3d4c5ab7	0.0498912
122	0x3d638bda	0.055553295
123	0x3cda1d7d	0.02662539
124	0xbb5392ca	-0.0032283538
125	0x3c0e62b6	0.008690527
126	0xbd789ed1	-0.060698334
127	0x3d4732e9	0.048632536
