models/3A_SSE_beta.pth (torch, 421229 bytes, 13 tensors)

conv1.weight f4 [4, 1, 5, 5, 5]
0	0xbad18e2f	-0.0015987809
1	0x3d94843f	0.072517864
2	0x3c2dbd3b	0.010604198
3	0xbcd4058d	-0.025881553
4	0xbb64d63a	-0.0034917728
5	0xbc01f1c9	-0.007931181
6	0xbd5c239f	-0.05374491
7	0xbcd8a370	-0.02644512
8	0x3da9945b	0.0828025
9	0x3c5b4201	0.013382436
10	0x3c1d0625	0.0095839845
11	0xbda141bd	-0.07873867
12	0xbd5fd016	-0.054641806
13	0x3d8bc1eb	0.06824096
14	0xbbfb615f	-0.0076715196
15	0xbc9ce3bc	-0.019151561
16	0xbce185c9	-0.027529614
17	0xbd113469	-0.035450373
18	0xbbf64f67	-0.0075167897
19	0xbba2791f	-0.0049582864
20	0xbd236fd0	-0.039901555
21	0xbdb50925	-0.08839635
22	0xbdb3b6f8	-0.08775133
23	0xbd62956c	-0.05531828
24	0x3d0ef0a3	0.034897458
25	0xbdb87969	-0.09007532
26	0x3c83727f	0.016045807
27	0x3d6c759f	0.05772936
28	0xbc6b4599	-0.014359855
29	0xbd5fb76b	-0.05461828
30	0xbd12690c	-0.03574471
31	0x3d74bc73	0.05975003
32	0xbcc7fa62	-0.024411384
33	0xbd5cd000	-0.0539093
34	0x3d23d173	0.03999467
35	0xbd6ce76f	-0.0578379
36	0x3d0f7fb1	0.035033885
37	0x3dcf3954	0.10118356
38	0x3d972285	0.07379631
39	0x3cb7df58	0.022445366
40	0x3d880a79	0.066426225
41	0x3dcbf765	0.09959296
42	0xbd2ce6b3	-0.0422122
43	0xbaf99ba2	-0.0019043575
44	0xbc4c0f96	-0.012454888
45	0xbd915aad	-0.07097373
46	0x3c9d5a4a	0.019208092
47	0xbd106099	-0.035248373
48	0xbd3bef5f	-0.04588258
49	0xbd27b261	-0.0409416
50	0x3d696030	0.056976497
51	0x3ccbe20b	0.02488806
52	0x3dd06ed7	0.10177391
53	0xbcef9b83	-0.029248958
54	0xbbf6b547	-0.007528934
55	0x3d4b555a	0.049641944
56	0xbd8a8475	-0.067635454
57	0x3d5a81fe	0.053346626
58	0x3cb4e2b1	0.022080751
59	0x3c3d1d62	0.01154265
60	0xbd0f71d8	-0.03502068
61	0x3d5affb4	0.053466514
62	0x3d8fe4ba	0.07026048
63	0x3d02d1ea	0.03193847
64	0x3db1e338	0.08685917
65	0xbd36ed93	-0.044660162
66	0x3d075687	0.033041503
67	0x3da50faf	0.08059632
68	0x3d4a97f5	0.049461324
69	0xbd708f83	-0.058730613
70	0x3d2fb759	0.042899463
71	0x3c5a284b	0.013315271
72	0x3dbfe4e6	0.09369831
73	0xbd680fef	-0.05665582
74	0x3d8ed584	0.069743186
75	0x3d95a67f	0.07307147
76	0xbd9faaf3	-0.07796278
77	0xbc44a81b	-0.01200297
78	0xbd0f99a4	-0.035058632
79	0xbcca74be	-0.02471387
80	0xbd851641	-0.06498385
81	0x3dcc52ee	0.09976755
82	0x3d9fec21	0.0780871
83	0x3de2cb54	0.11073938
84	0xbba982bb	-0.005173055
85	0x3d967195	0.07345883
86	0x3bc97e48	0.006149087
87	0x3ded8e4c	0.115994066
88	0x3dbc4c74	0.0919427
89	0xbda55feb	-0.080749355
90	0xbcc8e9d8	-0.024525568
91	0x3ba2d003	0.0049686446
92	0xbd15af04	-0.03654386
93	0x3d54b8c5	0.051934022
94	0x3d953aba	0.07286592
95	0xbc56289f	-0.013071208
96	0xbd6ba30f	-0.05752855
97	0x3d62e6d6	0.055395924
98	0x3d21c1b5	0.039491374
99	0xbdbafab8	-0.09129852
100	0x3d21a47a	0.039463498
101	0x3d38f6ea	0.04515735
102	0xbca7d438	-0.020486936
103	0x3cb3b839	0.02193843
104	0x3d031ec3	0.03201176
105	0xbbf22ab4	-0.0073903445
106	0xbd78b730	-0.060721576
107	0xbd482114	-0.04885967
108	0x3d571271	0.05250782
109	0xbd27b0c7	-0.040940072
110	0xbd12c22b	-0.035829704
111	0xbd354451	-0.044254605
112	0xbd14f290	-0.036364138
113	0x3ce28cc0	0.027655005
114	0xbdc63d6f	-0.09679686
115	0xbd0c6a30	-0.034280956
116	0x3cd1b4ff	0.025599001
117	0x3d7d176b	0.06178991
118	0x3d999891	0.07499803
119	0xbc2489dc	-0.010042634
120	0xbcb7bebe	-0.02242982
121	0x3d469473	0.048481416
122	0x3d3d8359	0.04626784
123	0xbc868d23	-0.016424721
124	0xbd5411fe	-0.05177497
125	0x3caed988	0.021343961
126	0xbc88b2ed	-0.016686881
127	0xbc9c1552	-0.019053135
128	0x3d68a99b	0.056802373
129	0x3d8dca6b	0.06923374
130	0x3dbf3c0d	0.09337626
131	0x3daf08d3	0.08546605
132	0xbb8bbd68	-0.0042645223
133	0xbd3f8aca	-0.04676322
134	0x3d84a4f0	0.06476772
135	0x3c67566d	0.014119727
136	0xbcbe0a58	-0.023198292
137	0x3d685ad5	0.05672725
138	0x3dc6a6b2	0.09699763
139	0xbd8e7f82	-0.06957914
140	0xbd726438	-0.059177607
141	0xbd89bae0	-0.06725097
142	0x3dadb66d	0.084820606
143	0xbda404c5	-0.08008722
144	0xbd841f6a	-0.06451304
145	0x3c2c58d4	0.010519225
146	0xbd36304b	-0.04447965
147	0x3d9108c6	0.070817515
148	0x3c3aed28	0.0114090815
149	0xbc9d2239	-0.019181358
150	0xbd806885	-0.062699355
151	0xbbf20a23	-0.0073864623
152	0xbd44e16e	-0.04806655
153	0x3aa692d3	0.0012708552
154	0x3d883bf4	0.0665206
155	0x3d4375cb	0.047719758
156	0x3bf6c9fe	0.0075314036
157	0x3dc08ad9	0.09401483
158	0x3a2d05a8	0.0006600269
159	0xba7827ad	-0.00094663614
160	0x3d783e27	0.060606148
161	0x3d2026f7	0.03909966
162	0x3d88a17d	0.066714264
163	0xbcb4af18	-0.022056147
164	0xbd37f19d	-0.044908155
165	0xbd3a6fc7	-0.045516755
166	0xbd55575e	-0.052085273
167	0xbc800fbc	-0.015632503
168	0x3d0022e5	0.031283278
169	0x3d60d944	0.0548947
170	0x3d48e2b7	0.049044337
171	0x3b8cb0a6	0.004293519
172	0x3cea643e	0.028612252
173	0xbd1585fb	-0.036504727
174	0xbd063151	-0.032761876
175	0x3d6542e8	0.05597201
176	0xbd94d793	-0.0726768
177	0xbb2ced7c	-0.002638667
178	0x3da38279	0.0798387
179	0xbc05d2e2	-0.008167954
180	0x3d85d9d7	0.0653569
181	0x3d5b4e31	0.053541366
182	0x3ce61be2	0.028089467
183	0x3d0409f8	0.03223607
184	0x3d335a4b	0.043787282
185	0x3d1cb80a	0.03826145
186	0x3d273ff1	0.040832464
187	0xbbe780d4	-0.007064918
188	0x3cff0ec4	0.03113497
189	0xbc0e3c82	-0.008681418
190	0x3db9a573	0.0906476
191	0xbdae2c38	-0.08504528
192	0x3ca5cddf	0.020239769
193	0x3dba27d6	0.09089629
194	0xbd76028e	-0.06006103
195	0xbcb810c8	-0.02246894
196	0x3d6237be	0.05522894
197	0xbc40f693	-0.011777538
198	0x3db39d74	0.08770266
199	0x3d3eda4d	0.046594907
200	0xbd0bc9a0	-0.03412783
201	0x3db9a7df	0.09065222
202	0x3d84799c	0.06468508
203	0xbd7c65ba	-0.06162045
204	0x3d6fb081	0.058517937
205	0x3d794f1f	0.06086647
206	0xbc9ff92d	-0.019527996
207	0xbc38c88e	-0.011278285
208	0x3cc3a1ea	0.023880918
209	0x3d9587eb	0.07301315
210	0x3cc85de6	0.024458837
211	0xbd8dc2e6	-0.069219396
212	0xbd93c95d	-0.072161414
213	0xbd372ffd	-0.0447235
214	0xbccc797c	-0.024960272
215	0x3d26ac16	0.040691458
216	0x3c6129c0	0.013742864
217	0x3ce00caf	0.027349798
218	0xbd041a70	-0.032251775
219	0x3da46063	0.08026197
220	0x3c868fe8	0.016426042
221	0xbd665cc9	-0.05624083
222	0xbc13bced	-0.009017211
223	0x3c7b8973	0.015352595
224	0x3d58a308	0.052889854
225	0xbcd74e5b	-0.02628248
226	0xbd23675e	-0.0398935
227	0x3d7e8382	0.062137134
228	0xbca7c6f6	-0.020480614
229	0x3d3a4eae	0.04548519
230	0x3d6f8fe8	0.05848685
231	0x3cb5ca42	0.02219117
232	0xbd65f757	-0.056144085
233	0x3d9e4859	0.07728643
234	0x3d814d24	0.063135415
235	0x3d56414b	0.052308362
236	0xbd4894be	-0.048969977
237	0xbcb3fc12	-0.021970782
238	0x3d469ca4	0.048489228
239	0xbcdfc7f7	-0.02731703
240	0x3c9cfadb	0.019162586
241	0x3d0ed7dd	0.034873832
242	0xbd5f92fe	-0.054583542
243	0x3cc530ce	0.024071123
244	0x3d5dc6be	0.054144613
245	0x3d32786c	0.043571874
246	0xbd8a6992	-0.06758417
247	0xbd8e2864	-0.06941298
248	0x3a70e8d9	0.00091899704
249	0x3d877b58	0.06615323
250	0x3cf9d566	0.030497264
251	0x3d1f88d5	0.038948853
252	0xbcdc89a6	-0.026921105
253	0x3d38d704	0.04512693
254	0xbc023e49	-0.00794942
255	0xbd2af114	-0.041733816

conv1.bias f4 [4]
0	0x3c97d241	0.018532874
1	0x3cb51f6c	0.02210971
2	0x3cee6555	0.029101053
3	0xbd851fe9	-0.06500227

conv2.weight f4 [8, 4, 5, 5, 5]
0	0xbd5a30ff	-0.053269383
1	0x3c11206d	0.008857829
2	0xbca905f3	-0.02063272
3	0xbcba258f	-0.022722987
4	0x3d52f444	0.05150248
5	0xbb2e998d	-0.0026641816
6	0xbd29ab64	-0.041423216
7	0x3cbef849	0.023311751
8	0x3bd4dea8	0.0064962693
9	0xbca51d80	-0.020155668
10	0xbd541442	-0.05177713
11	0xbd1efd9b	-0.038816076
12	0xbcf00ec5	-0.029303918
13	0xbd1fa99a	-0.038980104
14	0xbc568170	-0.013092384
15	0xbd3c39fd	-0.04595374
16	0x3c8e4e98	0.01737146
17	0x3c8bd85c	0.017070942
18	0x3c6a5718	0.014302991
19	0xbcccea2b	-0.025014004
20	0xbcd7ee2e	-0.02635869
21	0xbd2dea5f	-0.04245984
22	0xbc0dd782	-0.008657338
23	0x3c379ae9	0.011206367
24	0xbcdb2bda	-0.026754308
25	0x3c262448	0.010140486
26	0xbd24c714	-0.04022892
27	0xbd05a285	-0.032625694
28	0x3c0eee22	0.0087237675
29	0xbccb03bb	-0.024782052
30	0xbcd048f3	-0.02542541
31	0xbcbd1a4e	-0.023083832
32	0x3d31fd50	0.04345447
33	0x3c311723	0.010808739
34	0x3d518427	0.05115142
35	0x3accde8e	0.0015630291
36	0x3c3cd44a	0.011525223
37	0x3c5608ae	0.013063593
38	0xbcd32a58	-0.025777027
39	0x3d00e9fb	0.03147314
40	0x3d23a8ec	0.03995602
41	0x3c60982f	0.013708158
42	0xbc287421	-0.010281594
43	0xbadec3c1	-0.0016995595
44	0x3d22eef2	0.039778657
45	0x3bb03b09	0.0053781313
46	0x3d16c049	0.03680447
47	0xbd2cee91	-0.042219702
48	0x3d3556bb	0.044272166
49	0x3cd3b9d8	0.025845453
50	0x3c4fe40d	0.012688649
51	0xbc4e9e81	-0.012611032
52	0xbcdfa700	-0.027301311
53	0xba6a85ef	-0.0008946349
54	0x3a7ce08d	0.0009646498
55	0x3d0648ee	0.032784395
56	0xbd0c8793	-0.03430898
57	0x3cad4b3b	0.021154037
58	0x3d5d47b8	0.054023474
59	0xbc870df7	-0.016486151
60	0xbc2d6b6f	-0.010584696
61	0x3cb9d626	0.022685122
62	0x39eaa9ff	0.00044758615
63	0x3d097a1b	0.033563714
64	0xbca5dee8	-0.020247892
65	0x3b34684b	0.0027527984
66	0x3cb4072a	0.021976072
67	0xbcd9f905	-0.026608
68	0x3c87a4af	0.01655802
69	0x3d39c724	0.04535593
70	0xbcd8cefa	-0.026465882
71	0x3cfbc63c	0.030734174
72	0x3bdef39a	0.006803942
73	0x3cfd1848	0.030895367
74	0x3c45d3ec	0.012074452
75	0xbb148530	-0.0022662394
76	0x3c3541a0	0.0110630095
77	0x3c8efe38	0.017455205
78	0x3cf772db	0.030206135
79	0x3d186ccb	0.037213128
80	0xbd088bfe	-0.033336632
81	0xbcdb7b3b	-0.02679216
82	0xbc8abb69	-0.016935067
83	0x3d06fca5	0.032955784
84	0x3bd5a4ef	0.0065199058
85	0x3d0da9ae	0.034585647
86	0xbc65b75d	-0.014020768
87	0xbc51dc4a	-0.012808869
88	0xbc44d12d	-0.012012762
89	0x3cb81893	0.022472655
90	0xbd07d0d0	-0.033158123
91	0xbbd18d91	-0.00639505
92	0xbbae0fbb	-0.005311934
93	0x3d327cfc	0.043576226
94	0x3b015aea	0.0019738027
95	0x3d06b1a1	0.032884244
96	0xbcf3859f	-0.029726801
97	0x3d4e9bcf	0.05044156
98	0xbcb4ee9b	-0.022086432
99	0x3bb49034	0.0055103544
100	0xbc0d4ce2	-0.008624287
101	0x3d8666c6	0.06562571
102	0xbc4055b9	-0.011739188
103	0x3c5f343e	0.013623295
104	0xbcb6a234	-0.022294141
105	0x3c426149	0.011864015
106	0x3d84b199	0.064791866
107	0x3cf447f2	0.029819462
108	0x3d49893f	0.049203154
109	0x3d0b71ca	0.034044065
110	0x3d345a83	0.04403163
111	0x3d56b293	0.052416395
112	0xbc8c0148	-0.017090455
113	0x3ccfbb03	0.025357729
114	0x3d6437ab	0.05571715
115	0x3d683314	0.056689337
116	0xbba3b4a4	-0.0049958993
117	0xbbc2566b	-0.005930712
118	0x3d07bd0b	0.03313927
119	0x3c9d9ba4	0.019239254
120	0x3c24312b	0.010021488
121	0x3d5dee23	0.054182183
122	0x3c8bebab	0.017080149
123	0x3c0baf24	0.0085256435
124	0xbccc1a0d	-0.024914766
125	0x3be4c625	0.0069816285
126	0x3a9e1e65	0.0012063502
127	0x3c1f1139	0.009708696
128	0x3cf19a0f	0.029492406
129	0xbc2f26a7	-0.010690368
130	0xbd25163f	-0.04030442
131	0xbd39aa26	-0.04532828
132	0xbd18ecfb	-0.037335377
133	0x3cb89f92	0.022537027
134	0x3bea4f79	0.007150587
135	0xbbfab128	-0.007650513
136	0xbc0701a6	-0.008240139
137	0xbd1e7f65	-0.03869571
138	0x3cabd006	0.020973217
139	0xbccf34e0	-0.025293767
140	0xbcc31b1b	-0.023816636
141	0x39b493ed	0.0003444249
142	0xbbf643fc	-0.0075154286
143	0xbc933f52	-0.01797453
144	0xbd25ce1d	-0.040479768
145	0xbc88bcb3	-0.016691541
146	0xbd0835d0	-0.033254445
147	0x3d0782a8	0.033083588
148	0x3c85fe47	0.0163566
149	0xbd339436	-0.043842517
150	0xbcdcbf21	-0.026946606
151	0xbd3e376f	-0.046439584
152	0x3c96caa8	0.01840718
153	0x3c995097	0.018715186
154	0x3c9e5a3e	0.01933014
155	0x3cffcadb	0.031224659
156	0xbd3de13d	-0.046357382
157	0x3ca8529f	0.02054721
158	0xbca184b4	-0.019716598
159	0xbd0fe41e	-0.03512966
160	0xbd521e9c	-0.051298723
161	0xbd52728a	-0.051378764
162	0x3c0f0e75	0.008731474
163	0x3cfc0388	0.030763403
164	0xbd228044	-0.039673105
165	0xbc26f163	-0.010189387
166	0xbc8fbd1e	-0.017546233
167	0xbcd73b1d	-0.026273305
168	0x3b42e3e4	0.0029737884
169	0x3a4cc174	0.0007810809
170	0x3c0a21c3	0.008430901
171	0x3d21cf75	0.039504487
172	0x3d2a4632	0.04157085
173	0x3d0f1958	0.03493628
174	0xbb0be9b6	-0.002134902
175	0xbcb79254	-0.022408642
176	0xbbba9828	-0.005694408
177	0xbd3daa6f	-0.046305116
178	0xbc97d9ca	-0.018536467
179	0xbcd78552	-0.02630869
180	0xbd13aa54	-0.03605111
181	0x3ad49038	0.0016217297
182	0x3ccc5dda	0.024947096
183	0xbc244b97	-0.010027788
184	0x3d3e7752	0.04650051
185	0x3d126e50	0.035749733
186	0xbd01031a	-0.0314971
187	0x39dbdabd	0.00041933908
188	0x3cae3137	0.021263702
189	0xbbc3b6c8	-0.005972717
190	0x3d1fb352	0.038989373
191	0x3bde4c1d	0.0067839758
192	0x3d38283b	0.04496024
193	0xbc185488	-0.009297498
194	0xbd1ac445	-0.037784833
195	0xbd276fdb	-0.040878158
196	0x3c8f6bad	0.017507399
197	0x3d2c0f08	0.042006522
198	0xbd1feaf9	-0.039042447
199	0x3c33be9c	0.010970738
200	0x3c02ccc4	0.00798339
201	0xbce8cb3a	-0.028417218
202	0x3c4ad6b7	0.012380294
203	0x3d49de46	0.049284242
204	0xbd05afd2	-0.03263838
205	0xbcb23171	-0.021752091
206	0x3cfc1e7c	0.030776255
207	0x3bd8ba47	0.006614003
208	0xbcabecd3	-0.02098695
209	0x3d370c7a	0.044689633
210	0x3c8170e7	0.015800906
211	0x3cf81481	0.030283215
212	0xbc2bc71b	-0.010484482
213	0xbd137b24	-0.036006108
214	0x3d1549a2	0.036447175
215	0x3cd62190	0.02613905
216	0x3d215acd	0.039393235
217	0xbc7c0ce6	-0.015383935
218	0x3ccb5eec	0.024825536
219	0x3d28c073	0.04119916
220	0xbc9e7c22	-0.0193463
221	0x3c07b97a	0.008283967
222	0x3d2e5ebc	0.042570814
223	0x3b10d3b8	0.002209885
224	0x3c193fe2	0.00935361
225	0x3d126236	0.035738192
226	0x3d2649ab	0.0405976
227	0xbc482d16	-0.012217781
228	0x3d37d6b5	0.044882495
229	0x3c346855	0.011011203
230	0xbb714897	-0.0036816949
231	0xbbf2fac0	-0.0074151456
232	0x3ced1f1a	0.028945494
233	0x3b8765b3	0.0041319965
234	0x3d1cea29	0.03830925
235	0x3c46b2bd	0.012127575
236	0xbc22d90e	-0.009939445
237	0xbb4ce9f2	-0.0031267372
238	0x3d2d7e8b	0.04235701
239	0xbbcdce1d	-0.006280674
240	0x3cc6653b	0.024218192
241	0x3d053b65	0.032527346
242	0x3c55a4dd	0.013039795
243	0x3d4385c6	0.047735
244	0x3c84a3ea	0.016191442
245	0x3cfb4b68	0.030675605
246	0xbc8ceff4	-0.017204262
247	0xbc82b27e	-0.015954252
248	0x3caa3482	0.02077699
249	0xbcffc0de	-0.031219896
250	0x3c4ed6c0	0.012624443
251	0xba18104f	-0.000580077
252	0x3c3da84a	0.011575768
253	0xbd15f082	-0.03660632
254	0x3cb48832	0.0220376
255	0xbd151d57	-0.036404934

conv2.bias f4 [8]
0	0xbd25baf7	-0.040461507
1	0xbd156d38	-0.036481112
2	0xbc8a6d32	-0.016897772
3	0xbc6e5338	-0.014546208
4	0xbd1dfc6f	-0.038570818
5	0xbd122bef	-0.03568643
6	0x3c7d36ad	0.01545493
7	0xbc265e23	-0.01015428

conv3.weight f4 [16, 8, 3, 3, 3]
0	0xbb73b700	-0.0037187934
1	0xbc8ef78b	-0.017452022
2	0xbc647bca	-0.013945529
3	0xbd3cdb7c	-0.046107754
4	0xbbdcd746	-0.00673953
5	0xbbfc9c6d	-0.007709077
6	0x3c9e1b97	0.019300265
7	0x3caaace9	0.020834403
8	0x3d7762d5	0.060396988
9	0x3ca69aeb	0.020337543
10	0x3d75b3b6	0.05998584
11	0xbd79a789	-0.06095079
12	0xbd53f194	-0.05174406
13	0xbce944b9	-0.028475152
14	0xbcf30595	-0.029665748
15	0x3cd1720c	0.025567077
16	0x3d275ca8	0.04085985
17	0xbd486105	-0.04892065
18	0xbd5173e2	-0.051135905
19	0x3c916f7b	0.017753353
20	0xbd87a14f	-0.06622564
21	0xbcc79126	-0.024361204
22	0xbd8f65f5	-0.07001869
23	0xbd6cf353	-0.05784924
24	0x3c2bfd50	0.010497406
25	0x3cfc12aa	0.030770618
26	0xbbe1024f	-0.0068667303
27	0x3cb740f3	0.022369837
28	0x3d2b8f63	0.04188479
29	0xbd51c2fc	-0.051211342
30	0xbd039faf	-0.032134708
31	0x3c94c801	0.018161776
32	0xbd659487	-0.05604985
33	0x3cfbb37c	0.030725233
34	0x3c81df12	0.015853439
35	0x3ce2df6b	0.027694425
36	0x3d1b4cc2	0.037915
37	0xbd80224a	-0.0625654
38	0xbd627dac	-0.05529563
39	0x3d84ccaa	0.06484349
40	0xbd62a4d1	-0.055332962
41	0x3cf9b535	0.030481914
42	0xbba7b098	-0.005117487
43	0xbcd2a984	-0.025715597
44	0x3d042a4f	0.03226691
45	0xbc27829b	-0.01022401
46	0x3d83fda2	0.06444861
47	0xbca2a863	-0.019855684
48	0xbcfcca16	-0.03085808
49	0xbc658077	-0.014007679
50	0x3d4f793f	0.05065274
51	0xbc017a7a	-0.007902736
52	0xbd7318f0	-0.059349954
53	0x3cbd6cef	0.023123233
54	0xbcfb670a	-0.030688781
55	0xbd8ebad4	-0.069692284
56	0xbd555841	-0.05208612
57	0xbc9affb1	-0.018920751
58	0xbceda165	-0.029007623
59	0x3d4d9737	0.050193038
60	0x3d063f01	0.03277493
61	0xbcd733b0	-0.026269764
62	0x3c0780cb	0.008270453
63	0x3c875893	0.016521728
64	0xbd4f769a	-0.050650217
65	0xbd8565ed	-0.065135814
66	0xbd8ee7f0	-0.06977832
67	0x3c28b10a	0.010296116
68	0x3ac72b41	0.0015195386
69	0xbc9c3824	-0.019069739
70	0xbcaa3762	-0.020778362
71	0x3b9cf3c2	0.0047898004
72	0xbd8b9188	-0.06814867
73	0xbbba61de	-0.005687936
74	0xbcd0b5d3	-0.025477326
75	0xbd35b95d	-0.04436623
76	0x3c7b5794	0.0153407045
77	0xbd3fb3e9	-0.046802435
78	0x3cbe421b	0.02322488
79	0x3d421746	0.047385477
80	0x3ce82299	0.02833681
81	0xbd24d706	-0.040244125
82	0x3d7491d2	0.059709378
83	0xbd0fc2aa	-0.035097755
84	0xbd6bd240	-0.057573557
85	0x3ca4bad1	0.020108612
86	0xbd48b1b6	-0.048997603
87	0xbc62492c	-0.013811391
88	0x3d65d3da	0.05611024
89	0xbd2554b0	-0.040363967
90	0x3cf3361d	0.02968889
91	0xbba7f0af	-0.0051251273
92	0xbc858098	-0.01629667
93	0xbcce4ec1	-0.025184037
94	0x3ce6c152	0.028168354
95	0x3d0e63d5	0.034763176
96	0x3cbba6bb	0.022906652
97	0xbcc2301c	-0.023704581
98	0x3d04dcba	0.032437064
99	0x3a216afd	0.0006157605
100	0xbd9131a1	-0.07089544
101	0xbcf49341	-0.029855372
102	0xbd2475f3	-0.040151548
103	0xbd2b58d8	-0.041832775
104	0x3cc82e40	0.024436116
105	0x3d116bf3	0.03550334
106	0x3cefb63b	0.029261699
107	0x3d4f406c	0.050598547
108	0xbc4ed88a	-0.012624869
109	0x3d098d13	0.033581804
110	0xbc84a4af	-0.016191809
111	0xbd921989	-0.07133777
112	0x3d5f069c	0.054449663
113	0xbda30a9a	-0.079610065
114	0x3d39b87a	0.045341946
115	0xbd569ba3	-0.05239452
116	0x3d1fd75a	0.039023735
117	0x3d07a4c2	0.03311611
118	0xbbabe754	-0.0052460823
119	0xbd4ee438	-0.050510615
120	0xbd1eaf28	-0.03874126
121	0xbda3f007	-0.08004766
122	0xbd9f9134	-0.07791367
123	0xbb82123f	-0.0039694603
124	0xbd901018	-0.0703432
125	0xbd7370f8	-0.059433907
126	0x3d2c5138	0.042069644
127	0x3d13136c	0.035907194
128	0x3d5247a7	0.051337864
129	0x3b353e88	0.002765568
130	0x3d1a6262	0.03769148
131	0xbd9ef411	-0.07761396
132	0x3d138e80	0.03602457
133	0x3b4f7845	0.003165738
134	0x3cc4daeb	0.02403017
135	0x3c8b0ed9	0.016974853
136	0xbd40af7b	-0.04704235
137	0x3d6fc18b	0.058534186
138	0xbd15e1d1	-0.03659231
139	0x3d22eb8b	0.039775413
140	0xbd933335	-0.07187501
141	0xbd81c866	-0.06337051
142	0x3bcd81cf	0.006271578
143	0xbd66b769	-0.056327257
144	0x3d73e712	0.059546538
145	0xbd8ece22	-0.069729105
146	0xbbd3b082	-0.0064602504
147	0xbd6f8e07	-0.058485057
148	0x3ce8ff3d	0.02844202
149	0x3d3e393b	0.046441298
150	0xbd8c0c96	-0.06838338
151	0x3d7f91db	0.062394958
152	0x3d8a35df	0.06748556
153	0x3b9de3dd	0.004818423
154	0xbd309913	-0.043114733
155	0xbad3d03a	-0.0016160079
156	0xbd846bed	-0.06465898
157	0xbd386e90	-0.045027316
158	0x3ba3516b	0.004984071
159	0xbd8aba02	-0.067737594
160	0x3d810680	0.06300068
161	0xbc23429f	-0.009964614
162	0xbcde8444	-0.027162679
163	0x3b70dd8c	0.0036753146
164	0x3d56c309	0.052432094
165	0x3cac16af	0.02100691
166	0xbcee75ef	-0.02910897
167	0xbca9b7b4	-0.02071748
168	0xbd05832a	-0.03259579
169	0x3c65ef67	0.014034129
170	0xbd514880	-0.051094532
171	0xbd97f43e	-0.074196324
172	0xbd1d6bea	-0.038432993
173	0xbd55d51e	-0.052205198
174	0xbd4d59a8	-0.05013433
175	0xbd3e7119	-0.046494577
176	0xbd880a87	-0.06642633
177	0xbc91c427	-0.017793728
178	0xbc45a6bb	-0.012063677
179	0x3ca9c01a	0.020721484
180	0x3c5af8fb	0.013365026
181	0x3d70ea73	0.05881734
182	0xbd85ff0e	-0.065427884
183	0x3d277c81	0.04089022
184	0xbd29abca	-0.041423596
185	0xbd469a14	-0.048486784
186	0xbd56a503	-0.05240346
187	0x3bf75e22	0.0075490633
188	0xbc9e1216	-0.019295733
189	0xbd927928	-0.07152015
190	0xbc9ef5c4	-0.0194043
191	0x3c807304	0.015679844
192	0xbca5c98b	-0.020237705
193	0x3d669ed1	0.056303803
194	0x3d25c2de	0.040469043
195	0xbc190b30	-0.009341046
196	0xbd22efe7	-0.03977957
197	0x3d643e83	0.05572368
198	0xbc3bedd1	-0.011470274
199	0xbd281d75	-0.041043717
200	0x3d08b019	0.033371065
201	0xbd5881a6	-0.052858017
202	0xbbfad406	-0.0076546697
203	0x3d1d43dd	0.038394798
204	0xbd7865c2	-0.06064392
205	0xbbac278a	-0.005253737
206	0x3c97b77e	0.018520113
207	0x3d07c478	0.03314635
208	0xbc95fcc7	-0.01830901
209	0x3d34ad7a	0.044110753
210	0xbc4288ec	-0.011873465
211	0xbc7da6dc	-0.015481677
212	0x3cadff69	0.021239953
213	0xbd14331a	-0.036181547
214	0x3d7af2d0	0.06126672
215	0xbd83b117	-0.064302616
216	0xbce66175	-0.028122643
217	0xbd720241	-0.05908418
218	0xbd8218c2	-0.063523784
219	0x3cc4ef15	0.024039784
220	0x3cdf5ce2	0.02726597
221	0x3d773b7f	0.060359474
222	0x3ceca956	0.02888934
223	0xbc1d4e25	-0.009601151
224	0xbd13ee48	-0.036115915
225	0x3cafd2d4	0.021462835
226	0x3d488965	0.048959155
227	0x3c39d670	0.01134263
228	0xbd75525c	-0.059892997
229	0xbd89f86c	-0.06736836
230	0x3bcf3ce4	0.0063243974
231	0xbbbd7907	-0.00578225
232	0xbd1661ca	-0.036714353
233	0xbb5c9e1a	-0.0033663572
234	0xbd1654ed	-0.036702085
235	0x3cc6a317	0.02424769
236	0x3c968f15	0.018378774
237	0xbcfb1534	-0.030649759
238	0x3d46ec4d	0.048565198
239	0x3d58b9ec	0.052911684
240	0xbc191d5d	-0.00934538
241	0xbc8e9a9e	-0.017407712
242	0x3bce61bf	0.0062982733
243	0xbcf63765	-0.030055711
244	0x3ce60e90	0.028083116
245	0xbd57c720	-0.052680135
246	0xbc15c90b	-0.009142171
247	0xbd2609d2	-0.04053671
248	0xbd0b116f	-0.033952173
249	0xbd13828a	-0.036013164
250	0xbd6aa90d	-0.057290126
251	0x3d96f1dd	0.073703505
252	0x3cfe32c7	0.031030072
253	0x3ce79a1c	0.028271727
254	0xbd4b0bab	-0.049571674
255	0xbd785490	-0.06062752

conv3.bias f4 [16]
0	0xbd665e44	-0.056242242
1	0x3ce67208	0.028130546
2	0xbd407b87	-0.046992805
3	0xbd824e3a	-0.06362577
4	0xbd8592f3	-0.06522169
5	0x39ff1de8	0.00048659672
6	0xbd99af6f	-0.075041644
7	0xbd41049d	-0.04712354
8	0x3d068e93	0.032850813
9	0x3d4b8fc8	0.049697667
10	0xbd0e60d8	-0.034760326
11	0xbc7112bc	-0.014713939
12	0x3be3ec42	0.0069556544
13	0xbd8eafc8	-0.06967121
14	0x3ce73ea7	0.028228117
15	0x3d064e3a	0.032789446

conv4.weight f4 [32, 16, 3, 3, 3]
0	0xbca05c28	-0.019575194
1	0xbc0ee7da	-0.00872227
2	0xbc1f9424	-0.009739909
3	0x3c9ae68e	0.018908765
4	0x39bd3606	0.0003608914
5	0xbd043efc	-0.03228663
6	0x3c295daf	0.010337277
7	0x3cf473d4	0.029840387
8	0x3cd9313b	0.026512733
9	0xbba2a2c1	-0.0049632494
10	0xbbdc6c28	-0.0067267604
11	0x3b731242	0.003708974
12	0xbcaed31a	-0.021340895
13	0x3cd57d01	0.026060583
14	0xbd2e6e9d	-0.042585958
15	0xbd1163ff	-0.035495754
16	0x3d00a0ed	0.03140347
17	0xbcd5a64b	-0.026080271
18	0x3c88272e	0.016620245
19	0x3d007699	0.031363104
20	0x3c9ceb74	0.019155242
21	0x3bcf61ac	0.006328782
22	0xbd07ecb3	-0.03318472
23	0xbd0edf84	-0.03488113
24	0x3ce4339e	0.027856644
25	0x3c8b41c5	0.016999135
26	0x3d12a706	0.035803817
27	0xbc9198fa	-0.01777314
28	0xbc0185e1	-0.007905454
29	0x3d11e714	0.035620764
30	0x3ce2b2a9	0.027673082
31	0x3d5da1f0	0.054109514
32	0x3c79452d	0.015214247
33	0xbd2457fe	-0.04012298
34	0x3d428c52	0.0474971
35	0x3c4763cb	0.012169789
36	0xbd12d54e	-0.035847954
37	0xbc63a5e5	-0.013894533
38	0xbcc62fbb	-0.024192682
39	0xbbfe295b	-0.007756395
40	0x3d71755b	0.05894981
41	0x3d5b13ca	0.05348567
42	0x3d75f152	0.060044594
43	0x3d85073c	0.064955205
44	0x3cbb2ac0	0.022847533
45	0x3d33acd2	0.043865986
46	0x3d116e8e	0.035505824
47	0x3ba98f34	0.005174542
48	0x3bf5ed23	0.0075050755
49	0x3d5bf509	0.05370048
50	0x3d721118	0.059098333
51	0x3c33df0e	0.010978473
52	0x3d399060	0.045303702
53	0x3d067523	0.032826554
54	0x3b6491b1	0.0034876878
55	0x3d4005d7	0.04688057
56	0xbc4a17c1	-0.012334765
57	0xbd30c7a3	-0.04315914
58	0xbc6d1e01	-0.0144724855
59	0x3c9bc1eb	0.019013366
60	0x3ce2b6cc	0.027675055
61	0x3d7628b5	0.060097415
62	0x3c9a0a8c	0.018803857
63	0x3c67378d	0.014112365
64	0x3c4e981c	0.012609508
65	0xbc7cfb93	-0.015440839
66	0xbcdb1587	-0.026743663
67	0xbbbd52d4	-0.005777696
68	0x3c39e96b	0.011347155
69	0x3ccdcec0	0.025123
70	0xbc6d7f4e	-0.014495684
71	0x3ca30b95	0.019902984
72	0x3d05e716	0.032691084
73	0xbb82329c	-0.0039733183
74	0xbb284846	-0.0025677844
75	0xbd0fba63	-0.03508986
76	0xbbfde681	-0.0077484255
77	0xbc80115c	-0.015633278
78	0xbd00984f	-0.031395253
79	0x3a86c166	0.0010281026
80	0xbcd21d40	-0.025648713
81	0x3ca3eb82	0.02000976
82	0x3cd69267	0.026192857
83	0x3c104969	0.008806565
84	0xbcb64223	-0.022248333
85	0xbcbaa607	-0.022784246
86	0x3cf6933a	0.0300995
87	0xbc8a9dca	-0.016920943
88	0x3d20e4e3	0.039280783
89	0xbcba267a	-0.022723425
90	0xbbf52ec7	-0.007482383
91	0x3d50ad9a	0.05094681
92	0x3d872b53	0.0660006
93	0x3c82738e	0.015924241
94	0xbcd9b222	-0.026574198
95	0x3b9e7125	0.004835265
96	0xbd2820bb	-0.04104684
97	0xbb8452eb	-0.004038205
98	0x3c6eb1e2	0.014568778
99	0x3bb864bf	0.0056272442
100	0xbcfe095a	-0.031010319
101	0xbc7ac490	-0.015305653
102	0xbc96cd0a	-0.018408317
103	0xbd0b3f98	-0.033996195
104	0x3d10c781	0.03534651
105	0xbc577396	-0.013150116
106	0xbd2d2088	-0.042267352
107	0x3d704b0d	0.058665324
108	0x3cf8f575	0.03039048
109	0x3cc77804	0.02434922
110	0x3c08c79c	0.008348372
111	0x3cee5a05	0.029095659
112	0xbd0c6118	-0.034272283
113	0x3cd0cd77	0.025488598
114	0xbd1d0ab5	-0.03834029
115	0xbd41674d	-0.047217656
116	0xbbb77066	-0.0055981157
117	0xbd01f9c6	-0.031732343
118	0xbce87e12	-0.028380428
119	0xbd5ab0ce	-0.05339127
120	0xbcb3750d	-0.0219064
121	0x3bc7ecb7	0.0061012167
122	0x3d048512	0.03235347
123	0x3d1d96da	0.03847394
124	0xbb798d06	-0.0038078441
125	0x3d0f1066	0.03492775
126	0x3d35a48d	0.04434638
127	0x3ca38dae	0.01996502
128	0xbd129878	-0.035789937
129	0x3d3f7768	0.046744734
130	0xbcc43c35	-0.02395449
131	0xbd3cdd99	-0.04610977
132	0x3cea2595	0.028582374
133	0xbc0f7c77	-0.008757702
134	0xbc70872a	-0.014680663
135	0xbd52a378	-0.051425427
136	0x3cc90ae9	0.024541335
137	0x3c0893b1	0.008335994
138	0xbd1a80b8	-0.037720412
139	0x3c9042e9	0.01761003
140	0x3d2eb3a2	0.04265178
141	0x3cbc17e5	0.022960613
142	0xbce2af80	-0.027671576
143	0xbd026ebe	-0.031843893
144	0xbd2668ad	-0.04062717
145	0x3c806c35	0.015676597
146	0xbd0cf6f6	-0.034415208
147	0xbb17f7ad	-0.0023188398
148	0xbc5a2501	-0.0133144865
149	0xbaed2274	-0.0018091933
150	0xbcd76450	-0.02629295
151	0x3cfacc89	0.030615108
152	0xbcf9c687	-0.030490173
153	0xbd11943e	-0.035541765
154	0xbd2640f5	-0.04058929
155	0x3d513e60	0.051084876
156	0xbd22c9c5	-0.039743204
157	0x3bbe09ad	0.0057994933
158	0xbc1c2197	-0.009529493
159	0xbb4bd70b	-0.0031103517
160	0xbd0d6849	-0.034523282
161	0xbd09ced6	-0.03364452
162	0x3b0d0881	0.0021519961
163	0x3b221c84	0.0024736235
164	0x3d380edb	0.044936042
165	0x3d42b9f3	0.047540616
166	0x3be3599f	0.006938174
167	0xbcd00c27	-0.02539642
168	0xbd0c4066	-0.034241103
169	0xbc907f03	-0.017638689
170	0x3d2e85df	0.04260814
171	0xbba48a46	-0.0050213663
172	0x3d0adff0	0.03390497
173	0xbc2f35dd	-0.010693994
174	0x3cb50144	0.02209533
175	0x3c3d18ae	0.011541529
176	0x3ce33aa0	0.027737916
177	0x3c01456e	0.0078900885
178	0x3bc06fed	0.0058727176
179	0xba7670a1	-0.0009400938
180	0x3d1f05e0	0.038823962
181	0xbc15989f	-0.009130626
182	0xbd0394d5	-0.03212436
183	0x3d442409	0.04788593
184	0x3ca3c2a6	0.019990277
185	0x3d267466	0.04063835
186	0xbd251fb1	-0.040313426
187	0x3c97deb4	0.01853881
188	0xbc88e608	-0.01671125
189	0x3d5774d4	0.05260165
190	0x3d57bf8c	0.052672908
191	0xbd178558	-0.0369924
192	0xbcdfc5da	-0.027316023
193	0x3ce28419	0.02765088
194	0xbc3f01b2	-0.011658119
195	0x3c965ffb	0.018356314
196	0x3d0f1d07	0.034939792
197	0xbbb311dd	-0.005464776
198	0x3d0bf0ef	0.03416532
199	0x3cf4511d	0.029823834
200	0xbcd4967b	-0.02595066
201	0xbb7b4c91	-0.0038345198
202	0x3b9ecc86	0.0048461584
203	0x3ce8a9c6	0.028401267
204	0x3c873c10	0.016508132
205	0x3d432632	0.047643848
206	0xbc5a1039	-0.013309532
207	0xbb8230e1	-0.003973112
208	0x3d2679fb	0.040643673
209	0x3b6c80a9	0.003608743
210	0x3cc6d84f	0.024273066
211	0x3be173bf	0.006880253
212	0x3c485d1c	0.01222923
213	0x3cf9f882	0.030514006
214	0xbcd217c2	-0.025646094
215	0xbca5e493	-0.020250594
216	0xbce881c1	-0.028382184
217	0xbcf91a2e	-0.030407991
218	0xbc88793f	-0.016659377
219	0xbc548fe2	-0.012973757
220	0x3a49354d	0.0007675484
221	0x3d1291c0	0.03578353
222	0x3d153623	0.036428582
223	0x3c41a1a1	0.0118183205
224	0x3d19f9cf	0.03759175
225	0x3cd4c321	0.025971951
226	0xbc5c6ea8	-0.013454117
227	0xbc0a4b51	-0.008440808
228	0x3c96906e	0.018379416
229	0xbd2d4426	-0.04230132
230	0x3d4f07b0	0.05054444
231	0x3d12d901	0.035851482
232	0xbca396e9	-0.01996942
233	0x3cd0898a	0.025456209
234	0xbd16d294	-0.036821917
235	0x3cd2e553	0.025744116
236	0x3d056e69	0.032576
237	0x3ca670c9	0.020317452
238	0xba99a964	-0.0011723456
239	0x3cdace26	0.026709627
240	0x3d1805ca	0.037114896
241	0x3bb30c05	0.0054640793
242	0x3ac43ba0	0.0014971383
243	0xbced185f	-0.028942285
244	0x3cb1d6ff	0.021708963
245	0x3c14a6c5	0.009072964
246	0xbc53db3d	-0.012930688
247	0xbb9996a5	-0.0046871477
248	0x3c19b177	0.00938069
249	0xbc4f5901	-0.0126554975
250	0x3c84ff7a	0.016235102
251	0x3d0c941a	0.03432093
252	0x3ac42a44	0.001496621
253	0xbc2a635b	-0.010399665
254	0xbd0541ec	-0.03253357
255	0x3d5d905e	0.054092757

conv4.bias f4 [32]
0	0x3d18df69	0.037322436
1	0xbc8e1ee5	-0.017348716
2	0x3c3d7946	0.011564558
3	0x3d71070a	0.058844604
4	0x3d6bc420	0.057560086
5	0xbbf782f3	-0.007553452
6	0x3d22328e	0.039598994
7	0x3cea4914	0.0285993
8	0x3c42165e	0.011846153
9	0xbc861100	-0.016365528
10	0xbd31f519	-0.043446634
11	0xbd879d01	-0.06621743
12	0x3ce1f918	0.027584597
13	0x3c858e59	0.016303228
14	0x3d016e0c	0.03159909
15	0xbc299090	-0.010349408
16	0xbcfae762	-0.03062791
17	0x3d28b5ef	0.04118913
18	0xbc9de634	-0.019274808
19	0xbd28d03a	-0.041214205
20	0x3d410e70	0.04713291
21	0xbd81e384	-0.06342223
22	0xbd51fd0e	-0.051266722
23	0xbc038df4	-0.00802945
24	0xbd6aac98	-0.057293504
25	0x3d341a2a	0.043970264
26	0x3d3f26de	0.046667926
27	0x3d434a74	0.047678426
28	0x3c11f1df	0.008907764
29	0x3ccdd918	0.025127932
30	0xbb2ec6ab	-0.0026668708
31	0x3c83600a	0.016037006

conv5.weight f4 [64, 32, 2, 2, 2]
0	0xbd29cdb9	-0.041455958
1	0x3ce085e2	0.02740759
2	0xbd422444	-0.047397867
3	0xbd358cd5	-0.04432376
4	0x3d94c46e	0.072640285
5	0xbce97068	-0.028495982
6	0xbc91698a	-0.01775052
7	0xbba4c0a9	-0.0050278497
8	0x3d7f0222	0.062257893
9	0x3cb71524	0.022348948
10	0xbc893318	-0.016747996
11	0xbcc8fe4c	-0.02453532
12	0xbd6ff1a7	-0.058580067
13	0xbd4c0e44	-0.049818292
14	0xbcf7d910	-0.03025487
15	0x3c815078	0.01578544
16	0xbcefb94f	-0.029263167
17	0xbc6a0ed0	-0.014285758
18	0x3d36dc71	0.044643823
19	0x3d220188	0.03955224
20	0x3d8ff978	0.07030004
21	0xbd5bc807	-0.053657558
22	0xbcb507e2	-0.022098485
23	0xbbac4c20	-0.0052580982
24	0x3d37d8e4	0.044884577
25	0xbc010d1b	-0.00787666
26	0xbd4a1b8e	-0.049342684
27	0x3d308a1a	0.043100454
28	0x3d77e9bb	0.060525637
29	0xbbf91af4	-0.00760209
30	0x3c923836	0.01784907
31	0x3d31b75c	0.043387756
32	0x3c3275a5	0.010892306
33	0x3ca28c53	0.019842302
34	0x3d6eed88	0.058331996
35	0xbcb23e7e	-0.021758314
36	0x3c6f2de6	0.014598345
37	0xbbabdb41	-0.005244643
38	0x3ce15d0b	0.027510187
39	0x3be9f1a7	0.007139403
40	0x3d9ccbd3	0.07656064
41	0x3d40a42b	0.047031563
42	0xbca3b209	-0.019982355
43	0x3d255628	0.040365368
44	0x3d6f19f9	0.05837438
45	0x3d18bea2	0.037291177
46	0x3d250b5a	0.04029403
47	0x3def9845	0.11698965
48	0xbd3487de	-0.044074886
49	0xbd492a67	-0.049112704
50	0xbaa54744	-0.001260974
51	0xbd451067	-0.048111346
52	0x3c822d01	0.0158906
53	0x3c8e1ac7	0.017346753
54	0x3d34e00e	0.044158988
55	0xbcabcbc8	-0.020971194
56	0x3d789f6a	0.060698904
57	0x3d410f46	0.047133707
58	0x3d492f12	0.049117155
59	0x3d0e5603	0.034749996
60	0x3d51ae86	0.05119183
61	0xbc1f3e68	-0.009719469
62	0x3d923ad0	0.07140124
63	0xbc3190c5	-0.010837738
64	0xbd8f2e11	-0.06991208
65	0xbcbe0f5c	-0.023200683
66	0x3ce425ec	0.027850114
67	0xbd6f080e	-0.05835729
68	0xbd0feff7	-0.035140958
69	0xbd0c9cc1	-0.03432918
70	0xbcaffa58	-0.021481678
71	0x3d6b0d30	0.057385623
72	0xbd363518	-0.044484228
73	0xbd316e87	-0.043318298
74	0x3c9a7292	0.01885346
75	0xbcf59178	-0.029976591
76	0xbd12205e	-0.0356754
77	0x3d549a12	0.051904745
78	0xbd00f659	-0.031484935
79	0x3d15fec8	0.03661993
80	0x3d0d9ccd	0.034573365
81	0xbc4bbbf9	-0.012434953
82	0xbd2a2217	-0.041536417
83	0xbd0c5398	-0.03425941
84	0x3cfd79c9	0.03094186
85	0xbb3243e8	-0.002720112
86	0xbcbdacb9	-0.02315365
87	0x3c0266b9	0.007959061
88	0x3dc28611	0.094982274
89	0x3c051148	0.008121796
90	0x3accb593	0.0015618078
91	0x3d401aef	0.046900686
92	0x3d64d314	0.055865362
93	0x3c43518e	0.0119213
94	0x3d4a4577	0.049382653
95	0xbc91a624	-0.017779417
96	0x3cded3fa	0.027200688
97	0xbda11937	-0.078661375
98	0x3d5dcbcd	0.054149438
99	0x3d111f30	0.035430133
100	0x3db8f4ae	0.09031044
101	0xbb0e7cfa	-0.0021741972
102	0x3e239820	0.15976
103	0x3dea7ec8	0.11449963
104	0xbd4dcffb	-0.050247174
105	0xbd284177	-0.041078057
106	0xbc68c17b	-0.014206286
107	0xbcffd5fc	-0.031229965
108	0xbcc743d3	-0.024324333
109	0xbc0f1df9	-0.008735173
110	0xbd752c6a	-0.05985681
111	0xbd67fe2f	-0.056638893
112	0xbd605a5e	-0.05477368
113	0xbbf23521	-0.0073915874
114	0xbdad3a64	-0.08458403
115	0xbdb71a3f	-0.08940553
116	0x3be0732c	0.006849667
117	0xbd97faca	-0.07420881
118	0x3d4a1870	0.04933971
119	0x3cb25944	0.02177108
120	0x3d805631	0.0626644
121	0x3d295cba	0.041348197
122	0x3d1f4ba5	0.0388905
123	0x3c95957b	0.018259754
124	0x3d89d43b	0.06729933
125	0xbd1068ec	-0.03525631
126	0x3d38a97a	0.0450835
127	0xbcb93984	-0.022610433
128	0xbd7f4bf8	-0.06232831
129	0xbc92b65e	-0.017909225
130	0xba8bd6a1	-0.0010668823
131	0x3cd610f5	0.026131133
132	0xbdcac9c0	-0.09901762
133	0xbd95911d	-0.07303069
134	0xbd4a661c	-0.049413785
135	0xbd9fa40c	-0.07794961
136	0xbd1b2dfa	-0.037885644
137	0xbcbb1c03	-0.022840505
138	0xbd869f17	-0.06573313
139	0x3c488efd	0.012241122
140	0x3b8216f7	0.003970023
141	0xbd814a59	-0.06313009
142	0x3c7467c7	0.014917321
143	0x3c5a14ce	0.013310624
144	0x3d1e1a84	0.038599506
145	0x38871790	6.4416905e-05
146	0xbd26f051	-0.040756527
147	0x3d9044f9	0.070444055
148	0x3d66a663	0.056311022
149	0x3d14a175	0.03628679
150	0x3d56f108	0.05247596
151	0xb9f28596	-0.00046257366
152	0x3bc712a2	0.0060752193
153	0xbb6aa091	-0.0035801271
154	0x3d03406e	0.032043867
155	0x3d0e92fb	0.03480814
156	0xbd53c48e	-0.05170112
157	0x3b057231	0.0020362253
158	0x3cfac662	0.030612174
159	0xbd00a5aa	-0.03140799
160	0xbd6658ea	-0.05623714
161	0xbd849eaa	-0.06475575
162	0xbd2cd32f	-0.042193588
163	0xbc4b4078	-0.012405507
164	0xbcb70277	-0.022340043
165	0x3c6d7deb	0.014495353
166	0x3baea435	0.0053296336
167	0xbc858924	-0.016300745
168	0x3a6490f2	0.00087191083
169	0x3ab14a59	0.0013526186
170	0xbdd50549	-0.10401399
171	0xbdbb2fe5	-0.091399945
172	0xbd917683	-0.071026824
173	0xbd2228c6	-0.039589666
174	0xbd198d32	-0.03748817
175	0xbd945581	-0.07242871
176	0xbbd0ad90	-0.0063683465
177	0x3cfb4bf8	0.030675873
178	0x3d02909e	0.0318762
179	0x3d39f94c	0.045403764
180	0xbd2e33ce	-0.042529874
181	0xbbe2db43	-0.0069231107
182	0xbabdb6a5	-0.0014473988
183	0x3d673614	0.056448057
184	0xb9ccdc35	-0.0003907398
185	0xbd322d38	-0.043500155
186	0xbd437096	-0.047714792
187	0xbd0bb098	-0.03410396
188	0x3d8eb5f9	0.06968302
189	0xbce178c1	-0.0275234
190	0xbce875f0	-0.02837655
191	0x3d805395	0.06265942
192	0x3d1dd669	0.038534556
193	0x3cb0cc15	0.021581689
194	0x3c701c56	0.014655193
195	0x3d80df90	0.06292641
196	0x38916278	6.93248e-05
197	0x3d7e6580	0.062108517
198	0x3ba050f4	0.004892463
199	0xbce5b1d5	-0.028038898
200	0x3c76329d	0.015026716
201	0xba8a15ce	-0.0010535063
202	0x3d597723	0.053092133
203	0x3c2d03d1	0.010559992
204	0xbd60881c	-0.054817304
205	0x3cd08d28	0.025457934
206	0xbc8caf10	-0.01717332
207	0x3d308e69	0.043104563
208	0xb9cee8fe	-0.00039464975
209	0xbc528b4d	-0.012850595
210	0xbca5fccf	-0.02026215
211	0x3d836992	0.0641662
212	0x3c543526	0.012952125
213	0x3d6932d2	0.05693323
214	0x3ce506b7	0.027957303
215	0x3cbd1886	0.023082983
216	0xbdb49799	-0.088179775
217	0xbd885a42	-0.0665784
218	0xbcf6476c	-0.030063353
219	0xbcaa60a4	-0.020798035
220	0x3d1d5e66	0.038420103
221	0xbd40d08c	-0.047073886
222	0xbcd85bac	-0.0264109
223	0xbcbdfa8a	-0.023190755
224	0x3c95ed85	0.018301735
225	0x3c03d696	0.008046767
226	0x3d6c1b5c	0.05764328
227	0x3d8a337b	0.067481
228	0xbcf0899d	-0.029362494
229	0x3d57c444	0.052677408
230	0x3cdffb7c	0.027341597
231	0xbc03365e	-0.008008568
232	0x3b99fc2d	0.004699251
233	0xbd3338ee	-0.043755464
234	0xbc160663	-0.009156796
235	0xbce3962e	-0.027781572
236	0xbc41d9b8	-0.011831693
237	0x3d533eed	0.051573683
238	0xbd1642b2	-0.0366847
239	0x3d663db9	0.056211207
240	0xbde08d00	-0.109643936
241	0xbbab4019	-0.005226147
242	0xbca30c39	-0.01990329
243	0xbc71a1da	-0.014748061
244	0xbd51ba77	-0.051203217
245	0x3c3ae99c	0.011408236
246	0xbd745e52	-0.059660263
247	0x3d366717	0.044531908
248	0x3b4c528c	0.0031177131
249	0xbccf6474	-0.025316454
250	0xbba36ae7	-0.004987109
251	0x3ca30c6e	0.019903388
252	0x3c0b4b38	0.00850182
253	0x3d530b65	0.05152454
254	0x3d7cccfe	0.061718933
255	0x3d5fc943	0.054635298

conv5.bias f4 [64]
0	0xbcd89157	-0.026436491
1	0x3d2a0fd5	0.041519005
2	0x3d868dc6	0.0657001
3	0x3d9e7b57	0.07738369
4	0x3b4ed47d	0.0031559758
5	0x3d373a67	0.04473343
6	0x3d62539f	0.05525553
7	0x3d88ca54	0.06679216
8	0xbd7b68a3	-0.061379086
9	0x3b2eb9fb	0.0026661146
10	0xbc4fcb05	-0.012682681
11	0x3d309e03	0.04311944
12	0x3d819e52	0.06329025
13	0xbd27375c	-0.04082428
14	0xbcf9bb01	-0.030484678
15	0x3d87afc8	0.066253245
16	0xbd170b66	-0.036876105
17	0xbc76306a	-0.015026191
18	0x3d10e5fa	0.035375573
19	0xbcdd3734	-0.027003862
20	0x3d57f804	0.05272676
21	0xbb9054b2	-0.0044046277
22	0x3d3c1a81	0.045923714
23	0x3cb0c1d6	0.021576803
24	0x3d40e163	0.047089946
25	0xbb94fd06	-0.0045467643
26	0xbd1e7f0b	-0.038695376
27	0xbd8faa3c	-0.070148915
28	0x3cbed9da	0.02329724
29	0xbd341cc3	-0.04397274
30	0x3d71c765	0.059028048
31	0x3d8843a7	0.06653529
32	0x3d079504	0.033101097
33	0xbc563664	-0.013074491
34	0xbcc976a7	-0.02459271
35	0xbd093fa0	-0.033507943
36	0xbb89caa3	-0.0042050644
37	0x3cade621	0.021227898
38	0x3be451a0	0.0069677383
39	0x3d784243	0.060610067
40	0x3b859dc2	0.004077644
41	0x3d600d0e	0.05469995
42	0x3d2317be	0.039817564
43	0xbd0e31d2	-0.03471548
44	0xbd2df48c	-0.042469546
45	0x3d8778b2	0.06614818
46	0xbd5bdc5c	-0.053676948
47	0xbd977fe2	-0.073974386
48	0x3d259e86	0.040434383
49	0x3d81361c	0.06309149
50	0x3ccf7645	0.02532495
51	0x3d7328a3	0.059364926
52	0x3d517e05	0.051145572
53	0xbd03324a	-0.03203038
54	0x3d53e0d5	0.05172809
55	0x3b38b43e	0.0028183605
56	0x3d6cbce0	0.057797313
57	0x3c681c4e	0.014166905
58	0x3d8b79dd	0.06810353
59	0x3cdf5580	0.02726245
60	0x3b8a2819	0.004216206
61	0xbca617c1	-0.020274999
62	0xbcedd1b0	-0.02903065
63	0xbd25331d	-0.04033195

linear1.weight f4 [128, 512]
0	0xbd111717	-0.03542241
1	0x3c24c1e7	0.010055996
2	0xbd115625	-0.035482544
3	0x3b697cac	0.0035627289
4	0xbd3b82f2	-0.045779176
5	0xbc9baa4c	-0.019002102
6	0xbce02af3	-0.02736423
7	0x3bf19b90	0.007373281
8	0xbcaf18ca	-0.021374125
9	0xbd1811f6	-0.037126504
10	0xbc7e6eeb	-0.015529375
11	0x3d097c6e	0.03356593
12	0xbc1723cf	-0.009224846
13	0x3d0baed0	0.03410226
14	0x3c3b5d17	0.011435769
15	0xbcfc4805	-0.03079606
16	0x3c8aa3ab	0.016923746
17	0x3ce25c47	0.027631892
18	0xbbf515c5	-0.007479402
19	0xbbd2177a	-0.00641149
20	0x3b94fe22	0.0045468966
21	0xbab1ffa7	-0.0013580219
22	0xbc9ed3d6	-0.01938812
23	0x3c53ee5f	0.01293525
24	0xbcdead4e	-0.027182247
25	0x3ca8e018	0.020614669
26	0xbd63cc83	-0.05561496
27	0xbc407a73	-0.011747944
28	0xbd18f4a3	-0.03734268
29	0xbd52d5dc	-0.051473483
30	0x3c9050d9	0.017616676
31	0x3c84f586	0.016230356
32	0xbca92c7f	-0.0206511
33	0x3cb766e9	0.022387939
34	0x3c1d575e	0.0096033495
35	0xbca1ce2c	-0.01975163
36	0x3c79526d	0.015217406
37	0xbd052d42	-0.032513864
38	0xbd443c1d	-0.04790889
39	0xbc674de4	-0.014117692
40	0xbb1f069c	-0.0024265414
41	0x3c01a58f	0.007913007
42	0x3c94731e	0.018121298
43	0xbbfbbe21	-0.0076825772
44	0xbd5f299c	-0.05448304
45	0xbcc1da0c	-0.023663543
46	0xbd3f4f00	-0.0467062
47	0xbcdd0201	-0.026978495
48	0xbc0559a7	-0.008139051
49	0x3cea1b42	0.02857745
50	0xbce4d211	-0.027932199
51	0xbb33a33d	-0.002741053
52	0x3c74726e	0.01491986
53	0x3c81bdd9	0.015837597
54	0xbc57f643	-0.013181272
55	0xbc838a51	-0.016057165
56	0xbc26e306	-0.010185963
57	0xbae7a609	-0.0017673384
58	0xbd4bebd3	-0.049785446
59	0x3c8f9faf	0.017532198
60	0x3c19c13f	0.009384452
61	0xbd5fb38f	-0.0546146
62	0xbc5777eb	-0.013151149
63	0x3cdaef3b	0.026725402
64	0x3bb08534	0.005386973
65	0x3c285820	0.010274917
66	0xbc80c376	-0.015718203
67	0x3cf841eb	0.03030487
68	0xbcdddbd2	-0.027082358
69	0xbc780f9a	-0.015140438
70	0x3d0f0667	0.034918215
71	0xbb4b5b3c	-0.0031029722
72	0xbd5171ec	-0.051134035
73	0x3a6b46dd	0.0008975098
74	0xbc2072a5	-0.009792958
75	0xbc514db3	-0.012774873
76	0xbcdef54f	-0.027216582
77	0x3c9765c4	0.018481143
78	0xbd1cc604	-0.03827478
79	0x3c7d477f	0.0154589405
80	0xbd1e6f12	-0.038680144
81	0xbc1d14b1	-0.009587453
82	0xbd369406	-0.04457476
83	0xbd007f36	-0.031371318
84	0xbd1016aa	-0.035177864
85	0xbce988f7	-0.028507693
86	0xbc727047	-0.014797277
87	0xbd52641d	-0.051365007
88	0xbd2fd443	-0.042927038
89	0xbbbfa43a	-0.0058484348
90	0xbbcad4ae	-0.006189904
91	0xbd03d296	-0.032183252
92	0x3d0b0865	0.033943553
93	0x3cdacafa	0.026708115
94	0x3b4456a9	0.002995888
95	0x3c66ed69	0.014094689
96	0xbc41759d	-0.011807826
97	0xbd030cb7	-0.031994548
98	0xbd24dbd6	-0.040248714
99	0x3ad90471	0.001655711
100	0x3b3bbf66	0.0028648018
101	0xbd36e6f9	-0.044653866
102	0xba038110	-0.0005016485
103	0x3cc07937	0.0234953
104	0xbccc43af	-0.024934618
105	0x3cbfef69	0.02342959
106	0x3a305b57	0.0006727478
107	0xbc8c0a72	-0.017094824
108	0x3a466d42	0.0007569381
109	0xbd69ea5c	-0.05710827
110	0x3cebc3b5	0.028779844
111	0x3c798605	0.015229707
112	0x3c55ef8a	0.013057599
113	0xbd187789	-0.037223373
114	0xbc2331bf	-0.009960591
115	0x3cc04581	0.023470642
116	0xbc14eb5a	-0.009089315
117	0xbcb1d243	-0.021706706
118	0xbccd4d15	-0.02506117
119	0xbcf22c8f	-0.029562263
120	0xbcc530dd	-0.024071151
121	0x3c8b48c4	0.01700247
122	0xbcef959b	-0.029246142
123	0xbd3c338f	-0.045947608
124	0x3b8c4a8d	0.004281348
125	0xbd53882f	-0.051643547
126	0x3b598681	0.0033191743
127	0xbd548399	-0.051883314
128	0x3ca239c6	0.01980294
129	0xbd08ffe9	-0.03344718
130	0x3c718680	0.01474154
131	0x3c4c8350	0.012482479
132	0xbc9bdd8f	-0.019026546
133	0x3d05aa8b	0.032633346
134	0xb92ce33a	-0.00016487847
135	0x3bcc5466	0.006235647
136	0xbc8bdd65	-0.017073343
137	0xbc792fd6	-0.015209159
138	0xbcd6acaf	-0.026205389
139	0x3a195e9a	0.00058505835
140	0xbc2828bf	-0.010263621
141	0x3cab03f0	0.020875901
142	0x3ae2af37	0.001729465
143	0xbcb27a8b	-0.021786949
144	0xbbb3690d	-0.0054751695
145	0xbce74d67	-0.02823515
146	0xbd6141e2	-0.05499447
147	0xbc4776b2	-0.012174295
148	0x3cbbb6aa	0.02291425
149	0x3c6faf72	0.014629232
150	0x3c13b413	0.009015101
151	0xbd0187e3	-0.031623732
152	0x3cd1efa4	0.025626965
153	0x3cda5470	0.026651591
154	0x3c0c5d4f	0.008567168
155	0xbcbb30e4	-0.022850461
156	0xbd33b6b7	-0.043875422
157	0xbcc03b87	-0.023465885
158	0x3cac723c	0.021050565
159	0xbbc3f3b3	-0.005979979
160	0xbc9359d9	-0.017987179
161	0x3c8df0a8	0.017326668
162	0xbd2a33f4	-0.041553453
163	0xbcfcb9d5	-0.03085033
164	0xbcf4317c	-0.029808752
165	0xbd0a8b62	-0.033824332
166	0x3c4298f3	0.011877286
167	0xbd4ecfa5	-0.050490994
168	0xbd3dd1d0	-0.04634267
169	0x3d0a57e7	0.033775236
170	0xbcdb0a76	-0.026738387
171	0x3b121367	0.0022289397
172	0xbd28fdc5	-0.04125764
173	0xbd265451	-0.040607754
174	0x3ca62954	0.020283379
175	0x3b6706c5	0.0035251838
176	0xbd45d12a	-0.048295178
177	0xbbb85686	-0.005625549
178	0xbc6beea6	-0.01440016
179	0xbd071d58	-0.03298697
180	0xbd550bf5	-0.052013356
181	0xbcf78401	-0.030214312
182	0xbcdd1644	-0.026988156
183	0x3c9d568c	0.019206308
184	0x3c342030	0.010994002
185	0xbd2fa2dc	-0.042879924
186	0x3c6df538	0.014523797
187	0xbc9e91ff	-0.019356726
188	0x3b989b0e	0.004657156
189	0x3be9ed47	0.0071388814
190	0xbd5521f7	-0.052034345
191	0xbd153b72	-0.036433645
192	0x3cd5b408	0.026086822
193	0x3c90863d	0.017642135
194	0x3c2e6fb0	0.010646746
195	0xbd48a730	-0.048987567
196	0xbcab76c5	-0.020930657
197	0x3998b996	0.00029129972
198	0xbcb77cca	-0.022398371
199	0xbbf4b5c3	-0.0074679567
200	0x3cb80b17	0.022466226
201	0xbd4df919	-0.050286386
202	0x39294d76	0.00016145952
203	0xbc6f97a9	-0.014623561
204	0xbd525a84	-0.051355854
205	0xbd4a6db2	-0.04942102
206	0x3cfa5f35	0.030562976
207	0xbd44bdd0	-0.04803258
208	0xbd241664	-0.040060416
209	0x3ca63d41	0.02029288
210	0x3ce3fd88	0.027830854
211	0xbcce51fe	-0.025185581
212	0x3d04554b	0.032307904
213	0x3cef61d1	0.029221447
214	0x3ab0ac7e	0.0013479141
215	0xbd1dc139	-0.03851435
216	0x3d0a12f1	0.03370947
217	0xbc8575e8	-0.016291574
218	0xbcc0487a	-0.02347206
219	0xbce863e6	-0.028367948
220	0x3b23b101	0.0024977329
221	0xbcc740e4	-0.024322934
222	0x3d0bba0e	0.034112982
223	0xbb35cfa0	-0.0027742162
224	0x3c7be5d9	0.015374624
225	0xbd5c0c9a	-0.053722955
226	0xbc66c79e	-0.014085678
227	0x3ce00393	0.027345454
228	0x3b950114	0.0045472477
229	0x3c0bf96c	0.0085433535
230	0x3c504d72	0.012713777
231	0xbcc11328	-0.023568705
232	0xbd2359e8	-0.039880663
233	0xbc9b558b	-0.018961689
234	0xbcbdad90	-0.02315405
235	0xbd01d42c	-0.031696483
236	0x3d1a9e06	0.03774836
237	0x3d348cf8	0.04407975
238	0xbd15c676	-0.03656622
239	0x3cc2d046	0.023780953
240	0x3cd5f8a1	0.026119532
241	0xbcc1712f	-0.02361354
242	0x3ce8eb45	0.028432498
243	0xbc96e18d	-0.018418098
244	0xbd02e102	-0.031952865
245	0xbc8291f5	-0.015938738
246	0x3c0c1acc	0.008551311
247	0xbd52c7c0	-0.051460028
248	0xbd4751f3	-0.048662137
249	0xba77a549	-0.00094469317
250	0x3ad515cf	0.001625711
251	0xbbe5d831	-0.0070142974
252	0xbc195bf0	-0.0093602985
253	0xbc96d2fb	-0.01841115
254	0xbd61a51e	-0.05508911
255	0xbbbcd5a7	-0.005762774

linear1.bias f4 [128]
0	0x3cd9ade9	0.026572185
1	0x3d2c92df	0.042132255
2	0x3d63a38d	0.055575896
3	0xbc1e6f6e	-0.009670122
4	0x3cc97683	0.024592644
5	0xbc9a4bd8	-0.018834993
6	0x3d2e6ebe	0.04258608
7	0x3d30a8d1	0.043129746
8	0x3c285ed7	0.010276518
9	0x3d312685	0.043249626
10	0x3cc798f7	0.024364932
11	0x3d506472	0.050877042
12	0x3bc869a2	0.006116108
13	0xbc1ad253	-0.009449559
14	0x3d47bbaa	0.048762955
15	0x3d24b068	0.040207297
16	0xba9ccc1c	-0.0011962685
17	0xbc4a7960	-0.01235804
18	0xbc1085c4	-0.008820955
19	0xbce3a30e	-0.027787711
20	0x3d1185d1	0.035528008
21	0xbd349186	-0.044084094
22	0xb9cc581c	-0.0003897556
23	0xbd3aaa3d	-0.045572508
24	0x3d1ff078	0.03904769
25	0x3d43db12	0.047816344
26	0xbc63cc21	-0.013903649
27	0x3d473b20	0.04864037
28	0x3c8658c1	0.016399743
29	0xbd1e62b5	-0.038668353
30	0xbd14c3dc	-0.0363196
31	0xbb57272d	-0.0032829747
32	0x3bb3ff38	0.005493071
33	0xbcf6561a	-0.030070353
34	0x3d3fb663	0.046804797
35	0xbc923bfb	-0.017850867
36	0xbd3c58fa	-0.045983292
37	0x3c082035	0.00830846
38	0x3d2192e1	0.039446715
39	0x3b864ac0	0.0040982664
40	0xbcd6e1dc	-0.026230745
41	0xbcb61cd9	-0.022230553
42	0x3d3be220	0.045869946
43	0xbb89f5c6	-0.0042102067
44	0xbd1b0668	-0.037847906
45	0x3c2a3e32	0.010390805
46	0xbbcbb1ff	-0.006216287
47	0x3bdb8a32	0.006699824
48	0x3d329451	0.043598477
49	0xbbd0878a	-0.0063638138
50	0x3d138bbd	0.036021937
51	0x3ca59c60	0.020216167
52	0x3c67b309	0.014141806
53	0x3c304824	0.010759387
54	0x3d009091	0.03138787
55	0xbd3a0776	-0.04541727
56	0xbc3b874e	-0.011445833
57	0x38b1e4f7	8.482666e-05
58	0xbd3ab4df	-0.04558265
59	0x3c7d1a49	0.015448161
60	0x3c02eb54	0.007990677
61	0xbd4d8dc2	-0.05018402
62	0x3cc05ea4	0.023482628
63	0x3c03e8c6	0.008051103
64	0x3c8dbe6d	0.017302716
65	0x3c894ecc	0.016761206
66	0xbb48452d	-0.003055881
67	0xbcaaf584	-0.020869024
68	0xbcdd3c88	-0.027006403
69	0xbb8f2a43	-0.0043690517
70	0xbd1fcf1d	-0.039015878
71	0xbd2f3a24	-0.042780057
72	0xbcd83b07	-0.026395334
73	0x3cdd81fc	0.02703952
74	0xbc8f54e9	-0.017496543
75	0x3d39ab68	0.04532948
76	0xbb24ceb3	-0.0025147616
77	0x3d73be06	0.059507392
78	0xbc7d0d90	-0.015445128
79	0x3c6dbef2	0.014510857
80	0x3be78924	0.007065909
81	0x3d401a5a	0.04690013
82	0xbce7a2e4	-0.028275914
83	0x3c8562cd	0.016282463
84	0xbc889843	-0.016674167
85	0x3d3e5c65	0.046474833
86	0x3a508e09	0.0007955735
87	0xbcdcdb85	-0.026960144
88	0x3c97eedd	0.018546516
89	0x3d131d43	0.035916578
90	0x3cb2e20c	0.021836303
91	0xbd01ceb4	-0.031691268
92	0x3d195077	0.037430253
93	0x3d12e618	0.035863966
94	0xbce02e5a	-0.027365852
95	0xbd41c369	-0.0473055
96	0xbd3b5530	-0.045735538
97	0xbcbfa40c	-0.023393653
98	0xbd15a184	-0.036530986
99	0xbb98a5d0	-0.0046584383
100	0xbd2f6e16	-0.042829596
101	0x3d11b2a0	0.03557074
102	0xbc0ff89a	-0.008787299
103	0x3d6262ef	0.05527013
104	0x3cb83786	0.022487413
105	0xbd2163b0	-0.03940171
106	0x3d1e689f	0.038673993
107	0x3caab93e	0.020840283
108	0xb9d9cfa8	-0.0004154418
109	0xbd351163	-0.044206034
110	0x3d3870f1	0.045029584
111	0x3d72d99b	0.059289556
112	0x3d6accf2	0.057324357
113	0x3cc7f257	0.024407549
114	0x3cb23827	0.021755291
115	0xbd234e9b	-0.039869886
116	0x3d20120c	0.03907971
117	0x3c25834b	0.010102103
118	0xbc485380	-0.012226939
119	0xbc719e7f	-0.014747261
120	0x3cce7f55	0.025207201
121	0x3c956382	0.018235926
122	0xbd12f7b6	-0.035880767
123	0x3d1cb5b3	0.03825922
124	0xbbb67c70	-0.0055690333
125	0x3c9d0733	0.019168472
126	0x3d08650a	0.033299483
127	0x3c22c120	0.00993374
