models/5A_alpha_model.pth (torch, 421229 bytes, 13 tensors)

conv1.weight f4 [4, 1, 5, 5, 5]
0	0xbc9a45f2	-0.01883218
1	0xbb97993b	-0.004626421
2	0x3dd16409	0.10224158
3	0x3d8733cb	0.066016756
4	0x3d3c5c7d	0.04598664
5	0xbc27f76b	-0.01025186
6	0x3cfbd3d6	0.03074066
7	0xbd83b66b	-0.06431278
8	0xbca90aaf	-0.020634977
9	0x3d80b4a0	0.062844515
10	0x3d49fc4d	0.04931288
11	0xbda63331	-0.08115233
12	0xbd3e0e92	-0.046400614
13	0x3d0a90cf	0.033829506
14	0x3d91e993	0.07124629
15	0x3d708292	0.05871827
16	0xbdb32d95	-0.087489285
17	0x3d232375	0.039828736
18	0xbd93a366	-0.072089
19	0xbd2b95c5	-0.04189088
20	0xbc819b06	-0.015820991
21	0x3b2af742	0.0026087319
22	0x3d0f1a1c	0.03493701
23	0x3cc6e446	0.024278771
24	0xbd5602e0	-0.052248836
25	0x3bcc9e9b	0.006244493
26	0x3d917839	0.07103009
27	0x3d8e4558	0.0694682
28	0x3d63d186	0.05561974
29	0x3d7f178a	0.062278308
30	0xbdb59e87	-0.08868127
31	0x3c473506	0.012158638
32	0xbd4d85b2	-0.05017633
33	0x3d3641b1	0.044496242
34	0xbc655024	-0.013996158
35	0xbbef4038	-0.0073013566
36	0xbdc3d0af	-0.095612876
37	0xbdd87a55	-0.10570208
38	0xbbf94073	-0.00760656
39	0xbd4d9aea	-0.050196566
40	0xbc232532	-0.0099575985
41	0xbdf75ce5	-0.12078265
42	0x3c90f9cc	0.017697237
43	0xbba9fe2f	-0.0051877717
44	0xbd963f40	-0.07336283
45	0x3d024224	0.031801358
46	0xbd9205e3	-0.07130029
47	0xbd8ec026	-0.06970243
48	0xbd45c4cf	-0.048283394
49	0xbcb834a5	-0.02248604
50	0x3db9e933	0.09077682
51	0xbd684cbe	-0.056713812
52	0xba8067a6	-0.0009796515
53	0xbceac4ae	-0.028658237
54	0x3d2c38cc	0.042046353
55	0x3d726f8c	0.05918841
56	0x3d1817a1	0.03713191
57	0xbd307668	-0.04308167
58	0xbd27ce0b	-0.040967982
59	0xbd71982d	-0.058983017
60	0xbdae7c4a	-0.085198
61	0xbd17684e	-0.036964707
62	0xbdd5964f	-0.1042906
63	0x3b64d96a	0.0034919628
64	0xbc6b13e2	-0.014348002
65	0xbd6ddbdb	-0.058071
66	0xbe117a6b	-0.14206855
67	0xbe13cc03	-0.14433293
68	0x3d03f1a7	0.03221288
69	0x3d008c07	0.03138354
70	0x3dbe857a	0.093028024
71	0xbce011b5	-0.027352193
72	0xbcf47025	-0.02983863
73	0x3d83fb9f	0.06444477
74	0x3dc90f1e	0.098173365
75	0xbc0f7679	-0.008756273
76	0x3db1986e	0.08671652
77	0x3de22a2d	0.11043201
78	0x3db150d0	0.08657992
79	0xbd99586c	-0.07487568
80	0xbd0a3da8	-0.033750206
81	0xbda94102	-0.082643524
82	0xbd330938	-0.043709964
83	0x3c88cb2c	0.016698442
84	0x3d985bcc	0.07439384
85	0x3d99e514	0.07514396
86	0xbdb961cb	-0.09051856
87	0x3c4d9d07	0.012549645
88	0xbd595377	-0.053058114
89	0xbbbc93ff	-0.005754947
90	0x3d658fc7	0.05604532
91	0xbd5faa76	-0.054605924
92	0xbdb924f1	-0.09040249
93	0xbd81f4a5	-0.0634549
94	0xbcf85669	-0.030314641
95	0x3cad73ee	0.021173444
96	0xbc834c4a	-0.016027588
97	0xbbb9baa0	-0.0056679994
98	0x3c920f32	0.017829511
99	0x3cf7de1d	0.030257279
100	0x3ce75dda	0.028242994
101	0x3c8c6556	0.017138164
102	0x3d7504ca	0.05981902
103	0xbcaf5892	-0.021404538
104	0xbd9117a3	-0.070845865
105	0x3cf01952	0.029308949
106	0x3ddb421a	0.10705967
107	0xbd67d879	-0.05660293
108	0x3db6c7fa	0.08924861
109	0x3d7beb4f	0.061503705
110	0x3d70a562	0.05875147
111	0x3d0648fd	0.03278445
112	0x3dcbfbd6	0.09960143
113	0x3d69f224	0.05711569
114	0xbd6ba5c0	-0.05753112
115	0x3d0ec453	0.034855198
116	0xbba1915a	-0.0049306573
117	0xbbb4355e	-0.005499526
118	0xbd42b6f2	-0.04753775
119	0xbd202455	-0.03909715
120	0x3dc8098f	0.09767448
121	0x3dc560ac	0.09637579
122	0x3d3b3db2	0.045713134
123	0x3d812d4f	0.0630747
124	0x3d804bab	0.062644325
125	0x3c5ca612	0.013467329
126	0xbd982a61	-0.07429958
127	0xbd5d8ed2	-0.054091282
128	0xbcbfeebf	-0.023429273
129	0xbd845ca0	-0.06462979
130	0x3d84a8e5	0.064775266
131	0xbd8d20df	-0.06891035
132	0xbdd52464	-0.104073316
133	0xbd8d1413	-0.068885945
134	0xbd5c545b	-0.053791385
135	0x3d4c4323	0.049868714
136	0xbce84d18	-0.028357074
137	0x3bfa541a	0.00763942
138	0x3d5ffc3e	0.054683916
139	0xbd22db20	-0.039759755
140	0xbd168168	-0.036744505
141	0x3c204b2a	0.0097835455
142	0x3d61f878	0.0551686
143	0x3db7f245	0.08981756
144	0x3d731992	0.059350558
145	0x3d991392	0.07474436
146	0x3c9d6d41	0.019217135
147	0x3c3529f4	0.011057366
148	0x3b880775	0.0041512796
149	0xbc2e7e70	-0.010650262
150	0x3cffc1cd	0.031220341
151	0x3c3e602c	0.011619609
152	0xbd572dd0	-0.052533925
153	0xbdbd0d09	-0.09231002
154	0xbd04504f	-0.03230315
155	0xbdeb658a	-0.114939764
156	0xbdcf7c50	-0.101311326
157	0xbd057fdb	-0.032592636
158	0xbbde6e56	-0.0067880554
159	0x3c5414d8	0.012944423
160	0x3c830161	0.015991868
161	0xbdabed27	-0.083948426
162	0xbc94ffb9	-0.018188344
163	0x3b8b4188	0.0042497553
164	0xbdd56ceb	-0.10421165
165	0x3bd76979	0.0065738526
166	0x3d149cdc	0.036282405
167	0xbd3220e3	-0.043488394
168	0xbd8bbed1	-0.06823505
169	0x3cfe0825	0.031009743
170	0x3c2b7902	0.010465862
171	0xbd4d65c2	-0.050145872
172	0x3de5bc51	0.11217559
173	0x3d301778	0.04299113
174	0xbce2d2de	-0.02768844
175	0xbd964cee	-0.07338892
176	0x3d8d231e	0.06891464
177	0x3d619290	0.055071414
178	0xbc525577	-0.012837759
179	0xbaf9cbb1	-0.0019057897
180	0x3c627269	0.013821223
181	0x3c10665a	0.008813465
182	0x3c1f6886	0.00972951
183	0xbcbf6ec5	-0.023368249
184	0xbd040526	-0.032231472
185	0xbc089e4b	-0.008338521
186	0x3db56a25	0.08858136
187	0x3d7c790d	0.06163888
188	0x3d7e5a4b	0.06209783
189	0xbc8c8d3d	-0.017157191
190	0xbc4e861e	-0.012605218
191	0x3ce5c5f6	0.028048497
192	0x3d8eced6	0.069730446
193	0xbd6fed69	-0.05857602
194	0x3b9a66fd	0.004711984
195	0x3d3e4b83	0.046458732
196	0x3c0b904e	0.008518292
197	0x3e02a2ae	0.1275737
198	0x3e050df5	0.12993605
199	0xbd94c712	-0.07264532
200	0x3c99f4c8	0.018793479
201	0xbd85df15	-0.0653669
202	0xbd2ff165	-0.04295482
203	0x3db76c12	0.0895616
204	0xbdc13b81	-0.094351776
205	0xbd077694	-0.03307207
206	0xbd208866	-0.03919258
207	0xbc8f2554	-0.017473854
208	0xbd08dbea	-0.03341285
209	0x3be94766	0.007119107
210	0x3db74447	0.0894857
211	0xbc030edc	-0.007999148
212	0xbd9129f8	-0.07088083
213	0x3dae6c1c	0.08516714
214	0xbcd796dc	-0.026317053
215	0xbb3d6ad9	-0.0028902797
216	0x3bdfcc8e	0.0068298047
217	0xbd5cf874	-0.05394788
218	0xbd886672	-0.06660165
219	0xbd8c0f81	-0.06838895
220	0x3d7f4b18	0.062327474
221	0x3dda8b3a	0.106710866
222	0x3d4e8c29	0.050426636
223	0x3d4ceedf	0.050032493
224	0xbcfe8859	-0.031070875
225	0xbd16346c	-0.036671087
226	0x3bf21058	0.0073872022
227	0x3d2c3043	0.042038213
228	0x3cda747f	0.026666878
229	0x3bf0bdc9	0.007346843
230	0x3d5d8bca	0.05408839
231	0xbc2f21d5	-0.0106892185
232	0x3da73c57	0.08165806
233	0xbcc5c2f9	-0.024140822
234	0xbda60ce3	-0.08107927
235	0x3d94914d	0.072542764
236	0x3d38ce2b	0.045118492
237	0x3c0d653b	0.008630092
238	0x3d6d944b	0.05800275
239	0x3cfcc428	0.030855253
240	0xbce05cc9	-0.027387993
241	0x3d977b0f	0.073965184
242	0x3d61a0aa	0.05508486
243	0x35cb7e78	1.5161486e-06
244	0x3c738214	0.014862556
245	0x3da3ec88	0.08004099
246	0xbcae1cb4	-0.021253921
247	0x3d0b3421	0.03398526
248	0x3d46af69	0.048507128
249	0xbd8234ce	-0.06357728
250	0xbb567731	-0.0032724852
251	0x3d2233d0	0.039600194
252	0x3c0afdc9	0.008483359
253	0x3ca22b64	0.01979608
254	0xbd41d618	-0.047323316
255	0x3d483b3c	0.048884615

conv1.bias f4 [4]
0	0x3ca7809c	0.020447068
1	0x3d08b7bb	0.033378344
2	0xbe13de94	-0.14440376
3	0x3d55a8a1	0.05216277

conv2.weight f4 [8, 4, 5, 5, 5]
0	0x3c4e7b26	0.012602603
1	0xbc8517f2	-0.01624677
2	0xbc4c9219	-0.012486004
3	0x3c34ad56	0.011027655
4	0xbd15232c	-0.036410496
5	0xbd3b5a32	-0.045740314
6	0xbd49f334	-0.049304202
7	0xbd376293	-0.044771742
8	0xbce183e4	-0.02752871
9	0xbd674379	-0.05646083
10	0xbd71f371	-0.059070054
11	0x3b8b346c	0.0042481925
12	0xbc89c274	-0.016816355
13	0xbbf4b5f0	-0.0074679777
14	0xbd57337b	-0.05253933
15	0xbbedf650	-0.0072620288
16	0xbd85c233	-0.06531181
17	0xbce6f938	-0.028195009
18	0xbc21cbe4	-0.0098752715
19	0xbd2b2924	-0.04178728
20	0xbcc90534	-0.024538614
21	0x3c583365	0.013195847
22	0x3cf49e91	0.029860767
23	0xbcf35df2	-0.029707883
24	0x3b4e1b94	0.0031449543
25	0xbd2b2182	-0.041780002
26	0xbd616a37	-0.055032935
27	0xbb97a9dc	-0.004628403
28	0xbca0af26	-0.019614767
29	0xbd66c669	-0.056341562
30	0xbc08b77a	-0.0083445255
31	0xbd0db9aa	-0.03460089
32	0x3c922d6e	0.017843928
33	0xbd102b3c	-0.03519748
34	0xbcf61ec4	-0.030043967
35	0xbd8a5f9f	-0.067565195
36	0xbc808097	-0.015686316
37	0xbcbdd01d	-0.023170525
38	0xbd18c683	-0.03729869
39	0xbbb33697	-0.005469154
40	0xbacfbc92	-0.0015849045
41	0x3b068df5	0.002053139
42	0xbcdaf689	-0.026728885
43	0xbd34ff76	-0.04418894
44	0xbc6bac13	-0.014384287
45	0xbcb6b1e4	-0.022301622
46	0x3c2d13f7	0.010563842
47	0xbd356a24	-0.044290677
48	0x3cc6deb4	0.024276115
49	0xbd0beb9e	-0.03416025
50	0xbd495e25	-0.04916205
51	0x3c5c3438	0.013440184
52	0xbd0ab575	-0.033864457
53	0xbd7448c1	-0.059639696
54	0xbd74e116	-0.05978497
55	0xbc266b3d	-0.010157404
56	0xbd5333e0	-0.051563144
57	0xbc16a656	-0.009194931
58	0xbce36525	-0.02775819
59	0xbd78de39	-0.060758803
60	0xbcb95b7f	-0.022626637
61	0xbd76b2f9	-0.060229275
62	0xbc9eb6d4	-0.019374289
63	0xbca9ff42	-0.0207516
64	0x3c1d7e3f	0.009612619
65	0xbc712206	-0.0147175845
66	0xbd752eac	-0.059858963
67	0xbcc5278d	-0.02406671
68	0x3adf8f7a	0.0017056309
69	0xbcb0c4d5	-0.021578232
70	0x3a9396a5	0.0011260106
71	0xbc844cdd	-0.016149933
72	0xbd32e5fc	-0.04367636
73	0xbd4d457d	-0.050115097
74	0xbc991829	-0.018688278
75	0xbd5663d3	-0.052341294
76	0x3b932a0a	0.0044910954
77	0xbd271f0b	-0.04080109
78	0xbcfd8ea6	-0.03095181
79	0xbd976588	-0.073924124
80	0x3aaa23e2	0.0012980665
81	0xbcba9eb1	-0.022780748
82	0xbd4ccddd	-0.050001014
83	0xbd3ef096	-0.04661616
84	0x3c096e68	0.008388139
85	0xbda491c1	-0.08035613
86	0xbd9bbe56	-0.07604663
87	0xbca3961c	-0.019969039
88	0xbcfcc128	-0.030853823
89	0xbd9bf462	-0.07614972
90	0xbd324828	-0.043525845
91	0xbd1672ad	-0.036730457
92	0xbd95db30	-0.07317197
93	0xbd638524	-0.055546895
94	0xbc729489	-0.014805921
95	0xbccbd83f	-0.024883388
96	0x3c949545	0.018137584
97	0x3c22b6e1	0.009931297
98	0x3c444871	0.011980162
99	0xb7e5f553	-2.7413165e-05
100	0xbd079790	-0.033103526
101	0xbd062241	-0.03274751
102	0xbdac8688	-0.08424097
103	0xbcada332	-0.021195982
104	0xbd5229c1	-0.05130935
105	0xbdad8592	-0.08472742
106	0xbc847cf3	-0.016172862
107	0xbd2231b0	-0.039598167
108	0xbcb79ddc	-0.02241414
109	0xbccfc7d6	-0.025363844
110	0xbcb9aa43	-0.022664195
111	0xbdd0bb60	-0.10191989
112	0xbcab22ac	-0.020890556
113	0xbd3b9f61	-0.045806292
114	0xbd85b3d9	-0.06528444
115	0xbccac96b	-0.024754247
116	0xbccb5b54	-0.024823822
117	0x3c417d2d	0.011809629
118	0xbd8a9d8c	-0.06768331
119	0xbc0786d6	-0.0082718935
120	0xbcada1e5	-0.021195361
121	0xbc6c303f	-0.0144158
122	0xbcdb5a7d	-0.026776547
123	0x3d05fba9	0.032710705
124	0x3ccf88a0	0.025333703
125	0xbcf14501	-0.029451849
126	0xbd2dce9e	-0.042433374
127	0xbc8c10f5	-0.01709793
128	0x3d09b365	0.03361835
129	0xbca267d7	-0.019824905
130	0x3ce667b2	0.028125618
131	0xbc337408	-0.010952957
132	0xbcb1b2d0	-0.02169171
133	0x3bcb59a2	0.0062057534
134	0x3c1d39b2	0.009596275
135	0x3c66743a	0.0140657965
136	0xbc776573	-0.015099871
137	0xbc3c023a	-0.01147514
138	0x3cb1b394	0.021692075
139	0x3ba7e680	0.0051239133
140	0xbc961986	-0.018322717
141	0xbd4b17dd	-0.049583305
142	0x3d1192f8	0.03554055
143	0xbd4a1bff	-0.049343105
144	0xbbf39f90	-0.007434793
145	0x3b811c71	0.003940158
146	0xbcc1bb32	-0.023648832
147	0x3d10a081	0.03530932
148	0xbc87d8da	-0.016582895
149	0xbd24b15d	-0.04020821
150	0xbc8487b5	-0.016177991
151	0x3c8d4b4b	0.017247817
152	0x3be1bc90	0.0068889335
153	0xbc8fc316	-0.017549079
154	0x3caa5008	0.020790115
155	0xbcd95c68	-0.02653332
156	0x3c006f20	0.007838994
157	0x3b461bf4	0.0030229064
158	0xbcea6e93	-0.028617179
159	0xbcdd2d79	-0.026999222
160	0xbd098d94	-0.033582285
161	0xbbcc1ea4	-0.0062292386
162	0xbd277292	-0.040880747
163	0x3cf7e5e9	0.030260997
164	0xbaf22f6c	-0.0018477268
165	0xbd4b4589	-0.04962686
166	0x3cd88b21	0.02643353
167	0x3c05d71e	0.008168964
168	0x3d0224f3	0.03177352
169	0xbd1c8e7a	-0.038221814
170	0xbd51eb13	-0.051249575
171	0xbd1fe24f	-0.039034184
172	0x3ce2f813	0.027706182
173	0xbb7728e6	-0.0037713586
174	0xbd285ca6	-0.04110398
175	0x3c87c694	0.016574182
176	0xbccfb81b	-0.025356343
177	0x3c6a0c33	0.014285135
178	0xbc0247b5	-0.007951667
179	0xbd05bc1c	-0.0326501
180	0x3d1164e0	0.035496593
181	0xbc5db5e7	-0.013532138
182	0xbc2efa85	-0.010679846
183	0x3d0e908a	0.034805812
184	0xbc8b42cd	-0.016999627
185	0xbd592787	-0.05301621
186	0xbd07ae67	-0.033125307
187	0xbd1d7c5b	-0.038448673
188	0x3cb08798	0.021549031
189	0x3c6c004a	0.014404366
190	0xbbd98f85	-0.0066394233
191	0xbb95eed5	-0.00457559
192	0x3ce6620f	0.02812293
193	0x3c9bee36	0.019034486
194	0xbcf71581	-0.030161621
195	0xbd7d4697	-0.061834898
196	0x3c90dc4b	0.017683169
197	0xbc8a88ca	-0.01691093
198	0xbd5fa688	-0.054602176
199	0x3c34b72b	0.011029999
200	0xbd8063be	-0.06269024
201	0x3c87096b	0.016483983
202	0xbd222db6	-0.039594375
203	0xbc9b5eb2	-0.018966053
204	0xbc3a4c09	-0.011370667
205	0x3d07b25a	0.033129074
206	0xbcf35571	-0.029703828
207	0x3bbf34a1	0.0058351313
208	0x3ca727c5	0.020404706
209	0xbc48f098	-0.012264393
210	0x3c9c34e7	0.019068195
211	0xbd225739	-0.039633963
212	0xbd58bc4d	-0.052913953
213	0x3c550b34	0.013003159
214	0xbc929ef8	-0.017898068
215	0xbcd5e857	-0.026111765
216	0x3c42ce75	0.0118900435
217	0xbcbbe025	-0.022934029
218	0xbc3294ef	-0.010899766
219	0xbcbdd139	-0.023171054
220	0xbd80ceb2	-0.06289424
221	0x3c9b1b33	0.018933868
222	0xbd0c8468	-0.03430596
223	0xb90b073c	-0.00013258768
224	0xbd416019	-0.047210786
225	0xbc37f278	-0.011227243
226	0xbc3428be	-0.010996042
227	0xbd00772a	-0.031363644
228	0xbbba5410	-0.0056862906
229	0xbc84fc9d	-0.016233737
230	0x3c82524f	0.015908388
231	0x3d06cc2d	0.03290956
232	0x3b2b43ab	0.0026132863
233	0xbcbb12ca	-0.022836108
234	0xba2b49c9	-0.0006534127
235	0xbd49986f	-0.049217638
236	0x3bce797c	0.006301103
237	0xbd3501fb	-0.04419134
238	0x3cbbce5c	0.022925548
239	0x3c0d414f	0.008621528
240	0xbcc302e5	-0.023805091
241	0xbd3f05ef	-0.046636518
242	0x3cd3f7cb	0.025874993
243	0x3ca8f653	0.020625269
244	0xbcbc62f9	-0.022996413
245	0xbc677918	-0.014127992
246	0x3c7b3f2c	0.015334886
247	0x3c4c0565	0.012452458
248	0x3c28264e	0.010263039
249	0xbb38f5b5	-0.0028222625
250	0x3c1d74b3	0.009610343
251	0xbcbc0e7c	-0.022956125
252	0x3c5edeef	0.013602956
253	0xbd3cb2af	-0.046068843
254	0xbc310395	-0.010804077
255	0x3cdfb596	0.027308267

conv2.bias f4 [8]
0	0x3bf0f139	0.0073529747
1	0xbd47153f	-0.048604246
2	0xbd1ca18a	-0.038239993
3	0x3b27d959	0.0025611727
4	0xbd1b287e	-0.037880413
5	0x3ce1a0a2	0.027542416
6	0x3c9730df	0.01845592
7	0xbd8ab22c	-0.06772265

conv3.weight f4 [16, 8, 3, 3, 3]
0	0x3cbd845e	0.023134407
1	0xbd0335ba	-0.03203366
2	0x3d5c452d	0.05377691
3	0x3b183adc	0.0023228442
4	0xbc9c5115	-0.019081632
5	0xbaa69df8	-0.0012711873
6	0x3dc7272d	0.09724269
7	0x3db562ac	0.08856711
8	0xbc4c7189	-0.012478241
9	0xbc6a9513	-0.014317769
10	0x3bc10b16	0.005891214
11	0xbd788d59	-0.060681675
12	0x3d352d76	0.044232808
13	0xbbc63feb	-0.0060501
14	0xbc91b324	-0.017785616
15	0x3c595200	0.013264179
16	0xbbcce5b6	-0.0062529696
17	0x3d89993d	0.06718681
18	0x3c073ab1	0.008253739
19	0xbc17ef38	-0.009273343
20	0x3cc2a860	0.023761928
21	0x3c056613	0.008142012
22	0xbd58cb45	-0.052928228
23	0xbb21a624	-0.0024665678
24	0x3d5550de	0.052079074
25	0xbd138807	-0.036018398
26	0x3d4c951f	0.0499469
27	0xbd61a549	-0.05508927
28	0xbd439790	-0.047751963
29	0xbda17eef	-0.07885539
30	0x3c42a2f2	0.0118796695
31	0x3d18f3a3	0.037341725
32	0x3c6d611a	0.014488483
33	0x3d042b8f	0.032268103
34	0xbd860f84	-0.06545928
35	0xbcf4412a	-0.029816229
36	0x3d103f3d	0.03521656
37	0x3d332ca3	0.04374374
38	0xbd136bfb	-0.03599165
39	0xbb68712c	-0.0035467846
40	0xbc6904bd	-0.014222321
41	0x3d1714d1	0.036885086
42	0xbcf37219	-0.029717492
43	0xbca231db	-0.019799164
44	0x3cb2b3c8	0.021814242
45	0xbcf85f4a	-0.030318875
46	0xbc6a1dd8	-0.014289342
47	0x3d876c6e	0.06612478
48	0x3d61e222	0.055147298
49	0xbca0a718	-0.019610927
50	0x3dc35ac0	0.095387936
51	0xbda8e6f7	-0.08247178
52	0x3d91ecf6	0.07125275
53	0x3d8fadbf	0.07015561
54	0x3d518969	0.051156435
55	0x3d34da53	0.044153523
56	0xbe0764ec	-0.13222092
57	0xbc345bdb	-0.011008228
58	0xbbf9d81d	-0.0076246397
59	0xbe0acc95	-0.13554604
60	0x3c32de98	0.010917328
61	0xbd0e9469	-0.034809504
62	0xbd597e5f	-0.053099032
63	0xbcb57b66	-0.022153568
64	0xbc0f0075	-0.008728136
65	0xbe01fc48	-0.12693894
66	0xbbae1c84	-0.005313458
67	0xbd8d5abb	-0.06902071
68	0xbe5b2ded	-0.21404238
69	0xbca64a6c	-0.020299159
70	0xbcb6fa13	-0.022336042
71	0xbde664df	-0.112497084
72	0xbc5cdf89	-0.013481029
73	0xb9bb804a	-0.00035763002
74	0xbe01b31d	-0.12665983
75	0x3d5f9e49	0.054594312
76	0xbd82939f	-0.06375813
77	0xbd8a5b47	-0.06755691
78	0xbcd6441e	-0.026155528
79	0xbda54ec5	-0.08071665
80	0xbd0e9569	-0.034810457
81	0x3caed34e	0.021340992
82	0xbd622d63	-0.055219065
83	0x3d8db3a9	0.06919033
84	0xbcb948e7	-0.02261777
85	0xbd55a456	-0.052158676
86	0xbd35f47f	-0.044422623
87	0x3ccdfd22	0.025145117
88	0x3d1ef1c3	0.03880478
89	0x3b668a71	0.0035177732
90	0x3d66c4a7	0.056339886
91	0xbde2dff1	-0.1107787
92	0x3ad82f0f	0.0016493517
93	0x3d2067fd	0.03916167
94	0x3d2d6aec	0.042338297
95	0x3d4b92a2	0.049700387
96	0x3da42ffb	0.08016964
97	0xbc1cfe6a	-0.009582141
98	0xbd5c9c6c	-0.053860113
99	0x3df2a2fd	0.11847494
100	0xbde4ce6c	-0.11172184
101	0xbd5c1ce3	-0.053738486
102	0x3e2cc1c5	0.16870792
103	0x3df8bb95	0.121451534
104	0x3d90db70	0.070731044
105	0x3e4847b7	0.19558607
106	0x3d27fe90	0.041014254
107	0xbc5a1c69	-0.013312438
108	0xbde6bd71	-0.11266602
109	0xbe0e2b64	-0.1388374
110	0x3bed3776	0.0072392775
111	0xbe034162	-0.1281791
112	0xbd8dea9e	-0.06929515
113	0xbd31e595	-0.043431837
114	0xbde74e84	-0.112942725
115	0xbd8fafb1	-0.07015932
116	0x3d11ad64	0.03556575
117	0xbe1ca42c	-0.15297002
118	0xbe289004	-0.16461188
119	0xbdfe5036	-0.12417643
120	0xbdc0256d	-0.093821384
121	0xbde0bfc8	-0.10974079
122	0x3ca5ca14	0.02023796
123	0xbdd4113b	-0.10354849
124	0xbcaf9de9	-0.021437602
125	0xbcb05848	-0.02152647
126	0xbe11958c	-0.14217204
127	0xbdd1a982	-0.10237409
128	0xbd7d1465	-0.061787028
129	0xbde66194	-0.1124908
130	0xbe2ec823	-0.17068534
131	0xbd6a47b2	-0.05719728
132	0xbcb5cba6	-0.022191834
133	0xbd99b0f7	-0.075044565
134	0xbc376995	-0.011194606
135	0x3d141fde	0.036163203
136	0x3d05a9a5	0.03263249
137	0x3d01c33f	0.03168034
138	0x3c6832f2	0.014172303
139	0x3d7ece8e	0.062208705
140	0x3ad8a825	0.0016529603
141	0x3d300277	0.0429711
142	0x3d27a40a	0.040927924
143	0x3ce7a91d	0.028278882
144	0x3da2a790	0.07942116
145	0xbca6a6db	-0.020343235
146	0x3d811127	0.063021
147	0x3dcc3c49	0.09972436
148	0xbd61ba00	-0.055109024
149	0x3cf80a47	0.030278338
150	0x3cdf76ab	0.027278265
151	0xbcfd6844	-0.030933507
152	0x3d081670	0.033224523
153	0x3de6b5fa	0.11265178
154	0x3da843e0	0.08216071
155	0x3d1a74bb	0.03770898
156	0x3d6c0f32	0.05763168
157	0x3d964c8d	0.0733882
158	0x3d6329d8	0.055459827
159	0x3d11ae45	0.035566587
160	0xbd03d11f	-0.032181855
161	0xbd34beb4	-0.04412718
162	0xbda0e453	-0.078560494
163	0xbd62f036	-0.055404864
164	0xbe8fd8b6	-0.28095025
165	0xbc85ad33	-0.01631794
166	0xbd3f40de	-0.04669272
167	0xbdf96eca	-0.121793345
168	0xbb62b990	-0.0034595467
169	0xbd83ce2a	-0.06435807
170	0xbe83234b	-0.25612864
171	0xbcf6f221	-0.030144753
172	0xbdeac3bc	-0.114631146
173	0xbe41a924	-0.18912178
174	0xbc7814e4	-0.015141699
175	0xbd8fcd4f	-0.070215814
176	0xbe05060a	-0.12990585
177	0x3c9efe28	0.0194083
178	0xbd2f7546	-0.04283645
179	0xbe8c8a5a	-0.27449304
180	0xbdf96332	-0.12177123
181	0xbe03c58f	-0.12868331
182	0xbd98728e	-0.074437246
183	0xbd30faf3	-0.043208074
184	0xbd9891dd	-0.07449696
185	0xbd4914f0	-0.049092233
186	0xbddc2f7d	-0.10751245
187	0xbe514b25	-0.20438822
188	0xbde376e7	-0.11106663
189	0xbd84ed6e	-0.064905986
190	0xbd3a1ce1	-0.045437697
191	0xbdcd744d	-0.10031948
192	0xbd409eb2	-0.047026344
193	0xbd7b238e	-0.061313204
194	0xbb73d614	-0.0037206458
195	0xbd8d36e4	-0.06895235
196	0x3cab9a72	0.020947669
197	0xbc34957b	-0.011021967
198	0x3d0c5610	0.034261763
199	0x3db6fe42	0.089352146
200	0xbd267620	-0.040639997
201	0xbcb15b15	-0.021649877
202	0xbbb7f921	-0.0056144153
203	0xbd5a29fe	-0.053262703
204	0xbddb4438	-0.10706371
205	0xbdb3ba1f	-0.08775734
206	0xbdc90028	-0.09814483
207	0x3af0ec94	0.0018381053
208	0x3dffbc56	0.12487094
209	0x3d9402ba	0.072270826
210	0xbcfd9797	-0.030956073
211	0x3d439e65	0.04775848
212	0xbc7c5cee	-0.015403016
213	0xbd1fecac	-0.039044067
214	0x3c40bb8f	0.011763467
215	0x3d020806	0.031745933
216	0xbd0da092	-0.03457696
217	0x3b385481	0.002812654
218	0xbd4a2ba7	-0.049358036
219	0xbd0007b4	-0.031257346
220	0xbd1d9964	-0.038476363
221	0xbd2bb549	-0.041920934
222	0x3d60a8e0	0.05484855
223	0xbc6549b1	-0.01399462
224	0xbd4ed3b3	-0.05049486
225	0xb9940e67	-0.0002823949
226	0x3d4e3565	0.05034389
227	0xbd81be99	-0.06335182
228	0x3d11ce05	0.035596866
229	0x3d35f453	0.04442246
230	0x3d85a3f6	0.06525414
231	0x3c64e5f6	0.013970843
232	0xbd4bd3b2	-0.049762435
233	0xbcd92955	-0.026508966
234	0x3cdb4962	0.02676839
235	0x3cfcd6ab	0.03086408
236	0xbc5204ca	-0.012818525
237	0xbd832f8d	-0.06405554
238	0xbbf92bc9	-0.0076040966
239	0x3d84f185	0.06491379
240	0xbcd503a0	-0.026002705
241	0x3c9c524d	0.019082213
242	0x3c757a28	0.014982738
243	0x3cd085b8	0.025454387
244	0x3da83489	0.08213145
245	0x3d088d20	0.033337712
246	0xbd85b032	-0.06527747
247	0x3db24e2b	0.087063156
248	0x3d0dd17e	0.034623615
249	0x3cb0275b	0.021503141
250	0x3d7094a5	0.05873551
251	0x3dde4b85	0.10854248
252	0xbce0e916	-0.027454894
253	0xb9ef090b	-0.0004559237
254	0xbba56b75	-0.0050482103
255	0xbd43de08	-0.047819167

conv3.bias f4 [16]
0	0x3dc8ea3d	0.098103024
1	0xbd3649a9	-0.04450384
2	0x3d0a8559	0.033818576
3	0xbdf04db1	-0.117335685
4	0xbd39d402	-0.045368202
5	0x3c36b166	0.0111506935
6	0xbd8c0d57	-0.06838482
7	0xbd9f80b5	-0.07788221
8	0x3c350bb9	0.011050158
9	0xbd68ba43	-0.056818258
10	0x3e1e0227	0.15430509
11	0xbce3736c	-0.027764998
12	0xbe44fa8f	-0.19236206
13	0xbda42678	-0.0801515
14	0x3e084082	0.13305858
15	0xbd58bcca	-0.05291442

conv4.weight f4 [32, 16, 3, 3, 3]
0	0xbdadbb27	-0.08482962
1	0xbd4f2290	-0.05057007
2	0xbe00b765	-0.1256996
3	0xbcc14f32	-0.023597334
4	0xbc731e27	-0.014838732
5	0xbd2a5917	-0.04158887
6	0xbd245d6a	-0.04012815
7	0xbcf0b610	-0.02938369
8	0xbd319317	-0.043353166
9	0xbd90a0c1	-0.070619114
10	0xbc7cb9e2	-0.015425177
11	0xbcd6daab	-0.026227316
12	0xbc269ee6	-0.01016972
13	0xbd22d37e	-0.039752476
14	0x3caeae18	0.021323249
15	0x3b434505	0.0029795778
16	0x3bdd5291	0.0067542274
17	0x3d2332cc	0.039843366
18	0xbd8a08c1	-0.06739951
19	0xbd68c7cd	-0.05683117
20	0xbd1a85a7	-0.037725117
21	0xbca7c483	-0.020479446
22	0xbd9846c8	-0.074353755
23	0xbd8157e4	-0.06315592
24	0xbdb68e2d	-0.08913837
25	0xbcec0294	-0.028809823
26	0x3c3f97fa	0.011693949
27	0xbd19cc31	-0.037548248
28	0x3d0be3d3	0.034152817
29	0x3d5baf60	0.053634048
30	0xbaa2615e	-0.0012388637
31	0xbc9a4a07	-0.018834127
32	0xbd4410a8	-0.047867447
33	0x3d478abd	0.048716296
34	0xbc473003	-0.012157443
35	0xbc7fee6b	-0.015620808
36	0x3cccecd0	0.025015265
37	0x3d293874	0.041313604
38	0x3d51a75b	0.051184993
39	0x3be51581	0.006991089
40	0xbd0e1fc8	-0.034698278
41	0xbde7841f	-0.11304497
42	0xbc6a9961	-0.014318795
43	0xbba75f89	-0.005107824
44	0xbda008a7	-0.0781415
45	0x3d87799c	0.06614992
46	0x3da24534	0.07923356
47	0x3cd0cbc2	0.025487784
48	0x3d987e6d	0.07445989
49	0xbd65457e	-0.055974476
50	0x3c7ed1c3	0.015552941
51	0x3ce24c15	0.02762417
52	0x3d16497f	0.036691185
53	0x3d8addd2	0.0678059
54	0x3d3f15c5	0.04665162
55	0x3c7922ed	0.015206081
56	0x3cb54ac6	0.022130381
57	0x3bf2e82d	0.0074129314
58	0xbd539999	-0.051660154
59	0x3c0cc8de	0.008592812
60	0x3ca6933a	0.020333875
61	0x3c8e0076	0.017334204
62	0xbd8f49c5	-0.06996492
63	0x3cbdc0fe	0.023163315
64	0xbc8b8fcc	-0.017036341
65	0xbc928b3c	-0.017888658
66	0xbb084e52	-0.0020798636
67	0xbdc714de	-0.09720777
68	0xbdb25372	-0.08707322
69	0xbd0475b4	-0.032338813
70	0xbdab46f8	-0.083631456
71	0xbdc8b4c5	-0.09800104
72	0x3d8565f5	0.065135874
73	0xbd041bc8	-0.032253057
74	0xbc0d1fe3	-0.008613559
75	0x3c036404	0.008019451
76	0xbc875b77	-0.016523106
77	0x3be978cd	0.0071249963
78	0xbc35f965	-0.011106824
79	0x3d5dd767	0.0541605
80	0x3d38eed7	0.04514965
81	0xbcceb957	-0.025234861
82	0x3ce114ea	0.027475793
83	0xbd2f01af	-0.042726215
84	0xbd62078c	-0.05518298
85	0x3bc7531e	0.0060829064
86	0xbc2e8d71	-0.010653839
87	0xbd8d37a3	-0.068953775
88	0x3c6b0eda	0.014346803
89	0x3d9a4c47	0.0753408
90	0x3bbfc6c1	0.0058525507
91	0xbc2027d8	-0.0097751245
92	0x3d4f9074	0.05067487
93	0xbc98a357	-0.018632574
94	0x3d1b664d	0.03793936
95	0x3d0b09de	0.033944957
96	0xbd0bbf91	-0.03411824
97	0x3c48db9f	0.012259393
98	0x3ccc5b30	0.024945825
99	0xba9005a8	-0.0010988014
100	0xbcf919f4	-0.030407883
101	0xbcc0142b	-0.023447117
102	0xbcf60b22	-0.030034605
103	0xbc439fc6	-0.011939948
104	0xbd3b9326	-0.04579463
105	0xbd16f417	-0.036853876
106	0x3d056856	0.032570206
107	0xbd5c247a	-0.053745724
108	0x3dc7926f	0.09744727
109	0x3dbadb80	0.091238976
110	0x3d1edb96	0.038783632
111	0xbd1460b6	-0.036225043
112	0x3c335293	0.01094498
113	0x3bf9f450	0.0076280013
114	0xbd489f06	-0.04897978
115	0xbd251433	-0.040302467
116	0x3d8e562d	0.069500305
117	0xbd00f68b	-0.03148512
118	0x3c2c5aac	0.010519665
119	0xbaa4736a	-0.0012546603
120	0xbdf9e2ea	-0.122014835
121	0xbe0e7421	-0.13911487
122	0xbdb07aa0	-0.08617139
123	0xbab97b79	-0.0014151178
124	0xbcfa5a09	-0.03056051
125	0x3c5976fc	0.013272997
126	0x3dfec4f5	0.1243991
127	0x3d9e523d	0.077305295
128	0x3e694fa0	0.22784281
129	0xbdc63371	-0.096777804
130	0xbd62e730	-0.05539626
131	0x3dbb3af5	0.091421045
132	0x3c1b5e0f	0.009482875
133	0x3e042e4a	0.12908283
134	0x3e2b15d6	0.16707548
135	0x3cbc0942	0.022953633
136	0xbd91af34	-0.071134955
137	0xbda3753f	-0.07981347
138	0x3d99270c	0.07478151
139	0x3cb1b364	0.021691985
140	0x3d5ca3d9	0.053867195
141	0x3c9344d3	0.017977154
142	0x3d3de6d9	0.04636273
143	0x3d8006d9	0.06251306
144	0x3d2259e6	0.039636515
145	0x3e0503e2	0.12989762
146	0x3d258704	0.040411964
147	0x3d7ee80f	0.062233027
148	0xbd1efa3b	-0.038812857
149	0x3c1027f6	0.00879859
150	0xbd118023	-0.03552259
151	0xbd84d008	-0.06484991
152	0xbcb55c2f	-0.022138683
153	0x3d0f1351	0.03493053
154	0x3d79940d	0.060932208
155	0x3d06bc3b	0.032894354
156	0x3c14c0b6	0.009079149
157	0xbd0be82e	-0.03415697
158	0xbdac65a7	-0.08417826
159	0x3a7c0078	0.0009613107
160	0xbd73c821	-0.05951703
161	0x3c13d652	0.009023266
162	0xbc378869	-0.011201956
163	0x3d50ef8c	0.0510097
164	0x3d2e822d	0.042604614
165	0xbd673490	-0.056446612
166	0x3d39488a	0.045235194
167	0x3d7c5e5d	0.06161343
168	0x3c563660	0.013074487
169	0x3dc5a313	0.096502446
170	0x3dc11781	0.09428311
171	0xbd46eacb	-0.04856376
172	0xbca0cde7	-0.019629432
173	0x3d342e00	0.04398918
174	0xbca09c8b	-0.019605896
175	0xbd21f10a	-0.039536513
176	0xbd3277c1	-0.043571237
177	0x3e0f5bde	0.13999888
178	0x3d01b9d8	0.031671375
179	0x398001e7	0.0002441548
180	0x3d1323b3	0.035922717
181	0x3d5a6342	0.053317316
182	0x3db7bf3f	0.08972024
183	0xbc4aca4b	-0.012377332
184	0x3d46f33b	0.048571806
185	0x3d4a71dc	0.04942499
186	0x3e045c1b	0.1292576
187	0x3d2035d2	0.039113827
188	0xbcfe07eb	-0.031009635
189	0xbc537725	-0.012906824
190	0x3c8f61e8	0.01750274
191	0x3d0cd7a3	0.034385335
192	0x3c6b6727	0.014367855
193	0xbd014630	-0.031561077
194	0x3cbf2c85	0.023336658
195	0x3cccaa61	0.024983587
196	0xbc45c322	-0.012070449
197	0xbb153704	-0.0022768388
198	0xbc51ff3f	-0.012817203
199	0xbd0e35d2	-0.034719296
200	0x3d3cf965	0.04613628
201	0xbd1093de	-0.035297267
202	0x3c3623f4	0.01111697
203	0x3d00afd7	0.031417694
204	0x3ca7e36a	0.020494182
205	0xbcb08aa7	-0.02155049
206	0x3d3a1a0d	0.045435
207	0x3d063cb6	0.032772742
208	0x3ce940fe	0.028473374
209	0x3c0f857b	0.008759852
210	0x3c1d0841	0.009584487
211	0xbc91956a	-0.017771441
212	0xbd38af0d	-0.045088816
213	0x3d198ddc	0.037488803
214	0x3b9acd8a	0.004724209
215	0x3c88c179	0.016693817
216	0xbc496132	-0.01229124
217	0xbcc05d8b	-0.023482105
218	0xbc59ea4e	-0.0133004915
219	0x3b354383	0.0027658648
220	0x3bf34513	0.007424006
221	0xbd053308	-0.03251937
222	0xbd100043	-0.0351565
223	0xbce1cba6	-0.027562927
224	0xbbcea98b	-0.006306832
225	0xbd01d763	-0.03169955
226	0x3c165257	0.009174905
227	0xbbbdb430	-0.0057893023
228	0xbc0c92fb	-0.008579965
229	0xbcaf7832	-0.021419618
230	0xbd4453fc	-0.047931656
231	0x3aad97d6	0.0013244103
232	0x39c91ec8	0.0003836064
233	0xbd58eb77	-0.05295893
234	0xbc2ce7e6	-0.010553336
235	0x3cf17907	0.029476656
236	0x3ccab868	0.024746135
237	0xbcfd3c49	-0.030912535
238	0x3b66c1b0	0.0035210662
239	0xbcdc6269	-0.026902394
240	0xbc9bd6b4	-0.019023277
241	0xbc223013	-0.009899157
242	0x3b637ed2	0.0034713042
243	0x3cf3ceb8	0.029761657
244	0x3d0baf1d	0.034102548
245	0x3d37988c	0.044823214
246	0xbd2cb9ce	-0.042169385
247	0xbdb23b16	-0.08702676
248	0xbc9a1041	-0.018806579
249	0xbd1e1ac4	-0.038599744
250	0xbd969ef5	-0.073545374
251	0xbd58059c	-0.052739725
252	0x3e24adb7	0.16081892
253	0x3d7477f3	0.059684705
254	0x3cfa6792	0.030566964
255	0x3c80eae9	0.015737014

conv4.bias f4 [32]
0	0x3d1da9f0	0.038492143
1	0x3da3c59c	0.07996675
2	0x3cda9ce7	0.026686145
3	0x3c116063	0.008873078
4	0x3d1c953b	0.038228255
5	0xbc0c1bde	-0.008551566
6	0x3dae6f7c	0.08517358
7	0xbe9391fd	-0.28822318
8	0x3d87b879	0.06626982
9	0xbd7eb6b4	-0.062185958
10	0x3ca9d8d4	0.020733275
11	0xbc7e1c29	-0.015509644
12	0x3dd1dd21	0.10247255
13	0xbd5f2b3e	-0.0544846
14	0xbde233c9	-0.110450335
15	0xbd7e2d8f	-0.062055167
16	0xbc61ace5	-0.013774131
17	0x3da58e20	0.08083749
18	0xbd5efaa8	-0.054438263
19	0x3dd287f0	0.10279834
20	0x3c036e3e	0.008021889
21	0x3dacefec	0.08444199
22	0xbd01f5a2	-0.031728394
23	0x3d65e550	0.056126893
24	0xbc06cdf7	-0.008227817
25	0xbbde5d39	-0.0067860154
26	0x3cab3943	0.020901328
27	0x3daa18e4	0.08305529
28	0x3d85bf3d	0.065306164
29	0x3b04007f	0.0020141897
30	0x3e201705	0.15633781
31	0xbdb72abc	-0.08943698

conv5.weight f4 [64, 32, 2, 2, 2]
0	0x3c7ace02	0.015307905
1	0xbd79488d	-0.060860205
2	0xbbf490e9	-0.0074635637
3	0x3d88529e	0.06656383
4	0x3cb65a38	0.022259817
5	0xbd8d925d	-0.06912682
6	0x3c8ed013	0.017433202
7	0xbd55ff37	-0.052245345
8	0x3ced19fa	0.02894305
9	0xb998134b	-0.00029006074
10	0x3c999d45	0.01875175
11	0x3beb2685	0.0071762227
12	0xbc82ffee	-0.015991177
13	0x3d9892d5	0.07449881
14	0x3a964ae6	0.0011466413
15	0x3c2bb785	0.010480766
16	0xbcc70d0e	-0.024298217
17	0x3d14baa5	0.03631081
18	0x3c7f9380	0.015599132
19	0x3d57df58	0.05270323
20	0x3d3b1c54	0.045681313
21	0x3d8f6f25	0.07003621
22	0xbcd6b419	-0.026208924
23	0x3b7774fc	0.0037758937
24	0x3d657c2e	0.05602663
25	0xbc16b768	-0.009199001
26	0xbd56182e	-0.052269153
27	0x3dac4e80	0.0841341
28	0x3d07cb92	0.033153124
29	0x3d1c146d	0.038105417
30	0x3cfebdad	0.031096304
31	0x3cca19ee	0.024670567
32	0xbc3fa268	-0.0116964355
33	0x3b996721	0.0046814834
34	0x3d00ad48	0.031415254
35	0x3dc00e68	0.09377748
36	0x3bc776cf	0.006087161
37	0x3cf4437d	0.029817337
38	0x3d186884	0.03720905
39	0x3d106c83	0.035259735
40	0xbc7ac44d	-0.015305591
41	0xbdaa9208	-0.083286345
42	0xbdb0a20f	-0.0862466
43	0xbdabafaa	-0.08383115
44	0x3dd00acb	0.101583086
45	0x3dac72c2	0.08420326
46	0x3d8af7aa	0.067855194
47	0x3e08e790	0.13369584
48	0xbdbf7aac	-0.0934957
49	0x3d943465	0.07236556
50	0xbddeecdb	-0.1088502
51	0xbd263a3a	-0.040582873
52	0xbdd25c4e	-0.10271512
53	0x3da6e1dc	0.08148548
54	0xbda8687c	-0.08223054
55	0x3b9187f4	0.0044412557
56	0xbdfdde89	-0.12395961
57	0x3e0ccacf	0.1374924
58	0xbe68445d	-0.22682329
59	0x3c673eaf	0.014114066
60	0xbddddadd	-0.108327605
61	0x3db1a8b2	0.08674754
62	0xbe93ce84	-0.28868496
63	0xbdd81d10	-0.10552418
64	0xbbc339e9	-0.005957831
65	0xbd25d53e	-0.040486567
66	0x3d84c25c	0.064823836
67	0xb8206fc7	-3.8251073e-05
68	0x3d483a95	0.048883993
69	0x3c938a2c	0.018010221
70	0x3dbdf68c	0.09275541
71	0x3d3aa90d	0.045571376
72	0xbcadfc85	-0.021238575
73	0xbd85b46e	-0.06528555
74	0xbdfd1d5b	-0.12359115
75	0xbd6b9e7a	-0.057524182
76	0xbdd0ed5c	-0.10201523
77	0x3ce9e44a	0.02855124
78	0xbde7f144	-0.11325315
79	0x3a3e8062	0.00072670553
80	0xbcd51c9c	-0.026014619
81	0x3dac7ee2	0.084226385
82	0xbc4a37c6	-0.012342399
83	0x3dbaf9b9	0.09129662
84	0xbde582a7	-0.112065606
85	0x3d800ede	0.06252836
86	0xbd53323b	-0.051561575
87	0x3dc5aa53	0.096516274
88	0x3db284bb	0.087167226
89	0xbcc03ca3	-0.023466414
90	0xbc17cf6c	-0.009265762
91	0xbcb5fdc0	-0.022215724
92	0x3d1c67fb	0.0381851
93	0x3c1b5ac5	0.00948209
94	0xbc34cbb8	-0.011034898
95	0xbd9b1c79	-0.0757379
96	0x3d59a8f6	0.05313965
97	0xbd694894	-0.05695398
98	0xbd44ad67	-0.04801693
99	0x3ccd6d7c	0.02507662
100	0xbcc1ef8d	-0.023673797
101	0x3d0a05d8	0.03369698
102	0xbbd9fdcb	-0.006652569
103	0xbc866439	-0.016405212
104	0xbdd2d1ef	-0.10293948
105	0xbcbb3b71	-0.022855492
106	0xbdfb5d06	-0.12273602
107	0xbdd6bdc0	-0.10485411
108	0xbc84cb41	-0.0162102
109	0x3daed35d	0.08536408
110	0xbd112e38	-0.03544447
111	0xbcbd99cf	-0.02314463
112	0xbdd0445b	-0.10169288
113	0xbd7e7e45	-0.06213214
114	0xbcb56aa0	-0.02214557
115	0xbd2aec9d	-0.04172956
116	0xbbda906c	-0.0066700485
117	0xbcf47987	-0.029843105
118	0xbcc765b1	-0.024340482
119	0xbda3ceae	-0.079984054
120	0x3d8f9bcc	0.07012138
121	0xbd45b730	-0.048270404
122	0x3c9aa9b5	0.01887975
123	0xbcefe2d4	-0.029282965
124	0x3ddb5980	0.1071043
125	0x3d32ef33	0.04368515
126	0xbd212cc9	-0.03934935
127	0xbd97b973	-0.074084185
128	0xbd0d77f8	-0.03453824
129	0x3ba4021d	0.0050051347
130	0xbccd718b	-0.025078556
131	0xbcdf078a	-0.027225275
132	0xbcd7b858	-0.02633302
133	0x3d6b98d9	0.057518814
134	0x3d581573	0.05275483
135	0xbd5d5b01	-0.054041866
136	0x3aa041eb	0.0012226676
137	0x3cfe5a35	0.031048873
138	0x3d9294d6	0.071572945
139	0x3de40d39	0.111353345
140	0xbb3aab46	-0.0028483435
141	0x3bc53f87	0.006019536
142	0x3d543799	0.051810835
143	0xbbfaab5d	-0.0076498226
144	0x3daa7d1a	0.083246425
145	0x3df16c65	0.11788253
146	0xbd809af4	-0.06279555
147	0xbd3c0903	-0.04590703
148	0x3d26bb4f	0.040705975
149	0x39f80102	0.00047302997
150	0x39f881bf	0.00047398914
151	0x3c1fd866	0.009756183
152	0xbde76be1	-0.11299873
153	0xbd0f4f40	-0.034987688
154	0xbd65b781	-0.056083206
155	0xbdc5b232	-0.09653129
156	0xbd8f7689	-0.07005031
157	0xbbbbb1bd	-0.005727975
158	0xbe1ac99d	-0.15115972
159	0xbdd88a83	-0.10573294
160	0x3c29dc81	0.010367514
161	0xbd0608be	-0.03272318
162	0x3d8909d5	0.066913284
163	0x3dedfa42	0.116199985
164	0x3add0f7c	0.0016865577
165	0xbd056ae8	-0.032572657
166	0xbcb468a9	-0.022022562
167	0x3dd8673d	0.10566566
168	0x3d66fec0	0.056395292
169	0x3cb4a5dd	0.022051746
170	0x3d6c37e3	0.057670485
171	0x3dc8ba75	0.09801189
172	0xbc80cc68	-0.015722468
173	0xbc280a45	-0.010256355
174	0x3aa9fd2c	0.0012969128
175	0x3da2ef99	0.07955856
176	0xbe0659f6	-0.13120255
177	0xbd9bcc40	-0.07607317
178	0xbe0cf20c	-0.13764209
179	0xbd191fa6	-0.037383698
180	0xbd934191	-0.0719024
181	0xbcf8877a	-0.030338038
182	0xbd6f901e	-0.05848705
183	0xbc008fc4	-0.007846776
184	0xbd96bd82	-0.073603645
185	0xbd0eb9e3	-0.034845244
186	0xbda1f4aa	-0.07907994
187	0xbcdbce20	-0.026831686
188	0xbd653160	-0.05595529
189	0x3d8d5ffe	0.06903075
190	0x3c98e81e	0.01866537
191	0x3d16094d	0.036629964
192	0x3cad16f9	0.021129118
193	0x3c25cf21	0.010120184
194	0x3c802c87	0.015646232
195	0x3db6944f	0.08915006
196	0xbe0638e7	-0.13107644
197	0xbd1151d0	-0.035478413
198	0x3cc43f8a	0.023956079
199	0xbd9b4b72	-0.075827494
200	0xbd4d04a5	-0.050053257
201	0xbd6f9dac	-0.058499977
202	0x3d7c9ed6	0.061674915
203	0xbd2bf8eb	-0.041985434
204	0x3d37353d	0.044728506
205	0x3d48a8e4	0.04898919
206	0x3cf6f4aa	0.030145962
207	0xbcf5d9af	-0.030011026
208	0xbd4fdd9f	-0.050748464
209	0x3cb50f13	0.022101915
210	0xbe0753fe	-0.13215634
211	0xbcfe2a9c	-0.031026177
212	0xbd93d176	-0.07217686
213	0x3cfbd9e7	0.030743552
214	0xbbdee490	-0.006802149
215	0xbc1ff7df	-0.009763687
216	0x3d9d2f4b	0.07675036
217	0x3d777896	0.060417734
218	0x3ca8125a	0.020516563
219	0x3bfc1532	0.0076929564
220	0x3c9b1788	0.018932119
221	0xbb280e0c	-0.0025643138
222	0x3c895609	0.016764658
223	0xbd1a2671	-0.037634317
224	0x3d63933d	0.05556034
225	0x3c438729	0.01193408
226	0x3def8912	0.11696066
227	0x3d5ae5bf	0.05344176
228	0x3d9870e0	0.07443404
229	0x3d2c0f08	0.042006522
230	0x3c268fb9	0.010166102
231	0xbba7d2ac	-0.0051215496
232	0x3cc44f32	0.023963545
233	0xbc8015c6	-0.015635382
234	0xbda5f182	-0.081027046
235	0x3d46f2ed	0.048571516
236	0x3d545012	0.051834174
237	0x3cbbdbbe	0.02293193
238	0xbb68fa66	-0.003554964
239	0x3cd7eb1e	0.02635723
240	0xbd0bf8b1	-0.034172717
241	0x3ccc187a	0.024914015
242	0x3d2fafaf	0.042892154
243	0x3cef61b2	0.02922139
244	0xbd3edfc6	-0.046600126
245	0xbce454a1	-0.027872385
246	0x3d6b72a9	0.057482395
247	0x3ce8bcca	0.028410334
248	0x3cfd370f	0.030910043
249	0xbd12a40a	-0.03580097
250	0x3d276043	0.040863287
251	0x3c7c27f8	0.015390389
252	0xbb81c05f	-0.0039597
253	0xbc979506	-0.018503677
254	0xbc9c5540	-0.01908362
255	0xbcded1c0	-0.027199626

conv5.bias f4 [64]
0	0x3d9ee10b	0.07757767
1	0x3db924e3	0.09040239
2	0x3d8988a3	0.067155145
3	0x3d51acf0	0.051190317
4	0xbd2bafba	-0.041915633
5	0x3d93d3ff	0.072181694
6	0xbd9e9280	-0.077427864
7	0x3d2e2227	0.04251304
8	0x3de10aa1	0.109883554
9	0x3defee82	0.11715414
10	0xbddebff9	-0.1087646
11	0xbc9ca2d0	-0.019120604
12	0xbb7e55b7	-0.0038808414
13	0xbd786b3f	-0.060649153
14	0x3d91a786	0.07112031
15	0x3dc773b9	0.09738869
16	0x3ca35579	0.019938217
17	0x3de38521	0.11109377
18	0x3cb719ed	0.02235123
19	0x3d8bc891	0.068253644
20	0x3d819c26	0.06328611
21	0x3dd180ba	0.10229631
22	0xbc5e9001	-0.013584138
23	0x3db1bc63	0.0867851
24	0xbd886153	-0.06659188
25	0x3deeb2b4	0.11655179
26	0x3d9e164d	0.07719097
27	0x3d3ef3b9	0.04661915
28	0x3da621cc	0.08111915
29	0x3e228e50	0.158746
30	0x3d36f2b7	0.044665065
31	0x3e4a2729	0.19741501
32	0x3dabd5b6	0.083903715
33	0xbd4f1127	-0.050553467
34	0x3d97a208	0.07403952
35	0xbdabb052	-0.0838324
36	0xbc35f132	-0.011104869
37	0x3dd932f6	0.10605423
38	0xbc6232f5	-0.013806094
39	0xbdb87f60	-0.0900867
40	0x3cec5005	0.02884675
41	0x3d53ee69	0.051741038
42	0x3ddac18c	0.106814474
43	0x3b02021e	0.0019837688
44	0x3baf6622	0.0053527514
45	0x3cc5d0e7	0.024147464
46	0x3d936734	0.07197419
47	0x3d9f03dd	0.07764409
48	0xbd3ca469	-0.04605523
49	0x3da717b8	0.08158821
50	0xbcb0bf3c	-0.021575563
51	0x3cee4906	0.029087555
52	0xbda623c0	-0.081122875
53	0x3dc20b37	0.09474795
54	0xbd0b724d	-0.034044553
55	0xbc409560	-0.011754364
56	0xbc762009	-0.015022286
57	0x3d80b5cf	0.06284677
58	0xbd9ff063	-0.07809522
59	0x3d2c8f1b	0.042128664
60	0x3da51c7a	0.08062072
61	0x3d718410	0.058963835
62	0xbd8e5ccd	-0.06951294
63	0x3d6e9f80	0.05825758

linear1.weight f4 [128, 512]
0	0x3ae97891	0.0017812421
1	0xbd1284d4	-0.035771206
2	0x3da7cb42	0.08193065
3	0x3c814861	0.015781583
4	0x3d35f590	0.04442364
5	0xbc95d0f5	-0.018288115
6	0x3bc080aa	0.005874713
7	0x3a0b40f9	0.0005312111
8	0xbc69f57e	-0.014279721
9	0x3d11f46c	0.03563349
10	0x3d00abcf	0.03141385
11	0xbb809ff5	-0.0039253184
12	0xbcc3a94c	-0.023884438
13	0x3d8713f9	0.06595606
14	0x3d36fd50	0.04467517
15	0x3d994adb	0.07484981
16	0x3d9e0eed	0.077176906
17	0x3c06f1b8	0.008236341
18	0x3d8a9659	0.06766958
19	0x3b81c852	0.0039606476
20	0x3c7ecfa7	0.015552438
21	0xbd79792d	-0.060906578
22	0x3d3c19bc	0.04592298
23	0xbce25cfe	-0.027632233
24	0xbd879465	-0.06620101
25	0xbd2f0d4b	-0.042737287
26	0xbca01d44	-0.019545205
27	0xbd253a19	-0.04033861
28	0xbda2d4d3	-0.07950749
29	0x3c0e4ad3	0.008684832
30	0xbc3840df	-0.011245935
31	0xbd373ebc	-0.044737563
32	0xba269e73	-0.0006356008
33	0x3ca32f35	0.019919971
34	0xbbe08f1c	-0.0068529975
35	0xbcb69355	-0.02228705
36	0x3d59c28b	0.053164046
37	0x3c812234	0.01576338
38	0x3c2df4a3	0.010617408
39	0xbcfbabd7	-0.030721588
40	0x3d22faa9	0.03978983
41	0xbdaf32bc	-0.08554599
42	0xbcd29b0a	-0.025708694
43	0xbda98d07	-0.08278852
44	0x3d703b4b	0.058650296
45	0xbd74499e	-0.05964052
46	0xbc8dc10c	-0.017303966
47	0xbcf2a337	-0.029618843
48	0xbd441989	-0.047875915
49	0xbc867555	-0.01641337
50	0xbd2fb15b	-0.04289375
51	0x3c0cfaae	0.008604689
52	0x3b864655	0.0040977397
53	0xbc5c5dfb	-0.013450141
54	0xbbf51252	-0.0074789906
55	0xbd032fdf	-0.032028075
56	0xbc913e4d	-0.017729903
57	0x3db794af	0.08963906
58	0x3d165d6a	0.03671018
59	0x3d9f49ed	0.07777772
60	0x3bfabfae	0.0076522445
61	0x3cbbb8aa	0.022915203
62	0x3a9459a3	0.0011318218
63	0x3dea1e2f	0.11431538
64	0xbcf23101	-0.029564383
65	0xbd02677e	-0.03183698
66	0x3d59ce5f	0.053175326
67	0x3a5707a5	0.0008202738
68	0x3c4714ac	0.012150925
69	0x3d93decf	0.07220232
70	0x3c23736a	0.009976247
71	0x3c8b8cf5	0.017034987
72	0x3c1315a2	0.008977326
73	0x3d9b9fed	0.07598863
74	0xbd5f17fe	-0.05446624
75	0x3d222073	0.039581727
76	0xbd0e9610	-0.03481108
77	0xbc0774ce	-0.0082675945
78	0xbcb5f787	-0.022212757
79	0xbd0701f4	-0.032960847
80	0xbd997782	-0.074934974
81	0x3b951189	0.0045492095
82	0x3c6cf0d7	0.014461718
83	0x3cb3b7a7	0.021938158
84	0xbd155e3d	-0.036466826
85	0x3d449cfa	0.048001267
86	0xbad7994c	-0.0016448884
87	0x3d12f799	0.03588066
88	0x3d1b3c43	0.037899267
89	0xbc210577	-0.009827963
90	0x3d85466e	0.06507574
91	0x3d145262	0.03621138
92	0x3d6b98be	0.057518713
93	0xbc853a20	-0.016263068
94	0xbcee48fa	-0.029087532
95	0xbd01e6c8	-0.03171423
96	0xbc6139be	-0.013746677
97	0xbcd3a546	-0.025835644
98	0xbd345513	-0.044026446
99	0xbd9cfa18	-0.07664889
100	0xbd2e60e4	-0.04257287
101	0xbd20389e	-0.039116494
102	0x3cf228af	0.029560415
103	0xbd0c1751	-0.034201924
104	0xbd39d3ba	-0.045367934
105	0xbcc00d8a	-0.023443956
106	0xbc576154	-0.013145763
107	0xbc660bea	-0.0140409265
108	0x3ccd648f	0.025072364
109	0xbc9241c6	-0.017853629
110	0xbd5420fe	-0.051789276
111	0xbcf520f1	-0.029922934
112	0xbd1af4a8	-0.03783098
113	0x3da193cb	0.078895174
114	0x3cd6a052	0.026199494
115	0x3c7935b6	0.01521056
116	0x3c5bd495	0.013417383
117	0xbbc38ef6	-0.00596797
118	0xbbcc7b21	-0.006240264
119	0x3b3cb2bf	0.0028793064
120	0xbd9fe4c1	-0.07807303
121	0xbda6f556	-0.08152263
122	0x3d0503a4	0.032474175
123	0x3d1efcd8	0.03881535
124	0x3d487ea1	0.048948888
125	0x3e107dc9	0.14110483
126	0x3e19dbaf	0.15025209
127	0x3e7deea9	0.24798073
128	0xbd9e49e2	-0.07728936
129	0x3c5a152e	0.013310714
130	0xbcfebce3	-0.031095928
131	0x3c19e441	0.009392799
132	0xbcceead8	-0.025258467
133	0xbcc4290e	-0.023945358
134	0xbd9ca35d	-0.076483466
135	0x3bd4ba75	0.006491954
136	0xbd3a8fd2	-0.045547314
137	0xbcdd36f7	-0.027003748
138	0xbc57ecca	-0.0131790135
139	0xbd3a7846	-0.045524858
140	0x3de5a207	0.11212545
141	0x3de4f4f0	0.111795306
142	0x3e16d32c	0.14728993
143	0x3dc87b39	0.09789128
144	0xbc424161	-0.011856408
145	0x3cd78ac9	0.026311295
146	0xbcf93bb8	-0.030423984
147	0xbc30b2f2	-0.010784851
148	0x3b3956ee	0.0028280574
149	0xbd876ed9	-0.066129394
150	0x3ce0dead	0.02744993
151	0xbd9ce17f	-0.076601975
152	0x3cd48086	0.025940191
153	0xbd282198	-0.041047662
154	0x3d354728	0.044257313
155	0xbd49c6b9	-0.049261782
156	0x3c937d48	0.018004075
157	0xbd1d90aa	-0.03846804
158	0x3db19e3d	0.0867276
159	0x3c12068e	0.008912696
160	0x3ae3dbe8	0.0017384263
161	0x3d056d72	0.03257508
162	0x3c51e211	0.012810246
163	0x3c289da4	0.010291491
164	0xbb9ad046	-0.004724535
165	0x3d0761fa	0.033052422
166	0x3bead2ea	0.007166256
167	0xbcfaf992	-0.030636583
168	0x3ca6f5fd	0.020380968
169	0xbc0144e7	-0.007889963
170	0xbc91e25e	-0.017808136
171	0x3cd7921c	0.026314788
172	0x3d78b4fa	0.060719468
173	0x3d54ddf7	0.051969495
174	0x3d1aa892	0.037758417
175	0x3d31a789	0.043372665
176	0x3cd839a2	0.026394669
177	0xbbeab297	-0.007162403
178	0x3da283d6	0.07935302
179	0x3c825267	0.015908433
180	0x3cb3b399	0.021936225
181	0xbcae2c87	-0.021261467
182	0xbcd37a4f	-0.025815157
183	0xbd622820	-0.055214047
184	0x3da2e529	0.07953865
185	0x3d404b1f	0.04694664
186	0xbd4aadcf	-0.049482163
187	0x3d530a0b	0.05152325
188	0x3cdc4b6e	0.026891436
189	0x3d647bfc	0.055782303
190	0x3bc1e1b9	0.005916801
191	0x3cf9ab63	0.030477231
192	0xbd22e42f	-0.039768394
193	0xbd1b4164	-0.03790416
194	0xbd1b7ce7	-0.037960913
195	0xbccd9de1	-0.025099697
196	0x3d047f2d	0.032347847
197	0x3d008893	0.031380247
198	0x3d2064a8	0.039158493
199	0x3c530dca	0.012881706
200	0xbd00d5a8	-0.03145376
201	0x3cc72b2a	0.024312574
202	0xbc3c54b0	-0.0114948
203	0xbce49ee7	-0.027907802
204	0xbc5b7eff	-0.013396977
205	0x3c818de4	0.015814729
206	0x3d2097c7	0.039207246
207	0x3b987662	0.004652784
208	0xbd15c41a	-0.03656397
209	0x3d002ecd	0.031294633
210	0xba846130	-0.0010099765
211	0x3cd7aa5a	0.026326347
212	0x3d637d69	0.055539522
213	0x3c31f3f9	0.01086139
214	0x3ca54790	0.020175725
215	0xbc917352	-0.017755184
216	0x3c84379a	0.016139794
217	0x3c03af77	0.00803744
218	0x3d12abf9	0.035808537
219	0x3b98e132	0.0046655172
220	0x3cb6aaf2	0.02229831
221	0xb98427ab	-0.00025206557
222	0x3bc47699	0.0059955833
223	0xbd48428b	-0.048891585
224	0xbd9de07f	-0.07708835
225	0xbd034d70	-0.032056272
226	0xbdf35e68	-0.11883241
227	0xbd65e39c	-0.05612527
228	0xbdcd832e	-0.10034786
229	0xbd86a80b	-0.065750204
230	0xbd174a3f	-0.03693604
231	0xbdbc0803	-0.091812156
232	0x3d1e6ea3	0.03867973
233	0x3d50d892	0.050987788
234	0x3d32854b	0.04358415
235	0x3da2ace3	0.07943132
236	0x3c2cc1cc	0.010544252
237	0xbd43ada7	-0.04777303
238	0xbc35c2ab	-0.011093776
239	0xbd3f1d02	-0.046658523
240	0xba99738a	-0.0011707407
241	0xbd6b27d9	-0.05741105
242	0x3dc1512b	0.0943931
243	0xbdaf3292	-0.085545674
244	0x3db5b2b4	0.088719755
245	0xbd814dd0	-0.0631367
246	0x3cb73bbb	0.022367349
247	0xbcb8e3b2	-0.022569511
248	0xbe52ded8	-0.2059282
249	0xbe042199	-0.12903441
250	0xbe3ca53f	-0.18422411
251	0xbca8a9df	-0.020588813
252	0xbebb69e4	-0.36604226
253	0xbea111b9	-0.31458834
254	0xbec1fc45	-0.3788778
255	0xbea3ea41	-0.3201466

linear1.bias f4 [128]
0	0x3d193bcc	0.037410542
1	0x3d1cdda8	0.038297325
2	0x3c1dd318	0.009632848
3	0x3d6ba984	0.05753471
4	0xbc417089	-0.011806616
5	0x3b97f414	0.0046372507
6	0xbce3fde5	-0.027831027
7	0xbda1e3ca	-0.079047754
8	0x3d4a1a71	0.049341623
9	0xbe26ed69	-0.16301502
10	0x3be369f3	0.0069401204
11	0x3d69722a	0.05699364
12	0xbda20600	-0.07911301
13	0xbc455d70	-0.012046203
14	0xbc4c730f	-0.012478604
15	0xbd10c085	-0.03533985
16	0xbd065c0b	-0.032802623
17	0xbd3b1b38	-0.045680255
18	0x3b7e91e1	0.0038844275
19	0xbd1a3c57	-0.0376552
20	0xbc963ee1	-0.01834053
21	0xbca9c55c	-0.020723991
22	0x3d075a69	0.033045206
23	0x3d4e3b20	0.050349355
24	0x3d2d9164	0.042374983
25	0xbd0a9b86	-0.033839725
26	0x3c91a418	0.017778441
27	0x3cb5e411	0.022203477
28	0xbb3f4495	-0.0029185165
29	0x3d33e297	0.043917265
30	0x3d309905	0.04311468
31	0x3d357557	0.044301357
32	0x3de6a3ef	0.112617366
33	0xbc30ba3b	-0.010786588
34	0x3dafff66	0.08593635
35	0xbca125b0	-0.019671291
36	0x3cc62d83	0.024191624
37	0x3d1321ec	0.035921022
38	0xbd548791	-0.0518871
39	0xbd2d9eea	-0.04238788
40	0x3da7cc28	0.081932366
41	0xbdfc56f1	-0.1232127
42	0xbcd09f81	-0.025466682
43	0xbcf02522	-0.029314581
44	0x3d3e0e41	0.046400312
45	0x3d90c4e3	0.07068803
46	0x3d9bd1e0	0.0760839
47	0x3d990ae2	0.07472779
48	0x3d0282c2	0.03186298
49	0x3c15226c	0.009102445
50	0x3ca5d571	0.020243378
51	0x3d59f5e9	0.053213034
52	0x3d3cfea9	0.0461413
53	0x3cce41ed	0.02517792
54	0x3d08a74f	0.033362683
55	0xbd152f1f	-0.03642189
56	0x3da0be66	0.078488156
57	0x3ac2e86c	0.0014870293
58	0xbc6810d1	-0.014164166
59	0x3d684c4c	0.056713387
60	0x3c284289	0.0102697695
61	0xbc948687	-0.018130554
62	0x3d2ffa22	0.042963155
63	0x3d7413a7	0.059589054
64	0x3d9a8e81	0.07546712
65	0x3d093776	0.033500157
66	0x3d860eda	0.065458015
67	0x3de4c62e	0.11170612
68	0x3d7aadb2	0.061200805
69	0x3ce04ef2	0.027381394
70	0x3c607683	0.01370013
71	0x3d3cf070	0.046127737
72	0xbd5488f9	-0.05188844
73	0x3d9dd5c2	0.07706787
74	0x3ba645fc	0.0050742608
75	0xbd0136aa	-0.031546272
76	0x3d87be5d	0.06628106
77	0x3df4cf26	0.11953573
78	0xbb11f8cf	-0.0022273546
79	0xbb748b40	-0.0037314445
80	0xbd2e1329	-0.04249874
81	0x3b7588a3	0.0037465475
82	0xbbcf8dc6	-0.0063340394
83	0x3d31c96d	0.043404985
84	0x3d88d583	0.06681349
85	0x3cf9fd08	0.030516163
86	0xbd9a4f7c	-0.07534692
87	0xbcc83f25	-0.024444172
88	0x3d01f9d7	0.031732406
89	0x3ba329bb	0.00497934
90	0xbb112990	-0.0022150017
91	0x3db0ded7	0.08636253
92	0x3cadd4e9	0.021219688
93	0x3bbf79d2	0.0058433795
94	0x3d5943ec	0.05304329
95	0x3c85f3ee	0.016351666
96	0x3c6a8bb6	0.014315536
97	0xbbe93015	-0.0071163275
98	0x3ca9bd6f	0.020720212
99	0xbcc6447f	-0.024202583
100	0x3c2bd8e6	0.010488724
101	0xbc60b49b	-0.013714935
102	0xbce7bf63	-0.028289502
103	0x3d0b44bd	0.0340011
104	0x3d5f9b39	0.05459139
105	0x3d4fe6e8	0.05075732
106	0x3db82f1f	0.08993363
107	0x3d58259b	0.05277024
108	0x39e3d54b	0.0004345573
109	0x3cfc21da	0.03077786
110	0x3d14a5f3	0.036291074
111	0xbd4356c8	-0.047690183
112	0xbbf8b769	-0.0075902236
113	0xbd9c2233	-0.076237105
114	0xbd343792	-0.04399831
115	0x3e0b23fc	0.13587946
116	0xbd63b7ef	-0.055595335
117	0xbd3cbb60	-0.046077132
118	0xbd2d3315	-0.042285044
119	0x3ce60647	0.028079165
120	0x3cc358d2	0.023846064
121	0xbd490eba	-0.04908631
122	0xbdb17990	-0.08665764
123	0x395ff5c8	0.00021358498
124	0xbd3f2533	-0.046666335
125	0xbcd2895e	-0.025700267
126	0x3cefbe97	0.029265685
127	0x3c040bd2	0.008059459
