models/5A_hand_model.pth (torch, 421229 bytes, 13 tensors)

conv1.weight f4 [4, 1, 5, 5, 5]
-0.009400755 -0.05477454 0.011472073 -0.0028676498 -0.028340027 0.08838943 0.034935284 0.06513451
0.025930945 0.0036143293 0.019085258 -0.011704879 -0.056475304 -0.008597772 0.0046390933 0.012314712
0.0014870599 -0.05653459 -0.012307204 -0.052553456 0.0815961 -0.024984758 -0.080570914 0.029551312
-0.06096741 -0.010062651 0.081827044 -0.050801516 0.07469089 0.039534453 -0.0038072325 -0.010937919
-0.13165967 -0.073576 -0.08206469 -0.011202629 -0.12460964 -0.06698533 -0.047994975 -0.029289402
-0.015994685 -0.0993053 -0.058869615 0.0803255 -0.00621568 -0.03341781 -0.15355061 -0.021716962
0.026795605 -0.12551618 0.0008430699 -0.01640169 0.07962369 -0.022424685 -0.08010271 0.005028854
-0.14321074 -0.06351846 0.034451585 -0.009724806 -0.00069586653 -0.062749915 -0.033035126 0.08417259
0.027142998 -0.07473438 -0.09909563 0.17164427 0.12718232 0.049356416 -0.07349747 -0.035885874
-0.035748545 0.0871436 0.07984823 0.066401616 -0.015056628 -0.005528462 -0.05383512 0.011921766
0.020767534 -0.041237008 -0.089001045 0.06435156 -0.08843086 0.03135611 -0.036646605 0.08932605
0.11302206 0.09571406 -0.015880058 0.042448007 0.13188303 0.23091748 0.14170097 0.054880954
0.020135483 0.11478713 0.058472507 -0.061027758 0.011467861 -0.026464649 0.029972304 0.06982514
-0.014727874 0.027285483 -0.114774756 -0.013273588 0.029344408 -0.043983046 -0.042850625 -0.04815828
-0.016704585 0.044869915 0.0925979 0.04260857 -0.11989055 0.062220205 0.12739755 0.06024485
-0.07525186 -0.08554852 -0.0024320208 0.059726615 0.06490618 -0.018074824 -0.0024942663 0.04737262
0.006014892 0.04684846 -0.036804255 -0.0020718938 -0.08765811 -0.10415882 0.04924853 0.0048783664
0.044182528 -0.07407012 0.043963786 -0.010769893 -0.01946877 -0.06294367 -0.024350444 -0.11240707
0.049672063 0.03394175 0.06592787 -0.0003853506 0.031009875 0.06487179 0.0738698 -0.08327872
-0.04555762 -0.07425392 -0.039770383 -0.08106529 0.02074462 0.014636956 -0.05376477 0.026856529
0.06458593 0.07019927 0.13233553 -0.088391274 -0.11000122 -0.04364508 -0.02956347 -0.031845707
-0.061517593 -0.04370427 -0.07043849 -0.14339772 -0.07711262 -0.11743779 -0.023001399 -0.046792425
0.072353624 -0.07234976 -0.0074454467 -0.03266186 -0.04787532 0.021934925 0.17028768 0.040139426
-0.015345945 0.10453291 0.14888386 0.16232559 0.12500532 -0.04175828 -0.0014959812 0.08048239
0.11057753 0.034392778 0.014805543 -0.10703807 -0.06911226 0.059290323 -0.05763471 0.037763126
0.027573885 -0.035605565 -0.09591943 0.015164418 0.022793965 0.024615677 0.02295106 0.08700409
-0.106584646 -0.07648982 0.037981834 0.19752105 0.17071843 0.020893915 -0.008265123 -0.10547048
0.11071822 0.031036083 0.012895512 -0.05033643 -0.079309225 0.09665372 0.049260166 -0.08498991
0.012919009 0.052345924 0.02519763 0.035858978 -0.010997645 0.01732403 0.041960865 0.046913724
-0.1005733 -0.047534365 0.00041930217 0.06882301 0.032243937 0.04411257 -0.008656353 0.0048061535
-0.04132223 -0.028343705 0.014150845 -0.11328417 -0.0043439497 0.10716467 -0.05914074 0.03850721
-0.09836597 0.010114237 0.04157528 0.03544502 -0.03737606 -0.06413655 0.07164015 -0.055409096
00000000: a005 1abc 455b 60bd 5df5 3b3c 2eef 3bbb
00000010: 5829 e8bc 8405 b53d 4d18 0f3d 3e65 853d
00000020: 226d d43c 62de 6c3b b058 9c3c d2c5 3fbc
00000030: a652 67bd abdd 0cbc 8903 983b a5c3 493c
00000040: 73e9 c23a d090 67bd 28a4 49bc 4b42 57bd
00000050: db1b a73d d6ac ccbc 5d02 a5bd 9815 f23c
00000060: f7b8 79bd d1dd 24bc f094 a73d 4015 50bd
00000070: 8af7 983d e1ee 213d c382 79bb f534 33bc
00000080: cbd1 06be 04af 96bd 8811 a8bd 3b8b 37bc
00000090: 5733 ffbd 9b2f 89bd 6196 44bd 54f0 efbc
000000a0: 4907 83bc 9460 cbbd 4421 71bd b281 a43d
000000b0: e7ac cbbb 1de1 08bd 5f3c 1dbe c5e7 b1bc
000000c0: 7582 db3c 5087 00be 7701 5d3a d65c 86bc
000000d0: bf11 a33d f9b3 b7bc e40c a4bd 16c9 a43b
000000e0: d6a5 12be f715 82bd 1b1d 0d3d cb54 1fbc
000000f0: d06a 36ba 0783 80bd d74f 07bd ae62 ac3d
00000100: fe5a de3c 570e 99bd a6f2 cabd 84c3 2f3e
00000110: 153c 023e f429 4a3d d785 96bd 11fd 12bd
00000120: 116d 12bd 5878 b23d 7887 a33d 92fd 873d
00000130: 13b0 76bc 1a28 b5bb 3782 5cbd 8353 433c
00000140: ad20 aa3c 23e8 28bd 2e46 b6bd c0ca 833d
00000150: 3d1b b5bd 446f 003d c01a 16bd 93f0 b63d
00000160: 1c78 e73d bc05 c43d e516 82bc f6dd 2d3d
00000170: 580c 073e a275 6c3e 0f1a 113e daca 603d
00000180: 2bf3 a43c 8415 eb3d de80 6f3d 3ef8 79bd
00000190: b2e3 3b3c 64cc d8bc 7a88 f53c 7c00 8f3d
000001a0: 2e4d 71bc ce85 df3c 070f ebbd 7779 59bc
000001b0: af63 f03c 9127 34bd 2384 2fbd 9e41 45bd
000001c0: 0ed8 88bc 84c9 373d f8a3 bd3d 5386 2e3d
000001d0: 2d89 f5bd 9dda 7e3d 8174 023e 4ec3 763d
000001e0: a61d 9abd 1034 afbd 8a62 1fbb e5a3 743d
000001f0: 88ed 843d a711 94bc d876 23bb cb09 423d
00000200: 9218 c53b 2ce4 3f3d 0fc0 16bd 9cc8 07bb
00000210: 1886 b3bd 3851 d5bd d4b8 493d b4da 9f3b
00000220: bdf8 343d 13b2 97bd 5f13 343d 3574 30bc
00000230: f87c 9fbc 9ce8 80bd 957a c7bc ae35 e6bd
00000240: ef74 4b3d 8106 0b3d 3105 873d e208 cab9
00000250: 6c08 fe3c 80db 843d 0d49 973d 098e aabd
00000260: a09a 3abd 7012 98bd 45e6 22bd 8f05 a6bd
00000270: 9ff0 a93c d8cf 6f3c 7338 5cbd 3902 dc3c
00000280: a145 843d a3c4 8f3d f782 073e 7c06 b5bd
00000290: 5248 e1bd 2fc5 32bd 172f f2bc a570 02bd
000002a0: dff9 7bbd 4003 33bd 0e42 90bd dad6 12be
000002b0: 39ed 9dbd 3983 f0bd 6e6d bcbc 6aa9 3fbd
000002c0: 232e 943d 1c2c 94bd eff8 f3bb 71c8 05bd
000002d0: e918 44bd dfb0 b33c e55f 2e3e 3d69 243d
000002e0: 8f6d 7bbc 5a15 d63d 0375 183e ae38 263e
000002f0: 6501 003e bb0a 2bbd cd14 c4ba f4d3 a43d
00000300: 7976 e23d 71df 0c3d f392 723c c736 dbbd
00000310: bb8a 8dbd 69da 723d 6012 6cbd 82ad 1a3d
00000320: a1e2 e13c 24d7 11bd 6871 c4bd 2e74 783c
00000330: 69ba ba3c d1a6 c93c dd03 bc3c 332f b23d
00000340: 0d49 dabd b2a6 9cbd d792 1b3d f542 4a3e
00000350: d0d0 2e3e b729 ab3c 706a 07bc e800 d8bd
00000360: 3cc0 e23d 623f fe3c b347 533c 932d 4ebd
00000370: e06c a2bd 63f2 c53d 07c5 493d 310f aebd
00000380: 40aa 533c ae68 563d 436b ce3c dde0 123d
00000390: 772f 34bc 20eb 8d3c 28df 2b3d 9b28 403d
000003a0: 60f9 cdbd 65b3 42bd c9d5 db39 14f3 8c3d
000003b0: 3812 043d 62af 343d 60d3 0dbc f07c 9d3b
000003c0: 8041 29bd 0f31 e8bc f2d8 673c 8801 e8bd
000003d0: b157 8ebb 2779 db3d 903d 72bd bcb9 1d3d
000003e0: 1974 c9bd 2fb6 253c d74a 2a3d cc2e 113d
000003f0: a417 19bd 065a 83bd 12b8 923d a6f4 62bd

conv1.bias f4 [4]
-0.031749293 -0.08699958 -0.11901601 -0.00927371
00000000: 8c0b 02bd d62c b2bd aabe f3bd c2f0 17bc

conv2.weight f4 [8, 4, 5, 5, 5]
0.06761945 0.09121067 0.07710208 0.032045916 -0.057807628 0.021333449 0.028210703 0.07956715
0.0776408 -0.023387045 -0.014766628 0.06998687 0.074484065 0.015766881 -0.0032500438 -0.0020637051
0.03266439 -0.01570603 0.018470477 -0.019517556 0.0026000522 0.020771101 0.08073447 0.0031599798
-0.018913465 -0.037766032 -0.06440832 -0.013740015 0.0053879796 0.05304646 -0.13210183 -0.03759221
0.0063218498 -0.0073740985 0.022525413 -0.041021533 0.10595926 0.045842644 0.036523614 -0.057891697
-0.021345872 -0.020304583 0.0004693061 0.009481457 0.008508401 0.03313476 0.0027588287 0.03414028
0.040245153 -0.003136997 -0.08368334 -0.14951016 -0.0012643132 -0.054694384 -0.02634036 -0.18152256
-0.028283829 0.010175354 -0.08799195 -0.17847885 -0.076207414 0.02683559 0.046315774 -0.060095552
-0.10711053 0.00473049 -0.117029734 -0.17674291 -0.04045887 0.13631178 0.0771526 -0.078460805
-0.0933324 -0.016704842 0.012855002 0.14203449 -0.026739858 -0.043913845 -0.13573673 0.022548325
-0.032805003 -0.02985939 -0.021680916 -0.20406263 -0.049929358 -0.0026500667 -0.0020294383 -0.0105252145
-0.19265787 -0.0042166705 0.07684229 -0.15569635 -0.17818533 -0.067502245 0.12400164 0.05226793
-0.11652782 0.010333628 -0.015206002 -0.0011667991 0.09975233 -0.109442875 -0.06208399 -0.014078095
0.082401805 -0.073280185 -0.22953172 -0.082182184 0.0013475355 0.08619974 0.006091901 -0.29041848
-0.24515307 -0.16829185 0.02997064 0.027522959 -0.12397849 -0.019921107 -0.040609453 0.058335032
-0.11375633 -0.061426297 0.055038877 -0.033018608 0.010633948 0.007000284 0.080588065 0.08596151
0.05187653 0.01114952 0.11565227 -0.0025278537 -0.05251941 -0.059043933 -0.0989344 0.03511003
-0.08647709 -0.0021206974 -0.024860235 -0.062059693 0.06788746 -0.075791135 0.037253585 0.013606904
-0.021571284 0.122295275 -0.003890376 -0.0548469 -0.008204764 -0.032100257 0.08858965 0.020235153
-0.0012460995 -0.026300948 0.05024699 0.098501116 -0.10400669 -0.16104871 -0.05160574 -0.010240251
0.032246504 -0.20448396 -0.10169899 0.019431802 0.04235608 0.008701759 -0.23688607 -0.014952521
0.045909405 0.043921724 0.12264014 -0.09172117 -0.056484014 -0.016223058 -0.001182418 0.07622881
0.038889293 0.012319389 0.0066454303 0.054791667 0.15869239 -0.06883081 -0.08849858 -0.0037237748
0.042111624 0.088120975 -0.2057609 -0.040618684 0.12520672 0.12433962 0.05570998 -0.108855054
-0.016442759 0.12928607 0.068446666 0.16681868 0.09953325 -0.007355929 -0.03515912 -0.075522296
0.11252382 0.12826139 0.07812009 0.018423097 -0.02496165 0.17007038 0.05526796 0.047955304
0.027481206 0.07984317 0.17702132 0.028428696 0.10371856 0.11953681 0.15215302 0.12522373
0.11048369 0.22753568 0.2072807 0.05112758 0.13549413 0.23517315 0.06794312 0.033093896
0.019039305 -0.009529126 0.087908454 -0.024989378 -0.09089139 -0.121670045 0.0517309 -0.008456864
-0.07547778 -0.11554429 -0.047787663 0.02716081 -0.14096953 -0.113063365 -0.03398758 -0.043815173
-0.0325655 -0.031995498 0.05497856 0.057099517 0.048669264 -0.19900417 -0.022459654 -0.07063499
-0.039452635 0.010974057 0.01618546 0.005561384 -0.085683994 -0.10798086 0.04910598 -0.06837279
00000000: 117c 8a3d a9cc ba3d b2e7 9d3d 9442 033d
00000010: b1c7 6cbd 7cc3 ae3c 221a e73c 1af4 a23d
00000020: 2402 9f3d 3096 bfbc baef 71bc 4755 8f3d
00000030: 1a8b 983d 8c29 813c b0fe 54bb 3a3f 07bb
00000040: 18cb 053d efa9 80bc 664f 973c 48e3 9fbc
00000050: a365 2a3b 2828 aa3c 1d58 a53d aa17 4f3b
00000060: 69f0 9abc 8eb0 1abd 82e8 83bd cd1d 61bc
00000070: a68d b03b 3f47 593d b445 07be 4afa 19bd
00000080: 8527 cf3b 6ca2 f1bb 3787 b83c 3206 28bd
00000090: 2b01 d93d 7fc5 3b3d c999 153d d81f 6dbd
000000a0: 8add aebc cc55 a6bc 330d f639 1d58 1b3c
000000b0: d266 0b3c 50b8 073d 77cd 343b aed6 0b3d
000000c0: 1ad8 243d 1496 4dbb 2c62 abbd 3119 19be
000000d0: 50b7 a5ba 3807 60bd bdc7 d7bc 0de1 39be
000000e0: 7db3 e7bc 87b6 263c 2035 b4bd 29c3 36be
000000f0: a212 9cbd 50d6 db3c 9cb5 3d3d c126 76bd
00000100: c45c dbbd 3a02 9b3b 49ad efbd 18fc 34be
00000110: 33b8 25bd 5195 0b3e 2f02 9e3d 0fb0 a0bd
00000120: 0f25 bfbd 98d8 88bc c99d 523c 7d71 113e
00000130: 8c0d dbbc 01df 33bd 92fe 0abe 44b7 b83c
00000140: 8a5e 06bd ae9b f4bc 2d9c b1bc cbf5 50be
00000150: ba82 4cbd beac 2dbb 5300 05bb f371 2cbc
00000160: 1b48 45be ff2b 8abb 7e5f 9d3d dd6e 1fbe
00000170: 3776 36be 9e3e 8abd 92f4 fd3d e616 563d
00000180: 23a6 eebd 614e 293c 9822 79bc 48ef 98ba
00000190: f34a cc3d 9623 e0bd c84b 7ebd cfa7 66bc
000001a0: 47c2 a83d ec13 96bd 5d0a 6bbe 224f a8bd
000001b0: ca9f b03a 7d89 b03d 929e c73b bbb1 94be
000001c0: 6809 7bbe b354 2cbe fd84 f53c d477 e13c
000001d0: 6fe8 fdbd 9731 a3bc 1956 26bd b7f0 6e3d
000001e0: 14f9 e8bd 249a 7bbd 7270 613d 853e 07bd
000001f0: 033a 2e3c a362 e53b 5b0b a53d 970c b03d
00000200: 7c7c 543d 7aac 363c 19db ec3d 59aa 25bb
00000210: 981e 57bd 0dd8 71bd 1e9e cabd 89cf 0f3d
00000220: e71a b1bd 66fb 0abb b1a7 cbbc 4e32 7ebd
00000230: 9508 8b3d 6238 9bbd 3797 183d 7eef 5e3c
00000240: 43b6 b0bc f275 fa3d aef5 7ebb 25a7 60bd
00000250: 466d 06bc 8f7b 03bd 7e6e b53d 31c4 a53c
00000260: 2954 a3ba 1675 d7bc cacf 4d3d f4ba c93d
00000270: 7601 d5bd f4e9 24be 8a60 53bd bac6 27bc
00000280: e914 043d 3e64 51be 8f47 d0bd 712f 9f3c
00000290: 927d 2d3d d391 0e3c 4392 72be 6bfb 74bc
000002a0: 800b 3c3d 44e7 333d c12a fb3d 4fd8 bbbd
000002b0: c85b 67bd 38e6 84bc 5dfb 9aba da1d 9c3d
000002c0: 614a 1f3d 43d7 493c e9c1 d93b 3a6d 603d
000002d0: 4280 223e 2bf7 8cbd be3e b5bd 930a 74bb
000002e0: 3d7d 2c3d c578 b43d fcb2 52be c75f 26bd
000002f0: 3136 003e c5a5 fe3d 2630 643d 66ef debd
00000300: f7b2 86bc 9163 043e c42d 8c3d 84d2 2a3e
00000310: 17d8 cb3d 010a f1bb 0203 10bd 6fab 9abd
00000320: e372 e63d f456 033e 6dfd 9f3d 09ec 963c
00000330: 607c ccbc ee26 2e3e a860 623d c86c 443d
00000340: 4420 e13c d184 a33d 1445 353e 4ce3 e83c
00000350: 656a d43d b7cf f43d 00ce 1b3e a63a 003e
00000360: 4645 e23d 1dff 683e 6441 543e 276b 513d
00000370: f9be 0a3e 3bd1 703e c325 8b3d 778d 073d
00000380: 51f8 9b3c 0d20 1cbc 5909 b43d 86b6 ccbc
00000390: 4425 babd 252e f9bd c8e3 533d a98e 0abc
000003a0: 1894 9abd 7ca2 ecbd ffbc 43bd 5980 de3c
000003b0: 515a 10be c48d e7bd 9036 0bbd 8a77 33bd
000003c0: 6763 05bd b60d 03bd 3331 613d 2fe1 693d
000003d0: 6c59 473d c0c7 4bbe 4ffd b7bc 14a9 90bd
000003e0: 1699 21bd 88cc 333c 5f97 843c 453c b63b
000003f0: 177b afbd 1225 ddbd 5a23 493d 0907 8cbd

conv2.bias f4 [8]
0.014008084 0.010295384 0.010809864 0.0009878625 0.000378812 0.04255681 0.033058986 -0.019415282
00000000: 2a82 653c f8ad 283c db1b 313c 2a7b 813a
00000010: 499b c639 0d50 2e3d dc68 073d cc0c 9fbc

conv3.weight f4 [16, 8, 3, 3, 3]
-0.03250321 -0.02349567 0.06432376 0.03950111 -0.066613816 -0.002268412 -0.013602779 -0.021075232
-0.021288965 0.2264253 0.12769058 0.16643292 0.05534051 0.070572056 0.06680122 0.0009455783
0.021720722 0.010872633 0.18247382 -0.08295367 0.0045448146 0.126241 0.03061232 -0.005582439
0.09968303 0.14302096 0.008124253 -0.13730448 -0.036475226 -0.04669087 0.03495624 0.084528364
-0.10564689 0.008715393 0.08487391 -0.050691117 -0.08662216 0.010645411 0.06951653 -0.07454438
0.10206368 0.050550163 0.010789642 0.038425595 0.03594862 -0.08978091 -0.004361793 -0.0058833268
-2.9276684e-05 0.04431731 0.039348982 -0.07305701 -0.098558046 -0.045815818 0.08887819 -0.038814876
-0.05168602 -0.2250644 -0.0015885122 0.022889208 -0.0794481 0.0015274981 -0.037226334 -0.066896856
0.06740472 -0.021568203 -0.27071488 0.03280737 0.052562434 -0.28797948 -0.092671745 0.02814143
-0.08098556 -0.056300886 -0.08055964 -0.2390058 0.027620364 -0.1383305 -0.03025955 0.040830895
-0.11148551 0.03996142 0.010800479 -0.06913587 0.061961923 0.17152672 0.08317104 0.10934591
0.10122058 -0.0139078805 -0.011125443 -0.027301373 -0.12954146 0.02591717 0.12030096 0.064910434
0.037813243 0.10634812 -0.058891475 -0.064841375 -0.015487037 -0.00040162445 -0.2437362 -0.050306693
-0.05648614 -0.27768117 -0.16213267 -0.1689765 -0.12514926 -0.15388365 -0.14448012 -0.118432686
0.002027741 -0.036279988 -0.13634242 -0.04673175 0.02800518 0.012007369 0.09287173 -0.00035089915
0.06736479 0.14206506 0.06568011 -0.12312388 0.053079758 0.1186121 0.07598214 0.08855838
-0.16897184 0.02802888 0.09008218 -0.019413577 -0.08079384 0.0054339715 0.04262176 -0.06967486
0.016894838 -0.093888186 -0.08480147 0.06920292 0.05744985 -0.10545515 0.013926057 0.15081291
-0.10409807 0.04658455 -0.055126004 -0.10990568 0.034179695 0.14048217 0.07309752 0.034000535
0.0740816 0.0035528627 -0.07381202 -0.0373648 -0.06968238 0.03979304 0.049250454 -0.019205932
-0.12364396 -0.0051011 -0.085874915 -0.10875904 -0.016368428 -0.114524946 -0.18759541 -0.09073871
-0.08659205 -0.08693691 0.105633594 0.054175653 -0.06017832 -0.157384 0.04758419 -0.022734398
-0.11951059 -0.07715746 0.023477715 0.058404602 0.12707457 -0.06048732 -0.14539084 -0.03103831
-0.12431947 -0.021251231 -0.05960049 0.0075105955 0.0169771 -0.01844015 0.02243414 0.08236127
0.07826975 -0.00024932984 -0.003425481 -0.06213824 -0.029822962 -0.0076583754 0.081018075 0.06365496
0.08501498 0.04665875 0.06837071 0.021899715 0.0019019193 0.01901159 0.0032776156 -0.024214126
0.019931896 0.06987615 -0.020881971 0.065968744 0.05971789 0.005587743 -0.030886743 -0.15177475
-0.10780175 -0.12918268 -0.0037185387 -0.08377601 0.028244214 -0.010330067 -0.06902781 0.09652688
0.02878855 -0.06387786 -0.026909277 0.008242137 -0.012164963 0.0963031 0.12286794 0.03321929
0.017195802 0.090898566 -0.06788896 -0.1538538 -0.016430983 -0.062217083 -0.055652168 -0.058946148
-0.08911308 -0.010410481 0.03707038 -0.016051011 -0.15820472 -0.19071947 -0.043473702 -0.12193801
-0.103525534 0.01826515 -0.1435321 -0.116064176 0.09144373 -0.008077407 -0.117240354 0.0344017
00000000: 1622 05bd fe79 c0bc 2dbc 833d eacb 213d
00000010: d36c 88bd a3a9 14bb 31de 5ebc f7a5 acbc
00000020: 3266 aebc 09dc 673e 52c1 023e 646d 2a3e
00000030: bbac 623d 1588 903d 14cf 883d afe0 773a
00000040: a8ef b13c 2123 323c 6bda 3a3e 9de3 a9bd
00000050: abec 943b 5245 013e b0c6 fa3c e4ec b6bb
00000060: 9e26 cc3d 1674 123e 961b 053c 8c99 0cbe
00000070: 0c67 15bd ed3e 3fbd 462e 0f3d 351d ad3d
00000080: 665d d8bd 02cb 0e3c 5fd2 ad3d 7da1 4fbd
00000090: f666 b1bd 176a 2e3c af5e 8e3d b9aa 98bd
000000a0: c306 d13d b00d 4f3d 0ac7 303c 2864 1d3d
000000b0: dc3e 133d 0edf b7bd 5fed 8ebb ecc8 c0bb
000000c0: 3397 f5b7 1186 353d 662c 213d ea9e 95bd
000000d0: cdd8 c9bd 5ea9 3bbd c505 b63d 59fc 1ebd
000000e0: b8b4 53bd 4877 66be a035 d0ba 2682 bb3c
000000f0: afb5 a2bd 5536 c83a a47a 18bd 3801 89bd
00000100: 7c0b 8a3d cdaf b0bc 249b 8abe 0561 063d
00000110: b54b 573d 0c72 93be afca bdbd db88 e63c
00000120: c2db a5bd c29b 66bd 74fc a4bd f0bd 74be
00000130: 1a44 e23c 83a6 0dbe e0e2 f7bc 4c3e 273d
00000140: 8452 e4bd 96ae 233d 7ef4 303c 1b97 8dbd
00000150: c9cb 7d3d b3a4 2f3e 9455 aa3d c0f0 df3d
00000160: bc4c cf3d e1dd 63bc 7d47 36bc 21a7 dfbc
00000170: 84a6 04be 3f50 d43c 5a60 f63d c3ef 843d
00000180: 0fe2 1a3d 0bcd d93d 3038 71bd 8ecb 84bd
00000190: 57bd 7dbc 1f91 d2b9 fb95 79be 640e 4ebd
000001a0: 035e 67bd 3a2c 8ebe 1b06 26be 2d08 2dbe
000001b0: 2127 00be ad93 1dbe 99f2 13be d68c f2bd
000001c0: d9e3 043b 539a 14bd 599d 0bbe cb69 3fbd
000001d0: 1f6b e53c 8eba 443c 8933 be3d e3f8 b7b9
000001e0: 8df6 893d 8179 113e 4b83 863d 5f28 fcbd
000001f0: 296a 593d e7ea f23d 869c 9b3d 195e b53d
00000200: f406 2dbe d29c e53c 027d b83d 3909 9fbc
00000210: 3e77 a5bd 750f b23b 2894 2e3d b1b1 8ebd
00000220: 0b67 8a3c 7348 c0bd 65ac adbd 43ba 8d3d
00000230: 8950 6b3d dff8 d7bd 1e2a 643c b36e 1a3e
00000240: 5e31 d5bd 71cf 3e3d cecb 61bd 3b16 e1bd
00000250: 0200 0c3d 8fda 0f3e 27b4 953d 2544 0b3d
00000260: 18b8 973d 25d7 683b c22a 97bd d50b 19bd
00000270: a3b5 8ebd 07fe 223d d8ba 493d c255 9dbc
00000280: 0b39 fdbd 2127 a7bb 30df afbd 0fbd debd
00000290: 1517 86bc 0e8c eabd 0319 40be 37d5 b9bd
000002a0: 2c57 b1bd fb0b b2bd 6d56 d83d 4ae7 5d3d
000002b0: 8b7d 76bd 4529 21be a4e7 423d 7d3d babc
000002c0: f8c1 f4bd bb04 9ebd 5654 c03c aa39 6f3d
000002d0: d61f 023e 8dc1 77bd 56e1 14be 0e44 febc
000002e0: 359b febd 1017 aebc a51f 74bd 711b f63b
000002f0: 8f13 8b3c cc0f 97bc cdc7 b73c 07ad a83d
00000300: e44b a03d 7cb8 82b9 097e 60bb ab84 7ebd
00000310: 494f f4bc 1cf3 fabb ceec a53d 885d 823d
00000320: 551c ae3d 3f1d 3f3d f105 8c3d 0867 b33c
00000330: d249 f93a 32be 9b3c 44cd 563b b45c c6bc
00000340: 3748 a33c 3a1b 8f3d ab10 abbc 9f1a 873d
00000350: bf9a 743d 6319 b73b 3206 fdbc d76a 1bbe
00000360: 2ac7 dcbd 7748 04be bab2 73bb c292 abbd
00000370: 6960 e73c 713f 29bc 745e 8dbd e3af c53d
00000380: f7d5 eb3c 65d2 82bd d870 dcbc 070a 073c
00000390: 8e4f 47bc 8f3a c53d 30a2 fb3d f310 083d
000003a0: 36de 8c3c 0729 ba3d 5e09 8bbd da8b 1dbe
000003b0: 459a 86bc 57d7 7ebd 87f3 63bd 8471 71bd
000003c0: eb80 b6bd b990 2abc 1cd7 173d 697d 83bc
000003d0: 6b00 22be f74b 43be 7b11 32bd a3ba f9bd
000003e0: 3205 d4bd cca0 953c 14fa 12be 0eb3 edbd
000003f0: da46 bb3d 1a57 04bc b61b f0bd cce8 0c3d

conv3.bias f4 [16]
0.001846129 -0.12752986 -0.0887599 0.019100517 0.029298183 0.0052522724 0.047568653 -0.04435944
-0.045494176 -0.024669895 0.045250613 0.018330297 0.0238775 -0.0067677703 -0.025839126 0.005252543
00000000: cff9 f13a 3097 02be c0c7 b5bd b078 9c3c
00000010: be02 f03c 411b ac3b 59d7 423d 3fb2 35bd
00000020: 1a58 3abd 8518 cabc b558 393d 6b29 963c
00000030: bf9a c33c 2cc4 ddbb 93ac d3bc 861d ac3b

conv4.weight f4 [32, 16, 3, 3, 3]
0.046338074 0.0362704 -0.03775815 -0.091705225 0.005518708 0.042702068 -0.122212455 0.03606874
0.12738502 0.04558899 0.084329404 0.01681654 -0.06258536 0.006399925 0.048065502 -0.050226953
0.024849966 0.11256964 -0.038911648 -0.0077173077 0.0199893 -0.12652278 -0.012906009 0.00903418
-0.10099574 -0.037850358 -0.05125614 0.052427396 0.06152596 0.06719953 0.1488469 0.08239915
0.006776884 0.051089242 0.071246706 -0.09617112 0.064301424 0.069682516 -0.0028965254 0.044470996
0.026431713 0.0016949334 -0.03068666 0.03928671 -0.039306734 -0.07839944 -0.116101235 -0.13902545
-0.161698 -0.13050534 -0.1368954 -0.10619106 -0.056429148 0.07223517 0.022516549 0.03464847
0.018262057 -0.022041304 -0.004984963 -0.01072682 0.024521653 0.0043866565 -0.093271546 0.0036001527
0.045651678 0.028907651 -0.03295111 0.061245747 0.033656426 -0.009465736 0.0306655 -0.0112934075
0.02378111 0.07457355 0.0050849486 0.060734775 0.0874106 -0.05184269 0.018061804 -0.0088766115
-0.0011767261 -0.017170345 -0.015289597 0.028573481 -0.08880352 -0.14319079 -0.0048413975 -0.04784547
-0.06991306 -0.009876745 -0.044738118 0.07780732 0.057261996 -0.095785335 -0.02711484 -0.006567597
0.061888132 -0.037900466 -0.09946861 -0.042531453 0.026721481 0.030431429 -0.037248254 0.01837496
0.049567323 0.005210533 -0.04654286 -0.057568867 -0.07073819 0.010246022 0.10542816 -0.12961929
0.045098796 -0.010850851 -0.13190788 -0.06028688 -0.0027267674 -0.05079914 0.02143981 0.07904184
-0.05654487 0.005849433 0.06427384 -0.08061892 -0.047013994 0.0014266392 -0.091488115 -0.11296331
0.007308532 -0.15786481 -0.16079974 0.0010363333 -0.14065881 -0.17817675 -0.051355656 0.0016159331
0.041068703 0.05150762 0.11823378 0.10909227 0.07106749 0.0040052086 0.054998893 0.046069022
-0.073946394 -0.044768877 -0.0342038 0.053540744 0.07973378 -0.069862716 -7.694975e-05 0.029317072
-0.12202128 -0.008282784 -0.021428278 0.03699561 0.055050604 -0.023918556 -0.039580796 -0.038462777
-0.070808314 -0.05073924 -0.0028281664 0.017907789 0.009265426 -0.028319113 0.012734106 -0.03208309
0.05259404 0.025387878 0.034852758 0.03405124 0.001383007 0.019844467 -0.06032887 -0.049488846
0.045666225 0.0332585 0.044272125 0.021032125 0.037976842 -0.0022909574 -0.12356055 -0.07381849
-0.098977275 -0.04849085 -0.048037924 -0.026276382 -0.027688429 -0.053009648 0.00396517 -0.037513692
-0.092656486 -0.08231821 -0.02057225 -0.0793386 -0.046259847 0.04663393 0.024175458 -0.0907954
-0.07412742 0.03554527 -0.07506983 -0.13085116 0.031583145 -0.009887552 0.029649874 0.016744817
-0.08168555 -0.07279028 0.020473326 -0.032303102 -0.019045865 -0.044513393 0.015397373 -0.004923091
-0.0719972 0.014851446 0.01775646 0.07984682 0.099767886 -0.0005895894 -0.028550657 0.018629353
-0.05190801 -0.10219915 -0.018910727 -0.075328045 0.05044141 0.0078057493 -0.054880887 0.022880234
0.0032238204 -0.06296426 -0.04122498 -0.06430893 0.005938075 0.019011373 0.0105535295 -0.012098061
0.013058905 0.03468756 -0.014840967 -0.042848453 -0.16955876 0.0089957435 -0.06635327 -0.1226498
0.057462703 0.035286568 0.007304924 0.08238572 0.04634298 -0.08214552 -0.004590821 -0.02351745
00000000: fecc 3d3d 4590 143d 4aa8 1abd f3cf bbbd
00000010: 47d6 b43b 5de8 2e3d 864a fabd d1bc 133d
00000020: 3871 023e 85bb 3a3d e5b4 ac3d d7c2 893c
00000030: c12c 80bd 76b6 d13b 55e0 443d c7ba 4dbd
00000040: 2892 cb3c e98a e63d d261 1fbd 78e1 fcbb
00000050: 9ac0 a33c 308f 01be ba73 53bc 1904 143c
00000060: dbd6 cebd fa08 1bbd f5f1 51bd 1cbe 563d
00000070: a502 7c3d e89f 893d 526b 183e e3c0 a83d
00000080: a010 de3b f442 513d cbe9 913d 5df5 c4bd
00000090: 77b0 833d b5b5 8e3d a2d3 3dbb 3827 363d
000000a0: 5287 d83c 8728 de3a 9762 fbbc 1aeb 203d
000000b0: 1900 21bd e38f a0bd 7cc6 edbd b05c 0ebe
000000c0: 2994 25be 31a3 05be 4f2e 0cbe b37a d9bd
000000d0: 4022 67bd 08f0 933d a074 b83c 8eeb 0d3d
000000e0: 4f9a 953c f78f b4bc e758 a3bb 8bbf 2fbc
000000f0: a2e1 c83c f1bd 8f3b 2705 bfbd 8af0 6b3b
00000100: 41fd 3a3d bdcf ec3c bef7 06bd d2dc 7a3d
00000110: 52db 093d 2d16 1bbc 3736 fb3c fc07 39bc
00000120: 9ad0 c23c 04ba 983d a49f a63b 07c5 783d
00000130: 5404 b33d 0059 54bd 59f6 933c 356f 11bc
00000140: 603c 9aba d3a8 8cbc 3881 7abc ef12 ea3c
00000150: 9fde b5bd 9ba0 12be 96a4 9ebb 9df9 43bd
00000160: 942e 8fbd 12d2 21bc 513f 37bd 7259 9f3d
00000170: 8e8b 6a3d 1a2b c4bd f11f debc ff34 d7bb
00000180: 697e 7d3d 853d 1bbd 33b6 cbbd 7635 2ebd
00000190: 02e7 da3c 554b f93c a091 18bd 1687 963c
000001a0: 1b07 4b3d 1ebd aa3b baa3 3ebd 55cd 6bbd
000001b0: 2fdf 90bd eede 273c b8ea d73d ebba 04be
000001c0: 84b9 383d c5c7 31bc dc12 07be 60ef 76bd
000001d0: 91b3 32bb c212 50bd 8aa2 af3c b0e0 a13d
000001e0: 989b 67bd 9aac bf3b 01a2 833d 881b a5bd
000001f0: bf91 40bd 11fe ba3a 1f5e bbbd 4f59 e7bd
00000200: 697c ef3b 50a7 21be b0a8 24be 93d5 873a
00000210: dd08 10be f773 36be 4f5a 52bd b8cd d33a
00000220: a837 283d a7f9 523d 8d24 f23d c56b df3d
00000230: d58b 913d 203e 833b 8546 613d dfb2 3c3d
00000240: 3571 97bd 925f 37bd 4919 0cbd 8a4d 5b3d
00000250: 774b a33d 2f14 8fbd 1560 a1b8 5b2a f03c
00000260: 4be6 f9bd 84b4 07bc 5b8a afbc b588 173d
00000270: be7c 613d d9f0 c3bc 791f 22bd 258b 1dbd
00000280: f303 91bd f3d3 4fbd c258 39bb 5bb3 923c
00000290: 03ce 173c 7cfd e7bc b6a2 503c 8f69 03bd
000002a0: d96c 573d 3dfa cf3c c4c1 0e3d 5079 0b3d
000002b0: 0446 b53a dd90 a23c 681b 77bd d1b4 4abd
000002c0: 820c 3b3d 113a 083d b056 353d 904b ac3c
000002d0: 9b8d 1b3d e323 16bb 500d fdbd 262e 97bd
000002e0: 99b4 cabd 579e 46bd 6ac3 44bd 9141 d7bc
000002f0: d8d2 e2bc a520 59bd 42ee 813b f5a7 19bd
00000300: afc2 bdbd 7396 a8bd 2387 a8bc 477c a2bd
00000310: f77a 3dbd 3803 3f3d 9c0b c63c f0f2 b9bd
00000320: 1ed0 97bd eb97 113d 36be 99bd d9fd 05be
00000330: 545d 013d 66ff 21bc 4be4 f23c 6d2c 893c
00000340: c14a a7bd 1213 95bd adb7 a73c 4250 04bd
00000350: 1306 9cbc ad53 36bd 4345 7c3c e151 a1bb
00000360: 4573 93bd 7b53 733c ff75 913c bb86 a33d
00000370: 1b53 cc3d ad8e 1aba 11e3 e9bc 969c 983c
00000380: 7e9d 54bd ca4d d1bd abea 9abc 9745 9abd
00000390: a79b 4e3d 5fc7 ff3b c8ca 60bd 546f bb3c
000003a0: bb46 533b 68f3 80bd 86db 28bd 66b4 83bd
000003b0: 2f94 c23b bdbd 9b3c b6e8 2c3c f236 46bc
000003c0: 04f5 553c 8b14 0e3d 8727 73bc dc81 2fbd
000003d0: d0a0 2dbe e262 133c 39e4 87bd d12f fbbd
000003e0: 035e 6b3d a688 103d 255e ef3b d8b9 a83d
000003f0: 23d2 3d3d e93b a8bd 996e 96bb aba7 c0bc

conv4.bias f4 [32]
-0.011828479 -0.014355573 -0.060305387 -0.0036646603 -0.023712268 -0.09002327 0.0061417925 0.04320224
-0.027209502 -0.021888249 -0.06816199 0.005445887 -0.05024235 -0.03875792 -0.034148432 0.014444762
-0.004714283 -0.03641525 -0.032055512 -0.00911215 -0.0318575 0.03701706 0.0008040581 -0.00043673295
-0.015416334 0.011250079 0.020173829 -0.066772535 -0.047445886 0.029274905 -0.04624353 -0.03264243
00000000: 3dcc 41bc a333 6bbc c802 77bd cc2a 70bb
00000010: 3b40 c2bc 1f5e b8bd 1741 c93b d5f4 303d
00000020: 76e6 debc fc4e b3bc 8398 8bbd 6973 b23b
00000030: ecca 4dbd a0c0 1ebd 3adf 0bbd b9a9 6c3c
00000040: 467a 9abb 2828 15bd a44c 03bd 214b 15bc
00000050: 037d 02bd 339f 173d 6dc7 523a 4ef9 e4b9
00000060: cb94 7cbc 4052 383c 9643 a53c 0ac0 88bd
00000070: 9e56 42bd edd1 ef3c db69 3dbd 12b4 05bd

conv5.weight f4 [64, 32, 2, 2, 2]
0.034612104 0.066319756 0.049556766 0.17050324 0.057191916 0.1179447 0.0526106 0.07847381
-0.031280637 0.081630215 0.054218452 -0.030634481 -0.03610085 -0.060070634 0.029054701 0.02368003
-0.01621911 5.859795e-05 0.031123128 0.072078235 -0.058034267 -0.0010908693 -0.071630664 -0.022653548
-0.010261807 -0.0010927038 -0.018142888 -0.012187359 0.03507555 0.028414594 -0.021041395 -0.004484207
-0.024244834 -0.057984807 0.0009036354 -0.047727853 0.020511748 -0.056550633 -0.043928955 -0.013660928
0.023708344 -0.02903587 -0.02386359 0.03337169 0.016606836 -0.021279536 -0.03460666 0.055501636
-0.012271923 0.016790656 -0.030439032 -0.086275324 -0.10808485 -0.09598762 -0.10007175 -0.12959927
-0.017744338 0.060430486 0.019229371 -0.012780953 0.05310451 -0.0595244 -0.002658847 0.081127755
0.16592665 0.1318581 0.054687805 0.17187916 0.015049345 0.13243867 0.060690526 0.048858766
-0.014747017 0.036963463 -0.051330194 -0.033882007 -0.050082963 -0.010883944 -0.071770675 0.03277191
-0.060523227 -0.039624933 0.055357534 0.055302154 -0.008674598 -0.049787592 -0.013464823 0.055183858
0.0064749513 0.04320286 -0.01960231 0.0315071 -0.00029058143 0.056992292 0.066239 -0.011845669
0.045668643 0.019491008 -0.045879606 -0.051184416 -0.0062074563 -0.019986095 -0.09526725 -0.027669752
0.031541206 0.014100332 -0.021978209 0.05491056 0.07274048 -0.031323586 -0.022704117 0.017045222
-0.017196383 -0.17126961 -0.15592548 -0.027681168 -0.046751592 0.054012477 -0.12627208 -0.1350684
-0.11428791 -0.17778268 -0.15943794 -0.05886773 -0.094611995 -0.058188844 -0.14155103 0.010942196
0.037770376 -0.0732708 0.050004184 0.111695625 0.03685794 0.033436637 0.08822546 0.11769842
-0.13707876 -0.15420103 -0.1338643 -0.067107916 -0.049179476 -0.11137235 -0.096392736 -0.06192624
0.021565046 -0.00040197244 -0.06073052 -0.07063203 -0.035637874 -0.017406829 -0.021570629 -0.0065009585
-0.020873828 -0.0020636553 0.016910512 -0.0070754355 -0.029935654 0.05764719 0.034234397 0.08560064
-0.015363666 0.012722228 -0.064787164 -0.06247258 0.02823607 0.045522355 -0.00048138085 -0.035684835
-0.007310189 -0.008935718 -0.045241896 -0.012534883 -0.004023582 0.06406631 0.02286454 0.028362285
0.02097997 0.06920955 -0.023817178 -0.027052028 -0.011031795 -0.015842427 0.0065397746 -0.051410675
0.00819042 0.08803106 0.08029309 0.012050451 0.008440404 0.042241693 -0.012373295 -0.07660266
0.11061224 0.07372063 0.08475249 0.14245358 -0.06613847 0.07481522 -0.031460106 0.1052453
0.0033831378 0.025718577 -0.026279042 -0.0053761303 -0.015138515 -0.059318453 0.042758692 -0.0669849
0.08557486 0.08582268 0.04428742 0.12212111 0.09167161 0.017925305 0.09875881 0.064481474
0.034829594 0.06112612 0.03957983 0.064173594 0.009357378 -0.04391121 0.028315354 -0.048318163
0.070463955 0.019615488 -0.004288401 -0.04811646 -0.0006594993 0.029572634 -0.07591131 0.0035333445
-0.069371775 0.002922633 0.037177905 0.0313645 0.04090438 0.05488317 0.027197551 0.038043804
-0.04300691 0.05101591 -0.07771931 0.04480818 -0.08658702 0.039692372 -0.10048599 -0.006780567
0.031153243 0.07253627 0.097360305 0.12402195 0.04580274 0.1758227 0.066213384 0.031622346
00000000: 6cc5 0d3d a7d2 873d 09fc 4a3d 6798 2e3e
00000010: 1242 6a3d fe8c f13d 367e 573d e0b6 a03d
00000020: 2020 00bd be2d a73d 2b14 5e3d 2af5 fabc
00000030: 7cde 13bd a00c 76bd 2004 ee3c 9ffc c13c
00000040: f0dd 84bc 12c7 7538 eef5 fe3c c19d 933d
00000050: 57b5 6dbd 80fb 8eba 19b3 92bd ef93 b9bc
00000060: 2321 28bc 0e39 8fba 65a0 94bc 7dad 47bc
00000070: 61ab 0f3d b9c5 e83c 015f acbc 41f0 92bb
00000080: 1a9d c6bc 7a81 6dbd f2e1 6c3a 487e 43bd
00000090: 4108 a83c a3a1 67bd d9ee 33bd 16d2 5fbc
000000a0: 0038 c23c a2dc edbc 937d c3bc c1b0 083d
000000b0: 0f0b 883c 6c52 aebc b7bf 0dbd af55 633d
000000c0: 2d10 49bc 8f8c 893c 475b f9bc 1eb1 b0bd
000000d0: 975b ddbd 2895 c4bd 6bf2 ccbd acb5 04be
000000e0: 935c 91bc f585 773d ea86 9d3c 3467 51bc
000000f0: 1d84 593d dbcf 73bd 0d40 2ebb 4f26 a63d
00000100: ade8 293e cf05 073e 5200 603d 1701 303e
00000110: 8791 763c 019e 073e a196 783d 2120 483d
00000120: 799d 71bc 0067 173d 9c3f 52bd dcc7 0abd
00000130: cb23 4dbd 9252 32bc 81fc 92bd d73b 063d
00000140: 34e7 77bd c14d 22bd 95be 623d 8384 623d
00000150: e71f 0ebc 13ee 4bbd 909b 5cbc 7808 623d
00000160: d42b d43b 7bf5 303d 0695 a0bc 970d 013d
00000170: 2e59 98b9 c070 693d 50a8 873d 5614 42bc
00000180: 0b0f 3b3d 9bab 9f3c 41ec 3bbd c0a6 51bd
00000190: eb67 cbbb e1b9 a3bc 7a1b c3bd adab e2bc
000001a0: 5a31 013d 1405 673c a50b b4bc e5e9 603d
000001b0: f6f8 943d 294d 00bd fcfd b9bc 6ca2 8b3c
000001c0: 6edf 8cbc 4d61 2fbe eeaa 1fbe 9ec3 e2bc
000001d0: 997e 3fbd 303c 5d3d 784d 01be 5f4f 0abe
000001e0: c80f eabd aa0c 36be b343 23be 4a1f 71bd
000001f0: efc3 c1bd 6d57 6ebd c1f2 10be e546 333c
00000200: 1cb5 1a3d 000f 96bd 30d1 4c3d adc0 e43d
00000210: 5af8 163d dbf4 083d 8daf b43d df0b f13d
00000220: 605e 0cbe e0e6 1dbe b913 09be e06f 89bd
00000230: 6b70 49bd 3017 e4bd 8e69 c5bd 5ea6 7dbd
00000240: 2ea9 b03c d4bf d2b9 91c0 78bd 87a7 90bd
00000250: 05f9 11bd c498 8ebc e3b4 b0bc fe05 d5bb
00000260: 97ff aabc 643e 07bb ea87 8a3c 0ed9 e7bb
00000270: 9e3b f5bc 761f 6c3d 5e39 0c3d 634f af3d
00000280: e3b7 7bbc e470 503c 22af 84bd 3fe3 7fbd
00000290: 554f e73c a675 3a3d d861 fcb9 432a 12bd
000002a0: 4f8a efbb 1e67 12bc 914f 39bd 1c5f 4dbc
000002b0: 41d8 83bb 3335 833d 6a4e bb3c 0658 e83c
000002c0: 30de ab3c bdbd 8d3d 3e1c c3bc 379c ddbc
000002d0: b4be 34bc fac7 81bc 9b4b d63b 0094 52bd
000002e0: 1d31 063c a149 b43d b470 a43d 416f 453c
000002f0: 9f49 0a3c a005 2d3d 5cb9 4abc dbe1 9cbd
00000300: ac88 e23d d7fa 963d b792 ad3d 5adf 113e
00000310: 9b73 87bd b938 993d 50dc 00bd d98a d73d
00000320: a2b7 5d3b c4af d23c 2547 d7bc 402a b0bb
00000330: 8907 78bc e8f7 72bd bd23 2f3d 612f 89bd
00000340: df41 af3d cdc3 af3d ba66 353d a21a fa3d
00000350: 53be bb3d 17d8 923c 0f42 ca3d dd0e 843d
00000360: 7aa9 0e3d 625f 7a3d 761e 223d 726d 833d
00000370: b04f 193c 3edc 33bd 9af5 e73c 44e9 45bd
00000380: 684f 903d a9b0 a03c b785 8cbb c415 45bd
00000390: 40e2 2cba 4f42 f23c 6477 9bbd af8f 673b
000003a0: ca12 8ebd a589 3f3b dc47 183d 1078 003d
000003b0: 5a8b 273d 2dcd 603d 66cd de3c d2d3 1b3d
000003c0: 0328 30bd 0ff6 503d 4d2b 9fbd c888 373d
000003d0: 8954 b1bd 7894 223d 99cb cdbd 852f debb
000003e0: 1635 ff3c e58d 943d d764 c73d 38ff fd3d
000003f0: a79b 3b3d de0a 343e e29a 873d 6f86 013d

conv5.bias f4 [64]
0.03357291 0.048992954 -0.0018680432 -0.06333327 0.0014605433 0.056669578 -0.0018194269 0.030909615
-0.09723871 0.01889566 -0.014062822 -0.0655848 0.035527863 -0.014199952 0.07431213 0.0622549
0.029316122 0.008249884 -0.03138465 0.017223611 -0.012423188 0.045227304 0.04465095 -0.041059468
-0.0026286826 0.04661943 0.04910975 0.031739675 0.0142974015 -0.04482554 0.011879431 -0.01398237
-0.0375306 0.05258234 -0.036447804 -0.08816935 -0.042040277 -0.055112585 -0.0023271195 -0.0026650943
-0.033501886 -0.01312276 0.034785 -0.007213244 0.0073227137 -0.020267561 -0.029146804 -0.066769354
0.0005151359 -0.050425045 -0.06433208 0.08416784 0.03621304 -0.0013475873 0.041954916 0.0607687
0.051191714 0.07588225 -0.008594069 0.023923408 -0.050954446 -0.0647177 -0.016239885 0.014723343
00000000: bf83 093d d6ac 483d 21d9 f4ba e0b4 81bd
00000010: b36f bf3a 5c1e 683d d679 eeba 2936 fd3c
00000020: 1725 c7bd 12cb 9a3c c067 66bc 5351 86bd
00000030: aa85 113d eaa6 68bc f530 983d fefe 7e3d
00000040: 5d28 f03c 852a 073c 318d 00bd 8818 8d3c
00000050: a18a 4bbc 4440 393d eae3 363d f92d 28bd
00000060: fa45 2cbb 04f4 3e3d 4e27 493d 7601 023d
00000070: a63f 6a3c fc9a 37bd f2a1 423c 4f16 65bc
00000080: b0b9 19bd 9460 573d 4b4a 15bd 2292 b4bd
00000090: 6d32 2cbd bcbd 61bd 9682 18bb dda8 2ebb
000000a0: 4639 09bd d800 57bc b77a 0e3d 145d ecbb
000000b0: 60f3 ef3b 2808 a6bc 47c5 eebc 5fbe 88bd
000000c0: 2f0a 073a 7e8a 4ebd 8ac0 83bd 3060 ac3d
000000d0: 2054 143d 87a1 b0ba ebd8 2b3d 9ae8 783d
000000e0: 67ae 513d 2768 9b3d 23ce 0cbc 06fb c33c
000000f0: 9cb5 50bd b78a 84bd 8209 85bc 2d3a 713c

linear1.weight f4 [128, 512]
-0.059552915 -0.09834083 -0.002966333 0.013890357 0.008018565 -0.012390293 -0.016861958 -0.02014476
-0.076680794 -0.083424434 0.03635381 -0.042360865 0.05706011 0.0801358 0.10643251 0.040018972
-0.20298691 -0.13559079 -0.013883217 -0.027214749 -0.14964892 -0.258122 -0.086812414 -0.12218932
0.031537056 0.033977777 0.019898063 0.03299325 -0.0037579627 -0.009223797 -0.03234548 -0.020601606
0.176377 0.102563046 0.009207892 0.030971948 0.15150177 0.14868002 0.025206376 0.078666866
-0.079765856 -0.114824735 -0.02432797 -0.045463108 -0.01840368 -0.035934787 -0.005441365 0.04377144
-0.03668354 -0.08784007 0.056511983 -0.057186212 -0.03108158 -0.10237361 0.07625797 0.022118455
-0.044892285 -0.09303023 0.13033827 0.041172817 0.057923924 -0.0010689411 0.16644935 0.09108268
0.0015209053 -0.06279995 0.005282725 -0.049603436 0.043057445 0.034679137 -0.00020954935 -0.0044488786
0.07740333 0.03021024 0.012703267 0.09714862 0.022782536 0.024771882 0.027113656 0.1059918
0.016037852 0.011299531 0.013211299 0.08196277 0.073319286 0.08079719 0.020817233 0.07215526
0.025014266 0.008134157 -0.043933697 0.030082693 -0.053179648 -0.017763076 0.006206648 0.002536457
-0.08752166 -0.043234378 -0.07405163 -0.0060848515 0.03710103 0.070466824 -0.0032858597 0.07598116
-0.150654 -0.089009486 -0.13614203 -0.017273474 -0.17109403 -0.061812058 -0.26927218 -0.13153942
0.08960209 0.11278478 0.04560149 0.06413114 0.0694755 0.069615826 0.11751924 0.06041015
0.13322285 0.04643974 0.04663468 -0.12197623 0.115935385 -0.005436614 0.11067402 -0.08217341
-0.067279 -0.10647425 -0.037123185 -0.03253697 0.08396576 0.033291973 -0.03168794 -0.044101972
-0.07544789 -0.08644426 0.084892966 0.021225998 -0.029375495 -0.09882083 0.092977 -0.03727085
0.08181677 -0.0006692603 0.04782455 0.15367958 0.18489374 -0.020338919 -0.11579175 -0.049359165
-0.06457484 -0.03633378 -0.023546334 -0.009678799 -0.020367445 0.014566475 -0.022398036 0.008584746
-0.2160631 -0.2098552 -0.09178021 -0.13669978 -0.033113863 -0.02563422 0.010553297 -0.045466453
-0.051524248 -0.069649674 -0.06043678 -0.072101034 0.030042619 0.01953618 0.05025015 0.038665272
0.020273097 0.032269817 0.0036178716 0.0091766715 0.08827859 0.011568619 0.091732346 0.053480342
-0.09861789 -0.22115332 -0.10394767 -0.22413798 -0.24312088 -0.21720439 -0.2398972 -0.28485543
-0.046210974 -0.14269963 0.049711183 0.027181258 -0.097317696 -0.17943162 -0.050562497 0.03639225
-0.098390326 0.06839121 -0.07627106 0.04868859 0.027198868 0.0871824 -0.017909557 0.033059265
0.06768569 0.35292447 0.010520643 0.28747624 0.04811192 0.2821357 0.07606652 0.21038577
-0.06882253 0.0038707512 0.005619254 0.01459998 0.019776966 -0.03773289 0.031956643 -0.03493935
-0.030409316 -0.0033775955 -0.02732989 -0.00061679474 -0.030514648 0.006758404 0.05782122 0.01684789
0.044943813 0.013449179 0.006410823 -0.040104005 0.0048427954 -0.033914812 -0.029228205 0.05633329
-0.00849415 -0.025253192 -0.03148095 -0.065480135 -0.03681702 0.028291928 -0.058170933 -0.028271023
-0.21728277 -0.14057478 -0.18210162 -0.13132419 -0.19379982 -0.14671795 -0.22894041 -0.15510128
00000000: c2ed 73bd eb66 c9bd cf66 42bb 6194 633c
00000010: 4d60 033c a800 4bbc 1722 8abc a006 a5bc
00000020: d20a 9dbd 6eda aabd bce7 143d 9682 2dbd
00000030: ddb7 693d 3d1e a43d 4af9 d93d efea 233d
00000040: cddb 4fbe 50d8 0abe 6f76 63bc 77f1 debc
00000050: 913d 19be 9128 84be b5ca b1bd 653e fabd
00000060: 002d 013d 482c 0b3d 4301 a33c ee23 073d
00000070: 2748 76bb 691f 17bc b27c 04bd b3c4 a8bc
00000080: 2c9c 343e 930c d23d b3dc 163c e2b8 fd3c
00000090: 4823 1b3e 933f 183e 9a7d ce3c 181c a13d
000000a0: 485c a3bd 3b29 ebbd 734b c7bc 8637 3abd
000000b0: 50c3 96bc 5b30 13bd 7a4d b2bb ae49 333d
000000c0: 7b41 16bd 7fe5 b3bd 1c79 673d 173c 6abd
000000d0: cc9e febc 41a9 d1bd 232d 9c3d c331 b53c
000000e0: f9e0 37bd a286 bebd 6577 053e d4a4 283d
000000f0: a341 6d3d b61b 8cba b371 2a3e 8e89 ba3d
00000100: 1d59 c73a 439d 80bd b61a ad3b f92c 4bbd
00000110: 015d 303d b60b 0e3d 7aba 5bb9 e6c7 91bb
00000120: a385 9e3d 777b f73c 5d21 503c dbf5 c63d
00000130: 71a2 ba3c 67ee ca3c 751d de3c 3b12 d93d
00000140: d061 833c ab21 393c 3474 583c 19dc a73d
00000150: 6c28 963d ff78 a53d e788 aa3c 23c6 933d
00000160: b8ea cc3c 2145 053c d2f3 33bd fb6f f63c
00000170: e7d2 59bd df83 91bc 2361 cb3b b03a 263b
00000180: 8e3e b3bd 8816 31bd 62a8 97bd 6f63 c7bb
00000190: 40f7 173d e950 903d 9457 57bb 039c 9b3d
000001a0: 0b45 1abe 9b4a b6bd d168 0bbe 1a81 8dbc
000001b0: 4633 2fbe a42e 7dbd 0bde 89be 45b2 06be
000001c0: 4d81 b73d b5fb e63d a1c8 3a3d 3057 833d
000001d0: 2c49 8e3d be92 8e3d edad f03d a270 773d
000001e0: 926b 083e 9937 3e3d 0204 3f3d acce f9bd
000001f0: 886f ed3d a025 b2bb 10a9 e23d 884a a8bd
00000200: 93c9 89bd 2c0f dabd 7b0e 18bd 7c45 05bd
00000210: 3ef6 ab3d 2a5d 083d 37cb 01bd 45a4 34bd
00000220: 6c84 9abd b009 b1bd 5ddc ad3d 25e2 ad3c
00000230: e1a4 f0bc 9362 cabd ba6a be3d 52a9 18bd
00000240: 8d8f a73d 4c71 2fba ade3 433d 2e5e 1d3e
00000250: c954 3d3e ce9d a6bc 3a24 edbd d62c 4abd
00000260: d03f 84bd bbd2 14bd 3ee4 c0bc d393 1ebc
00000270: a1d9 a6bc 39a8 6e3c 167c b7bc 09a7 0c3c
00000280: a53f 5dbe 48e4 56be 43f7 bbbd 07fb 0bbe
00000290: 67a2 07bd dbfe d1bc bce7 2c3c 083b 3abd
000002a0: 170b 53bd 7da4 8ebd 8f8c 77bd b5a9 93bd
000002b0: f01b f63c 570a a03c 1ad3 4d3d 7a5f 1e3d
000002c0: c413 a63c 5b2d 043d d019 6d3b c059 163c
000002d0: 68cb b43d 4e8a 3d3c 2bde bb3d 340e 5b3d
000002e0: 2df8 c9bd 0476 62be 84e2 d4bd 6d84 65be
000002f0: aef4 78be d46a 5ebe 9da7 75be 92d8 91be
00000300: b847 3dbd da1f 12be f49d 4b3d 3bab de3c
00000310: 804e c7bd ecbc 37be 9f1a 4fbd 0a10 153d
00000320: de80 c9bd b110 8c3d 0034 9cbd b06d 473d
00000330: 29d0 de3c b08c b23d 10b7 92bc 2769 073d
00000340: cc9e 8a3d 84b2 b43e c65e 2c3c 1630 933e
00000350: 0111 453d 1774 903e c3c8 9b3d 5e6f 573e
00000360: d4f2 8cbd 6eac 7d3b b821 b83b c134 6f3c
00000370: 4e03 a23c ce8d 1abd f8e4 023d 901c 0fbd
00000380: f51c f9bc a65a 5dbb efe2 dfbc 65b0 21ba
00000390: dbf9 f9bc 9a75 dd3b f2d5 6c3d 9604 8a3c
000003a0: 0117 383d f259 5c3c e211 d23b 1944 24bd
000003b0: 50b0 9e3b 42ea 0abd fd6f efbc bcbd 663d
000003c0: 0c2b 0bbc c8df cebc 2bf2 00bd 731a 86bd
000003d0: 72cd 16bd 79c4 e73c a544 6ebd a298 e7bc
000003e0: 607f 5ebe d6f2 0fbe d978 3abe d979 06be
000003f0: 7673 46be 3b3d 16be 5b6f 6abe dfd2 1ebe

linear1.bias f4 [128]
0.08571929 -0.017027438 -0.043088008 0.008987267 0.0636555 -0.019850945 0.0028459271 0.03197783
-0.026385047 0.0074137184 -0.009112353 0.075337276 -0.03668932 0.019067187 -0.020583784 0.09909751
-0.05406233 0.08152226 -0.022888692 0.094349265 0.031747863 0.0896405 0.0984252 -0.037057873
0.023266753 0.0009300407 -0.05840368 0.100015976 -0.0096521275 -0.0030286165 0.059589744 -0.028703032
0.06793193 0.06999811 0.010637611 0.023003817 0.008100144 -0.05860274 -0.033622906 0.011316929
0.009586031 0.033908498 -0.04169457 0.03071722 -0.0141975 0.07237944 -0.018949606 -0.048091583
0.03557644 0.017697822 -0.041978605 0.03569899 -0.01941021 -0.02321096 0.08371868 -0.06257257
-0.03202908 -0.019864023 -0.010202626 0.098098055 0.0027601714 -0.050781336 0.024191838 0.08537345
0.00036082097 -0.03362897 -0.037609663 -0.016669761 -0.0014903721 -0.029452316 -0.022383025 -0.014492739
0.030013777 0.036054634 -0.04498384 0.044403486 0.03715983 0.07475754 -0.021633739 -0.035719626
-0.0371539 -0.042495362 0.03978019 0.00782796 0.068008445 0.0258781 0.07999313 -0.010614633
0.0045271073 0.011669102 0.09615263 0.033082813 0.06788333 0.08836956 -0.024880465 -0.04092329
0.02655653 0.02857938 -0.0061145825 0.09321479 0.09323294 -0.032023795 -0.04918103 -0.046134826
-0.03946184 0.093705505 -0.039284505 0.022423338 -0.015676351 -0.0429098 -0.052062906 -0.04330841
-0.019382665 -0.004574423 -0.028209133 0.0939536 -0.050769657 0.008797373 0.09722302 0.06954837
0.020872753 0.09128893 0.031958245 0.070486344 0.085095294 0.017251462 -0.048555337 -0.007518947
00000000: 988d af3d 207d 8bbc 0d7d 30bd 543f 133c
00000010: d15d 823d 739e a2bc bc82 3a3b 2ffb 023d
00000020: 7425 d8bc c7ee f23b fb4b 15bc 6e4a 9a3d
00000030: 8a47 16bd ca32 9c3c 539f a8bc a3f3 ca3d
00000040: 7670 5dbd 25f5 a63d 1181 bbbc 303a c13d
00000050: 0c0a 023d 7095 b73d 2793 c93d ffc9 17bd
00000060: eb99 be3c facd 733a b238 6fbd 2dd5 cc3d
00000070: f523 1ebc c17b 46bb 6014 743d 9f22 ebbc
00000080: e51f 8b3d 2b5b 8f3d 6049 2e3c 8072 bc3c
00000090: 77b6 043c 6d09 70bd 2cb8 09bd a46a 393c
000000a0: ba0e 1d3c a3e3 0a3d edc7 2abd aea2 fb3c
000000b0: a29c 68bc ac3b 943d 343c 9bbc aefb 44bd
000000c0: 9ab8 113d 06fb 903c c2f1 2bbd 1b39 123d
000000d0: 2902 9fbc e924 bebc b374 ab3d 0c26 80bd
000000e0: ed30 03bd e0b9 a2bc ea28 27bc a2e7 c83d
000000f0: fee3 343b 1700 50bd f62d c63c 46d8 ae3d
00000100: 922c bd39 88be 09bd 970c 1abd 068f 88bc
00000110: 9758 c3ba fc45 f1bc 9b5c b7bc f472 6dbc
00000120: 74df f53c 06ae 133d fa40 38bd 6ee0 353d
00000130: e834 183d 7b1a 993d 3d39 b1bc be4e 12bd
00000140: b02e 18bd 9e0f 2ebd 8df0 223d d840 003c
00000150: 0348 8b3d 4ffe d33c 70d3 a33d ffe8 2dbc
00000160: 2158 943b c32f 3f3c aceb c43d d881 073d
00000170: 6a06 8b3d 1afb b43d 1ed2 cbbc 2e9f 27bd
00000180: 148d d93c 4e1f ea3c d65c c8bb 65e7 be3d
00000190: e9f0 be3d 622b 03bd 0c72 49bd dff7 3cbd
000001a0: bda2 21bd ace8 bf3d cae8 20bd 26b1 b73c
000001b0: b16b 80bc 30c2 2fbd ea3f 55bd 2964 31bd
000001c0: 65c8 9ebc 0be5 95bb d716 e7bc bf6a c03d
000001d0: d8f3 4fbd db22 103c dd1c c73d 606f 8e3d
000001e0: 56fd aa3c b1f5 ba3d a6e6 023d 255b 903d
000001f0: 7146 ae3d f052 8d3c f6e1 46bd 8061 f6bb

linear2.weight f4 [1, 128]
-0.2164015 0.1882302 0.027467465 0.14567721 -0.13710064 0.07409899 0.1547783 0.14242803
-0.045628514 0.1733628 0.06853746 -0.2032768 0.029521253 0.13072045 0.09335331 -0.21159597
-0.013534131 -0.1404537 0.0029696831 -0.23262626 -0.13252385 -0.15566881 -0.23828867 0.033617
0.15950342 -0.055501226 -0.03236194 -0.17704846 -0.030605294 0.109261714 -0.17648257 0.081921645
-0.18375175 -0.18124208 0.1541227 0.14760543 0.17049444 0.06984969 0.08204413 0.1417235
0.118881375 0.15099944 0.06009059 0.13140213 0.10288931 -0.2001633 0.081408404 0.038042955
0.09533318 0.16243833 0.033367522 0.15960114 -0.05363118 0.0661916 -0.15864962 -0.0026565376
-0.013202279 -0.06709493 -0.011850663 -0.18830685 0.17230809 -0.024753314 0.10230944 -0.18542372
0.12998773 0.047783587 -0.0057857186 0.07296058 0.00051002146 -0.014151051 0.0041397046 0.056150604
0.13471983 -0.25612074 -0.09674708 -0.20251237 0.13164435 -0.17163281 0.03423223 0.0014206694
-0.053771477 0.067490496 -0.19306305 0.12652007 -0.20046692 0.14101414 -0.14521208 0.105952956
-0.035621036 0.15840015 -0.20618877 0.10932151 -0.19071685 -0.20823598 -0.08360378 0.02695914
0.11732103 0.17091836 -0.2957276 -0.15752408 -0.18905862 -0.058352742 0.18879199 -0.04783293
-0.05009242 -0.1824108 0.22446424 0.10434832 0.057957042 0.0117155025 0.268625 0.067534484
-0.07740653 0.16304089 0.15560679 -0.15837416 -0.0063884766 0.17434812 -0.15825917 -0.18857646
0.11250816 -0.23293234 0.1165661 -0.1795122 -0.13700004 0.1290041 0.00023453415 0.04181187
00000000: 5b98 5dbe 6bbf 403e 7303 e13c 682c 153e
00000010: 1c64 0cbe 36c1 973d 347e 1e3e a7d8 113e
00000020: f7e4 3abd 0586 313e 5e5d 8c3d cb27 50be
00000030: 8ed6 f13c 95db 053e 0530 bf3d 9dac 58be
00000040: 43be 5dbc 18d3 0fbe 049f 423b 9435 6ebe
00000050: 55b4 07be a567 1fbe f201 74be fbb1 093d
00000060: dd54 233e 4155 63bd f48d 04bd 314c 35be
00000070: f4b7 fabc 9bc4 df3d d9b7 34be 89c6 a73d
00000080: 6b29 3cbe 8697 39be 57d2 1d3e e125 173e
00000090: 1896 2e3e 5b0d 8f3d c106 a83d f71f 113e
000000a0: 1478 f33d 999f 1a3e 8d21 763d 488e 063e
000000b0: a1b7 d23d 9cf7 4cbe 73b9 a63d eed2 1b3d
000000c0: 0b3e c33d 3c56 263e 62ac 083d 7b6e 233e
000000d0: 5eac 5bbd 768f 873d 0c75 22be 4e19 2ebb
000000e0: 5f4e 58bc 1169 89bd 4929 42bc 83d3 40be
000000f0: 8871 303e 76c7 cabc 9d87 d13d b7df 3dbe
00000100: 811b 053e b9b8 433d 2096 bdbb 5b6c 953d
00000110: f6b2 053a cfd9 67bc 5ca6 873b 2dfe 653d
00000120: fff3 093e 4222 83be 5523 c6bd 675f 4fbe
00000130: c7cd 063e 83c0 2fbe 1837 0c3d c135 ba3a
00000140: 7b3f 5cbd 7538 8a3d 52b2 45be 7a8e 013e
00000150: 3347 4dbe 0366 103e 7ab2 14be ddfd d83d
00000160: 5de7 11bd a633 223e 2623 53be f5e3 df3d
00000170: 474b 43be d03b 55be 7538 abbd 6ad9 dc3c
00000180: 0246 f03d 3905 2f3e 9c69 97be fe4d 21be
00000190: 9598 41be 4903 6fbd b052 413e 76ec 43bd
000001a0: b62d 4dbd e6c9 3abe f4d9 653e 92b4 d53d
000001b0: 5d64 6d3d 61f2 3f3c 3789 893e 854f 8a3d
000001c0: 5187 9ebd 31f4 263e 6357 1f3e d62c 22be
000001d0: 6d56 d1bb 5088 323e b10e 22be 301a 41be
000001e0: ae6a e63d d185 6ebe 35ba ee3d 0cd2 37be
000001f0: bd49 0cbe a719 043e 48ed 7539 ec42 2b3d
