models/5A_hand_beta.pth (torch, 421229 bytes, 13 tensors)

conv1.weight f4 [4, 1, 5, 5, 5]
000000 44 6f 3d 3d b8 00 1c 3d 7c 56 ed bc 5d e1 80 3c
       0.04624869 0.038086623 -0.028971903 0.015732462
000010 b8 bd ac 3b 79 8d 23 bd 6b e1 b6 bd 1d 4c c1 bd
       0.0052716397 -0.03992984 -0.08929714 -0.094383456
000020 23 49 88 bc 8f e9 38 3d 13 eb f0 bc 22 53 1b bd
       -0.016636437 0.045144614 -0.029408967 -0.03792108
000030 e4 75 29 bd 28 54 12 3c d2 11 90 3d c3 99 5b 3d
       -0.041372195 0.008931197 0.07034649 0.053613435
000040 c3 13 77 bd 05 ee 95 3d d0 9f b7 3d 02 89 0d ba
       -0.06032158 0.07320789 0.08966029 -0.0005399139
000050 82 6b 53 bd d8 bf 54 bd 46 e0 1b 3a af 91 8c 3d
       -0.0516162 -0.05194077 0.00059462 0.068637244
000060 04 21 46 bd 92 62 03 3d 03 45 71 bd 6c 9d 18 3d
       -0.04837133 0.032076426 -0.058903705 0.037259504
000070 72 8a 87 bd a6 f3 32 3d 27 6b 97 bc 08 7f 91 3d
       -0.06618203 0.043689393 -0.018483711 0.071043074
000080 39 7c 6e bd 0d a2 26 bd 57 ca 2c bd 53 96 22 3d
       -0.058223937 -0.040681887 -0.042185154 0.03969414
000090 4d f4 9e bd 8d ee b8 3d a3 f8 8f 3d 50 a9 ef bc
       -0.077614404 0.09029875 0.070298456 -0.02925554
0000a0 04 b3 83 3c 8a 19 03 bd a9 ea 9e 3d 03 12 b7 3b
       0.016076572 -0.032006778 0.077596016 0.005586864
0000b0 47 c9 6c 3d 50 95 2a 3d 04 4e 54 3d ed a3 50 3d
       0.05780914 0.0416463 0.051832214 0.05093758
0000c0 79 ff 51 bd 06 42 f8 3c b8 d3 26 3d 31 4d 95 bd
       -0.05126903 0.03030492 0.040729254 -0.07290114
0000d0 6a d9 67 3c 6e 7e de 3c bc c0 ac bd 99 34 cd bb
       0.014150957 0.027159896 -0.08435199 -0.0062623736
0000e0 75 f5 b4 3d 84 23 ff bc 5e f9 ae bd c1 ba 76 3d
       0.0883588 -0.031144865 -0.08543657 0.060236696
0000f0 b2 15 b6 bb ec 05 f4 3b 11 ed 20 bd d0 ee 3e 3d
       -0.0055567855 0.007446995 -0.039288584 0.046614468
000100 fb 86 13 3d 77 73 bb bc df bf 96 3d e7 9c 69 3d
       0.0360174 -0.022882206 0.07360815 0.0570344
000110 fd 89 b8 bc 8d 1b 11 3c 6e 64 7d 3d 23 d2 87 3d
       -0.022526735 0.008856666 0.061863355 0.06631877
000120 d4 58 de 3c d0 51 37 3d b3 c9 5e 3d 8d 03 6d 3d
       0.027141966 0.044755757 0.054391574 0.057864714
000130 8c 94 a5 3d 89 9f a9 3d 66 67 a8 3d 1e 71 a8 bd
       0.08084974 0.08282382 0.08222847 -0.082247004
000140 a7 d1 15 bc d1 f7 9c 3a c0 90 91 3d 3c 3b d8 bc
       -0.009144223 0.001197571 0.07107687 -0.026395433
000150 20 8c af bd 05 39 bc bd 08 a1 4d bd ce d9 27 bd
       -0.085716486 -0.09190563 -0.0502024 -0.0409792
000160 29 6a 22 3d bc e3 be 3c 57 de bb bd b4 87 f7 3a
       0.039652023 0.023301952 -0.09173267 0.0018885047
000170 b7 64 f4 bc e8 3a e4 3c e3 49 f8 bb 84 69 71 3d
       -0.02983318 0.02786012 -0.0075771674 0.05893852
000180 92 07 05 3d 3c 0c 88 3d a1 39 8a ba dc b4 d8 3d
       0.032477923 0.066429585 -0.0010545739 0.10581371
000190 f9 68 06 bd 19 5c af 3a 6e e2 8e 3d db 8d ac 3d
       -0.032814953 0.0013378888 0.06976782 0.08425494
0001a0 2a 23 86 bd 64 ab aa bd 27 8b 9b bd a0 aa 01 bc
       -0.06549676 -0.083334714 -0.075949006 -0.007914215
0001b0 5c 0c 90 3d 7d cf 28 3b 8e 61 42 bc 94 7a e8 bb
       0.07033607 0.0025758438 -0.011864079 -0.0070946906
0001c0 42 e5 2a 3c c9 50 31 bd 31 5c 0d bc 25 8d c8 3c
       0.010430636 -0.043289933 -0.008627937 0.024481365
0001d0 91 1f 3d bd dd 3f b7 3c 71 4d 45 bb b5 8b 6a 3b
       -0.046172682 0.02236932 -0.0030105973 0.0035788838
0001e0 cb 6b ae 3d 3d 41 22 bd 06 98 af 3c b5 11 22 bd
       0.085166536 -0.039612997 0.021434795 -0.039567668
0001f0 1a b9 db bc 02 cf fd 3c b3 a5 eb 3d d3 df 65 bd
       -0.026821662 0.030982498 0.11506214 -0.05612166
000200 45 e3 34 bd 99 ec a8 bd 9d 53 8b 3d 8f 90 b6 bc
       -0.044162054 -0.082482524 0.06803057 -0.022285728
000210 89 5d 62 bd 64 de e5 3c b0 95 bc bd e0 9d 58 bc
       -0.055264983 0.028060146 -0.09208238 -0.013221234
000220 07 16 c0 3d 64 59 65 3d e0 74 ba 3d 47 31 31 3b
       0.093792014 0.055993453 0.091043234 0.0027037428
000230 07 b2 ce bc cb 03 a6 3d 61 19 68 3d 21 8d 85 3d
       -0.025231374 0.08106192 0.05666483 0.06521059
000240 de 37 77 3d 03 13 b7 bb 7e f9 fe 3c 73 6e 4d 3b
       0.060356013 -0.005586983 0.031124827 0.003134635
000250 a7 1c 80 bc 51 5d b5 bd ed 85 45 3d ee ef 1f bd
       -0.015638663 -0.08855689 0.048223425 -0.039047174
000260 10 b1 ac 3c ff e9 a1 bd 91 5b 89 3d 01 d0 0c 3c
       0.021080524 -0.07905959 0.06706918 0.008594514
000270 5a cb 32 3d 35 8e b5 3d 7f 02 6c 3d 6c f0 b6 bd
       0.043650962 0.088650145 0.057619568 -0.089325756
000280 af 8b d0 3d 54 bc a9 3d fd f9 d5 3d 26 64 8e bb
       0.101828925 0.08287874 0.10448072 -0.0043454347
000290 bf d4 04 bd 83 fa 53 3c 0f f9 97 3d 28 91 a8 3d
       -0.032429453 0.012938145 0.07420551 0.08230811
0002a0 94 4f 40 bd ef c5 b2 bd bb 90 88 3c 00 0f 78 bd
       -0.04695089 -0.08729159 0.016670575 -0.06056118
0002b0 91 bb 6a 3d 15 ad 96 3d b4 2f 3b 3d df a2 7d bd
       0.057307784 0.073572315 0.04569979 -0.061922904
0002c0 a4 1c 08 bd 40 e0 e6 bc 32 2d 3b 3c 90 f2 f5 3c
       -0.03323044 -0.028183103 0.01142435 0.03002289
0002d0 82 71 9b 3d 3f 43 a1 3c 56 2b b2 3d fe 0f 84 bd
       0.07590009 0.019685386 0.08699672 -0.06448363
0002e0 19 f1 09 3c 16 d7 dc 3c d4 04 3c bc 0b e5 8b 3d
       0.008419299 0.02695803 -0.0114757605 0.06830796
0002f0 9a 6a ab bd ba da 28 bd b3 91 12 3d 2a fa a6 3d
       -0.08369942 -0.04122422 0.03578348 0.08153184
000300 0b a6 83 bb 8b 72 1e bd 00 f5 c9 3c bd f2 8d 3d
       -0.0040175966 -0.038683455 0.024652958 0.06931064
000310 47 62 98 bd b6 4b 98 bd 2a 24 95 bd 6f 97 28 bd
       -0.0744062 -0.07436316 -0.07282288 -0.041160043
000320 fb 69 c4 3c 35 b7 16 bd 0d e5 93 bd 04 bf e9 bc
       0.023976317 -0.036795814 -0.07221422 -0.028533466
000330 0a 41 5b 3d a1 e5 d3 bc 34 93 5c 3d 91 7d a6 3d
       0.053528823 -0.025866332 0.05385132 0.08129419
000340 ec f6 92 bb c1 97 b6 bd 08 00 ef bc 73 f1 7f bd
       -0.004485002 -0.089156635 -0.02917482 -0.062486123
000350 93 ac c9 ba 08 cc 2b bb 87 e2 a0 bd bd 7c 7f 3d
       -0.0015386514 -0.0026214141 -0.07855707 0.06237482
000360 95 a3 3d bd 20 ed db 3c 76 16 8b bd c4 85 91 bd
       -0.046298582 0.026846468 -0.067913935 -0.07105592
000370 02 2c 89 bd c3 4b 6b 3c a7 fb dd bc b0 39 8f 3c
       -0.06697847 0.014361325 -0.027097536 0.017483562
000380 39 c0 30 3d e5 84 66 3d 76 e7 27 3d d1 f9 8f bc
       0.043152068 0.05627908 0.040992223 -0.017575176
000390 5e db b1 3d d0 4d c0 3a 9e 4b 86 3c d1 5b 78 bd
       0.08684419 0.0014671627 0.016393479 -0.060634438
0003a0 fb d8 f0 3c 47 8c f2 ba 5a 2a 8c 3d e1 e7 99 3d
       0.02940034 -0.0018504941 0.068440154 0.075149305
0003b0 dd 16 ab bd 9d 8a a6 3c d6 45 68 3d 3a 3a 4f 3d
       -0.0835397 0.020329768 0.056707226 0.05059264
0003c0 42 a7 2c bd 52 fd 67 bd 7d 0e 86 3d 1d bf 87 3d
       -0.042151697 -0.05663807 0.06545732 0.06628249
0003d0 ff dd be bd 5d f0 86 3d 8a f5 87 bc 76 de ad 3c
       -0.09319686 0.065888144 -0.016596574 0.021224242
0003e0 1f fb 14 3d 18 5e 7e 3d f7 ac ae 3d 55 92 45 bd
       0.0363723 0.062101454 0.08529084 -0.048235256
0003f0 9e 79 c8 bc 3b 26 dc 3b 5b 8c 10 3d 41 cc 81 bd
       -0.024472054 0.0067184246 0.035290103 -0.063377865

conv1.bias f4 [4]
000000 bc 76 ce bd a0 64 f0 bd 89 5a f3 bd 28 82 0f bd
       -0.100812405 -0.11737943 -0.118825026 -0.035036236

conv2.weight f4 [8, 4, 5, 5, 5]
000000 cb a1 50 bc b8 67 3c 3c 85 c8 80 3c cb df 4a 3d
       -0.012733887 0.011499338 0.015720615 0.04952983
000010 f3 50 73 3c 43 c3 35 bb 01 d4 c2 bc a1 cc d9 3c
       0.014850843 -0.0027734793 -0.023782732 0.026586832
000020 ff 74 8f 3c b3 b8 40 3c d5 fc 41 bd 56 65 28 bc
       0.017511843 0.011762786 -0.04736026 -0.010278067
000030 8a fa 6a 3c e0 80 f4 bc 87 df 86 bd 69 1e 06 bd
       0.01434196 -0.029846609 -0.06585603 -0.032743845
000040 9e 77 14 3c 5d 92 8b 3d 51 35 e1 3c 34 63 12 bc
       0.009061722 0.06815026 0.027491244 -0.008934785
000050 2d ac 28 bc 51 54 1d 3c 69 9f 8d 3d cc a7 c6 3c
       -0.010294956 0.009602622 0.06915171 0.024249934
000060 2c 5b 39 3d f1 a1 a3 bc c3 89 d7 3b 37 46 bd 3b
       0.045252964 -0.01997468 0.006577702 0.0057761925
000070 39 be 57 3c 2e 72 10 3d 13 d3 03 3d 91 51 a4 bc
       0.013167911 0.03526514 0.032183718 -0.020058425
000080 52 e0 51 3d e5 fb b8 bc 01 64 9d bb 0b ef 28 bd
       0.05123932 -0.02258105 -0.004803181 -0.041243594
000090 d4 de d1 3c 43 ad cb bc c5 4a be bc 71 b8 5b 3c
       0.025618948 -0.024862891 -0.023229012 0.0134106735
0000a0 b7 9e 3e bd 30 24 23 bd 8a 47 d0 3c 7f bb 53 3d
       -0.04653808 -0.039829433 0.025424737 0.051692482
0000b0 03 25 37 3d 94 86 57 bd d7 0c 37 bd 75 02 9a ba
       0.04471303 -0.052618578 -0.04468998 -0.001175
0000c0 76 a4 8a 3d 0a 27 3d 3c 24 10 48 bd f8 d6 8d 3c
       0.0676965 0.011544952 -0.048843518 0.01731442
0000d0 2c 54 95 bb df e8 18 3d cc a9 a4 bc 00 4f 08 3d
       -0.004557153 0.03733146 -0.020100497 0.033278465
0000e0 7a 46 5c 3d e3 c8 86 3d 63 b3 10 bc 15 04 ea bb
       0.05377815 0.06581285 -0.008831832 -0.0071416
0000f0 05 9e 2a 3d 70 96 8d 3b 5a 14 23 3c 3b e2 0b 3d
       0.041654605 0.004320912 0.009953583 0.034151297
000100 e1 a3 46 bd b5 2f ce 3c d6 80 ae 3c e9 25 63 bd
       -0.04849613 0.025169233 0.021301668 -0.055456076
000110 34 4a 9e bc a5 f4 48 b9 4e 38 05 3b 6b cc 66 3c
       -0.019322492 -0.00019164624 0.002032775 0.014086823
000120 e6 af a4 bb 53 41 a7 3c 58 94 8d 3d 02 0f 37 bd
       -0.0050258515 0.020416891 0.0691306 -0.044692047
000130 86 29 2f 3d e7 78 f1 bc 41 01 4b 3d d1 ae 0b bd
       0.04276421 -0.029476596 0.049561743 -0.034102265
000140 69 22 fb bb d4 91 7a 3d b5 70 71 3d 2e 56 35 3d
       -0.007664014 0.06117423 0.058945376 0.04427164
000150 8c a0 1f bd 91 c0 ba bc c1 17 88 bc 8f 11 8d bc
       -0.03897147 -0.022796901 -0.01661289 -0.017220287
000160 49 0c ed bb 03 3c ce 3c 88 d6 87 3c 2f ab 39 3c
       -0.0072341305 0.0251751 0.016581789 0.011332317
000170 2e 14 29 3c 3a cf 1c 3c 8c d3 2f bd bd ed 16 bb
       0.010319753 0.009570891 -0.042926356 -0.0023029887
000180 3d 3a f1 bc 41 2d ca 3c 3e 24 d8 3c d8 e7 61 3c
       -0.029446715 0.024679782 0.02638447 0.013788186
000190 c1 65 01 3c a2 e0 2b 3d 06 55 21 bc 4c 6a 84 bc
       0.007897795 0.041962273 -0.009846931 -0.016163968
0001a0 e3 d0 62 3c 81 99 35 3a 95 6f 89 3c 45 a4 e3 3c
       0.013843748 0.0006927476 0.01677684 0.02778829
0001b0 e2 12 2b bd 7b 69 e1 3c 83 02 13 3d 5f 8b 37 3d
       -0.041766055 0.027516117 0.035891067 0.04481065
0001c0 30 df 2d 3d a2 51 41 bd 7c 64 8b bc 45 9f 01 3d
       0.042449176 -0.04719699 -0.017015688 0.031646032
0001d0 19 88 2b 3d 32 f6 2f 3d ae b7 dc 3c 66 98 b7 bc
       0.04187784 0.0429594 0.026943054 -0.022411536
0001e0 5d 7a 0f 3d a4 c2 60 3c e7 d7 1d bb 7b 35 65 3d
       0.035028804 0.013718281 -0.0024084987 0.055959206
0001f0 33 85 25 3d 6a 10 62 38 b8 90 79 3c 9a 27 6b bb
       0.04041023 5.3897886e-05 0.015232258 -0.0035881759
000200 d9 e2 2e 3b 05 6d 53 3d a0 b6 31 3c fa e7 2b bd
       0.0026685505 0.05161764 0.010846764 -0.041969277
000210 a9 73 18 3c 02 8b 90 3c d2 24 af bc d5 a8 c4 3c
       0.009304919 0.01764441 -0.021379862 0.024006287
000220 e9 34 8f ba a5 2e 96 bc a9 51 1c 3d 2b 47 18 3d
       -0.0010925803 -0.018332789 0.038163815 0.037177246
000230 27 7f 90 bc 75 d5 33 3d fd 5b 56 bc 9f 1a c1 3c
       -0.017638756 0.04390474 -0.013083455 0.023572264
000240 88 2f 57 3a 63 16 a1 3c e5 85 f0 3c 7f 9f 0b bd
       0.0008208682 0.019663995 0.02936072 -0.034087654
000250 cc 19 a3 bb e2 6d 43 bc 3f 88 fb bc 51 77 36 bc
       -0.0049774405 -0.011928054 -0.030704616 -0.011136846
000260 73 76 2a bd 03 cb 42 3d 1d 0e 08 3d 77 fa 97 bd
       -0.04161687 0.04755689 0.033216584 -0.07420819
000270 dc 18 eb bc fe b5 b1 bc b4 87 74 bc ba 6d e4 bb
       -0.028698377 -0.021693226 -0.014924932 -0.0069710882
000280 49 74 2c bc 58 27 f6 bc dd 9c 42 3c 7a 75 78 3d
       -0.010525771 -0.030048057 0.011878219 0.06065891
000290 04 e4 da ba ec 99 5c bd 54 59 db bc 15 cb bc bc
       -0.0016700034 -0.05385773 -0.026775993 -0.023046056
0002a0 f5 d3 15 bd 63 a0 9d 3b 0e 04 2a bb ff d4 59 3b
       -0.03657909 0.0048103794 -0.0025942358 0.0033238528
0002b0 48 5b d6 3b a8 44 60 bd e2 69 1a bd fa 46 42 bc
       0.0065416433 -0.054752976 -0.037698634 -0.011857742
0002c0 26 a5 ce bb aa 70 ad 3c 7f 25 e1 ba 70 53 44 3d
       -0.0063063083 0.021171886 -0.0017177312 0.047931135
0002d0 53 29 1f bd d2 de e6 bc f0 90 f2 bb 03 8c 23 3d
       -0.03885777 -0.02818242 -0.007402532 0.039928447
0002e0 3c d6 51 3d 0b 84 35 bd 27 df 5a bd 8b 04 92 3c
       0.0512297 -0.04431538 -0.05343547 0.017824432
0002f0 31 f4 1a 3d 1b e7 06 3d c8 03 e8 bc 89 ba 00 bd
       0.037830535 0.032935243 -0.028322116 -0.031427894
000300 e8 ee 0d 3d ca 27 15 3d ce 1a b9 3a b3 6b 06 3d
       0.034651667 0.0364149 0.0014122368 0.032817554
000310 c8 eb e7 ba df 10 49 bd 83 c8 6a bd e5 82 3d 3b
       -0.001769417 -0.049088355 -0.05732013 0.002891713
000320 c3 c9 59 bd b9 75 0a bd 93 b1 27 3d ad 97 e0 bb
       -0.05317093 -0.033803675 0.040940832 -0.0068540187
000330 66 73 68 3b 61 cb 02 3c b8 98 f7 3c 6d e6 c7 39
       0.0035469173 0.00798306 0.03022419 0.00038127918
000340 30 9a 17 3d 05 77 38 3d 99 ee 0d 3c 92 1f 0a bd
       0.03701228 0.04503538 0.008662843 -0.033721514
000350 09 c1 ba bc 4d 6d 49 3d c0 31 44 3d 00 7c a3 bc
       -0.022797124 0.049176503 0.047899008 -0.019956589
000360 78 b1 02 bd f6 e5 99 bc b8 91 0a bd 69 b7 ae 3b
       -0.03190753 -0.018786412 -0.033830374 0.005331923
000370 93 b5 53 bd 9e 88 3c bd 08 26 40 bc 49 45 18 3c
       -0.051686835 -0.046028726 -0.011727817 0.009293863
000380 50 9b 97 bb b4 26 3c ba b3 e3 dd bc cd b7 59 3d
       -0.004626669 -0.0007177398 -0.027086115 0.0531538
000390 44 4e 6a 3c b8 e4 a1 3c de 96 0c 3c e1 01 87 bc
       0.014300887 0.019762382 0.008580891 -0.016480388
0003a0 aa 8f ee 3a 5d 8f ce 3c 7e 15 8e 3c e4 67 2b ba
       0.0018200774 0.025214845 0.017344233 -0.0006538613
0003b0 43 c9 24 bc f7 2e 23 3d 4a 89 ce 3c 85 bf 11 3d
       -0.01005775 0.03983971 0.025211949 0.035583038
0003c0 ff 01 91 3b 18 d0 27 bb d8 40 4b bd 6e ed 8c 3c
       0.004425287 -0.0025606211 -0.049622387 0.017203059
0003d0 53 cb 83 3a 3e 13 16 3d 9c 2e a4 bc 88 f8 36 bd
       0.0010055102 0.036639445 -0.020041756 -0.04467061
0003e0 5e 68 93 3c 5f 56 a8 3b 68 56 12 bd 9e db d2 3c
       0.017994102 0.0051372494 -0.035726935 0.025739487
0003f0 50 0b 3d bc 1d c6 5f bc 77 a7 51 3d c4 60 2f bc
       -0.011538342 -0.013658074 0.051185098 -0.010704223

conv2.bias f4 [8]
000000 d0 03 88 bd 6b 5b 6c bd ac 41 71 3d 87 3b d9 3b
       -0.06641352 -0.05770437 0.05890052 0.0066294107
000010 39 e3 d1 bc f8 8c 05 3b e2 be 44 3d fb 2b a8 bd
       -0.025621044 0.0020378213 0.048033603 -0.082115136

conv3.weight f4 [16, 8, 3, 3, 3]
000000 a2 60 24 3c ee 94 58 bd 6e 7b 7c 3d 8f e5 d4 3c
       0.010032805 -0.052876405 0.06164115 0.025988368
000010 0f ca 61 3c 82 59 03 bd 60 57 fd bc 95 0e 0d 3c
       0.013781085 -0.032067783 -0.030925453 0.008609434
000020 3d 10 7f 3d 84 81 8d 3c 98 c6 08 bd 97 5d 88 3c
       0.062271345 0.017273672 -0.03339252 0.01664619
000030 72 4b 06 3d a5 11 e2 3c 55 fb 36 bc 25 9a 56 bd
       0.032786794 0.027596304 -0.011168321 -0.052393097
000040 74 1a 3b bd ff c7 8e 3c 2a 95 03 3d 66 08 2c 3d
       -0.045679525 0.01742935 0.032124676 0.042000197
000050 2c 2a a5 3c 30 bd 6a bc 43 ea 3b 3c 59 91 88 3d
       0.02016171 -0.014327332 0.011469427 0.06668348
000060 a4 db 82 bd 71 c7 46 3c 7f 71 f0 3c b2 65 21 bd
       -0.063895494 0.0121325115 0.029350994 -0.039403625
000070 37 82 d6 3c c8 4a 30 bd 9e 71 27 3d 43 ed 8b bd
       0.026185138 -0.043040067 0.04087984 -0.068323635
000080 f7 52 ce 3c 89 6b c8 3c c6 b9 20 bc 5a b6 3d bc
       0.025186045 0.02446534 -0.009809917 -0.0115791205
000090 36 0b e5 bc 62 98 5a bc 78 62 54 bd 7f 85 0b bc
       -0.027959447 -0.013341995 -0.05185172 -0.008515715
0000a0 c4 c3 14 3c 73 d5 43 3d 72 37 fd 3b 36 e2 56 bd
       0.009079877 0.047810983 0.007727557 -0.052461825
0000b0 31 2c 95 3d 17 33 e4 bc a5 fc 70 3c a1 b4 66 bd
       0.072838195 -0.027856393 0.014708673 -0.056324605
0000c0 45 2f b5 bc ea 48 5e 3d 3a 88 78 bd 41 e6 e7 3c
       -0.022117266 0.054268755 -0.06067679 0.028308036
0000d0 05 f5 0b bc d3 0f 92 3d ca c8 4c 3d 42 14 82 3d
       -0.008542304 0.071319245 0.049996175 0.0635152
0000e0 a8 53 19 3d 85 2e a1 3d c9 f1 cc 3d f5 b7 dc bb
       0.037433296 0.07870201 0.10007054 -0.0067357966
0000f0 9e a9 88 3d ea 76 10 3c dd 60 b9 3d 2b 6e 1c 3c
       0.06672977 0.008817414 0.09051678 0.00954775
000100 fb c6 8e 3c f7 0e 5c bd 10 37 90 3d 96 46 a6 3d
       0.017428866 -0.05372521 0.07041752 0.08118932
000110 8a 9d 23 bd a7 49 e3 3d 51 c8 e0 3d 30 c0 bf 3d
       -0.039945163 0.110980324 0.10975707 0.09362829
000120 3a c5 37 3d 73 41 44 3d b6 de a7 3c fc fc fa 3c
       0.044865824 0.04791398 0.020491939 0.03063821
000130 f6 12 58 3d 34 8c fd 3a 8f bb 01 3d 3d ee 3b 3d
       0.052752458 0.0019344152 0.03167301 0.0458815
000140 47 54 11 3d 15 e0 12 bd 4f 43 3c bd ee 67 29 3d
       0.035480764 -0.035858233 -0.045962628 0.04135888
000150 70 74 c9 bb 22 5a c5 3c 8d 50 10 3d 94 7f a7 bc
       -0.0061479136 0.02409083 0.03523307 -0.020446576
000160 53 73 90 bc db 2f 9f bd 01 a9 5b bd 2d 47 56 bc
       -0.017633116 -0.077727996 -0.05362797 -0.013078493
000170 27 7d 29 bd 97 12 03 bd 17 6a fb bb 86 97 75 3c
       -0.04137912 -0.03200015 -0.007672559 0.014989739
000180 ff ff d0 bc 9b fe e1 3c 46 16 1d bc 19 97 2b bd
       -0.025512693 0.027587226 -0.00958783 -0.041892145
000190 99 4a 52 3d d6 e7 6d bb bc db 0a bc 78 4e cd bc
       0.051340673 -0.0036301515 -0.00847524 -0.02506183
0001a0 37 1e d6 bc 77 c1 a9 3d 34 cc 80 b9 6c 00 a8 3d
       -0.026137454 0.082888536 -0.00024566206 0.082032055
0001b0 1c fa 64 3d c3 fe 5d 3c d8 23 28 3d ea 6f e0 3c
       0.055902585 0.013549509 0.04104981 0.027397115
0001c0 c3 3c 2a bc 7d f3 bf bb fc c2 70 3d 77 ca 29 3d
       -0.010390463 -0.0058578835 0.0587797 0.04145285
0001d0 e2 3b 5d bd 5c 9e 67 3d 5f 24 17 3d a4 b6 95 3d
       -0.054012187 0.056547508 0.03689992 0.073102266
0001e0 1c a8 7a 3d 12 bb 88 bd 48 a6 a5 bc 08 5d dd 3c
       0.061195478 -0.06676306 -0.02022089 0.0270219
0001f0 66 d5 64 bd be e4 7d bc 4e 77 2b bd 52 a4 8d 3d
       -0.055867575 -0.015496431 -0.041861825 0.06916107
000200 c8 44 5e 3d 85 20 64 3d a7 2c 74 3d 9e ea 3d 3d
       0.054264814 0.055695076 0.059612896 0.046366327
000210 45 dc 6c bd 9b 9d e8 bc 9d 08 06 3d c9 cb 9b 3b
       -0.057827253 -0.028395465 0.032723058 0.0047545177
000220 24 53 50 bd 49 cf 0a bc 0d 9b b6 3c 5a 5b df bc
       -0.05086054 -0.008472272 0.02229073 -0.02726524
000230 66 f9 f4 3c d6 9c 85 bd a3 e0 98 bd 79 75 4e 3d
       0.029904079 -0.06524055 -0.07464721 0.050405
000240 79 4b b7 bb b9 72 4c bd 9f e3 5c 3a 64 d2 4d bc
       -0.005593714 -0.049914096 0.0008426252 -0.012562368
000250 8a 0c 9d bd e7 20 4d bd fc ae 60 bc e4 39 65 bd
       -0.07668407 -0.050080206 -0.0137135945 -0.055963412
000260 3f 34 6d 3c 05 7a 6f 3c 82 38 df b8 5f fe db 3c
       0.0144777885 0.014616494 -0.00010643994 0.026854692
000270 4c a5 9d bd 0d 66 18 3d 25 da 76 3d 20 66 de bc
       -0.076975435 0.0372067 0.060266633 -0.027148306
000280 93 e8 14 bb c8 b2 19 bd d1 67 af bc 49 b5 62 3c
       -0.0022721633 -0.037524015 -0.021411808 0.013837167
000290 7b 55 81 3d fb 70 a5 bd 3e 48 d2 bb dd 62 a4 3c
       0.06315132 -0.0807819 -0.0064173033 0.020066673
0002a0 2e eb 28 bd 35 9d 5a bd 8d 92 33 3d 8e bc f6 bc
       -0.04123991 -0.05337258 0.043840934 -0.030119207
0002b0 6e a4 8e bd 8c bd e5 3b 87 15 8a bd f7 da 4d bd
       -0.06964956 0.007011121 -0.06742387 -0.05025765
0002c0 65 be 4e bd 26 99 9c bd 95 8f df bc 41 38 9e bc
       -0.050474543 -0.07646398 -0.027290145 -0.019313933
0002d0 1a fb 86 3d 78 83 a3 bc 3f c8 53 bd 39 b6 54 bd
       0.065908626 -0.01996015 -0.05170464 -0.051931594
0002e0 ff c0 63 3d 57 27 c4 bc a7 08 24 3c e5 75 02 3d
       0.055603977 -0.02394454 0.0100118285 0.031850714
0002f0 d9 35 24 bc 80 2a a8 bc 11 ed 7d bd bf ef 9e bc
       -0.010022604 -0.020528078 -0.061993662 -0.01940143
000300 81 9e af bc 4e be 22 3c f0 5f b4 bc 97 9d 06 bd
       -0.021437885 0.0099330675 -0.022018403 -0.032865133
000310 a7 63 50 bd 41 6e 22 bd c2 c1 4e bd bb ed 32 bc
       -0.050876286 -0.039655928 -0.05047775 -0.010920937
000320 db e1 92 3d 43 5f 0e 3c 20 a9 4d bd 43 f5 0f bd
       0.07171985 0.008689704 -0.05021012 -0.03514601
000330 7b 49 8a bd 83 98 72 3d 21 cd d4 3c 8e 1a ba bc
       -0.067522965 0.059227478 0.02597672 -0.02271774
000340 f4 0c f0 ba 60 8c aa 3c ed 18 66 3d 4f 48 a2 bb
       -0.0018314407 0.02081889 0.056176115 -0.0049524675
000350 84 67 0b bb 8e d0 63 3d d1 32 87 bc 57 da ce 3c
       -0.0021271417 0.055618815 -0.016503723 0.025250597
000360 82 9b a6 bc 8e f2 90 3b 86 91 b2 bd 53 68 5a bd
       -0.020337824 0.004423446 -0.08719163 -0.053322148
000370 02 30 b4 3c 58 2c 11 3d 0e 07 23 bd d0 d3 03 3b
       0.021995548 0.03544268 -0.03980165 0.0020115264
000380 81 df 67 bb c2 73 f5 bc 14 ff 91 3b 3a 87 ab bd
       -0.0035381021 -0.029962424 0.0044554565 -0.08375402
000390 1d 6b 9a bc 33 d6 40 bd e2 31 94 bd 61 7c 89 bd
       -0.018849904 -0.047079276 -0.07236077 -0.067131765
0003a0 19 6a 05 bd 4c 09 4d bd c7 08 b9 3c cd a8 64 3d
       -0.032571886 -0.050057694 0.022587193 0.055825043
0003b0 5f 81 25 3c 49 e8 33 3d 35 53 e4 bc a7 e2 39 3d
       0.010101645 0.043922696 -0.027871707 0.04538217
0003c0 50 30 2f bd ac 16 99 bd a5 6d 37 bd a7 c4 07 3d
       -0.042770684 -0.074750274 -0.0447823 0.033146527
0003d0 09 5b 37 bc b8 b8 b8 3c 4f 0a 39 3d 73 c6 08 3c
       -0.011191138 0.022549018 0.045175847 0.008348095
0003e0 d9 c9 73 bd 0d 9f 4b bd f5 54 af 3c cf 0c 8c bd
       -0.05951867 -0.04971223 0.021402815 -0.068383805
0003f0 30 97 86 3d 36 4e 9f bb 5d 38 32 bd 94 5d 11 bd
       0.065718055 -0.0048616184 -0.043510783 -0.035489634

conv3.bias f4 [16]
000000 15 b0 2e bd 03 70 98 3c d8 dd d8 bc fa ab 93 3d
       -0.042648394 0.018608099 -0.02647297 0.07210536
000010 13 0f 36 bd b8 d0 31 bd ab 1a ed bc 50 1d d9 bc
       -0.04444797 -0.04341194 -0.02894338 -0.026503235
000020 bf 5d c9 bc 62 cd 8e bc 0b 05 ac 3c 45 b6 1a bd
       -0.024580834 -0.017431919 0.020998498 -0.037771482
000030 e2 d8 9a 3c 3b 5a 14 bd 25 81 5e 3d 63 d2 75 bc
       0.018902246 -0.036218863 0.05432238 -0.015003773

conv4.weight f4 [32, 16, 3, 3, 3]
000000 f8 e5 92 3d fc 34 54 3c c2 f7 0f ba 58 80 5d 3d
       0.07172769 0.012952086 -0.0005491936 0.054077476
000010 05 0a 6a 3d e8 73 d3 bc 6f 3d dd 3c 8f 54 a8 bc
       0.05713846 -0.025812104 0.027006833 -0.020548133
000020 64 c9 3f bd 9a 40 df 3b a6 92 6d 3d fe be 4a bc
       -0.04682292 0.006813121 0.058001183 -0.012374638
000030 0d 95 3b 3d e3 f4 35 3c 60 ce ee 3c 58 cf 35 bd
       0.045796443 0.011105749 0.029151142 -0.04438719
000040 4e 0b 2a 3d 27 61 1d bd ae 52 4e 3b 2b db a3 3c
       0.041514687 -0.03842273 0.0031482386 0.020001968
000050 34 f7 80 bd ef 70 1b bc 85 d2 3b 3d 58 90 ab bc
       -0.0629715 -0.009487375 0.045855064 -0.020942852
000060 41 b1 d5 3c 98 64 12 3d 31 a8 03 bd b6 af dc 3c
       0.026085498 0.035740465 -0.03214282 0.026939254
000070 ac 04 88 3d 74 db 29 bd 94 4d 79 3c 8b 6f 4b bd
       0.06641516 -0.041469052 0.01521625 -0.049666923
000080 76 70 a6 bd 12 d4 80 3c 79 f3 a6 bd 2d 03 d9 bd
       -0.08126919 0.015726123 -0.081519075 -0.10596309
000090 ac 68 86 3d 35 d5 30 3c 99 26 20 3d 6d 39 84 bc
       0.06562933 0.01079302 0.03909931 -0.016140664
0000a0 3e 3f 77 bd d1 9a c8 bd cb 11 4f bd ae 4d af bd
       -0.060363047 -0.09795154 -0.050554078 -0.08559738
0000b0 d6 08 df bd d4 8d 53 3d 67 dd 55 bd 5b 65 cc bc
       -0.10890357 0.05164893 -0.0522131 -0.024950674
0000c0 59 a4 96 bc b0 b5 9b bb f0 07 c9 bd 5d ff 8c 3c
       -0.018388914 -0.0047518834 -0.09815967 0.01721161
0000d0 b5 cd eb bc 0b 09 41 bd 91 71 4c 3d 3a 08 91 bc
       -0.028784612 -0.047127765 0.049912993 -0.017704118
0000e0 2c 4d 4f 3c 3b 8f 3a 3d 63 6a ab 3a 7d 4c 5d bc
       0.012652677 0.04554675 0.001307797 -0.013507006
0000f0 00 bf 9f 3c 2e ae 44 3d eb 9c 1c bd 6e 82 95 bc
       0.019500256 0.048017673 -0.038235586 -0.01825067
000100 17 56 93 3c a2 f3 b1 3c 3d f1 1a bc 72 42 8b 3d
       0.017985387 0.021722618 -0.00945693 0.06799783
000110 eb 40 28 3b 11 8d 79 3d bb d2 bd bb 03 b7 84 3c
       0.002567346 0.060925547 -0.0057929433 0.016200548
000120 5e 53 59 3c 2b 5c 4a bd 3d a8 4e 3c 63 3c e1 3c
       0.013264505 -0.049404304 0.012613353 0.027494615
000130 70 b7 c4 bc 28 85 0b bd ee 59 53 3d e6 47 4b 3d
       -0.024013251 -0.034062535 0.051599436 0.049629115
000140 9d e7 d6 bc 53 72 52 bc b5 64 37 bc 9a 0b 63 bd
       -0.026233489 -0.01284464 -0.011193444 -0.055430986
000150 cb 88 99 3c 64 73 2a bd 6b fe 9d bc e1 37 45 3d
       0.018741986 -0.04161395 -0.019286355 0.048148993
000160 75 87 33 bd f7 86 82 bd 81 04 af 3c 12 12 03 bc
       -0.043830354 -0.06373399 0.021364452 -0.007999914
000170 35 96 a2 bc 53 dd 11 3c cc a6 9e 3c ba a7 79 bd
       -0.019847015 0.008902865 0.019366644 -0.060950972
000180 77 f9 50 bc 53 1f a7 bc 3e 66 67 bd 8a 79 87 3c
       -0.01275479 -0.020400679 -0.05649399 0.016537447
000190 94 74 c8 bc 4b 11 a6 3c 4b b4 9c bc c0 78 82 bd
       -0.024469651 0.020271918 -0.01912894 -0.063706875
0001a0 f8 1e 4b 3c 15 f8 41 bc e8 08 12 bd 27 ec 05 bd
       0.01239752 -0.0118389325 -0.035653025 -0.032695916
0001b0 a2 02 02 bd e9 e9 04 bd 03 aa 78 3c 98 3c 31 3d
       -0.031740792 -0.032449637 0.015177253 0.043270677
0001c0 90 5c 40 bc 2a 9a 5a 3d 16 eb 5c 3c 36 2d 51 3d
       -0.011740819 0.05336968 0.013483783 0.051068507
0001d0 41 53 db 3c 41 01 fb bb cf 19 1b bb b1 8c 04 bd
       0.026773097 -0.0076600616 -0.0023666506 -0.032360736
0001e0 cc 8c bd bc e9 63 82 bc cd d2 90 3c 6e 30 24 3d
       -0.023138426 -0.015916781 0.017678643 0.04008525
0001f0 3f 81 27 3d 0b 4a 2b 3d 3f 69 34 3c 3f 68 9a ba
       0.040894743 0.04181866 0.011011421 -0.0011780335
000200 5b 7a 4a 3d 65 52 02 3d 31 f6 04 3c d5 a6 ea 3c
       0.049433094 0.03181686 0.008115337 0.028644005
000210 db 68 c6 3c 4e a1 84 bc 05 13 f8 bc 18 7c 16 3c
       0.02421992 -0.016190197 -0.030282507 0.00918486
000220 f6 50 a4 3c a0 85 36 3d bf ff 81 3c e6 3e 6e bb
       0.020058136 0.04456103 0.01586902 -0.0036353408
000230 75 82 13 bd c5 bc 62 3b d9 26 23 bd aa ca 52 39
       -0.036013085 0.0034597379 -0.03983197 0.00020102659
000240 a7 71 6e 3d fc af 37 3d 5a a6 13 bc 4a 2a 2c bc
       0.058213856 0.044845566 -0.009011829 -0.010508129
000250 21 0e a4 bc c0 43 11 3d 24 35 be bc 0c c8 a7 3c
       -0.020026268 0.035465002 -0.023218699 0.020481132
000260 4c 36 30 bc b0 14 b8 3c 5a 2d b7 3b 8c 87 8a 3b
       -0.010755133 0.022470802 0.005590123 0.004227584
000270 1c 20 e0 bc cc 0c 25 bd 52 62 3f bd ec 19 9f bc
       -0.027359061 -0.040295407 -0.046724625 -0.01942154
000280 9e f8 1d bc 71 e4 0e 3b 71 25 d9 3c a1 fd af bb
       -0.0096417945 0.0021803642 0.026507111 -0.005370811
000290 59 b1 8a bc 1a ef 31 bd fa 08 d0 3a 2c fc a0 3b
       -0.01693027 -0.043440916 0.0015871816 0.0049128737
0002a0 c6 c2 ec bc 45 bd 59 bc e1 0c ad bb 83 ca 00 3d
       -0.028901469 -0.013289754 -0.0052810763 0.03144313
0002b0 09 60 1b bb a6 fa 3f bd 34 f9 c7 3c 02 d4 ab bc
       -0.0023708364 -0.046869896 0.024410821 -0.020975117
0002c0 94 ca 5a bc b7 df 5c 3c 13 6e 1f 3c a3 b1 2b 3d
       -0.013353962 0.013481072 0.009730834 0.041917454
0002d0 ac 9d c2 ba ec e3 38 bd e0 62 6c ba 07 7d 3c 3d
       -0.0014848015 -0.04513924 -0.0009017419 0.046017673
0002e0 f3 30 07 3c 3a a2 8c bc e1 57 a8 3c 45 b9 3e 3d
       0.0082514165 -0.0171672 0.020549716 0.046563406
0002f0 86 45 61 bc 20 b7 f6 3c 84 c9 80 3c 11 83 5b bc
       -0.013749486 0.030116618 0.01572109 -0.013397948
000300 2a 92 38 bd 37 ca 2b 3d 84 19 3c bd 52 7d 82 bc
       -0.045061268 0.041940894 -0.04592277 -0.015928898
000310 96 76 04 bd 6f 1c 6f 3c 66 0d 1d 3d 89 75 09 bd
       -0.032339655 0.014594181 0.038342856 -0.033559356
000320 c1 ef 43 3d e1 0f 22 3d a7 37 cd bc e0 00 9b 3c
       0.04783607 0.039565925 -0.025050951 0.018921316
000330 d2 f9 39 bd 8f d2 8e bc aa 9a 3b bd 90 c8 e2 3b
       -0.045404263 -0.017434387 -0.045801796 0.0069208816
000340 11 08 17 3d ae ca 06 3d 15 c7 35 bc 8e 7e 3a bd
       0.036872927 0.032908134 -0.011094828 -0.04553085
000350 c7 b4 72 bc 89 f6 30 bc ec 12 de bc 76 b3 c1 3a
       -0.0148136085 -0.010800966 -0.027108632 0.0014778215
000360 b4 54 2e bc e6 2e 2c 3d 27 e9 29 3d 4a d1 32 bd
       -0.010640312 0.042036913 0.041482117 -0.043656625
000370 e8 b4 1e 3b 36 8b 5e bd b0 87 97 bd 6c d2 bc bc
       0.0024216715 -0.05433198 -0.07398927 -0.023049556
000380 79 13 1a bd 0b d0 ab 3c 97 fc 2b bd 4f 36 2d 3d
       -0.037616227 0.020973226 -0.041988935 0.04228812
000390 df eb a5 bd d9 2a d5 bc f4 62 3c 3a 6c 24 75 bd
       -0.081016295 -0.026021408 0.0007186376 -0.059849188
0003a0 2f 6c bc 3b 49 45 31 bc 25 8e 51 bd dd 70 3f 3d
       0.005750201 -0.0108197415 -0.05116095 0.046738494
0003b0 b1 46 aa bc 33 7b 10 bd 56 c8 b9 3c 83 4b 09 bd
       -0.020785661 -0.035273742 0.022678535 -0.03351928
0003c0 e9 fa 96 bd a5 d6 bc ba 6f 03 cf bc a1 08 28 3b
       -0.07372076 -0.0014407231 -0.025270192 0.002563991
0003d0 b8 a8 89 3d b8 21 ec 3c 37 69 4c bd e9 28 ea bb
       0.06721634 0.028824672 -0.04990503 -0.00714599
0003e0 9f f5 04 bd 4f 99 13 bd 2b 76 75 bd a1 23 7b bb
       -0.032460805 -0.03603488 -0.059927147 -0.0038320797
0003f0 f9 6c 40 3c 05 dc 45 3d 66 51 a7 bc 38 52 18 3a
       0.011744731 0.04830553 -0.020424556 0.00058105914

conv4.bias f4 [32]
000000 be 62 3f bd 49 3a 2b 3d dd f5 07 3d b8 1b 8d 3c
       -0.046725027 0.041803632 0.033193458 0.017225131
000010 8d ae 60 3c 3f 36 58 3c 9e 8c d9 3c fb 5d e9 3c
       0.013713491 0.013196527 0.02655631 0.028487196
000020 f6 e0 0d bd f0 57 67 bc 8c b8 58 bd d8 17 40 bd
       -0.034638368 -0.014120087 -0.052910373 -0.04689774
000030 8f f7 21 3d af 7e 04 bd 43 c4 58 bc c6 26 d9 b8
       0.03954273 -0.032347377 -0.013230386 -0.000103545884
000040 f2 a4 a6 bc 6f 88 e8 3c 99 3a 44 3d 49 ca 01 3d
       -0.020342324 0.02838537 0.047907446 0.031687055
000050 6c 2a 1f bd 37 33 6f bd 37 cd 39 3b 46 07 c9 bc
       -0.038858816 -0.05839845 0.0028351077 -0.024539601
000060 64 3b 96 bb b0 46 1e bd 38 42 0f 3d ab de b8 ba
       -0.0045847166 -0.03864163 0.03497526 -0.0014104446
000070 5c b6 c7 bc 8f 8b 93 bc 77 b1 d0 3c 94 19 38 bd
       -0.024378948 -0.018010883 0.025475247 -0.04494627

conv5.weight f4 [64, 32, 2, 2, 2]
000000 d6 94 f3 3c c7 bd 75 3b 3d 9d b3 3d 85 e2 4d 3d
       0.029734056 0.003749715 0.08770225 0.050264854
000010 18 47 90 3d cc 4c be bc b9 1b 26 3c d3 c7 c3 bc
       0.0704481 -0.023229979 0.0101384455 -0.023898995
000020 18 5f a1 3d cc b4 81 bd e4 d2 dc 3c 1e 75 a6 bd
       0.07879466 -0.063333124 0.02695603 -0.08127807
000030 32 b1 8f 3d 85 fd dd 3b ec ce 66 3c c8 d2 44 bb
       0.07016219 0.0067746066 0.01408742 -0.0030032862
000040 ca 22 0b bd 5c cc 71 bd f4 5e 66 bd 54 c8 24 3c
       -0.033968724 -0.059032783 -0.056242898 0.010057528
000050 c7 f0 3e 3d 29 81 d0 3c e0 7f da 3c e6 59 95 3c
       0.046616342 0.025452213 0.026672304 0.018231343
000060 74 4d 85 3d 33 a1 ee 3c bb a7 50 3d 6a a8 ba 3d
       0.06508914 0.0291296 0.05094121 0.09114154
000070 3f f7 44 bd 00 46 21 3d 9f 20 4e 3d 0c 54 52 3c
       -0.048087355 0.039373398 0.05032408 0.012837421
000080 76 37 17 3d 86 1e 99 3d 7d c8 06 3d 76 08 99 3d
       0.036918126 0.07476525 0.032906044 0.07472317
000090 71 6e b0 3c d1 60 cd bc 87 d7 2a 3d 86 f2 8d bd
       0.021537038 -0.02507058 0.04170945 -0.06931023
0000a0 fb d5 50 bd 56 ee 51 bd 27 46 62 bd 98 bb db 3c
       -0.050985318 -0.051252685 -0.055242684 0.02682285
0000b0 29 b9 92 bc 1d 6f 16 bd 16 14 3e 3d 6f 54 6f bc
       -0.017910557 -0.03672706 0.046405874 -0.014607533
0000c0 8d 17 29 3d 6a 56 7c 3d 34 34 51 3d 18 64 6d bc
       0.041282225 0.06160585 0.051075175 -0.014489196
0000d0 2f dd 98 bd bb d9 4d bd 1a 14 4e bd 37 c2 82 bd
       -0.074640624 -0.050256472 -0.05031214 -0.063847
0000e0 6f 66 37 bd 31 8e 2f bd e0 cc 3d 3d 10 a7 2b bb
       -0.044775423 -0.042860214 0.046337962 -0.0026192106
0000f0 f8 cb 46 3b 2d 62 c1 bd e9 c5 56 bd fd c8 6f bd
       0.0030333977 -0.09442554 -0.052434836 -0.058541287
000100 94 0d 25 3d c0 d3 a7 bb 04 5e 52 bd f4 31 7d bd
       0.040296152 -0.005121678 -0.05135919 -0.061815217
000110 25 e6 74 3d 32 5f 5a bd 1f bf 78 bd 92 8a aa 3c
       0.059789795 -0.05331344 -0.060729142 0.020818029
000120 0a 5a 7c bc 77 ee 7e 3d 60 51 25 3c 0c f6 cf bc
       -0.015402326 0.062239137 0.010090202 -0.025385879
000130 e5 fa 86 3c 76 21 d7 3c 31 fd 81 3d 82 6e 7b 3d
       0.016477058 0.026261073 0.063471206 0.061384685
000140 d2 91 16 bd f4 1b eb 3c e8 2e 57 3c 30 e6 95 3b
       -0.03676016 0.028699853 0.013133742 0.0045745596
000150 93 5d c6 3c 3d 5f d0 3c f8 71 54 bd 66 04 d3 bc
       0.024214542 0.025436038 -0.0518665 -0.025758933
000160 8a be 26 3d d0 fe 5b 3d b6 44 14 bd 20 8f 93 3c
       0.040709056 0.053709805 -0.03619834 0.018012583
000170 b7 e7 99 bb 25 5c e4 39 19 44 18 bd c7 3b 34 3d
       -0.004696812 0.00043556202 -0.037174318 0.04400232
000180 5d 36 75 bd 60 47 19 bd db be 44 3c ff a3 bc 3c
       -0.059866298 -0.037421584 0.012008394 0.023027418
000190 71 78 1a 3d 97 28 4f 3d 18 e6 e8 3d 3a 4c ec 3c
       0.037712518 0.05057582 0.11372012 0.028844941
0001a0 2d 2e 2b 3d 95 db 9a bc e0 ef 41 3d a0 9c d9 3c
       0.041792084 -0.018903533 0.047347903 0.026563942
0001b0 f2 63 ad 3c eb 35 18 3c f5 e4 bd bc 9c 04 29 bd
       0.021165822 0.009290199 -0.023180464 -0.04126416
0001c0 25 25 8d 3d 64 91 a1 bc b2 bd a3 bc 02 9a e4 bb
       0.068918504 -0.019722648 -0.019987915 -0.006976367
0001d0 f9 12 5e 3c a1 5b 8e bd 0d 06 99 bc ab 52 72 bd
       0.013554328 -0.069510706 -0.018679643 -0.05916087
0001e0 ac 82 53 3c a0 71 d7 bd 30 e0 59 bd 7a f7 f6 bd
       0.012909573 -0.10519719 -0.053192317 -0.12058921
0001f0 da a3 d5 3d 8a e3 bf bb e0 2e 53 3d b6 53 48 3d
       0.10431643 -0.005855982 0.051558375 0.048907958
000200 b3 7a 8c 3d c6 b9 9e 3d cf ef 2c bc 6a 1e 23 bd
       0.068593405 0.07750277 -0.010555222 -0.039823927
000210 f0 b4 28 bd c1 13 a3 3d f5 13 d4 bc 10 24 4b 3b
       -0.04118818 0.07962752 -0.025888423 0.0030996837
000220 62 02 4f bc 31 4c 1e bd 78 f8 48 bd 6f b6 bf 3b
       -0.012634845 -0.03864688 -0.049065083 0.005850605
000230 90 da aa bc 78 4e a2 bc 90 3b e7 3d 8f 01 66 bc
       -0.020856172 -0.019812807 0.112906575 -0.014038458
000240 3a 10 e2 bc 3f 41 a1 bd be 78 14 3c 83 7e 89 bd
       -0.027595628 -0.07873773 0.00906199 -0.06713583
000250 4f 84 95 3d f8 47 14 bd 7b 29 2e 3d 2a 3f d0 bc
       0.073006265 -0.036201447 0.042520028 -0.025420744
000260 38 1d 0e bd 13 94 3c 3d 5e d8 0b 3a 8e 40 62 3c
       -0.034695834 0.046039652 0.00053346704 0.013809336
000270 d2 2f 01 3d 2a 47 1c 3c 68 bd 7f bd df ce 2e 3d
       0.031539746 0.009538451 -0.06243649 0.042677756
000280 b2 bb 6c bd 81 53 1e 3c 21 bb 05 bd 36 4b fd 3d
       -0.057796188 0.009663464 -0.032649163 0.12367861
000290 84 92 7e bd 35 66 be 3b 4c 86 9e bb 46 c2 a3 bd
       -0.062151447 0.005810524 -0.004837787 -0.07996039
0002a0 57 61 fd 3b d6 70 cd 39 d0 82 27 3d d5 14 ff 3c
       0.007732551 0.00039184716 0.040896237 0.031137863
0002b0 66 04 07 3d 72 23 a0 3c 43 89 91 bc 97 8f 3d bc
       0.03296318 0.019548152 -0.017765647 -0.011569879
0002c0 91 f0 c4 3b ea 05 a9 bc 80 51 13 3d 12 0d 06 3d
       0.006010123 -0.020632703 0.035966396 0.03272731
0002d0 25 89 99 3d 85 18 55 bd 8a 50 34 bc 22 a7 b0 bd
       0.07496861 -0.052025337 -0.01100553 -0.08625628
0002e0 b1 a4 94 3a d5 98 2d bd 93 89 b1 bc a6 3f a5 3a
       0.0011340586 -0.04238208 -0.021672046 0.001260747
0002f0 25 4c 01 bd bf 45 0e 3d a1 66 f9 bc c7 d0 80 3d
       -0.031566758 0.034734484 -0.030444445 0.06289821
000300 a6 1f c0 3a 0d c2 d3 bc 69 b6 f2 3b 42 f6 30 bd
       0.001465787 -0.025849367 0.007406999 -0.0432036
000310 2d b4 27 3c 6a 3e e8 3c 13 a8 0a bb fe d4 a4 bc
       0.010235828 0.028350074 -0.002115731 -0.020121094
000320 06 14 24 bc 98 64 b8 bc c9 3c da bc a5 5d de bc
       -0.01001454 -0.022508904 -0.026640313 -0.027144263
000330 b9 cb bd b9 f4 5a 76 3d 83 3f c2 38 fc 30 1a bd
       -0.00036200674 0.060145333 9.262471e-05 -0.03764437
000340 09 c3 a6 3c b0 f5 f0 bc f0 95 cb bd 4b 93 c0 3b
       0.020356672 -0.029414028 -0.09940708 0.0058769337
000350 46 16 77 3c 24 6d e5 bc b5 a9 b3 3c 93 41 1d bd
       0.015080994 -0.028006144 0.021931509 -0.038392615
000360 57 61 93 bd 66 a3 b6 3b b4 69 64 bd 90 0e 63 3d
       -0.071963005 0.005573678 -0.05576487 0.05543381
000370 11 9c 70 bb b7 89 23 3d 02 ff 6c bd 2e d6 c0 3a
       -0.0036714117 0.039926257 -0.057860382 0.0014712268
000380 0d b0 98 3d 07 09 ae bb 48 f9 1f bd 1b 0e d4 bd
       0.07455454 -0.0053111347 -0.039056093 -0.10354253
000390 ab b2 85 3d 5c 03 ad 3d cc bd 81 3d ec e6 17 bc
       0.06528219 0.084479064 0.06335029 -0.009271365
0003a0 12 93 58 3c 9b d3 48 bd df 49 13 bc a8 a5 1f 3d
       0.013218658 -0.049029928 -0.00898978 0.03897634
0003b0 ab 71 38 3d 6a e0 32 bd db a8 91 39 be 4f 32 bd
       0.045030277 -0.04367105 0.00027782362 -0.04353308
0003c0 65 72 52 3d 02 d0 46 bc db ac a3 bc 89 d3 96 3d
       0.051378626 -0.012134554 -0.019979885 0.07364566
0003d0 88 3c 71 bc 70 ca 48 bd 04 04 43 3d c0 13 09 bd
       -0.014723904 -0.049021184 0.04761125 -0.0334661
0003e0 7d 47 52 3d 90 34 0a 3d 0f 1a 28 3d ce cb 6d bd
       0.051337708 0.033741534 0.041040476 -0.05805569
0003f0 14 f3 3e bd 56 db 25 bd 98 5a 51 bd cd 2b ec bc
       -0.046618536 -0.04049238 -0.051111788 -0.02882948

conv5.bias f4 [64]
000000 97 60 71 3d e9 7b 1e bd a8 90 5c bd 09 36 8f bc
       0.058930006 -0.03869239 -0.053848892 -0.01748182
000010 1f 6f 4e 3d ba 32 3f bd ba d7 26 3d 83 1e 80 3b
       0.050398942 -0.046679236 0.040733077 0.0039098873
000020 cf 6f 51 3a fb a1 ee 3c 26 3a 50 bd 13 65 d3 3c
       0.0007989378 0.029129973 -0.050836705 0.025805032
000030 95 07 7b 3c 51 31 e9 3c dd 65 11 3d 00 e3 05 bd
       0.015321632 0.028465899 0.035497535 -0.032687187
000040 b2 f0 be bc 9a 3c 58 3d 3f f0 80 3c 6e 17 b0 3c
       -0.023308132 0.05279217 0.015739558 0.021495547
000050 2d 38 7f bd 1f 73 5f 3c 66 79 57 bc a5 51 db bc
       -0.062309433 0.013638287 -0.013151502 -0.02677233
000060 1a ed 87 3c 1a 44 10 bc 0d b9 02 3d 8e 79 93 3b
       0.016592551 -0.008805299 0.03191476 0.0045005744
000070 98 ee 7f bb a1 1b c9 3c b0 94 73 3d b9 4a 2f bd
       -0.0039052125 0.024549307 0.05946797 -0.04279587
000080 63 ef a7 ba 63 33 9f 3c 3b e7 9b 3c 46 74 27 3d
       -0.0012812432 0.019433683 0.019031158 0.04088237
000090 ff 50 2f bc 12 94 35 3d 8e de 4e 3c 9a 18 2d bd
       -0.010700463 0.044330664 0.012626303 -0.04225979
0000a0 c0 8f 44 bd dc 3e 87 bd 63 4c 64 3d 4b be 71 3d
       -0.047988653 -0.06603786 0.05573691 0.05901937
0000b0 c0 fb 25 3d 09 43 11 bd 5c 3a be bc b7 78 4c bd
       0.04052329 -0.03546432 -0.023221187 -0.04991981
0000c0 03 cd 2e bd 46 b5 38 3d c6 c2 09 3d 1e a1 fa bb
       -0.042675983 0.04509475 0.033633016 -0.007648601
0000d0 d8 d7 8c 3b fc 4a d5 bc 93 7b 11 3b 85 c0 24 3a
       0.0042981915 -0.026036732 0.00221989 0.0006284791
0000e0 69 8f 1e 3c 9e 32 00 bd a2 82 66 bd 06 63 79 3c
       0.009677746 -0.031298272 -0.056276925 0.015221363
0000f0 db 2e 05 3d 05 39 68 bc 23 f6 96 3b 41 59 ee 3c
       0.032515388 -0.014173751 0.0046069785 0.029095294

linear1.weight f4 [128, 512]
000000 71 b1 ba bb 2e 82 ee bb 22 85 5d 3d 6d ac 3e 3d
       -0.005697422 -0.007278702 0.054082043 0.046551157
000010 00 60 f2 3b 29 9e 0a 3d a8 bb 8b 3b 0c f8 7a bb
       0.007396698 0.03384224 0.0042643137 -0.003829482
000020 d3 f5 14 3d 5b 31 3d 3c 53 6a af bc 87 c0 c9 bc
       0.03636725 0.011547412 -0.021413004 -0.024627937
000030 c5 23 91 3c f1 8e e2 bc 02 08 2e bd 10 b5 6b bc
       0.017717252 -0.02765605 -0.042488106 -0.01438643
000040 4b 76 cb bc 0c c7 4f ba cb 72 03 3d 15 56 1d bd
       -0.02483668 -0.00079260836 0.032091897 -0.038412172
000050 50 4b cd 3b c5 1d 49 3b b1 58 90 3a b2 e4 7e bc
       0.0062650815 0.003068791 0.001101276 -0.015557455
000060 1e a2 b3 bc bd 41 04 bd 27 08 2e bd d7 b3 3e bd
       -0.02192789 -0.032289255 -0.042488243 -0.046558227
000070 ad ed 9d bb 4f a6 14 3d d2 df 82 3d 1b 35 b4 3c
       -0.004819593 0.036291417 0.063903466 0.021997979
000080 aa 53 f8 3c ff cf a7 bc 59 f1 0b 3d d2 a1 c0 bc
       0.030313332 -0.020484922 0.034165714 -0.023514662
000090 19 32 da 3c ec 59 df 3c 2a 3c e7 3c 97 c1 44 bd
       0.026635217 0.027264558 0.02822693 -0.048036184
0000a0 2d bf 61 3d 66 3a 64 3d 0a 54 ed 3c 8b 45 02 3d
       0.05511396 0.055719756 0.028970737 0.031804603
0000b0 6f 80 13 bd f8 65 00 3c c4 4c c0 bc 61 cd 2e bd
       -0.036011156 0.007836811 -0.023474105 -0.042676333
0000c0 91 8d 5c bb db 54 03 bd 24 90 b0 3c a1 bc 24 3d
       -0.0033653716 -0.032063346 0.021553107 0.040218953
0000d0 90 89 42 bc 4d 8a 0a bd e4 62 30 bd 62 cc 64 bc
       -0.011873618 -0.0338233 -0.04306306 -0.013964744
0000e0 b7 00 07 3d e7 d7 c9 3c 43 6d 45 3d 5d 97 32 bc
       0.032959666 0.024639083 0.048199903 -0.010900346
0000f0 3b ce c2 3c aa 70 1c bd 3f 55 24 bd 10 be cb bc
       0.023779979 -0.038193382 -0.04012036 -0.024870902
000100 f8 48 29 3d 1e 43 86 bc 20 48 d9 3b a3 c2 1a 3c
       0.041329354 -0.016389426 0.0066309124 0.009445819
000110 79 5d a6 bc 01 0c 6a 3c f8 7a 9a 3c 9b 59 d4 bc
       -0.020308243 0.0142850885 0.018857464 -0.025921633
000120 4b 43 65 3c ee 59 17 3d 20 2e 83 3c 99 b4 cc bc
       0.013993095 0.036950998 0.016013205 -0.02498846
000130 55 8b 8c 3c 3a b6 fa bc 20 6a 15 bd cc 79 cd 3c
       0.017156282 -0.03060447 -0.03647816 0.025082491
000140 6d 58 48 bb 7c f2 6b 3c 5e 24 c0 3c 89 18 21 bd
       -0.0030570284 0.0144010745 0.023454841 -0.03933004
000150 bf bb 8e 3c 7a 0d 3a 3c e4 f6 4e bb f7 0f 2e 3c
       0.017423509 0.011355752 -0.0031580264 0.0106239235
000160 95 c3 b1 bc c0 4f 54 3a 0e 5d ca 3b b8 35 bf 3c
       -0.021699706 0.0008099042 0.0061756438 0.023341045
000170 d7 9c a7 bc f1 51 d0 3b 1a 64 13 bc a1 42 dc 3c
       -0.02046053 0.0063574244 -0.008996034 0.02688724
000180 e8 21 05 bd 40 41 ae bc 05 58 c2 bd 0b 03 20 bd
       -0.03250304 -0.021271348 -0.09489445 -0.039065402
000190 fa 10 ac bd 59 53 9e bd 40 64 73 bd 19 d9 ee bc
       -0.084016755 -0.07730741 -0.059421778 -0.029156255
0001a0 44 7d 55 3a e5 f2 0c bd 75 bb 30 3d 88 cb 0a 3d
       0.0008143971 -0.03441133 0.043147523 0.03388551
0001b0 05 c0 a4 bc 5d 09 5f 3d f4 16 59 bc 25 02 27 3d
       -0.020111093 0.05445229 -0.013250101 0.04077353
0001c0 4f a9 a8 bc 7b 54 3a bd 54 d5 8f bc a7 19 10 3d
       -0.020588545 -0.045490723 -0.017557777 0.035180714
0001d0 87 a7 49 3b bc 96 20 bd 54 c9 f0 3c 1d c7 ad 3c
       0.003077002 -0.03920625 0.029392876 0.021213109
0001e0 06 08 26 3d 90 7d 96 3c a1 b6 34 3d 91 d5 25 3d
       0.040534995 0.01837042 0.04411948 0.040486876
0001f0 f8 f9 7b 3c 40 9b 14 3d de cb 8b 3c 07 6e 47 3b
       0.015379421 0.03628087 0.017064985 0.0030430572
000200 a9 dc 56 b9 9b 2a 2e 3c d7 a7 07 bd c4 2c e5 3c
       -0.00020490833 0.010630275 -0.03311905 0.027975447
000210 10 68 2d bd 68 ef 15 bb 79 d3 64 bd 50 74 dd bb
       -0.04233557 -0.0022878293 -0.05586574 -0.0067582503
000220 1c 55 4c 3d 04 45 95 bc 24 8c d2 3c a4 23 69 bc
       0.049885854 -0.018221386 0.02570159 -0.014229689
000230 e0 00 65 3d cc 55 8f bc 27 21 66 3d 64 a9 f9 3c
       0.055909038 -0.017496966 0.05618396 0.03047628
000240 ee 4a 2e bb 26 43 ba 3c 06 e9 e3 bc 42 0e e7 3a
       -0.0026594955 0.022737097 -0.027821075 0.001762815
000250 7a b7 9e 3c 5c 7d a0 3c 17 8d 5e 3c 9f e2 a6 3a
       0.019374598 0.019591026 0.013583443 0.0012732333
000260 4a eb c5 bd 7d 0c 92 bd 91 be 82 bd 03 33 98 3c
       -0.096640185 -0.07131288 -0.06384004 0.018579012
000270 86 9b 47 bd 97 9c c7 bd 70 fd 80 bd 81 ee 0c bd
       -0.048732303 -0.09746664 -0.06298339 -0.034407143
000280 9e 36 ca bc ae 7c b9 3b 93 08 5f 3c dd a7 01 bd
       -0.024684247 0.005660615 0.013612884 -0.031654228
000290 5b d6 c5 3a 1e 55 1e ba a9 7b 6e 3c ba 68 29 bd
       0.001509379 -0.0006039905 0.01455585 -0.04135964
0002a0 5b 6c 69 bd ee 17 0b 3d 7f 28 f2 bc 8d cc 3a bc
       -0.0569881 0.033958368 -0.029560326 -0.011401308
0002b0 a8 c6 37 bd ae 1f d2 3b 6d 99 8b bc 8a 71 19 3c
       -0.044867188 0.006412468 -0.017040933 0.009365449
0002c0 d9 85 6a bc 85 06 0e 3d 21 02 93 bc cb ae 65 3d
       -0.014314138 0.034674186 -0.017945351 0.0560749
0002d0 3d 07 bb 3c ce 49 9d bc f9 3b 7e 3c 94 39 ee 3c
       0.0228306 -0.019200232 0.015517228 0.02908019
0002e0 6e fd a7 3d be 1b 83 3d d3 f5 40 3c 94 10 6a bd
       0.08202635 0.06401776 0.011777359 -0.057144716
0002f0 77 5a 14 3c d2 5a 26 bd 0a 47 af bc 9a bb cb bd
       0.009054772 -0.040613957 -0.021396179 -0.099478915
000300 a3 1f 10 bd 4e 75 23 bb c7 b1 de 3c 91 57 18 bd
       -0.03518642 -0.0024941745 0.02718438 -0.037192885
000310 be 41 ed bc 08 b6 f0 bb fc 12 cd bb c8 aa c8 3c
       -0.028962012 -0.0073459186 -0.0062583666 0.024495497
000320 0e e9 b5 3d e5 5a 1f bc b2 c3 0a 3d 51 c1 67 bc
       0.08882342 -0.009726261 0.033878036 -0.014145211
000330 ac 3c a5 3b 55 30 99 3c 18 34 1f bd d7 40 79 bd
       0.005042633 0.018699804 -0.03886804 -0.06085285
000340 c9 5d 82 3c 56 69 89 3d 1c f3 33 3d 31 80 ad 3c
       0.01591386 0.06709544 0.04393302 0.02117929
000350 b0 80 7b 3d 91 41 30 bc 14 03 bf 3a bd 28 4f 3c
       0.061402023 -0.01075782 0.0014573061 0.01264399
000360 2f e3 50 3c dd 17 dc 3b a6 30 24 3d a0 8f c5 3b
       0.012749477 0.006716712 0.040085457 0.0060290843
000370 3a 29 8a 3c ea 8c 94 ba a0 ba 73 3d 79 ea 90 3d
       0.016865361 -0.00113335 0.05950415 0.07075972
000380 2b d7 0a bd cd 0f e2 3b a8 95 0c 3d 55 0e 19 3d
       -0.033896606 0.0068988563 0.03432241 0.037367184
000390 36 33 ca bc 06 38 1d 3c ca 05 ac 3b 2e 50 09 3d
       -0.024682622 0.009595877 0.0052497135 0.03352373
0003a0 60 a3 0a bd ee cd 7d bc ad b0 0a bd 4c f2 16 3d
       -0.033847213 -0.015490992 -0.033859897 0.036852166
0003b0 a2 47 33 3c eb 99 02 3d ad 1c b7 3c 8c 96 22 3d
       0.010942372 0.03188507 0.02235254 0.039694354
0003c0 4a a5 74 3c f2 37 15 3c 5e 32 25 bd 49 84 24 3b
       0.014931986 0.009107577 -0.040331237 0.0025103262
0003d0 71 0a af bc 7e 52 86 bd 9c 88 04 bc 41 06 8b bd
       -0.021367284 -0.06558703 -0.008089211 -0.06788302
0003e0 1d c8 a4 bc c9 2e 5e bb 3e 98 b0 bc e0 8b f4 3a
       -0.020114953 -0.0033902398 -0.02155697 0.0018657409
0003f0 ab fd 75 3c 5b f5 25 3d 15 55 db bc e4 87 2e bd
       0.015014092 0.040517192 -0.026773969 -0.042610064

linear1.bias f4 [128]
000000 09 f5 7e 3c b5 be 80 3d 68 cb 59 bc 56 c6 1e bd
       0.015561351 0.062863745 -0.013293125 -0.038763367
000010 0c 34 e3 3c 93 b5 2a 3d 7a 39 7b bd e2 21 8d 3c
       0.027734779 0.04167707 -0.06133411 0.01722807
000020 90 b9 30 3d c5 bb 36 3d 63 2e 0a bc bd 03 84 bc
       0.043145716 0.044612665 -0.008433911 -0.016115064
000030 2a 35 63 3d f4 f7 07 bd ba 72 30 bb 81 b8 5a 3c
       0.055470623 -0.03319545 -0.002692385 0.013349653
000040 e8 4b 01 3d d7 10 4b 3b 79 f6 7e 3b 73 1c 71 3d
       0.03156653 0.003098538 0.0038904233 0.058865022
000050 ce 12 05 3d 44 2d ed 3c 36 d0 0e 3d c7 7b 5a bd
       0.032488637 0.028952248 0.034866534 -0.0533407
000060 1c dd e5 bc 8d 0f 13 3c ed 11 26 bb 5b d7 c5 3c
       -0.028059535 0.008975876 -0.0025340274 0.024150541
000070 c4 b7 29 3d de ca 3f bd b8 7e 11 bb 86 37 0c 3d
       0.04143502 -0.04682433 -0.0022200774 0.03423264
000080 c2 7b 4d 3b f1 d2 2d 3d f7 1d 6e bb a5 57 d5 3c
       0.0031354283 0.042437498 -0.0036333778 0.026042769
000090 13 b0 a4 bc 65 8d 67 bd 06 d1 86 bc 7f 39 09 3c
       -0.02010349 -0.05653133 -0.016457092 0.008375525
0000a0 d9 2d fd bc f0 76 ff b9 8c f3 26 3d e4 15 9e 3c
       -0.03090565 -0.00048726005 0.04075961 0.019297548
0000b0 46 6c 90 bb fc a9 b0 3c 34 32 99 bc 32 6c a8 3b
       -0.0044074384 0.02156543 -0.018700697 0.005139851
0000c0 d0 9f 1f bd 1f 35 45 ba 52 a5 bd bc 75 6f 8b 3b
       -0.03897077 -0.0007522869 -0.02315012 0.00425523
0000d0 7c 12 d0 3c 85 b2 8c bc 41 c1 6a 3d 3c 11 ea bc
       0.025399439 -0.017174968 0.057313208 -0.028572671
0000e0 8d bc 61 3c ff 11 29 bd 15 b2 8b 3d ad 13 3b bd
       0.013777864 -0.041276928 0.06821076 -0.04567306
0000f0 5a b6 43 3c ff 19 b2 3c ee 05 28 bd 97 72 58 bb
       0.0119453315 0.021740912 -0.04102128 -0.0033027285
000100 1f c8 30 3c 9a a3 13 3d 09 71 d4 bb 35 6a c3 3c
       0.0107899 0.036044694 -0.0064832014 0.023854354
000110 e6 80 ac 3c ec c8 01 3c 75 83 89 bc f1 9e dc bc
       0.021057557 0.007921439 -0.016786316 -0.026931258
000120 dc 0e 0e bd 78 aa fb 3c e2 21 6f 3c ed 1b 86 bc
       -0.03468214 0.030720934 0.014595481 -0.016370738
000130 fc c2 1a bc f7 57 44 bd 8e 38 1a 3d b8 08 ca 3c
       -0.009445902 -0.047935452 0.03765159 0.02466236
000140 75 6d 8e bc b9 da f2 3c 01 9b f7 bc 8e 51 07 3d
       -0.017386178 0.02964531 -0.030225279 0.03303676
000150 01 a5 a6 3c b4 96 df 3c d1 96 c1 bb 14 a1 76 3d
       0.020342352 0.02729354 -0.0059078713 0.06021221
000160 1d b7 f0 bc 7f cb 9c 3c 01 24 e4 3b 0c 94 0d bc
       -0.02938419 0.019140003 0.0069623 -0.008641254
000170 57 92 df 3c 8f 3c 51 3c 72 75 8a bc 7c 51 02 bd
       0.02729146 0.012770786 -0.016901705 -0.03181599
000180 95 2c a8 3c 89 c5 3f 3d 3e 3f 09 bd 9f b9 1a bd
       0.02052907 0.046819244 -0.033507578 -0.03777468
000190 4b b9 ea bc 7c e4 23 3d 3f 13 0d 3d 0a 5e 3f bd
       -0.028652808 0.04001282 0.034442183 -0.046720542
0001a0 b8 4f 6f ba 46 d0 92 3b 4b 61 4f 3c 34 0e 09 bc
       -0.00091290055 0.0044803945 0.012657474 -0.008365203
0001b0 45 af 8c 3c cb 86 e4 bb 62 9c 11 bd ef 72 49 bd
       0.017173419 -0.0069740764 -0.03554953 -0.049181875
0001c0 f3 0e fa bb 37 84 d6 bc bf 1c 99 3c 2a c3 1c bd
       -0.0076311766 -0.026186092 0.018690465 -0.03827206
0001d0 9a 54 ee bc 74 65 d8 3c b7 5b 84 bc dd f5 88 3b
       -0.029093076 0.026415564 -0.016157014 0.0041797
0001e0 80 33 98 bc 75 2f 69 3c 15 dd ab bc a6 0d ef 3c
       -0.018579245 0.014232506 -0.020979444 0.029181313
0001f0 a9 19 14 3d 72 27 12 bd 8e 5a 0b bd 30 4e 89 39
       0.036157284 -0.03568215 -0.034021907 0.0002618893
