models/5A_hand_alpha.pth (torch, 421229 bytes, 13 tensors)

conv1.weight f4 [4, 1, 5, 5, 5]
0	0xbd8f9e71	-0.07012642
1	0xb9995dea	-0.00029252406
2	0xbd0975c0	-0.03355956
3	0x3ca35422	0.019937579
4	0x3d8da717	0.069166355
5	0xba165cd0	-0.0005735876
6	0xbd014019	-0.03155527
7	0xbc685556	-0.014180502
8	0x3d98c514	0.07459465
9	0x3c3a3190	0.011364356
10	0x3d23952b	0.03993718
11	0x3c1c37b2	0.009534763
12	0x3ce28c51	0.027654799
13	0xbcb38502	-0.021914009
14	0x3c9f8cb3	0.01947627
15	0xbd9334b1	-0.071877845
16	0x3d4bf1a9	0.049791012
17	0x38947595	7.079091e-05
18	0xbc1fbd4b	-0.009749721
19	0x3c50f9d2	0.012754874
20	0xbdcc6084	-0.099793464
21	0xbd87d9e3	-0.066333555
22	0xbc15470a	-0.009111175
23	0x3d47b6b4	0.048758224
24	0xbd1a20f7	-0.037629094
25	0xbd9ca942	-0.07649471
26	0x3d8e20b3	0.06939831
27	0x3d141548	0.036153108
28	0x3d692930	0.056924045
29	0x3d8e2fc2	0.06942703
30	0x3d559c9b	0.052151304
31	0xbb87fccb	-0.0041500083
32	0xbcec8bed	-0.028875316
33	0xbc797f6c	-0.015228134
34	0x3d57be80	0.05267191
35	0xbb863b93	-0.0040964573
36	0x3c80e9be	0.015736457
37	0x3d4e4444	0.050358072
38	0xbb6ab4da	-0.0035813362
39	0xbd5a6d8a	-0.05332712
40	0x3d5d94c6	0.05409696
41	0x3d12c35e	0.035830848
42	0xbd61d8ca	-0.055138387
43	0x3d8c1781	0.068404205
44	0x3d56518f	0.052323874
45	0xbc303075	-0.010753741
46	0xbd383d1e	-0.04498016
47	0xbd853a08	-0.06505209
48	0x3abf4d0f	0.0014595109
49	0xbdc7482a	-0.09730561
50	0xbc1f24db	-0.009713377
51	0x3b56afaf	0.0032758524
52	0xbd94975d	-0.07255433
53	0xbbd39d5e	-0.0064579686
54	0xbd88bed0	-0.066770196
55	0x3c8f3cd0	0.017485052
56	0xbd92a7b8	-0.07160896
57	0x3d9ff83b	0.07811018
58	0x3c35f0b8	0.011104755
59	0x3c8d9fce	0.017288115
60	0x3d9fd497	0.0780422
61	0xbd8168d4	-0.063188225
62	0xbda9ed7d	-0.082972504
63	0xbb0df9ff	-0.0021663902
64	0x3d9f0ac6	0.07765727
65	0xbd98e2a3	-0.074651025
66	0x3c27200a	0.01020051
67	0xbdac95bd	-0.08426998
68	0xbc153389	-0.009106525
69	0x3d9c167c	0.07621476
70	0x3d28cd49	0.0412114
71	0xbd8bb4cb	-0.06821593
72	0xbd1b7cf7	-0.037960973
73	0x3d57cf9b	0.052688222
74	0xbca702ee	-0.02038714
75	0x3d63853b	0.05554698
76	0xbdaa7226	-0.08322553
77	0x3c42e72e	0.011895938
78	0x3d32f837	0.043693747
79	0x3d33549f	0.043781873
80	0x3bef5a12	0.0073044384
81	0x3d68de19	0.056852434
82	0x3d060b13	0.032725405
83	0xbce4c006	-0.027923595
84	0x3d97dbe7	0.0741499
85	0x3a59a9c8	0.00083031924
86	0x3d80ec46	0.062950656
87	0xbd4d2734	-0.050086215
88	0xbdc97cc9	-0.09838254
89	0xbc312e87	-0.010814316
90	0xbc185c56	-0.009299358
91	0xbdce9ceb	-0.100885235
92	0xbd909aff	-0.07060813
93	0xbcdbd4d0	-0.026834875
94	0xbd26b197	-0.040696707
95	0xbd64c11d	-0.05584823
96	0x3cbaad91	0.022787841
97	0xbd4956e2	-0.049155124
98	0xbd6dfcd5	-0.058102448
99	0x3cefdbca	0.029279608
100	0x3d956b81	0.07295895
101	0x3d8883b7	0.066657476
102	0xbb2e4d03	-0.0026596196
103	0xbdb21d07	-0.08696943
104	0x3d91760f	0.07102596
105	0x3d6ac27a	0.057314374
106	0xbdbc4bf5	-0.09194175
107	0x3d9682f9	0.073492
108	0x3d380438	0.0449259
109	0xbc8d1961	-0.017224016
110	0xbc52e507	-0.012871987
111	0xbdb40edd	-0.087918974
112	0xbd4eb239	-0.050462935
113	0xbcc0211d	-0.02345329
114	0x3d49c410	0.049259245
115	0x3d54061e	0.051763646
116	0x3d210c66	0.039318465
117	0xbc1acd2d	-0.009448332
118	0xbaef60ff	-0.001826316
119	0xbd9721fa	-0.073795274
120	0x3c8623fa	0.016374577
121	0xbb862efc	-0.0040949564
122	0xbba19ece	-0.004932261
123	0xbb7a4186	-0.0038186028
124	0xbca50925	-0.020145962
125	0xb8051c6f	-3.1736152e-05
126	0x3c508cb8	0.012728862
127	0xbdb48f95	-0.088164486
128	0xbc8db7ac	-0.017299496
129	0xbd8df7cb	-0.069320284
130	0xbda43848	-0.08018547
131	0xbcdf3a94	-0.027249612
132	0x3c507dd1	0.0127253095
133	0x3d85c409	0.06531531
134	0x3dacbb4b	0.08434161
135	0xbd1f1516	-0.03883847
136	0xbd96a6cf	-0.07356035
137	0xbc114e43	-0.008868757
138	0x3ab9079f	0.0014116651
139	0x3d375b1f	0.044764634
140	0x3d812e96	0.06307714
141	0xbd78f86f	-0.0607838
142	0xbd1d8300	-0.03845501
143	0x3d33948f	0.04384285
144	0x3da85b51	0.08220542
145	0xbd4cac33	-0.04996891
146	0x3ce29aab	0.027661642
147	0xbaf088e5	-0.0018351345
148	0x3b378bc9	0.0028006902
149	0x3cebf443	0.028802997
150	0xbd6d4d48	-0.05793503
151	0xbac49b04	-0.0014999812
152	0xbd93852e	-0.072031364
153	0xbd71282b	-0.058876198
154	0xbd8fae1f	-0.07015633
155	0x3db766ea	0.08955176
156	0xbda3357c	-0.07969186
157	0x3d27fd63	0.041013133
158	0xbd1cf70a	-0.038321532
159	0x3c27df15	0.010246058
160	0xbbca274f	-0.0061692367
161	0xbda2169e	-0.0791447
162	0x3d6ee42a	0.058323063
163	0xbca19f11	-0.01972917
164	0x3d32ab30	0.04362029
165	0x3d841514	0.06449333
166	0xbd93d2e3	-0.07217958
167	0x3d1322dd	0.03592192
168	0x3bfe5c31	0.007762455
169	0xbc25d2cc	-0.010121059
170	0xbd739fc7	-0.059478547
171	0xbd8c45f9	-0.06849284
172	0xbd8376e9	-0.06419165
173	0x3d874482	0.06604864
174	0xbdae3608	-0.085063994
175	0x3cb8ef72	0.022575114
176	0x3db6a7ec	0.08918747
177	0x3ccbf921	0.024899067
178	0x3d15e6a7	0.03659692
179	0xbdacd679	-0.08439345
180	0xbd6a5f43	-0.057219755
181	0xbd116f4e	-0.03550654
182	0xbd03753f	-0.032094236
183	0x3d7b5b47	0.061366346
184	0x3c822aa8	0.01588948
185	0xbdae794d	-0.0851923
186	0xbd7de247	-0.061983373
187	0x3d6648f7	0.05622193
188	0xbd861b72	-0.065482035
189	0x3d9807ec	0.07423386
190	0x3c6519da	0.013983214
191	0xbd373a10	-0.044733107
192	0x3ca59430	0.020212263
193	0x3d0f1a7d	0.03493737
194	0xbd2e204c	-0.04251127
195	0xbd8b0243	-0.06787541
196	0x3d6ea061	0.058258418
197	0xbc55eb6f	-0.01305662
198	0x3d81f2e5	0.063451566
199	0xbd867b0b	-0.06566437
200	0x3d9189be	0.0710635
201	0xbd7a0c52	-0.061046906
202	0x3d884e03	0.066555046
203	0x3d388fa1	0.04505885
204	0xbdb3581f	-0.08757042
205	0x3d0f5de8	0.035001665
206	0xbd821822	-0.06352259
207	0xbd66d5fe	-0.056356423
208	0xbda8500d	-0.082183935
209	0x3d191f94	0.03738363
210	0x3d43bccb	0.04778747
211	0x3be0936c	0.0068535116
212	0x3ce9570d	0.028483892
213	0x3ce1a2d5	0.027543465
214	0x3d04e812	0.032447882
215	0xbd9c08a2	-0.07618834
216	0xbdc3d18c	-0.09561452
217	0x3cbaf60b	0.0228224
218	0x3be14524	0.0068746973
219	0xbdbfcf63	-0.09365728
220	0xbd89c7a3	-0.06727531
221	0x3cd92863	0.026508516
222	0x3d401bee	0.046901636
223	0x3d800716	0.062513515
224	0xbd25987d	-0.040428627
225	0xbd89873a	-0.067152455
226	0x3ceabe1e	0.028655108
227	0x3c867e2c	0.016417585
228	0xbc64bb61	-0.01396069
229	0x3d321cdc	0.043484554
230	0xbda00d12	-0.07814993
231	0xbca2cb01	-0.01987219
232	0xbdb0dad4	-0.08635488
233	0x3d7c7c80	0.06164217
234	0xbd843c5e	-0.064568266
235	0xbdbeeb60	-0.09322238
236	0xbb865a97	-0.0041001546
237	0xbb8c6fb9	-0.0042857793
238	0x3da878cf	0.082261674
239	0x3cdfa2a1	0.027299227
240	0xbd8bc751	-0.06825126
241	0xbdac6064	-0.084168226
242	0xbcda9089	-0.026680248
243	0xbd8bdf5d	-0.068297125
244	0x3d63b1f8	0.055589646
245	0x3d00c537	0.03143808
246	0xbd6b977b	-0.05751751
247	0x3d328cbe	0.043591253
248	0xbd60d016	-0.054885946
249	0xbbf4ae12	-0.00746704
250	0xbccec33f	-0.025239585
251	0xbdc3da52	-0.09563126
252	0xbd8e52b9	-0.06949372
253	0x3c5dd99d	0.013540653
254	0x3d073c8e	0.033016734
255	0xbd15d0aa	-0.03657595

conv1.bias f4 [4]
0	0xbd02872d	-0.031867195
1	0x3d10f7e8	0.03539267
2	0x3d87bf28	0.06628257
3	0xbb964fb8	-0.00458714

conv2.weight f4 [8, 4, 5, 5, 5]
0	0xbcb6648e	-0.022264745
1	0x3cd12fb1	0.025535436
2	0xbc707a2e	-0.014677567
3	0x3cd45544	0.025919564
4	0xbd056fe8	-0.032577425
5	0xbd157ef2	-0.036498018
6	0x3d030aaf	0.03199261
7	0xbd02caa3	-0.03193153
8	0xbd10f24c	-0.035387322
9	0x3ace6384	0.0015746211
10	0x3b6ed343	0.003644184
11	0xbd1629d5	-0.036660988
12	0xbcb72962	-0.0223586
13	0xbc87c3bb	-0.016572824
14	0x3d0c9d5f	0.03432977
15	0x3b650604	0.0034946213
16	0x3cc6e939	0.024281131
17	0xbd6ad90f	-0.05733591
18	0x3ce91dc5	0.028456578
19	0x3cb57d89	0.022154586
20	0xbd4026c3	-0.046911966
21	0xbc977cd7	-0.018492145
22	0xbcec2f1a	-0.028831054
23	0xbcd3aef2	-0.025840256
24	0x3cdcfc1c	0.026975684
25	0xbd2e93bf	-0.04262137
26	0x3ad562f8	0.0016280105
27	0x3aeca406	0.0018054254
28	0x3c7d2d36	0.015452674
29	0xbc528f41	-0.012851537
30	0x3d0444fe	0.03229236
31	0x3c39835f	0.011322825
32	0x3ccaf1fb	0.024773588
33	0xbce05aa4	-0.02738697
34	0xbccc646f	-0.024950234
35	0x3d08127c	0.033220753
36	0xbd20dfcb	-0.039275926
37	0xbcf599a8	-0.029980496
38	0xbc559ae1	-0.013037414
39	0xbcfc36e0	-0.030787885
40	0xbb8fa842	-0.0043840716
41	0xbcc66841	-0.024219634
42	0xbc127c7e	-0.008940814
43	0x3b7164f0	0.0036833845
44	0xbd00d61e	-0.031454198
45	0xba43c471	-0.0007467932
46	0x3b9839d9	0.004645568
47	0xbcd0c9d4	-0.025486864
48	0xbd270d50	-0.04078418
49	0xbd2743e6	-0.040836237
50	0x3d111eff	0.03542995
51	0xb98dbe3e	-0.00027035357
52	0xbbe0a563	-0.006855653
53	0x3bcdf1ab	0.0062849126
54	0xbcee78fe	-0.029110428
55	0xbbb8ad22	-0.0056358734
56	0x3c256ee4	0.010097239
57	0xbbc473f6	-0.005995269
58	0xbcbef858	-0.023311779
59	0x3cd431a6	0.02590258
60	0xbc8ac8e0	-0.016941488
61	0xbc5944ad	-0.0132610025
62	0x3c43fce2	0.011962147
63	0x3acefeb8	0.0015792465
64	0xbcf172c0	-0.029473662
65	0xbd404ffc	-0.04695128
66	0x3c7ff612	0.015622633
67	0xbd22949a	-0.0396925
68	0xbd11a63d	-0.035558928
69	0xbccef757	-0.025264425
70	0xbd03c0bd	-0.03216623
71	0x3c2d40ab	0.0105745
72	0xbbd3f07d	-0.0064678774
73	0x3c8ef920	0.017452776
74	0x3ca789dd	0.02045148
75	0x3cf7164d	0.030162001
76	0x3d311eaf	0.043242153
77	0xbb4b68f9	-0.003103791
78	0xbceb3109	-0.028709905
79	0x3a9803cc	0.0011597811
80	0xbbb4bd9a	-0.0055157663
81	0x3d189a60	0.0372566
82	0xbd4aaf3a	-0.049483515
83	0xbb04fbd9	-0.0020291714
84	0x3ca31e2a	0.019911844
85	0xbd43bfb4	-0.047790244
86	0xbc97fa57	-0.018551989
87	0xbd4e459a	-0.050359346
88	0xbc7953a6	-0.015217697
89	0xbd025ec9	-0.031828675
90	0xbd641c9c	-0.055691347
91	0xbb58a922	-0.0033059795
92	0xbb8b2b59	-0.004247111
93	0x3cca28b7	0.024677617
94	0x3c3bdb8a	0.011465916
95	0xbc9b741d	-0.018976266
96	0xbd189d6c	-0.037259504
97	0xbcf7b0a4	-0.030235596
98	0xbc8daa19	-0.017293023
99	0xbb24b20f	-0.0025130545
100	0xbd09cb20	-0.03364098
101	0xbcaa4194	-0.020783223
102	0x3ca26bfa	0.019826878
103	0x3bbbb998	0.0057289116
104	0x3bf120f1	0.0073586632
105	0x3cf21087	0.029548896
106	0x3c6fac70	0.014628515
107	0xbd302b30	-0.043009937
108	0xb9dca1e6	-0.00042082294
109	0x3c7e0103	0.015503171
110	0xbc990950	-0.018681198
111	0xbd10653e	-0.035252802
112	0xbd3132e8	-0.04326144
113	0x3c3df89d	0.011594919
114	0xbd4de628	-0.050268322
115	0x3c627823	0.013822588
116	0x3c91f010	0.017814666
117	0x3cc25520	0.023722231
118	0xbc9eeac0	-0.019399047
119	0xbd424d35	-0.04743691
120	0xbc34f7d2	-0.011045413
121	0xbd24983f	-0.040184256
122	0xbcfb9662	-0.030711357
123	0xbc7a8891	-0.015291349
124	0x3b235b26	0.0024926155
125	0xbce0a5a5	-0.027422735
126	0x3b855fc4	0.004070254
127	0xbd49ddd0	-0.049283803
128	0xbccff21a	-0.025383998
129	0xbd14e97b	-0.036355477
130	0xbd5867c7	-0.052833345
131	0xbc7b2ea9	-0.015330949
132	0xbc876507	-0.016527666
133	0x3d2f90f1	0.042862836
134	0x3d013f70	0.03155464
135	0x3d194958	0.03742346
136	0xba055fb6	-0.00050878094
137	0x3d24eef0	0.04026693
138	0xbc731bb0	-0.014838144
139	0x3b3cd1b0	0.0028811507
140	0xbc3a12b9	-0.011357003
141	0xbd1cdef5	-0.038298566
142	0xbca18599	-0.019717025
143	0xbcd23889	-0.025661724
144	0xbc311793	-0.010808843
145	0x3c04e4ea	0.008111218
146	0xbd04eb4d	-0.032450963
147	0xbd019304	-0.031634346
148	0x3cc466ff	0.023974894
149	0xbc16bbcc	-0.009200048
150	0x3c94ba60	0.018155277
151	0xbcef0e65	-0.029181669
152	0xbc94c77d	-0.01816153
153	0x3c8b5467	0.01700802
154	0xba4a2f2e	-0.0007712719
155	0x3cadb6d8	0.02120535
156	0xbcc4ec1c	-0.024038367
157	0xb9ff9d97	-0.00048754804
158	0xbc1b4784	-0.0094775
159	0xbc961952	-0.01832262
160	0x3d01544b	0.03157453
161	0x3bb7db26	0.0056108413
162	0xbd07a0c0	-0.033112288
163	0xbbac9bc8	-0.005267594
164	0xbd30b4cd	-0.043141175
165	0x3ce7ef01	0.028312208
166	0x3cda9f50	0.026687294
167	0xbd1fcfec	-0.03901665
168	0xbcb8d91a	-0.02256446
169	0x3d2fa3e6	0.042880915
170	0x3c12a496	0.008950373
171	0x3b55de58	0.0032633748
172	0xbd422edd	-0.047407974
173	0x3d1e4491	0.03863961
174	0xbd2c001b	-0.041992288
175	0x3c47d4e6	0.012196755
176	0xbc8cd5e8	-0.017191842
177	0x3cee84dc	0.029116087
178	0xbd01a98b	-0.03165583
179	0x38387879	4.3981217e-05
180	0x3b7f7c92	0.0038984162
181	0xbcfd4a00	-0.030919075
182	0xbbdc575c	-0.0067242812
183	0x3c1e1d34	0.009650517
184	0x3d024914	0.031807974
185	0xbc16910b	-0.009189854
186	0xbd1a9da1	-0.037747983
187	0x3d29c533	0.04144783
188	0xbcc2e3a3	-0.023790186
189	0x3810558b	3.4411943e-05
190	0x3d1a7f9d	0.037719358
191	0x3d1a64a8	0.03769365
192	0xbc4e925e	-0.012608139
193	0x3c830f82	0.015998606
194	0xbd061ad0	-0.032740414
195	0xbd0f9c08	-0.035060912
196	0x3d035d66	0.032071494
197	0xbc8a892d	-0.016911114
198	0x3cde854d	0.027163172
199	0xbd139f32	-0.036040492
200	0x3cb4feec	0.022094212
201	0xbd0a67a0	-0.03379023
202	0x3caf82f1	0.021424742
203	0xbb89b404	-0.0042023677
204	0xbc12f57f	-0.008969664
205	0xbd53cdbe	-0.051709883
206	0x3ca7c34b	0.020478865
207	0x3b4c96b6	0.003121776
208	0x3d8a41ca	0.067508295
209	0x3d08d311	0.033404414
210	0xbd570a5d	-0.052500118
211	0xbd2ced31	-0.04221839
212	0x3cf95723	0.030437058
213	0x3d573a41	0.05254579
214	0xbbd1d46c	-0.0064034965
215	0x3c0c454d	0.0085614445
216	0xbc878cc5	-0.016546616
217	0xbc9e1c72	-0.019300673
218	0xbd010e66	-0.031507872
219	0xbd31162e	-0.043234043
220	0x3bcb0952	0.0061961794
221	0xbd4b0db4	-0.049573615
222	0xbb8845ac	-0.004158696
223	0xbcd910f9	-0.026497351
224	0x3cf8dc14	0.030378379
225	0x3d047bf7	0.032344785
226	0xbbc96be5	-0.0061468952
227	0xbcb81389	-0.022470253
228	0xbd34006d	-0.04394572
229	0xbc4927f9	-0.012277597
230	0x3b754a1d	0.0037428208
231	0xbcf7eab9	-0.030263292
232	0x3cad31e8	0.021141961
233	0x3c3d1a60	0.011541933
234	0x3cf6d17d	0.030129189
235	0xbd32caef	-0.043650564
236	0xba99167a	-0.0011679672
237	0x3d23492c	0.039864704
238	0xbcaf9949	-0.021435397
239	0x3bdacd4a	0.0066773044
240	0xbcba20b5	-0.022720674
241	0xbd4f50a1	-0.050614003
242	0x3cf42e41	0.029807212
243	0xbca94447	-0.02066244
244	0xbafc92bd	-0.0019269806
245	0x3bf89a5a	0.0075867595
246	0xbc25ef37	-0.010127834
247	0xbd06ee01	-0.032941822
248	0xbd12a5ad	-0.035802532
249	0x3b4590f5	0.0030146216
250	0xbd508402	-0.050907142
251	0xbcdcee93	-0.02696923
252	0x39b4555d	0.00034395876
253	0x3c714a28	0.014727153
254	0xbc79abf1	-0.015238748
255	0x3d18b862	0.037285216

conv2.bias f4 [8]
0	0xbc54d062	-0.012989135
1	0x3d022e87	0.031782653
2	0xbc797545	-0.015225713
3	0xbb8bd20a	-0.004266982
4	0xbadc67ff	-0.0016815661
5	0xbc08da6a	-0.008352855
6	0x3d07c25e	0.033144347
7	0xbd0d9cef	-0.03457349

conv3.weight f4 [16, 8, 3, 3, 3]
0	0xbd2f3683	-0.042776596
1	0xbd365b3a	-0.044520594
2	0xbc867acc	-0.016415976
3	0xbca66617	-0.020312352
4	0x3c0c5a57	0.008566461
5	0x3d380c1e	0.04493343
6	0xbd7604e6	-0.060063265
7	0x3d4a9a92	0.049463816
8	0x3cc2ae2c	0.023764692
9	0x3d0c93df	0.03432071
10	0x3d7adf79	0.061248276
11	0xbc73e349	-0.014885732
12	0x3d613ad7	0.054987755
13	0x3c1388fd	0.0090048285
14	0x3d6c9928	0.05776325
15	0xbc50c7aa	-0.012742916
16	0xbcdf283e	-0.027240869
17	0x3cf0db34	0.0294014
18	0xbc831793	-0.016002452
19	0x3d7343d4	0.059390858
20	0x3d03f79d	0.032218564
21	0x3cafe166	0.021469783
22	0xbd3e4660	-0.046453834
23	0x3c5a54d1	0.013325886
24	0x3ceba77b	0.028766384
25	0x3d603aef	0.054743703
26	0x3d742feb	0.05961601
27	0xbd82f95a	-0.06395216
28	0xbd6cd274	-0.05781789
29	0x3d131188	0.03590539
30	0x3c040848	0.008058615
31	0xbc21e1e4	-0.009880517
32	0xbd894a59	-0.06703634
33	0xbd8461e1	-0.064639814
34	0x3c119ec2	0.0088879485
35	0xbc917cb4	-0.017759658
36	0x3d80d74b	0.06291064
37	0x3c7f808f	0.015594616
38	0xbd88d903	-0.06682017
39	0xbcf0eede	-0.029410776
40	0xbb5c8ba7	-0.0033652575
41	0x3d55db49	0.05221108
42	0xbd2ad055	-0.041702587
43	0xbd5cf109	-0.053940807
44	0x3cb5c6ef	0.022189585
45	0x3cc86c22	0.024465624
46	0xbc84516b	-0.016152104
47	0xbd8554e8	-0.06510335
48	0xbc42f165	-0.011898373
49	0x3c034f53	0.008014518
50	0xbd296f88	-0.04136613
51	0x3ceee7c7	0.029163254
52	0x3d2ba4ba	0.041905142
53	0xbd035d40	-0.032071352
54	0xbca17cf9	-0.019712912
55	0xbbf21c38	-0.007388618
56	0x3b337244	0.002738134
57	0x3d4b4373	0.04962487
58	0xbcd4469a	-0.025912572
59	0xbd6a813d	-0.057252157
60	0xbd3b2e56	-0.045698486
61	0x3d603b2f	0.054743942
62	0x3d76f5c9	0.060292993
63	0x3c7dcbe5	0.015490507
64	0x3d463b6d	0.048396517
65	0xbd66b2f7	-0.056323018
66	0x3b205a87	0.002446802
67	0xbcc460ed	-0.023971999
68	0xbd120f11	-0.0356589
69	0x3d8166d4	0.06318441
70	0x3d5b1699	0.053488348
71	0x3d43c836	0.047798358
72	0xbd430338	-0.04761049
73	0x3c5100e1	0.012756557
74	0x3c57429a	0.013138438
75	0xbcc4e2e6	-0.024033975
76	0xbc36d5b2	-0.011159347
77	0x3ce5988b	0.02802684
78	0xbd0873e9	-0.033313666
79	0xbd3d29b7	-0.04618236
80	0x3d148089	0.036255393
81	0xbd316715	-0.043311197
82	0xbd2645fa	-0.04059408
83	0xbd60c10e	-0.05487161
84	0x3d87b630	0.066265464
85	0x3cb6495e	0.022251781
86	0xbd65dddb	-0.05611978
87	0xbcc71c1d	-0.024305398
88	0xbce3dd65	-0.02781553
89	0xbd8413a5	-0.064490594
90	0x3ce2f01c	0.027702384
91	0x3d7a2f18	0.06108007
92	0xbc23aaa0	-0.009989411
93	0xbca009a9	-0.019535856
94	0x3cf060f5	0.029343108
95	0x3d0b8b30	0.034068286
96	0x3cc3fec2	0.023925189
97	0xbd87b38c	-0.06626043
98	0xbc827eef	-0.015929667
99	0x3c10d991	0.008840934
100	0x3d0651e3	0.032792937
101	0x3d4f7ea0	0.05065787
102	0xbd1bda3c	-0.03804992
103	0xbd116055	-0.03549226
104	0xbd4fb215	-0.05070694
105	0x3d203704	0.039114967
106	0x3c475ec3	0.012168589
107	0x3bb5e28e	0.005550689
108	0x3d0fd195	0.035111982
109	0x3d2ce1e5	0.042207617
110	0xbd849683	-0.0647402
111	0xbc9e2936	-0.01930676
112	0xbd162efe	-0.03666591
113	0xbd52fe76	-0.051512204
114	0xbcff5bfa	-0.031171788
115	0xbd4555ff	-0.048177715
116	0x3c82f898	0.01598768
117	0x3d905acb	0.070485674
118	0x3c805433	0.01566515
119	0xbd7da216	-0.061922155
120	0xbb91c6e9	-0.0044487608
121	0xbc9b1d75	-0.018934945
122	0x3d25e5b6	0.040502273
123	0x3d04a287	0.03238156
124	0xbcaa01fa	-0.020752896
125	0xbd00aec2	-0.031416662
126	0xbc004304	-0.007828478
127	0x3c51ccfb	0.012805219
128	0xbd651677	-0.055929627
129	0x3c00837f	0.007843851
130	0xbd33378a	-0.043754138
131	0xbd2c882e	-0.04212206
132	0xbbc3840a	-0.005966668
133	0xbba1e751	-0.004940905
134	0xbc9e9341	-0.019357326
135	0xbce46d49	-0.027884142
136	0xbc612407	-0.0137415
137	0x3d5f16de	0.054465167
138	0xbc1c0e06	-0.009524828
139	0x3d6692be	0.056292288
140	0xbd62e4db	-0.055394035
141	0x3d86bc9b	0.065789424
142	0x3d2936b3	0.04131193
143	0xbcb2e2b3	-0.021836614
144	0xbd0e99ba	-0.034814574
145	0x3d7b1dce	0.06130772
146	0xbd1f1bc9	-0.038844857
147	0x3c25a693	0.010110515
148	0xbd7d96cd	-0.061911393
149	0x3cd1487d	0.02554726
150	0xbd700f59	-0.058608387
151	0xbcdf89d7	-0.027287407
152	0x3cd7e04f	0.026352076
153	0xbd7ceec5	-0.061751146
154	0xbd647508	-0.055775672
155	0xbb08f2cc	-0.0020896671
156	0x3d015ab4	0.031580642
157	0xbbf48ba7	-0.007462937
158	0xbd1884a8	-0.037235886
159	0xbcaa6502	-0.020800117
160	0x3c41312c	0.011791509
161	0x3d469b4b	0.048487943
162	0xbcc98d15	-0.024603406
163	0xbd10854f	-0.035283383
164	0x3d3cf61f	0.046133157
165	0x3d0a194b	0.033715528
166	0xbca251fd	-0.019814486
167	0x3a663629	0.0008781874
168	0xbb9c5d9d	-0.0047719018
169	0x3d47f50a	0.04881767
170	0x3d6745fb	0.056463223
171	0x3d1314ea	0.035908617
172	0xbd400fb7	-0.046889987
173	0xbd102519	-0.03519163
174	0x3d7fb089	0.062424216
175	0xbc073c9f	-0.008254199
176	0xbd7fe03a	-0.0624697
177	0x3cb97d17	0.022642655
178	0x3d55c289	0.052187476
179	0xbd3d2a8b	-0.04618315
180	0x3bad264a	0.0052841054
181	0x3d82e75a	0.06391783
182	0x3d0655b9	0.032796595
183	0x3a332dd3	0.00068351364
184	0x3d47609d	0.048676122
185	0xbca8b651	-0.020594748
186	0xbb41bec1	-0.002956316
187	0x3cab469f	0.020907698
188	0xbcb1107f	-0.021614311
189	0x3d1ffb48	0.039058
190	0xbd5998c9	-0.053124223
191	0x3b830cd3	0.0039993315
192	0x3b2ec26f	0.0026666184
193	0x3d290a1c	0.041269407
194	0xbcf1f93c	-0.02953779
195	0x3d81e324	0.06342152
196	0x3c95f5c4	0.018305667
197	0x3d09e9b2	0.033670135
198	0xbc87d615	-0.016581574
199	0x3d8235a5	0.06357888
200	0x3c13a364	0.009011123
201	0x3d0cd10c	0.03437905
202	0xbd7a182b	-0.061058205
203	0x3a3f03fb	0.0007286665
204	0x3d3237bd	0.043510187
205	0x3d0d4523	0.034489762
206	0x3d28e5a8	0.041234642
207	0x3cf15997	0.029461665
208	0xbc69615f	-0.0142444065
209	0xbd0e0b06	-0.03467848
210	0xbc976fc5	-0.018485913
211	0x3d813966	0.06309776
212	0x3d3b057d	0.04565953
213	0xbc6f41a1	-0.0146030495
214	0x3c4e417a	0.012588853
215	0x3aeca2e1	0.0018053913
216	0x3d76a716	0.06021794
217	0x3d810bf5	0.06301109
218	0x3d809383	0.06278136
219	0xbd780a33	-0.0605566
220	0x3d5e7572	0.054311223
221	0x3bf4386b	0.0074530146
222	0xbce8f968	-0.028439239
223	0xbd4a4409	-0.04938129
224	0x3bfc2378	0.007694658
225	0xbd10ca49	-0.035349164
226	0xbd3ee99b	-0.046609502
227	0x3cac202e	0.021011438
228	0xbbeb121d	-0.00717379
229	0xbc0efcf6	-0.008727303
230	0xbd756fa6	-0.05992093
231	0xbd66b3e8	-0.056323916
232	0x3d3b4faf	0.04573029
233	0xbd224274	-0.039614156
234	0x3d846138	0.064638555
235	0x3d5cc4fe	0.053898804
236	0x3d302b05	0.043009777
237	0x3c0940b4	0.008377243
238	0x3c7212c9	0.014774987
239	0x3d6caf1f	0.057784196
240	0x3d174d67	0.03693905
241	0xbd755868	-0.059898764
242	0x3d3efbc8	0.046626836
243	0xbca651ab	-0.020302614
244	0xbd2902a0	-0.04126227
245	0x3d4f23e7	0.05057135
246	0x3d0f5c9e	0.035000436
247	0xbb029d9f	-0.0019930375
248	0x3d4ce97d	0.05002736
249	0x3d459606	0.048238777
250	0xbd3f5ab7	-0.04671737
251	0x3c904722	0.017612044
252	0xba7b3770	-0.0009583151
253	0xbcc17b7e	-0.023618456
254	0xbd7754bb	-0.06038354
255	0x3d371287	0.044695403

conv3.bias f4 [16]
0	0xbd809ab3	-0.062795065
1	0x3c769768	0.0150507465
2	0x3c9d903d	0.019233817
3	0xbc246e64	-0.010036085
4	0x3c15e066	0.009147739
5	0xbab20c00	-0.0013583899
6	0xbcb23588	-0.021754041
7	0xbd953f7f	-0.072875015
8	0xbd193dd7	-0.03741249
9	0xbd98002e	-0.07421909
10	0xbb57ac9d	-0.0032909282
11	0xbd66a459	-0.056309078
12	0xbca936f3	-0.020656085
13	0xbc2eef16	-0.01067712
14	0x3ca1b2ae	0.019738521
15	0x3d069ac0	0.032862425

conv4.weight f4 [32, 16, 3, 3, 3]
0	0xbd2aaab9	-0.04166672
1	0xbbba5361	-0.005686209
2	0x3c900b4a	0.017583508
3	0xbd24803c	-0.040161356
4	0xbd00a271	-0.031404916
5	0xbc7e0d04	-0.015506033
6	0x3cf12a0a	0.029438991
7	0x3cfc3742	0.030788068
8	0x3d373bdd	0.044734824
9	0xbd350b5d	-0.04420029
10	0x3d3e2621	0.04642308
11	0xbba5579e	-0.005045845
12	0x3cb626d6	0.022235315
13	0x3b9a0ac1	0.004700989
14	0x3c3e825e	0.011627762
15	0x3c8cf010	0.017204314
16	0xbb4dbdbe	-0.0031393613
17	0xbd3a1e3f	-0.045439
18	0xbbba0e63	-0.0056779846
19	0xbd09d2d6	-0.033648334
20	0x3c9d912b	0.01923426
21	0x3c572075	0.013130297
22	0x3ca3ef5a	0.020011593
23	0xbd12709f	-0.035751935
24	0xbcd02aa5	-0.02541096
25	0xbd06a3bf	-0.032871004
26	0x3d0fe10e	0.03512674
27	0xbbdc0ce9	-0.006715406
28	0x3b961aa5	0.004580813
29	0x3d2531b9	0.040330622
30	0xbc45bbaa	-0.012068668
31	0x3d2c4264	0.042055503
32	0x3d01b013	0.031662058
33	0x3c82deb5	0.015975336
34	0x3c641555	0.013921102
35	0xbd1964ae	-0.03744953
36	0x3b31f314	0.0027152942
37	0xbd31b8a7	-0.04338899
38	0x3d145a48	0.03621891
39	0x3c81814a	0.01580872
40	0x3c37ce52	0.011218624
41	0x3c4bd2f4	0.012440432
42	0xbc626943	-0.013819042
43	0xbd2f5ac8	-0.042811185
44	0x3d2f1266	0.042742155
45	0xbc373d7f	-0.011184095
46	0xbd227aa4	-0.03966774
47	0xbc42720f	-0.011868014
48	0x3d1181ea	0.035524286
49	0xbcab6703	-0.020923143
50	0xbc896d54	-0.016775765
51	0x3d24aadb	0.040202003
52	0x3d06d0cb	0.032913964
53	0xbc9cf28c	-0.019158624
54	0x3cab7dc9	0.020934002
55	0x3d3f6658	0.046728462
56	0x3c838981	0.016056778
57	0xbcabcb29	-0.020970898
58	0x3d27974d	0.040915776
59	0x3c7c1be8	0.015387513
60	0xbcafbb3b	-0.021451583
61	0x3cc407d4	0.023929514
62	0xbb6978ef	-0.003562506
63	0x3d0b02d0	0.03393823
64	0xbc698f8b	-0.014255415
65	0xbd3434ff	-0.043995854
66	0x3cceee0c	0.025259994
67	0xbd39c452	-0.04535324
68	0x3c9685d9	0.01837437
69	0x3d2e4345	0.042544622
70	0x3c06d1d9	0.0082287425
71	0x3d20444f	0.039127644
72	0xbce7eb75	-0.028310517
73	0xbd437819	-0.047721956
74	0xbd1dd954	-0.03853734
75	0xbcc03ea5	-0.023467371
76	0x3d06f8ed	0.032952238
77	0x3cec0b9f	0.028814135
78	0x3bc2b43c	0.005941896
79	0xbb9f4f38	-0.0048617385
80	0x3bd27a21	0.0064232503
81	0xbc88fd9c	-0.016722493
82	0xbbe49274	-0.0069754664
83	0x3cdf7609	0.027277963
84	0x3c95d522	0.018290106
85	0xbd06feda	-0.03295789
86	0x3cd684f2	0.02618644
87	0x3c059123	0.008152279
88	0x3d190e52	0.037367173
89	0x3cb0b028	0.021568373
90	0x3b1d7218	0.0024024304
91	0xbc1b1c6f	-0.009467228
92	0xbb8f4115	-0.004371772
93	0x3cc944b4	0.024568893
94	0x3d03d3d0	0.032184422
95	0xbc631606	-0.013860231
96	0xbc9ac663	-0.018893426
97	0x3b3f269b	0.0029167298
98	0x3d2c9c90	0.042141497
99	0x3d39390f	0.04522043
100	0xbd1dc417	-0.038517084
101	0x3cb70484	0.02234102
102	0x3c8e0eca	0.017341036
103	0xbc012e4f	-0.007884576
104	0xbd1af3ca	-0.03783015
105	0xbd34f2bf	-0.044176813
106	0x3bdf7089	0.006818835
107	0x3d24f031	0.040268127
108	0x3c14a7ed	0.00907324
109	0x3cf41dcb	0.029799363
110	0xba1cd699	-0.0005982905
111	0xbc7a3614	-0.015271682
112	0xbcdafa7a	-0.026730765
113	0xbd61ffe0	-0.055175662
114	0xbccb313a	-0.024803746
115	0xbd30261d	-0.043005098
116	0x3d127db2	0.035764404
117	0xbcefe3ad	-0.029283369
118	0xbce3c59b	-0.027804187
119	0xbcea840b	-0.028627416
120	0x3bb6977b	0.005572257
121	0xbc83d482	-0.016092543
122	0xbd36db96	-0.044643007
123	0xbc526d1a	-0.012843395
124	0xbbac8a8a	-0.0052655386
125	0xbb8f6dcb	-0.004377102
126	0x3d02a19a	0.031892397
127	0xbd428679	-0.047491524
128	0xbce70477	-0.028200371
129	0xbd5c692b	-0.053811233
130	0xbc633d70	-0.013869628
131	0x3d3f8ece	0.04676705
132	0xbd259918	-0.040429205
133	0x3cfbb117	0.030724091
134	0xbc881806	-0.016613018
135	0xbd0ae481	-0.033909325
136	0x3d0a4d04	0.033764854
137	0xbd2d3a76	-0.04229208
138	0x3cfb7c88	0.03069903
139	0x3b2ff6b9	0.002684994
140	0xbd48490e	-0.048897795
141	0x3cb4285c	0.021991901
142	0x3c965ffe	0.01835632
143	0xbb4e9a14	-0.0031524943
144	0x3ce66fb5	0.028129438
145	0x3c43a932	0.011942195
146	0xbce4cfbf	-0.027931092
147	0x3d144918	0.03620252
148	0x3cf5add5	0.029990116
149	0xbd25663c	-0.0403807
150	0x3cdab94c	0.026699685
151	0x3d08c3fb	0.033390027
152	0x3b9fceba	0.0048769386
153	0xbc9843fd	-0.018587107
154	0x3d0ee825	0.03488936
155	0xb9f06e84	-0.00045858708
156	0x3caab22e	0.020836916
157	0xbce22976	-0.02760766
158	0x3d05cd7b	0.032666665
159	0x3ca729db	0.0204057
160	0x3d085589	0.033284698
161	0x3d3a3f9c	0.04547082
162	0x3d1797b0	0.037009895
163	0x3d25a21e	0.04043781
164	0xbb48e502	-0.0030654077
165	0xbd12454c	-0.035710618
166	0x3bcecabb	0.0063107884
167	0xbc8142bc	-0.015778892
168	0xbd146f43	-0.03623892
169	0x3a24ecf4	0.0006291412
170	0x3d41720a	0.047227897
171	0xbcc20cf6	-0.02368782
172	0x3ce17faf	0.027526705
173	0x3d14290d	0.03617196
174	0x3c793f16	0.015212795
175	0xbbd47b4c	-0.0064844247
176	0xbcefc55e	-0.029268917
177	0x3d151daf	0.03640526
178	0x3b7d43a1	0.0038645046
179	0x3d336dc1	0.04380584
180	0xbcb08e41	-0.021552207
181	0x3c36a8ef	0.011148675
182	0xbd2b3e40	-0.041807413
183	0xbca588cf	-0.020206837
184	0x3d436605	0.047704715
185	0xbcbc28e7	-0.022968723
186	0xbd0ddcd3	-0.034634423
187	0xbc3dcfe2	-0.011585208
188	0x3bd6f0e6	0.006559479
189	0x3d11326e	0.035448484
190	0x3d362d0e	0.04447656
191	0xbd3fee21	-0.046857957
192	0xbd0f9b99	-0.0350605
193	0xbc317b58	-0.01083263
194	0xbc5cd56b	-0.013478617
195	0xbd0d1169	-0.03444043
196	0xbbc8f511	-0.00613273
197	0xbd1746e0	-0.036932826
198	0xbd3b5673	-0.04573674
199	0xbcfa7003	-0.03057099
200	0xbd30e840	-0.04319024
201	0xb95e53f6	-0.00021202848
202	0x3d060bb8	0.03272602
203	0x3cbdfb47	0.023191107
204	0x3d22e93a	0.039773203
205	0xbc1e1c02	-0.009650232
206	0xbcf5dffa	-0.030014027
207	0x3c1c4064	0.009536836
208	0xbbe3285b	-0.006932301
209	0x3c8aa509	0.016924398
210	0x3d00d2e9	0.03145114
211	0x3c6b359a	0.014356041
212	0x3c74d1c4	0.01494259
213	0xbd2c8a7a	-0.04212425
214	0xbc1caacb	-0.009562205
215	0x3d0dee4e	0.034651093
216	0xbc398a78	-0.011324517
217	0xbd1c9f6e	-0.03823798
218	0xbc814ea4	-0.01578457
219	0xbca2781f	-0.019832669
220	0x3d2b283e	0.041786425
221	0x3d2b643d	0.04184364
222	0x3be49717	0.006976019
223	0x3cf7ad55	0.030234018
224	0xbc5e83a5	-0.013581191
225	0xbc9381f9	-0.018006312
226	0xbb92b53c	-0.004477171
227	0xbd19ebba	-0.037578322
228	0x3ca972b8	0.020684585
229	0xbcab178f	-0.020885257
230	0x3cc58a40	0.024113774
231	0x3cc061a5	0.02348406
232	0xbc0c9185	-0.008579616
233	0x3c721ae5	0.01477692
234	0x3d2d12e9	0.042254362
235	0x3d73d11d	0.059525598
236	0x3ba1cbcb	0.004937624
237	0xbc3cd6ff	-0.011525868
238	0x3d4c57dd	0.04988848
239	0x3d4c50ae	0.04988163
240	0xbd32e4d6	-0.043675266
241	0x3a126ee8	0.00055859843
242	0x3d54c2c3	0.05194355
243	0xbc924aa5	-0.017857859
244	0x3d536928	0.051613957
245	0xbc18ae9d	-0.009318975
246	0xbada0f7b	-0.0016636694
247	0x3c863559	0.01638286
248	0xbc12ef67	-0.008968211
249	0xbb714f8a	-0.003682109
250	0x3d5ac2e2	0.05340851
251	0xbc128958	-0.008943878
252	0xbcbe60d5	-0.023239532
253	0x3bce7ab0	0.0063012466
254	0x3a8d670e	0.0010788159
255	0x3d059c46	0.032619737

conv4.bias f4 [32]
0	0xbc226a98	-0.009913109
1	0x3c0bcaf6	0.008532276
2	0xbc6eaa03	-0.014566901
3	0x3c95ea73	0.01830027
4	0xbc20a605	-0.009805207
5	0x3ccc2263	0.02491874
6	0xbc1e01c8	-0.009643979
7	0xbd141b04	-0.036158577
8	0x3cebf76a	0.0288045
9	0x3c8ee3ae	0.01744255
10	0x3d64fa67	0.055902865
11	0x3d2cbed9	0.042174194
12	0x3ba5463d	0.0050437734
13	0xbcb60633	-0.022219753
14	0x3cafde9f	0.021468459
15	0x3be688c6	0.0070353476
16	0x3c7ba7ea	0.015359858
17	0x3d325126	0.04353442
18	0xbd386857	-0.04502138
19	0x3cc0312c	0.023460947
20	0xbccf4f39	-0.025306331
21	0x3bead457	0.007166426
22	0x3caf5d77	0.021406872
23	0xbd1b15b2	-0.037862487
24	0x3b6a7417	0.0035774761
25	0xbd3006bd	-0.042975176
26	0xbbd52a4a	-0.0065052854
27	0xbcc6fbc4	-0.024289973
28	0xbbab3b4f	-0.005225576
29	0xbd367348	-0.044543535
30	0x3d18bb4b	0.03728799
31	0xbd14fcb0	-0.036373794

conv5.weight f4 [64, 32, 2, 2, 2]
0	0xbcf63199	-0.030052947
1	0xbd586056	-0.052826248
2	0x3d394c36	0.045238696
3	0xbd3878ed	-0.0450372
4	0x3d0289e4	0.031869784
5	0x3cabc367	0.020967199
6	0xbcdd54fa	-0.027018059
7	0xbd517ff5	-0.05114742
8	0xbd201178	-0.03907916
9	0xbd823150	-0.06357062
10	0xbb659fb9	-0.003503783
11	0x3cb3bc2c	0.021940313
12	0x3d08f702	0.03343869
13	0x3b533eb2	0.0032233414
14	0xbaeaa6ac	-0.0017902455
15	0xbc1d4b56	-0.009600481
16	0x3c42c560	0.011887878
17	0xbd183f87	-0.03716996
18	0x3bcecb70	0.0063108727
19	0x3d3edb2d	0.04659574
20	0xbd0dbd8f	-0.034604605
21	0x3d674500	0.056462288
22	0x3c3e0c60	0.01159963
23	0x3c8aba2f	0.016934482
24	0xbb8cc543	-0.0042959764
25	0x3d14cfbc	0.036330923
26	0xbd0938c8	-0.033501416
27	0xbceceda9	-0.028921919
28	0xbd7cbad3	-0.061701607
29	0x3be2eb17	0.0069249975
30	0xbd450e4c	-0.048109338
31	0xbc09eb18	-0.008417867
32	0x3ced1f3b	0.028945556
33	0x3d174c83	0.0369382
34	0x3c342a39	0.010996395
35	0xbd256867	-0.04038277
36	0x3c4e4a74	0.012590993
37	0x3d4aa2b1	0.04947156
38	0xbd85cd02	-0.06533243
39	0x3d5a5a6b	0.053308886
40	0xbd80c8b2	-0.062882796
41	0xbd6bcd1a	-0.057568647
42	0xbc8c987a	-0.01716255
43	0x3d6b6281	0.057466988
44	0xbbf464c0	-0.0074582994
45	0x3d2657bb	0.04061101
46	0xbd333801	-0.04375458
47	0x3b1904bb	0.0023348767
48	0xbcc5954d	-0.024119044
49	0xbd5680d5	-0.052368958
50	0x3cfa9300	0.030587673
51	0xbc966ae9	-0.018361526
52	0xbd1c7431	-0.038196746
53	0x3d7afe57	0.061277714
54	0x3d767f5d	0.060180057
55	0xbd357922	-0.044304974
56	0xbd6649c4	-0.056222692
57	0x3d549faa	0.05191008
58	0xbd53d91b	-0.05172072
59	0x3cf6529b	0.030068686
60	0xbd3a3bb0	-0.04546708
61	0x3d80f572	0.06296815
62	0xbc1ced73	-0.009578097
63	0xbcd7b957	-0.026333494
64	0x3b935fbe	0.0044974973
65	0x3caa4ee7	0.020789577
66	0xbd3b330e	-0.045702986
67	0x3d48c062	0.049011596
68	0xbc1ae4ae	-0.009453936
69	0xbc02500a	-0.007953653
70	0x3c8d1d69	0.017225938
71	0xbd0ae3b6	-0.03390857
72	0x3d06bf41	0.032897238
73	0x3ceffabd	0.029294366
74	0xbd819571	-0.06327332
75	0x3d706f9d	0.058700193
76	0x3ce89d2b	0.028395256
77	0xbd781a23	-0.0605718
78	0x3d0156e9	0.031577025
79	0xbbc3c75e	-0.005974694
80	0xbce893d9	-0.028390812
81	0xbd3d4249	-0.046205793
82	0xbd273e97	-0.040831175
83	0x3c60c17f	0.013718008
84	0x3c13de51	0.009025172
85	0x3d4d9115	0.05018719
86	0x3d4ceae0	0.05002868
87	0x3ce3d7e6	0.02781291
88	0xbbcc744e	-0.0062394505
89	0x3d22f902	0.039788254
90	0x3cb7356a	0.022364337
91	0x3d47a0c0	0.048737288
92	0xbcb81e6b	-0.022475442
93	0xbd2b5f5c	-0.04183899
94	0xbc87d263	-0.016579812
95	0x3cd77605	0.026301393
96	0xbd211174	-0.039323285
97	0x3c9b7a66	0.018979263
98	0x3d4bee5c	0.049787864
99	0xbcf05c2b	-0.029340824
100	0xbd02c214	-0.03192337
101	0xbcd6c93d	-0.026219005
102	0xbd160ec9	-0.036635194
103	0xbd2efe1c	-0.042722806
104	0xbcda0edc	-0.026618414
105	0x3cdd5640	0.027018666
106	0xbd2c573e	-0.042075388
107	0xbb01aec6	-0.001978801
108	0xbd66a1aa	-0.05630652
109	0x3d263fd0	0.0405882
110	0x3cd17554	0.025568642
111	0xbcac943e	-0.021066781
112	0xbd53b58e	-0.051686816
113	0xbbc56358	-0.0060238056
114	0xbd45ec75	-0.048321206
115	0xbd224425	-0.03961577
116	0xbb9d50c4	-0.004800888
117	0xbd054b75	-0.032542665
118	0x3d2d8df5	0.04237171
119	0xbd2f1439	-0.042743895
120	0x3b0679ad	0.0020519302
121	0x3cbaa123	0.022781914
122	0xbc602bbb	-0.013682301
123	0x3c7c1530	0.015385911
124	0x3caf81e5	0.021424243
125	0xbd76e2aa	-0.060274757
126	0x3cc56cb7	0.02409969
127	0xbd798c58	-0.060924858
128	0x3d2559c9	0.04036883
129	0xbd778985	-0.060433883
130	0x3cdb97e8	0.026805833
131	0xbd858fcb	-0.06521567
132	0x3cf63b92	0.030057702
133	0x3d23d0d7	0.039994087
134	0xbd47dc77	-0.048794236
135	0xbd7637d8	-0.06011185
136	0x3d5ff70e	0.05467897
137	0x3c8b0825	0.016971657
138	0x3d57bfec	0.052673265
139	0x3d174c31	0.036937896
140	0x3c983cad	0.01858362
141	0x3ce97a95	0.028500834
142	0x3d390c5f	0.045177814
143	0xbd689b01	-0.05678845
144	0xbcc9d57c	-0.02463793
145	0x3d230d7d	0.039807785
146	0x3cf190fc	0.02948808
147	0x3c9b7290	0.018975526
148	0xbc003a88	-0.007826455
149	0xbc2f54d7	-0.01070138
150	0x3d5b53cc	0.05354671
151	0xbd6d5932	-0.05794639
152	0x3d1f846e	0.038944654
153	0x3c2f38b0	0.010694668
154	0xbd48007e	-0.048828594
155	0x3c7f70d4	0.015590865
156	0xbce839ac	-0.028347813
157	0xbc2ae285	-0.010429983
158	0x3c70dbeb	0.01470087
159	0x3afd256e	0.0019313523
160	0x3c58bff8	0.013229363
161	0xbd1757b0	-0.03694886
162	0xbb961000	-0.004579544
163	0x3d01a0ea	0.0316476
164	0xbd0fcaf2	-0.035105653
165	0x3d7f5c12	0.062343664
166	0x3d1ed9d4	0.038781956
167	0x3c37d030	0.011219069
168	0xbd7977c3	-0.06090523
169	0xbcfce1ef	-0.030869452
170	0x3d53ca6b	0.051706713
171	0x3ca788a2	0.020450894
172	0x3b15ba61	0.0022846686
173	0xbd656408	-0.0560036
174	0x3ca065f1	0.01957986
175	0xbbfe1dd2	-0.0077550197
176	0x3d4035e0	0.04692638
177	0xbd3a1103	-0.04542638
178	0xbd413f6d	-0.04717963
179	0xbd0d5a56	-0.03450998
180	0xbd0bd470	-0.034138143
181	0xbd37cd3a	-0.044873454
182	0x3c28c25c	0.010300245
183	0x3cdf9de8	0.027296975
184	0xbb986ba0	-0.004651502
185	0xbcbed4ec	-0.023294888
186	0xbbb11690	-0.005404301
187	0x3c90c540	0.017672181
188	0x3c7914a0	0.015202671
189	0xbd5bcb8a	-0.053660907
190	0x3d08830e	0.03332811
191	0xbc9fa03c	-0.019485585
192	0xbd8a0a92	-0.067402974
193	0x3b9fe73d	0.0048798607
194	0xbc43b57b	-0.011945124
195	0xbd802bd6	-0.06258361
196	0x3d52bf4f	0.051451977
197	0xbb8d3013	-0.0043087094
198	0xbcc0171f	-0.023448525
199	0x3b733a06	0.0037113442
200	0xbd830787	-0.0639792
201	0x3d58c649	0.052923474
202	0x3d169f7f	0.0367732
203	0xbb72b9db	-0.0037037048
204	0xbd3fe339	-0.046847556
205	0xbc6d38fc	-0.014478918
206	0x3d0e0e77	0.034681763
207	0x3d4c7502	0.049916275
208	0xbc6f3066	-0.014598941
209	0xbcc34409	-0.023836153
210	0xbc7d3510	-0.015454546
211	0xbd7013fb	-0.058612805
212	0xb8046744	-3.1567426e-05
213	0xbd254f6f	-0.040358957
214	0x3d4e2f73	0.05033822
215	0x3cacd59c	0.02109795
216	0xbd04d02d	-0.032425094
217	0x3ba02eef	0.0048884074
218	0x3d1081da	0.035280086
219	0xbd5d8f63	-0.054091822
220	0x3d25f154	0.04051335
221	0x3b43b6de	0.0029863636
222	0x3be568a0	0.0070009977
223	0x3d87a065	0.0662239
224	0xba9b5e80	-0.0011853725
225	0xbd1202e4	-0.035647288
226	0xbc05f6d8	-0.008176528
227	0xbd04a0e2	-0.032379992
228	0x3c9bbaac	0.01900991
229	0x3cbbaa98	0.022908494
230	0xbd3b0e66	-0.04566803
231	0xbc0b54d8	-0.008504115
232	0xbcffde28	-0.031233862
233	0x3cb8ebcc	0.022573374
234	0xbd3fa5ec	-0.046789095
235	0x3c216218	0.0098500475
236	0x3d4340a2	0.04766906
237	0x3ccfd93c	0.02537214
238	0xbd2a351c	-0.041554555
239	0xbc732f38	-0.014842801
240	0xbcdf1654	-0.027232327
241	0xbd79293e	-0.060830347
242	0xbd3726ba	-0.044714667
243	0x3c961fff	0.018325804
244	0x3b1ec1bb	0.002422436
245	0xba08d172	-0.0005219198
246	0xbc6fa514	-0.01462676
247	0x3b4018a2	0.0029311557
248	0x3d25032c	0.040286228
249	0x3d6c2bc6	0.057658933
250	0x3d29262e	0.041296177
251	0x3d6c1ffa	0.057647683
252	0xbc92677c	-0.01787161
253	0x3cebb4c0	0.028772712
254	0xbd4a3136	-0.049363337
255	0x3d10302e	0.035202198

conv5.bias f4 [64]
0	0xbbbf7431	-0.0058427085
1	0x3c1b803b	0.009491022
2	0x3b8454a6	0.004038411
3	0x3c285235	0.010273506
4	0xbba0af86	-0.0049037365
5	0x3c5b5d3d	0.013388929
6	0xbc891200	-0.016732216
7	0xbc6611ab	-0.014042298
8	0xbcec6bf8	-0.028860077
9	0xbd8836bc	-0.06651065
10	0x3c7e3ffe	0.015518187
11	0x3c975213	0.018471753
12	0xbcba0d00	-0.022711277
13	0xbd20ae7c	-0.0392289
14	0xb8163000	-3.580749e-05
15	0xbd8f7401	-0.07004548
16	0xbcffac6a	-0.031210143
17	0xbcec5adc	-0.028851919
18	0x3b1ab558	0.0023606624
19	0xbcd55978	-0.026043639
20	0x3d10f98d	0.03539424
21	0xbd3714a8	-0.044697434
22	0xbcfaacc8	-0.030599967
23	0xbd15d448	-0.0365794
24	0x3c102a5e	0.008799164
25	0xbc8173f1	-0.015802355
26	0x3c4b8371	0.012421475
27	0x3c3301af	0.010925694
28	0xbb90fdd1	-0.0044247885
29	0x3d12ff73	0.035888147
30	0xbb81cc2a	-0.003961106
31	0xbd5632aa	-0.05229441
32	0xbbbb65cd	-0.0057189227
33	0xbc25eacf	-0.0101267835
34	0xbd0e2549	-0.034703527
35	0xbd1c3436	-0.03813573
36	0xbbb0d1a5	-0.0053960853
37	0xbd841299	-0.0644886
38	0x3cd95966	0.026531886
39	0xbcca814c	-0.024719857
40	0x3b323d07	0.002719702
41	0xbc0cce40	-0.008594096
42	0xbcb066a0	-0.02153331
43	0xbd4d2ff2	-0.050094552
44	0xbcf28dfc	-0.029608719
45	0xbd72f132	-0.059312053
46	0xbc43973d	-0.0119379135
47	0xbd127f4a	-0.035765924
48	0x3cbbfb32	0.022946928
49	0x3c8a15b7	0.016856058
50	0x3b8b83dd	0.0042576627
51	0xbc1f8237	-0.0097356355
52	0x3cc3a0b4	0.02388034
53	0xbd56edfc	-0.052473053
54	0xbd0e5ada	-0.03475461
55	0xbd6c1005	-0.057632465
56	0xbce8ce28	-0.028418615
57	0xbd32a073	-0.043610048
58	0x3d09ea1f	0.03367054
59	0xbc0fbc56	-0.00877293
60	0x3d0eb4df	0.03484046
61	0xbd785a38	-0.060632914
62	0xb93b0e96	-0.00017839143
63	0x3c3022fc	0.010750528

linear1.weight f4 [128, 512]
0	0x3c75a516	0.014992973
1	0x3c8b0371	0.016969414
2	0xbc921367	-0.017831517
3	0x3cc0fc26	0.023557734
4	0xbc58adc4	-0.013225023
5	0x3c322533	0.010873127
6	0x3cc47629	0.023982124
7	0x3bab90dd	0.005235775
8	0x3cbbc241	0.022919776
9	0xbc2ed422	-0.010670694
10	0x3cc403d9	0.023927616
11	0xbd108032	-0.035278507
12	0xbd4cde42	-0.05001665
13	0xbd401d8d	-0.04690318
14	0xbd5b0d4f	-0.05347949
15	0xbd2b1466	-0.0417675
16	0xba9ea5f8	-0.0012103906
17	0xbc557e78	-0.013030641
18	0xbccd8db5	-0.025091985
19	0xbb8de078	-0.0043297373
20	0xbd09f885	-0.033684272
21	0x3cdabc64	0.02670116
22	0xbcd2d807	-0.025737775
23	0xbc202593	-0.009774583
24	0xbd033e90	-0.032042086
25	0x3cd550b5	0.02603946
26	0xbb85c99a	-0.0040828707
27	0x3cf2ace9	0.029623466
28	0x3cfeaa27	0.031086994
29	0xbcb3b150	-0.021935135
30	0xbc68f588	-0.014218695
31	0x3cd45336	0.025918584
32	0x3cac4abc	0.02103173
33	0x3c806f46	0.01567806
34	0xbc8025f3	-0.015643096
35	0xbc36298f	-0.011118307
36	0xbbed674e	-0.007244981
37	0xbcac0d20	-0.021002352
38	0x3cd32fe1	0.025779666
39	0xbd08e3a8	-0.033420235
40	0xbd179dee	-0.037015848
41	0xbd197026	-0.03746047
42	0x3cbf72ea	0.023370225
43	0xbc494c62	-0.0122862775
44	0xbaaa78dc	-0.001300599
45	0xbb7079e3	-0.0036693744
46	0x3c8daa45	0.017293105
47	0xbc384fa0	-0.011249453
48	0xbcf401dd	-0.029786045
49	0xbc2df60c	-0.010617744
50	0x3b9a5605	0.0047099614
51	0x3ceb932f	0.028756706
52	0x3c2d4c4a	0.010577271
53	0xbd40d079	-0.047073815
54	0xbc9de133	-0.019272422
55	0x3cb5e660	0.022204578
56	0x3c5475d6	0.012967547
57	0x3c102605	0.008798127
58	0x3cda08b2	0.026615474
59	0x3d3afb3f	0.045649763
60	0x3d0557d5	0.032554466
61	0x3bd8bd15	0.006614337
62	0xbcfb1359	-0.030648874
63	0xbce89dfc	-0.028395645
64	0x3d2b66c3	0.041846048
65	0x3ce21d9c	0.02760201
66	0x3d038353	0.032107662
67	0x3d216d12	0.03941066
68	0xbcb474eb	-0.022028407
69	0xbb8f6317	-0.004375826
70	0x3bab5829	0.0052290154
71	0x3bf88bac	0.0075850096
72	0x3c6b60c4	0.014366332
73	0x3d242c30	0.040081203
74	0x3d033fcb	0.03204326
75	0x3c4ed9d0	0.012625173
76	0x3d28efe5	0.041244406
77	0x3cbb2780	0.022845984
78	0x3cf9b923	0.030483788
79	0xbd14f0fe	-0.03636264
80	0x3c8b0502	0.016970161
81	0xbbfb8318	-0.0076755397
82	0x3d2136af	0.03935879
83	0x3c74b394	0.014935393
84	0x3c853d3f	0.016264556
85	0xbc851f39	-0.01625024
86	0xbd1e2370	-0.038608015
87	0xbd129f22	-0.035796292
88	0x3d1b4b7f	0.037913796
89	0x3d1ffb88	0.03905824
90	0x3d0985d3	0.03357489
91	0xbce6420c	-0.028107665
92	0xbcda7413	-0.026666677
93	0xbc6c8cab	-0.014437835
94	0x3ca11849	0.0196649
95	0x3b3867e4	0.0028138096
96	0x3ca77b63	0.020444578
97	0xbd05e6fd	-0.03269099
98	0x3d32b2d3	0.04362757
99	0xbbf02634	-0.007328773
100	0x3c77e423	0.015130076
101	0xbd0234aa	-0.031788506
102	0xbd19e5de	-0.037572734
103	0x3b61fbf1	0.0034482444
104	0xbc3d4142	-0.011551203
105	0xbc0ea702	-0.00870681
106	0x3c5f9e25	0.013648544
107	0x3c763a45	0.015028541
108	0x3d103f20	0.03521645
109	0xbd04dd4a	-0.0324376
110	0x3b89bedf	0.004203662
111	0x3c433983	0.011915567
112	0xbcb5d0f9	-0.022194372
113	0x3c356bb9	0.011073046
114	0xbcaf7d39	-0.021422016
115	0x3b96aa99	0.0045979735
116	0xbd144be8	-0.036205202
117	0x3cc3ce83	0.023902183
118	0x3d2d9287	0.042376067
119	0x3c88a8ea	0.016682107
120	0xbaf53de2	-0.0018710459
121	0xba3115a0	-0.00067552365
122	0xbd146afb	-0.036234837
123	0x3c1d60bf	0.009605586
124	0x3c227b75	0.00991713
125	0x3cb0e56c	0.021593772
126	0x3c15b5d4	0.0091375895
127	0x3cda32ae	0.026635494
128	0xbc7b08bc	-0.015321907
129	0x3cb34f3e	0.021888372
130	0x3c8aa3db	0.016923836
131	0x3d1581f6	0.036500894
132	0x3c235162	0.009968134
133	0x3c87eb60	0.016591728
134	0x3bec8556	0.0072180433
135	0xbbadd839	-0.0053053168
136	0x3d278586	0.040898822
137	0x3ca98680	0.020694017
138	0xbb991b10	-0.0046724156
139	0xbc976551	-0.018480929
140	0x3c5c6a6a	0.013453105
141	0x3c8dc006	0.017303478
142	0x3c48f971	0.012266503
143	0x3c03e196	0.008049389
144	0x3c859822	0.016307894
145	0x3cd733a0	0.026269734
146	0x3ce811c6	0.028328788
147	0x3bf664c1	0.007519335
148	0xbd252ac2	-0.04032398
149	0x3b3838d5	0.0028110046
150	0xbca8f0ca	-0.02062263
151	0x3ccd9bfd	0.025098795
152	0xbd214dce	-0.03938084
153	0x3d34be40	0.04412675
154	0xbb74f7b5	-0.003737909
155	0x3d2ac6f4	0.041693643
156	0xbcb77fec	-0.022399865
157	0x3c96b35f	0.018396078
158	0xbc70b01d	-0.014690426
159	0x3b97f016	0.004636775
160	0xbd0d627a	-0.034517743
161	0x3ccab14d	0.024742747
162	0x3c74391f	0.014906197
163	0xbc16eeea	-0.009212235
164	0x3ce7ecb9	0.02831112
165	0xbd2ca0a8	-0.0421454
166	0x3ccc588c	0.024944566
167	0xbc526545	-0.012841527
168	0xba29f8f5	-0.0006483936
169	0xbce23580	-0.027613401
170	0xbbe77ba2	-0.0070642987
171	0x3ca08095	0.019592563
172	0xbb9e6a57	-0.004834454
173	0x3a8c394b	0.0010698227
174	0x3c5d4469	0.01350508
175	0x3caecbce	0.021337416
176	0x3c8b163b	0.016978374
177	0xbd2dbf41	-0.042418722
178	0x3cb257ad	0.021770323
179	0x3b14535e	0.0022632699
180	0xbc26db37	-0.010184101
181	0xbcbfc7c8	-0.023410693
182	0xbd26db44	-0.04073645
183	0xbcad0635	-0.021121124
184	0xbd4f0e95	-0.050551016
185	0x3c5801b0	0.013183996
186	0xbd161bca	-0.036647595
187	0xbb9cd31f	-0.00478591
188	0xbc95b519	-0.01827483
189	0x3c88865d	0.016665632
190	0xbd5bd5c1	-0.05367065
191	0xbca3b43c	-0.019983403
192	0xbd047bc0	-0.03234458
193	0x3d3a9870	0.045555532
194	0x3ba30841	0.004975349
195	0x3d0fa012	0.035064764
196	0x3c9ff652	0.019526634
197	0x3d068f79	0.03285167
198	0x3c10b7df	0.008832901
199	0xbbbd1f17	-0.0057715285
200	0x3cf2ee86	0.029654752
201	0xbd141c20	-0.036159635
202	0xbccc25f3	-0.02492044
203	0xbc9df6a4	-0.019282646
204	0x3d003d96	0.031308733
205	0xbc565ab9	-0.013083153
206	0x3c932b37	0.017964942
207	0x3cd62d52	0.026144657
208	0xbc20d3e3	-0.009816143
209	0xbc87c600	-0.016573906
210	0x3d370b78	0.04468867
211	0xbcb83128	-0.022484377
212	0xbcf7440a	-0.03018381
213	0x3c9d5044	0.019203313
214	0xbd0a8640	-0.033819437
215	0x3d2da65d	0.042394985
216	0x3d338596	0.04382857
217	0xbb922d12	-0.004460939
218	0xbac3c9e3	-0.0014937486
219	0x3d412aec	0.047160074
220	0x3ce45677	0.02787326
221	0xbceb7ae9	-0.028745132
222	0x3b11b859	0.0022235124
223	0x3d1428a5	0.036171574
224	0xbcde9448	-0.027170315
225	0xbcf862f1	-0.030320616
226	0x37ced882	2.4657933e-05
227	0x3d386cdc	0.04502569
228	0x395ef591	0.0002126305
229	0x3c9baaea	0.019002397
230	0x3d2e580b	0.042564433
231	0xbb6d5456	-0.0036213598
232	0xbc4b4cda	-0.01240846
233	0xbc64b69a	-0.013959551
234	0xbc078a69	-0.008272746
235	0x3cbc0f0e	0.022956397
236	0x37e4e444	2.7286012e-05
237	0xbb87da48	-0.004145894
238	0x3cfe4e27	0.031043125
239	0x3bd4b09f	0.0064907814
240	0xbd042886	-0.03226521
241	0x3c92c4d9	0.01791613
242	0x3d09ff83	0.03369094
243	0xbd09ef97	-0.033675756
244	0xbb64c197	-0.0034905428
245	0x392f1abb	0.00016699258
246	0xbd21fc54	-0.03954728
247	0xb99f87ca	-0.00030428014
248	0x3d1ade80	0.03780985
249	0x3d03b02d	0.032150436
250	0x3cea63ca	0.028612036
251	0xbc8e73a9	-0.017389135
252	0x3d345eb9	0.044035647
253	0x3ac8e358	0.0015326543
254	0x3bd6ee96	0.0065592034
255	0xbc4cd682	-0.0125023145

linear1.bias f4 [128]
0	0xb88adab6	-6.621091e-05
1	0x3801755b	3.0865293e-05
2	0x3d087595	0.03331526
3	0xbd0d7ee6	-0.034544848
4	0xb8143a1a	-3.534006e-05
5	0xbd289492	-0.041157313
6	0xb6a585cd	-4.9329597e-06
7	0xbb64f8da	-0.0034938366
8	0xbc719e03	-0.014747146
9	0xbcdc1981	-0.02686763
10	0xbcc0ca8a	-0.023534078
11	0xb881c8fb	-6.188635e-05
12	0x39297ec6	0.00016164323
13	0xbc37288f	-0.0111791035
14	0xbc539c73	-0.012915718
15	0xb7ae2380	-2.0758947e-05
16	0x3bcd485d	0.00626473
17	0x3d26d218	0.040727705
18	0xbc59e1a9	-0.0132984305
19	0xbc2d1504	-0.010564093
20	0xbcdebe69	-0.027190404
21	0xbcbbe5f9	-0.022936808
22	0xbc07f992	-0.008299248
23	0xbcd4dba1	-0.025983633
24	0xbca15435	-0.019693473
25	0xbceb94b6	-0.028757434
26	0xbbd36717	-0.0064514983
27	0xb55f22d2	-8.3124644e-07
28	0x3d1e0001	0.038574222
29	0x3a7f0a79	0.00097290386
30	0x3d36b82a	0.044609226
31	0xbd002b5b	-0.031291347
32	0xbbcee196	-0.006313513
33	0xbd4173ce	-0.04722958
34	0xbb83667c	-0.00401002
35	0xb9c6d654	-0.0003792519
36	0x3aa8a24b	0.001286575
37	0xb766115e	-1.3713112e-05
38	0xbd35afa9	-0.044356976
39	0x3a983eb0	0.0011615362
40	0xb7a13a85	-1.9219946e-05
41	0xbac5667c	-0.001506045
42	0xbbc6fae6	-0.00607239
43	0xbc83c545	-0.016085276
44	0xbb9f5275	-0.0048621246
45	0x3ccc7d81	0.024962189
46	0xbaa62d23	-0.0012678247
47	0xbca95a57	-0.02067296
48	0xbd124b0d	-0.035716105
49	0xbd023e37	-0.031797614
50	0xbd06a35e	-0.032870643
51	0xbcf361d8	-0.029709741
52	0x3ce91326	0.028451513
53	0xbcaaa8c8	-0.020832434
54	0xbc28773f	-0.010282337
55	0xb69f00ca	-4.738661e-06
56	0xbd143cf0	-0.036190927
57	0xbb7d689b	-0.0038667086
58	0xbbd7fca5	-0.006591397
59	0xbb81b55a	-0.0039583864
60	0xbcff1d3d	-0.031141872
61	0xba030bbd	-0.00049990026
62	0x3c567062	0.013088318
63	0xbd205c28	-0.039150387
64	0xbb4236a3	-0.0029634617
65	0xbc82d551	-0.015970858
66	0xbc350d89	-0.01105059
67	0x3baf5b9b	0.0053514964
68	0xbc5fbb47	-0.01365549
69	0xbcd25daf	-0.025679437
70	0xbc996f08	-0.018729702
71	0xbc7de0a4	-0.015495453
72	0xbbdcc753	-0.0067376285
73	0xbc8705fa	-0.016482342
74	0x3c9e154d	0.019297266
75	0xbcd9d7df	-0.026592193
76	0xbc80bd79	-0.015715348
77	0x35d2fa5b	1.5719082e-06
78	0x3815ada1	3.5686073e-05
79	0x3d23c4cd	0.039982606
80	0x3b7bcee3	0.0038422875
81	0xbcf31ccf	-0.029676823
82	0xb5de34c4	-1.6555646e-06
83	0xbcf86a2b	-0.030324062
84	0xbc48983a	-0.012243325
85	0x3b3516d7	0.0027632022
86	0xbd187dfc	-0.037229523
87	0xba55dcbb	-0.00081581966
88	0xbd1ed969	-0.038781557
89	0xbb88228b	-0.0041545085
90	0x3bce9b04	0.0063051004
91	0xbb4c5a74	-0.0031181844
92	0xbc0c3aab	-0.008558909
93	0x3b705267	0.003667021
94	0x3c854f98	0.016273305
95	0xbb98609d	-0.004650189
96	0xbcd3d825	-0.025859902
97	0x3d2d7e37	0.042356696
98	0xbcefd533	-0.029276466
99	0xbc190138	-0.0093386695
100	0xbce86008	-0.028366104
101	0x3d219734	0.03945084
102	0xbcbaa981	-0.022785904
103	0xbbe74829	-0.0070581627
104	0xb47049c1	-2.2378573e-07
105	0xbd119f64	-0.035552397
106	0xb94201bb	-0.00018501926
107	0xbc0a5efd	-0.0084454985
108	0xbb5ad1ba	-0.0033389167
109	0xb55034da	-7.756295e-07
110	0x3c0fb28d	0.008770597
111	0xbd0adb8d	-0.033900786
112	0xbd112a73	-0.035440873
113	0xbcb1a74b	-0.021686217
114	0xbd243689	-0.04009107
115	0xbcc3da12	-0.023907695
116	0xb691a070	-4.340014e-06
117	0xbb117599	-0.0022195338
118	0x3bc5a2d3	0.006031373
119	0xb73dbeac	-1.1309672e-05
120	0x3c929327	0.017892433
121	0xbbebd9c8	-0.0071975924
122	0x3cd89981	0.026440384
123	0xb7235988	-9.736403e-06
124	0xbaccd070	-0.0015626084
125	0xba5424c2	-0.00080926355
126	0xbd1265aa	-0.035741486
127	0x3d16cada	0.036814548
