models/5A_SSE_beta.pth (torch, 421229 bytes, 13 tensors)

conv1.weight f4 [4, 1, 5, 5, 5]
000000 62 9d c4 3c 4a 05 c8 bc 6f 6b 10 3d 35 45 13 bc
       0.024000827 -0.024416585 0.035258707 -0.008988668
000010 63 c3 91 3d 5f 33 db bc bc 1e dc bc 69 f6 ba 3d
       0.07117345 -0.026757894 -0.026870124 0.0912903
000020 b8 c3 69 bd c2 79 b4 bc f8 bc ee 3c 2d ac 4c 3d
       -0.057071418 -0.022030715 0.029142842 0.049968887
000030 58 2d 85 3d fa aa 48 3d 7f db 27 bd 6c 12 be bd
       0.06502789 0.04899118 -0.040980812 -0.092808574
000040 e6 0d 27 3c 2c 87 53 3b 87 e4 e8 bb 82 a4 a8 3d
       0.010196185 0.0032276614 -0.0071073207 0.082345024
000050 ff 19 8e bd 69 01 86 bd cd 2d 85 bd b1 55 ae 3d
       -0.06938552 -0.06543238 -0.065028764 0.08512438
000060 1a 9a b6 3d 37 be a6 3d 58 2e 40 bd 61 27 14 bd
       0.08916111 0.08141749 -0.046919197 -0.036170367
000070 43 d6 fe bc b5 8e 75 3d d7 5b 23 bd 08 78 1d bc
       -0.031108027 0.05995055 -0.039882507 -0.009611137
000080 ce 3a b8 3d d8 0a 29 3d 68 11 99 3d 7f cd 27 bd
       0.08995591 0.041270107 0.07474023 -0.04096746
000090 6f 43 a4 bd 03 32 ab bd 6f 61 91 bc a6 81 26 bb
       -0.080206744 -0.08359148 -0.017746655 -0.0025406866
0000a0 99 bc ba bc b5 de 7b bd b8 0e 47 bd 64 ed 99 3d
       -0.022795008 -0.061491687 -0.04859802 0.07515982
0000b0 9c 88 ac 3c 85 52 2a bd b7 21 45 3c c1 e6 fe bc
       0.021061234 -0.041582603 0.012031964 -0.031115891
0000c0 16 93 90 3b 69 26 3f 3d 85 12 17 bd 90 3e 70 bc
       0.0044120653 0.04666749 -0.036882896 -0.014663354
0000d0 e1 61 46 bd 1e 73 f0 bc ab ee 77 3d 4c 2e 3f 3d
       -0.04843319 -0.029351767 0.060530346 0.04667501
0000e0 a2 6a 93 bd 02 92 83 3c e1 fc bd 3d 65 1c 68 bd
       -0.07198073 0.016060833 0.092767484 -0.056667704
0000f0 19 ce f3 3b 56 09 b7 3c 63 0d ad bc 06 de 11 bd
       0.0074403402 0.022343319 -0.021124547 -0.03561213
000100 fc 5e bf 3d 60 1d b2 bd 87 28 ad bd 7d 21 1d 3d
       0.09344289 -0.08697009 -0.084549956 0.038362015
000110 cb 8b 89 bd 01 63 56 3d 66 d9 07 3c a3 fd 67 bd
       -0.067161165 0.05234051 0.008291578 -0.05663837
000120 cf 5f 01 bd d0 44 57 bc f3 ab df 3c 4c f2 a3 3d
       -0.03158551 -0.013138965 0.027303671 0.08005199
000130 d1 1b b2 3d ed c0 0e 3c 91 b1 bd 3d 25 64 a2 3d
       0.08696712 0.008712989 0.09262384 0.07929257
000140 bc 80 74 3c 34 b2 aa bd 56 fc cb bc 4e 59 6e bc
       0.014923271 -0.08334771 -0.024900597 -0.014547659
000150 5b 56 64 bd e0 d3 be bb 0a 45 c1 bd ef 00 a2 3d
       -0.055746417 -0.0058235973 -0.09436996 0.07910334
000160 f8 dc 21 3c e7 52 89 3c 0f 54 20 bd 76 30 13 bd
       0.009879343 0.016763164 -0.039142665 -0.035934888
000170 22 10 81 3d af bb 89 3d 0a 1f 94 3b 28 a4 93 3c
       0.06301905 0.06725251 0.0045203017 0.018022612
000180 5d 33 b8 bd 36 5a 10 3d 2a 15 4e bd af 07 c9 3d
       -0.08994172 0.03524228 -0.050313152 0.09815919
000190 9e fd 2b 3c f7 eb 79 3d 9e 6f 6c bd 5e 2d 7d 3d
       0.010497479 0.06101605 -0.057723634 0.061810844
0001a0 fc c2 80 3d ed 71 22 bd b3 64 be bb ec 91 8f 3c
       0.0628719 -0.03965943 -0.005810344 0.017525636
0001b0 97 97 72 3d c6 78 01 bd 88 e9 1a bc 91 c1 09 ba
       0.0592266 -0.03160932 -0.009455092 -0.0005254979
0001c0 b2 07 87 3d 6c c9 18 bd 3a aa 8c bd 57 8a 60 bd
       0.06593265 -0.037301466 -0.06868406 -0.05481943
0001d0 60 b7 7e bb 03 31 27 bd ec 20 fc bc c3 f2 ad 3d
       -0.0038866624 -0.040818226 -0.030777417 0.08493569
0001e0 d7 e5 7b bd 84 ea 85 bd fd 7a 96 3d 3d 2b 75 bb
       -0.06149849 -0.06538871 0.07347677 -0.0037409805
0001f0 ad 85 78 3c 4a 66 58 bd 05 85 3d bc 50 bc 07 bc
       0.01516859 -0.052831925 -0.011567359 -0.008284643
000200 1b a9 3c bd 5e c6 49 bd 7d 0f 33 bd 37 55 54 bd
       -0.04605971 -0.049261443 -0.043715943 -0.05183908
000210 e9 74 88 3d a6 ff 0e bd 2e 7f 8e 3d f1 dd 47 3c
       0.06662924 -0.034911774 0.06957851 0.012198911
000220 66 03 1f bd 2d 61 42 b9 7e ed 16 bd cd 2f f0 bc
       -0.0388216 -0.00018537483 -0.036847584 -0.029319668
000230 91 6a 6c bc ee a0 84 bd 61 28 ff bb e1 22 4a bd
       -0.014429704 -0.064760074 -0.007786796 -0.04934967
000240 19 6f 9e 3d ee 21 96 3d c4 1f 8d 3d fc 08 85 3d
       0.07736034 0.0733069 0.068908244 0.06495854
000250 12 6c 25 3c 8e 6d 33 3d 4e 12 b8 3c 79 c1 8e 3d
       0.010096567 0.04380565 0.022469666 0.06970496
000260 0c 3c b9 bc 39 b2 db 3c 9c cf 42 bd d9 77 30 bd
       -0.02261164 0.026818382 -0.047561273 -0.043083046
000270 74 bc 31 bb 84 4f 26 bd fb 2f c7 3d 40 56 8a bd
       -0.0027120383 -0.040603176 0.097259484 -0.06754732
000280 29 1c 24 3d 4d 34 7d bd cf a6 d5 3d 94 7c 54 bd
       0.040065918 -0.061817456 0.10432207 -0.05187662
000290 67 7e 78 3d 79 87 55 3d 7c ba 31 3c c0 3d 98 bd
       0.06066742 0.05213115 0.010847684 -0.07433653
0002a0 92 b0 e5 bc a4 3d 19 3d b9 bd ff 3c 4f 6c aa 3c
       -0.028038297 0.0374123 0.031218396 0.020803599
0002b0 d2 00 0b bd 04 8c b8 bd 4b 36 57 bd 0c 6e 65 bc
       -0.03393633 -0.09011081 -0.052542012 -0.014003288
0002c0 0f 44 60 3c 7f 77 bc 3d 85 a4 a4 3d fd ad 94 3d
       0.013688101 0.092024796 0.08039192 0.07259748
0002d0 d6 fe be 3d 11 c3 28 3d 8b 35 d9 bb 36 4a 5d bd
       0.0932595 0.041201655 -0.0066286973 -0.05402585
0002e0 c6 fb 86 3c d1 48 d0 3d 02 e1 90 3d d9 36 84 3c
       0.016477477 0.101701386 0.07074167 0.016139435
0002f0 ed e8 1e 3d ab 8b 82 3d 17 16 9a 3d ec df 71 3d
       0.038796354 0.06374296 0.075237446 0.05905144
000300 25 b7 d6 bc e3 ef 92 bd d4 27 33 3c 22 ca 66 bb
       -0.026210377 -0.07174661 0.010934789 -0.0035215695
000310 30 fc 2e 3d 7d 0e 15 3d 74 5b ae bb 74 8b b9 bc
       0.042720973 0.03639077 -0.0053209607 -0.022649504
000320 d3 57 b8 3d c2 98 0f bd 07 ef 2f 3c 02 d1 bc bc
       0.09001126 -0.03505779 0.010738141 -0.023048881
000330 5e 90 06 bc 49 38 07 3c 55 f8 c8 bc d9 33 11 3d
       -0.008213131 0.0082531655 -0.024532476 0.035449836
000340 53 50 d0 3c b4 c1 db 3d f7 87 a6 bc a2 e6 ec bb
       0.025428927 0.10730305 -0.020328505 -0.007229642
000350 bd 92 44 3d 19 ca 88 3d fe 33 2f 3d c5 b8 42 3d
       0.047991503 0.06679172 0.042774193 0.04753949
000360 d7 5a d7 3d ff 0d b2 3d 0f 31 b4 3c e3 1d b6 bc
       0.10515373 0.08694076 0.02199605 -0.022231048
000370 3f 83 e9 3b 22 c9 11 3d 91 09 62 3d 6b 81 2d bd
       0.0071262415 0.035592206 0.055184904 -0.04235975
000380 8f 14 9c bc 15 16 02 bb e7 3b 02 3d d4 9d b7 3d
       -0.019052772 -0.0019849588 0.03179541 0.0896565
000390 8c ee 15 3d b6 80 05 3c 9a 0c 07 bd ef 11 2b bc
       0.03660445 0.008148363 -0.032971002 -0.010441287
0003a0 5f 50 b2 bc e4 e0 1d bd 11 f1 76 3c 78 f7 b6 3d
       -0.02176684 -0.03854455 0.015072123 0.0893392
0003b0 7e 1e ad 3c 30 34 8a 3c 19 74 95 3d ed f4 84 3d
       0.021132704 0.016870588 0.072975345 0.064920284
0003c0 f8 6a a5 3d 52 b1 a1 3d 6a 73 05 bd f3 af 15 bd
       0.08077043 0.07895149 -0.03258077 -0.03654475
0003d0 34 b9 76 bd dc 55 ac 3d 0a 58 0d 3c d0 8b 14 3b
       -0.060235217 0.08414814 0.008626947 0.0022666343
0003e0 f6 df 51 3b 0e 0a eb 3c 5b 1b e1 bc 43 0f ca bc
       0.003202436 0.028691318 -0.027478864 -0.02466548
0003f0 78 39 9a 3d 55 ef f0 bc 89 ce 55 3d cd 2e b9 bc
       0.075304925 -0.029410997 0.05219892 -0.022605324

conv1.bias f4 [4]
000000 44 b2 0d 3d 12 eb 48 3d 28 f7 ca 3d 59 05 5a bd
       0.034593835 0.049052306 0.099104226 -0.053227756

conv2.weight f4 [8, 4, 5, 5, 5]
000000 c1 f0 31 bb ae bd 3c 3c eb ad 95 bd e4 64 2b bd
       -0.0027151557 0.011519833 -0.07308563 -0.041844264
000010 4f 34 cf bd 2c 60 22 3c d1 6b 8c 3b f5 7e bf bc
       -0.10117399 0.0099106245 0.0042853137 -0.023375968
000020 04 9c 20 bd 8a da 86 bd cc fd ab 3c e2 c4 1a bc
       -0.039211288 -0.06584652 0.020995043 -0.009446355
000030 14 57 3e 3c 01 52 50 3d cf 3f 3c 3d 29 eb 32 3d
       0.011617441 0.050859455 0.04595929 0.043681297
000040 ce 93 61 3d 6f 7f a4 3b 3a 3f 83 3d 5e 7a e1 3c
       0.0550726 0.005020074 0.06408544 0.02752417
000050 e1 7d 45 3d b5 09 5d 3d b7 54 b8 bc 9d dd 09 3c
       0.04821575 0.053964335 -0.022501333 0.008414653
000060 c2 f0 7c 3d 7b d6 c0 3c f9 ac 2e bd 63 b2 a5 bd
       0.061753042 0.023539772 -0.04264543 -0.08090665
000070 a3 6e b4 bd 75 07 92 bd 99 9b a8 bc 7f b9 18 3c
       -0.08810165 -0.071303286 -0.020582007 0.009321569
000080 87 1b 3e bd 75 c1 61 bc ce 65 a1 bd 15 dd b0 bc
       -0.04641297 -0.013779034 -0.07880746 -0.021589795
000090 09 e6 9c 3c 60 a7 8a bc 5f 88 4e 3c 95 ee cb bc
       0.019152658 -0.016925514 0.012605756 -0.024894038
0000a0 56 1a dd 3c ab bf 0f bd 50 4d 46 3c 4a 23 da 3c
       0.026990097 -0.0350949 0.012103394 0.026628155
0000b0 21 2d 96 bc 25 d9 9f bc 8f 80 c8 bc 72 21 cf 3c
       -0.018332066 -0.019512722 -0.024475364 0.025284503
0000c0 d5 12 23 3d 78 82 8e 3d bd 95 2c bb 25 f4 57 bd
       0.03981288 0.06958479 -0.0026334368 -0.05272307
0000d0 fe 58 b9 bd c8 3b 0d bd b3 88 e3 bd 18 89 0a 3c
       -0.09050177 -0.03448084 -0.11110058 0.008455537
0000e0 fd 1a 06 3c d1 f1 e6 bc 2f 22 ab bd 10 7a b2 bd
       0.008185145 -0.028191479 -0.083561294 -0.08714688
0000f0 91 0a 2f 3d 39 89 df bb 2b e2 3c bc 66 76 28 bd
       0.042734686 -0.006821778 -0.011528532 -0.04112854
000100 d0 ec 4f 39 b3 89 94 bc b1 e5 21 bd a4 96 27 bd
       0.00019829278 -0.018132066 -0.03952569 -0.040915146
000110 85 f5 4b 3b 95 2b 68 3b 64 f6 1b 3d 4a 0f 79 3c
       0.0031121683 0.0035426368 0.038076773 0.015201399
000120 c7 c5 e8 bc 23 29 a3 bc 58 36 3e bc e5 68 f8 3c
       -0.02841462 -0.019917076 -0.011609636 0.030323455
000130 32 0f cb bc b2 93 81 bd 81 9c c1 bd 5c c5 3c bd
       -0.02478752 -0.06326999 -0.09453679 -0.046086654
000140 b0 12 6e 3d 94 19 e1 bb 05 76 75 bc 37 5b 45 bd
       0.05812329 -0.006869504 -0.014981751 -0.048182692
000150 83 6c 13 bd d9 e6 00 3d f7 95 29 bb 2e 8a a9 bb
       -0.035992157 0.031470153 -0.002587674 -0.005173943
000160 9d f9 50 bc 7d 64 d3 bb 11 4f 13 bd 48 cd 47 bc
       -0.012754825 -0.006451188 -0.035964075 -0.012194939
000170 07 86 10 bb ce f8 18 3d c6 1b 05 3d f7 1c 05 3d
       -0.0022052543 0.037346654 0.03249719 0.032498326
000180 d4 d3 0a bb 85 0b b1 3b 4c e2 9c bc 18 dd 0d 3c
       -0.0021183388 0.0054029846 -0.019150876 0.00865867
000190 2d d8 ba 39 03 b5 c5 3c e9 d6 c1 bc 54 4b d3 bd
       0.00035637748 0.024134165 -0.023662047 -0.10317102
0001a0 fd 63 c6 bd 4f 84 c0 bc 40 8a 28 bd d2 40 89 bd
       -0.0968704 -0.02350059 -0.04114747 -0.067018166
0001b0 c1 48 f1 bc ea b7 77 bb 1c 10 05 3d 0e a2 56 3c
       -0.029453637 -0.003779883 0.032486066 0.01310016
0001c0 bd 62 62 3c 63 9b 09 bc 02 d9 37 3b 58 cd 56 3c
       0.013817486 -0.0083988635 0.002805293 0.013110481
0001d0 1a 5b f9 bb 20 a4 f9 3b 4e ab 44 bd 35 23 44 3c
       -0.007609737 0.007618442 -0.04801493 0.011971285
0001e0 eb 4d af 3c 3d 16 ef 3c 6a 9a 1d bd f8 3c 9c 3c
       0.021399459 0.029185409 -0.03847734 0.01907204
0001f0 24 35 0f 3d 71 1b 10 3d 05 8f fe bc 43 26 f9 bc
       0.03496279 0.03518242 -0.031074056 -0.030413752
000200 ed 69 1b 3c 9a 5f 35 3d 57 68 fc 3c 98 95 db 3c
       0.009485704 0.044280626 0.030811472 0.02680473
000210 99 b2 c2 3b ed 6b 29 bd f9 81 3a bd 7a e3 9c bc
       0.0059417007 -0.04136269 -0.045534108 -0.019151438
000220 d5 f3 aa bb 01 22 51 3c 72 dc c0 bc 50 6a 1b bd
       -0.0052170553 0.012764455 -0.023542617 -0.037943184
000230 81 3e 97 3c f9 0f a0 3c fd d1 cf bb 0d a4 83 bc
       0.018462421 0.019538866 -0.006342171 -0.016069436
000240 b7 0f 7a bc 48 eb 7f 3a 17 1a 3a bd 84 a6 35 bd
       -0.015262536 0.00097625377 -0.045435037 -0.044348255
000250 41 c2 4e 3c 12 26 f3 bc 1e ad 46 3d 93 45 4b bc
       0.012619556 -0.02968124 0.04850494 -0.0124067245
000260 87 ce 2c 3d 40 82 09 bd 75 a4 8d 3c d9 92 16 3d
       0.042189147 -0.03357148 0.017290333 0.03676114
000270 77 d7 83 3c e3 50 2a bc 81 3e e8 bc bb 30 de bc
       0.016093953 -0.010395261 -0.028350117 -0.027122846
000280 f6 85 28 bc da 2a ec bc 7d 2c 99 3c a9 ec 88 3c
       -0.010285845 -0.028829027 0.018697971 0.01671441
000290 b4 58 d2 bc db 11 9d bc d9 b8 a4 3c 9c 83 92 3a
       -0.025677063 -0.019173553 0.020107673 0.0011178139
0002a0 41 1f 66 bc 22 9d 0a ba cf 57 86 bc 8e 94 4f bd
       -0.014045537 -0.0005287697 -0.016399292 -0.050678782
0002b0 46 64 1c bd 85 8e 86 bc b1 9f 1a 3c 92 ca 47 bc
       -0.038181566 -0.01642538 0.009437487 -0.012194293
0002c0 ed 6d d5 bb 56 dc 46 3d 87 7f 26 3d 23 92 d6 3c
       -0.0065133483 0.048549972 0.040648963 0.02619273
0002d0 e2 04 5f 3c 56 e4 18 3d ce d1 00 3c 00 64 33 3c
       0.013612004 0.037327133 0.007862521 0.010949135
0002e0 56 b6 5d bc 17 a0 8e bc 4e 83 8c 3b 99 d4 26 bd
       -0.013532242 -0.017410321 0.0042881137 -0.040730093
0002f0 c9 7d b1 3c 1f 75 9c bb ad c9 91 3c e9 82 98 3c
       0.021666424 -0.004774704 0.017796362 0.01861711
000300 7a f8 0d bd 69 7e fc bb 21 be 31 3c dc 3c c2 bc
       -0.034660794 -0.007705499 0.010848553 -0.02371066
000310 0e 9f b1 bc fb f8 50 bd a2 13 e3 bc b7 8f e2 3a
       -0.021682288 -0.051018696 -0.027719323 0.0017285262
000320 96 c2 f5 3c 5c fd 65 3d 2e 3d 53 3d 8b 43 1e 3d
       0.030000012 0.056149825 0.051572017 0.038638633
000330 34 24 ec bc dc a4 72 3d 09 16 3e bc 71 90 13 bd
       -0.028825857 0.059239253 -0.011601933 -0.036026422
000340 bd 71 bc bb e7 fb 02 bd 45 33 0e 3c 8a b3 41 3d
       -0.0057508633 -0.031978514 0.008679216 0.047290362
000350 13 7e 2c 3c 23 69 3e bd be 9d c0 bc b8 af 04 bd
       0.010528105 -0.046486985 -0.023512717 -0.03239414
000360 3b 10 ba bc bd 3b eb 3c 29 ad 06 bc 76 5a c3 bc
       -0.022712817 0.028715009 -0.008219996 -0.023846846
000370 5b 84 8f bc d3 6d d4 3c ab 41 f7 bc a4 0c 24 bd
       -0.017519167 0.025931275 -0.03018268 -0.040051118
000380 7b 7d f0 bc c3 09 e1 3c 29 64 88 bc cd 6c 24 3c
       -0.029356709 0.027470475 -0.016649323 0.010035706
000390 2c aa 10 bd 0f f7 30 3b ac ff 59 bc 2c a8 36 3d
       -0.03531854 0.0027002727 -0.013305586 0.044593975
0003a0 d2 db aa 3c 02 9e 09 3d ed b2 94 bc 53 f0 18 3c
       0.020856772 0.033597954 -0.018151725 0.0093346415
0003b0 f5 04 3e 3d 5e 69 f8 bc a6 ae 10 bb f0 8f 6e 3c
       0.046391446 -0.03032368 -0.0022076755 0.014560685
0003c0 a5 00 3d 3c 29 d2 a5 3b af d9 1c bd 8a 12 b2 bb
       0.011535798 0.0050604534 -0.038293537 -0.005434339
0003d0 59 96 b7 bc e8 43 20 3c 69 c8 44 bd 7b fd c4 3a
       -0.022410559 0.009781815 -0.04804269 0.0015029156
0003e0 89 68 05 bd 51 7a 67 bd 70 4b bd 3d d1 69 a4 3d
       -0.032570396 -0.056513134 0.09242904 0.080279954
0003f0 dd da 41 bc 8e ca 05 bd fa a2 f3 3c 39 06 48 3d
       -0.011831966 -0.032663874 0.0297408 0.04883406

conv2.bias f4 [8]
000000 a5 e4 ae 3c 21 cf 8f 3c 31 6e ad bb c4 64 80 bc
       0.02134926 0.017554821 -0.005292677 -0.015673049
000010 1d 97 b7 3c 8b 57 e8 bb 59 78 1e bc 08 4d 89 bb
       0.022410924 -0.007090514 -0.009672248 -0.004190091

conv3.weight f4 [16, 8, 3, 3, 3]
000000 2e 32 37 bd 32 21 59 bc 2b 1d fd ba 45 b3 92 bc
       -0.04472559 -0.013252543 -0.0019311061 -0.017907748
000010 c1 14 fd 37 b1 6b 32 bd b0 ba 37 bd 71 c6 82 ba
       3.0169615e-05 -0.043559734 -0.044855773 -0.0009977353
000020 76 10 5d bd 8e 9f 1c bd 2f d3 3c 3d 98 cc 50 bc
       -0.053970776 -0.0382381 0.046099838 -0.012744091
000030 84 ae 1e 3d 37 d2 b4 bd 34 77 e8 bc 46 21 28 bd
       0.03874065 -0.08829158 -0.028377153 -0.041047357
000040 00 8d 2b bb f1 db d6 bc 97 ca 32 bc c9 5b a0 bd
       -0.0026176572 -0.026227923 -0.010912559 -0.07830007
000050 cc 1e 8b bd a5 d8 69 3c a0 f9 48 bd fc 70 bd bd
       -0.067929834 0.0142728435 -0.049066186 -0.09250066
000060 05 d2 d3 bc c5 04 01 3d f7 67 85 bd 0f c2 db 3c
       -0.025856981 0.03149869 -0.0651397 0.026825933
000070 5a b5 d6 bd 52 00 7d bd c0 18 89 bd db 3f 80 bd
       -0.10483809 -0.061767884 -0.06694174 -0.062621795
000080 b6 15 af 3b a4 c1 6e bd 13 0f 5c bd 4e 4b 47 bd
       0.0053431643 -0.05829014 -0.053725313 -0.0486558
000090 d6 1c c7 3b 2b 26 ea bb e6 c2 40 bd 48 8a 81 bd
       0.0060764356 -0.0071456633 -0.04706087 -0.06325203
0000a0 3d 41 b7 3b 23 2d 85 bd 79 c3 3b bb bf 8c fe 3b
       0.005592494 -0.0650275 -0.0028650446 0.007768243
0000b0 4e fa 1e bd b2 4a 76 3b d9 9d a9 bd d8 02 ba bc
       -0.038812928 0.0037581143 -0.0828206 -0.022706434
0000c0 b7 2b 94 bd a7 f1 a8 3c 54 bc 3b bd 04 98 98 bd
       -0.072349004 0.020623041 -0.0458339 -0.0745087
0000d0 e2 82 38 bc ae f8 9a 3d 13 6d fe bc 9e a9 6f 3c
       -0.011261674 0.07566963 -0.03105787 0.014627842
0000e0 79 b3 46 3c 49 00 56 bd 82 7f 1c bd 3a 54 71 bc
       0.012127751 -0.052246366 -0.03820754 -0.014729554
0000f0 cb 47 07 3d a6 a2 67 3d 5c b6 b8 3c 4a 03 2b 3c
       0.03302745 0.056551598 0.022547893 0.010437796
000100 08 14 64 3d a9 bc 59 bd db bd 8b 3c bd cd 06 3d
       0.055683166 -0.053158436 0.017058304 0.03291105
000110 18 72 92 bd a3 eb d2 3c a6 92 75 3d 6d 31 8d bd
       -0.07150668 0.025747126 0.059954308 -0.06894193
000120 da e2 d2 bb 0b 76 18 bd 88 fd 15 bc 0b 7e 7d 3d
       -0.006435734 -0.03722195 -0.009154685 0.061887782
000130 60 da a9 3b 72 90 a0 b9 8c 73 87 3d a1 fd cf 3c
       0.005183503 -0.00030625198 0.06613836 0.025389494
000140 cc 97 40 3c dd 44 fb 3c 86 db 6e 3d 12 15 d3 bc
       0.011754941 0.030672485 0.058314823 -0.025766883
000150 2c 5c 5d 3d da c6 36 bd 2d ba 1a bd 03 6c 92 3c
       0.05404298 -0.044623233 -0.037775207 0.01787377
000160 f5 fe 24 3c da e0 92 3c 5c ae b2 bb dc d6 a4 3c
       0.010070552 0.017929483 -0.005452914 0.020121984
000170 9a db 5c 3d f8 c2 10 bc 17 8e c3 3c 52 5a 43 bd
       0.053920366 -0.008835547 0.023871465 -0.047693558
000180 d9 58 02 3d f1 84 1c 3d 3b 7e 6f 3b 7d ca 12 3c
       0.031823013 0.03821272 0.0036543745 0.00895941
000190 8d ae f3 3b 03 64 bf bb 3b 8f 8a 3c eb 6d 1b 3c
       0.0074365796 -0.0058407797 0.016914 0.009486656
0001a0 bf 42 70 3a 2a 57 81 3b 47 57 95 3d 4f 40 42 3d
       0.00091652194 0.0039471583 0.072920375 0.04742461
0001b0 e6 13 96 3b 17 b8 8a bd 9a 06 96 3c 43 fe 0c bd
       0.004580009 -0.067733936 0.018313695 -0.03442217
0001c0 9f c7 00 3d f8 b5 ed bc 82 74 ca 3c 07 c6 69 bb
       0.031440374 -0.029017434 0.024713758 -0.0035671012
0001d0 4d 7f 98 b9 3d fb 6a 3d 0e 22 7e bd aa 5c 22 bd
       -0.00029086546 0.057368506 -0.062044196 -0.039639153
0001e0 ae 97 4e bc 3d 58 6f bd 4e ff e7 bc e9 5e e2 bc
       -0.012609405 -0.05843376 -0.028319981 -0.027633147
0001f0 89 c9 68 3d 62 56 99 bd 18 ce f6 bc 45 65 61 bd
       0.056832824 -0.07487179 -0.03012757 -0.05502822
000200 28 0e 9d bd 3b 35 2b bc 10 e2 64 3c 3d 9f b3 bd
       -0.07668716 -0.010449703 0.013969913 -0.08770607
000210 9e ba 63 bd 77 01 aa bc 8b e8 67 bd 8c f0 e4 3c
       -0.055597894 -0.020752652 -0.056618255 0.027946733
000220 2d 5d 48 bd 88 cf cf bc b5 d6 76 3b fb 89 27 3c
       -0.048916984 -0.025367513 0.0037664596 0.010225768
000230 be c9 e1 bb e5 ee 32 3d 6e 8e 58 bd 19 5e 4d 3d
       -0.0068905046 0.04368486 -0.052870207 0.050138567
000240 83 6a 96 3d 31 bf 9a bd 54 86 9d bd 06 89 ea bc
       0.07344534 -0.07555998 -0.07691637 -0.028629791
000250 e4 d8 f1 3c bc ee 41 bd cf 9b 2c bd 36 41 06 bd
       0.029522367 -0.047346815 -0.04214078 -0.032777034
000260 f3 c7 10 3c 12 bf 86 3c aa 0c 4c bc 6b 42 2f 3d
       0.008836734 0.016448531 -0.012454191 0.04278795
000270 39 0a 27 3d e7 24 9b 3c 8e 86 b6 bd e2 36 51 bd
       0.040781233 0.018938495 -0.08912383 -0.05107773
000280 f4 ac 3f 3d 36 d0 91 bc f7 a4 81 3d 09 99 03 3d
       0.0467958 -0.017799478 0.06330293 0.032128368
000290 2a c0 c9 3b 34 23 15 3d 4b 92 ab bc 21 89 9e 3b
       0.006156941 0.036410525 -0.020943781 0.0048381244
0002a0 10 4b a7 3d 1a d3 a4 3d 3f a5 48 bd c9 5a 56 3d
       0.08168614 0.08048077 -0.048985716 0.052332673
0002b0 99 22 49 3c bb 6f 43 bd 75 56 ee bc 2d 3b 99 bc
       0.012276315 -0.047713976 -0.02909396 -0.018704975
0002c0 87 e9 76 3d 5c 4e a9 3d 9f 9a a0 3d 08 22 ac 3d
       0.060281303 0.08266899 0.07841992 0.084049284
0002d0 d4 f3 a6 3d 40 3e 9f bc dc f1 6f bc f1 3d 1e bd
       0.08151975 -0.019438863 -0.014645066 -0.03863329
0002e0 e5 2c 46 3d b3 07 89 3d ff 38 03 bc 69 81 18 bc
       0.04838266 0.06690922 -0.008009194 -0.009308198
0002f0 ec 56 c5 3c 62 17 86 3d 11 9e 3b 3d 15 a9 3c bd
       0.0240893 0.06547429 0.04580504 -0.046059687
000300 cb 62 4e bd d8 68 b7 3b 78 df 3c bb 31 cc 5c bd
       -0.050387185 0.005597215 -0.0028819721 -0.05390567
000310 d4 35 6a 3d 69 94 60 3d ed 03 66 3d 12 9b 91 3d
       0.05718024 0.054829035 0.056156088 0.071096554
000320 6b e0 57 3d 3e 0a 23 3d df 4a 72 3d 53 52 64 3d
       0.052704256 0.03980469 0.059153434 0.055742573
000330 53 3b 77 3d 63 89 81 3d 5e bb 47 bd bd 2e 96 bc
       0.06035931 0.063250326 -0.04876267 -0.018332833
000340 7b 6a 58 3d cd 16 2b bd 7d d6 84 3b 13 e9 c6 bc
       0.052835923 -0.04176979 0.0040538893 -0.02428106
000350 a0 9f 72 3c 62 b7 58 3d d1 43 40 bd ab 05 2f bd
       0.014808565 0.052909262 -0.046939675 -0.042730015
000360 2c 94 ec 3c 5c ac bd 3c 4b 56 c2 3d c1 10 49 3d
       0.028879248 0.023153476 0.09489115 0.049088243
000370 95 91 5d bd 74 9a a6 bc d9 78 c5 bc cc 7b 6a bd
       -0.054093916 -0.02033732 -0.024105476 -0.05724697
000380 53 44 2c bd 18 4a 47 bc e3 b5 46 3d 9b c9 4b 3d
       -0.042057347 -0.012163661 0.048513304 0.049752813
000390 e1 72 aa bc a8 54 3e bd 87 17 4e 3d a8 25 9a 3c
       -0.020806732 -0.046467453 0.050315406 0.018816784
0003a0 ed fb 5d 3d 78 91 9b bc 6e 6e 58 3c a3 aa 23 3c
       0.054195333 -0.018990263 0.013209922 0.009989413
0003b0 73 4e e7 3c 8a b6 4c ba d3 cc 26 3d 8d 28 04 3d
       0.02823565 -0.0007809183 0.04072268 0.032265235
0003c0 56 c4 94 3b 8a 1b 6f 3d 50 ba d4 bc 65 69 39 bd
       0.0045400066 0.058375873 -0.025967747 -0.045266528
0003d0 11 27 90 3d dc e5 3e bd 97 82 d5 bc 48 3a 5c 3d
       0.07038701 -0.04660593 -0.026063247 0.05376652
0003e0 7d 5b cf bc 24 ff 36 3d ad 36 92 3d ba 3b 12 3d
       -0.02531218 0.044676915 0.07139335 0.03570149
0003f0 a0 7a 44 3d 1b a3 67 3c ce 57 84 3d a6 33 4c bd
       0.047968507 0.0141380085 0.0646206 -0.049853943

conv3.bias f4 [16]
000000 97 1a e3 bc 97 ba af bc 2f 6f 31 bc cf 98 6a bd
       -0.02772264 -0.021451278 -0.010829731 -0.057274636
000010 93 23 c5 3c 89 6c dd bb 94 91 86 bc 0c 64 a9 3c
       0.024064815 -0.006757323 -0.016426839 0.020677589
000020 fb 6b 56 bc 67 6b 02 3d 78 32 c3 bc 4c fc b8 bb
       -0.013087268 0.031840708 -0.023827776 -0.0056453105
000030 a2 7d 47 bd a1 02 a0 3c b0 c7 ec 3c cd 59 91 3d
       -0.048703797 0.019532504 0.028903812 0.07097206

conv4.weight f4 [32, 16, 3, 3, 3]
000000 b5 fb 0c bc 44 be 15 bd b6 58 1e bc e3 e4 69 bd
       -0.0086049335 -0.036558405 -0.009664705 -0.05710305
000010 81 50 f6 38 6d 23 54 3c 7a 20 fe 3c f0 e0 12 bd
       0.00011745189 0.012947899 0.031021345 -0.03585905
000020 f7 8f bd 3b 07 10 ba bc 70 1e c5 3c f0 48 ee 3c
       0.005784984 -0.02271272 0.024062365 0.029087514
000030 7b e4 27 bd 0a cc d8 3c 1f 3d a0 bc 50 c5 12 bd
       -0.04098938 0.02646448 -0.019560395 -0.035832703
000040 ae 85 6f bc 83 64 1f bc a7 4f 0a bb 47 8a 68 3c
       -0.014619274 -0.009728554 -0.0021104605 0.014193124
000050 e2 15 60 bd 5b c7 b2 3c 9a c9 62 3c 26 f9 42 bc
       -0.05470837 0.021823576 0.013842011 -0.011900222
000060 41 7c 55 3c cd 34 60 bd ba 4c c3 3c 81 41 ca bc
       0.013030113 -0.054737855 0.023840297 -0.024689438
000070 8f ad 24 3d 5b e3 ad bc 88 23 45 bc 8c 10 53 bd
       0.04020458 -0.021226576 -0.012032397 -0.051529452
000080 53 fd 62 3b 5b 7f 08 bd 64 87 95 bb 8a 58 1a bd
       0.0034635856 -0.03332458 -0.004563259 -0.037682094
000090 88 aa 1c bc 3c ce a4 3b a0 5b 1b 3c 58 87 f6 3c
       -0.009562142 0.005029468 0.009482294 0.030093834
0000a0 3b 7c 74 bd 94 8c 9a 3c 17 c4 91 3c c5 88 c2 3c
       -0.059688788 0.018865861 0.017793698 0.023746857
0000b0 8e 1f 3f bd 45 3e 96 b9 1e 70 c3 3c ea f7 30 bc
       -0.046660952 -0.00028656624 0.023857173 -0.010801295
0000c0 8e 7b 51 bd 4c 3f b5 3b 9f f3 74 bd 10 8e 1f bd
       -0.05114322 0.005531227 -0.059802648 -0.03895384
0000d0 4d 53 c8 3c 85 fc ff 3c 06 fa e3 3c da 7b e7 bc
       0.024453783 0.03124834 0.027829181 -0.0282573
0000e0 c0 60 32 3d 31 f1 af bc 0c 0f f9 bc 7a f6 1b 3d
       0.0435493 -0.021477314 -0.030402683 0.038076855
0000f0 b7 2d c0 bc 08 83 19 bc 04 d3 c4 bc 89 2e f0 3c
       -0.023459299 -0.009369619 -0.024026401 0.029319065
000100 93 b0 7e 3c 5b d4 13 bd c9 17 47 bd 16 ae d5 3c
       0.015545028 -0.03609119 -0.048606668 0.026083987
000110 bc 5e 42 3d 07 09 bb 3c 96 15 2d 3d 81 0a 60 3d
       0.047453627 0.022831453 0.042256914 0.054697517
000120 1e cb 1f bd 04 23 00 3d 16 ab 35 3d 3e c1 57 3a
       -0.039012067 0.031283394 0.044352613 0.00082303945
000130 e3 04 28 3c 20 9d f6 3c 50 41 3a bd e8 66 1f bc
       0.010255071 0.03010422 -0.045472443 -0.009729125
000140 e6 7c 93 bb b1 9c da 3c 66 35 07 3c 98 b8 17 3d
       -0.004500973 0.026686044 0.008252477 0.037041277
000150 be 38 41 bd 87 88 1e 3d c0 f1 d8 3b 66 69 3e bc
       -0.047173254 0.03870442 0.0066206157 -0.011621809
000160 ce a4 d3 bc bb 89 a2 bb b6 9a 9d bc 0b f9 f6 3c
       -0.025835421 -0.0049602664 -0.019238811 0.03014805
000170 38 66 07 3d 00 ac b4 bc 2f f5 e1 bb 22 ff 63 3c
       0.033056468 -0.022054672 -0.0068956832 0.013915809
000180 60 4e c3 bc bd cc 00 bd 25 eb 05 bd 12 43 11 3d
       -0.023841083 -0.031445254 -0.032694954 0.035464354
000190 e1 f8 03 3d ef b2 26 3c ae 1f bb bc cc 1f 59 3d
       0.03221977 0.010174497 -0.022842254 0.05300884
0001a0 0c 10 67 bd f3 a3 05 3d e9 a9 3c 3c 41 3c 1d bd
       -0.056411788 0.032627057 0.011515119 -0.03838754
0001b0 36 85 5b 3c 73 54 a8 bc 21 55 21 3d e7 28 d3 3c
       0.013398459 -0.020548081 0.039387826 0.02577634
0001c0 89 2e 11 bc 4a 20 0c 3c c9 a6 74 bc e5 35 db 3c
       -0.0088611925 0.00855262 -0.014932343 0.026759097
0001d0 45 bb f5 bc d8 59 aa bc 6d 35 5c bd 25 24 38 bd
       -0.029996524 -0.020794794 -0.05376189 -0.044956345
0001e0 b7 94 23 bd 9a 74 b0 3c b4 75 9e bc 81 d7 8e 3c
       -0.039936747 0.021539975 -0.019343235 0.017436745
0001f0 e2 4c be ba 23 ff b1 bc 1f 8f c9 3c c9 6f 1b bd
       -0.0014518762 -0.021728104 0.024604378 -0.037948404
000200 e9 d3 0f 3d a2 ce a8 3c af 81 98 3c b9 e2 5f bd
       0.035114203 0.020606343 0.018616525 -0.05465958
000210 61 38 37 bc 85 fb 06 3d 73 13 3e bd 73 7f 30 bd
       -0.011182875 0.03295471 -0.046405267 -0.043090295
000220 37 d6 d5 3c fa 35 12 3d 5a 3d 0c 3d d2 db a4 3c
       0.026103122 0.035696007 0.034238197 0.02012435
000230 9b 71 a8 bc 0f 20 63 3c db 8e 28 3c aa bb 08 bd
       -0.020561984 0.013862624 0.010287966 -0.033382095
000240 48 9d e3 bc 31 0f 8b 3c cc 7d 88 3b 62 94 0b bc
       -0.027784958 0.016975017 0.004165387 -0.008519264
000250 f6 2e 9b 3b 3e e0 b0 bb 7e 59 36 bd b1 74 ab bc
       0.004735823 -0.0053978255 -0.04451894 -0.020929666
000260 70 d1 13 bd a3 22 4c bd bb 5b 4c bd 40 45 71 bd
       -0.036088407 -0.04983772 -0.04989217 -0.058903933
000270 73 c5 a0 3c 9c c7 a2 bc 69 67 10 bd 9b 4a 43 bd
       0.019625401 -0.019870572 -0.03525487 -0.04767857
000280 5c 51 94 3b fe 29 9b ba a1 c0 f2 bc 3d 7d 89 3a
       0.0045263004 -0.0011838076 -0.029632868 0.0010489594
000290 23 ea 5c 3c db e8 c2 3c 77 28 83 3c be 19 27 3d
       0.013483557 0.023792675 0.016010506 0.040796034
0002a0 4d a0 1e 3d bd fd 86 3b 0b c1 11 3d a8 f9 1e bd
       0.038727093 0.0041196034 0.03558449 -0.03881231
0002b0 14 be 41 3d 52 30 2f 3d fc 55 08 3d d3 e3 b3 3c
       0.047300413 0.04277069 0.033285126 0.021959221
0002c0 6b ee fc bc 4f a9 27 bd 4f c4 e8 bc 1a 5f e9 bc
       -0.030875405 -0.04093295 -0.02841392 -0.02848773
0002d0 3f 97 b5 ba 2c bb 0b 3d a2 51 2e 3d a7 4f 49 3a
       -0.0013854279 0.034114048 0.04255832 0.00076794106
0002e0 e5 ab 10 3c fa 54 32 bd 20 e7 87 3b a0 13 b0 bb
       0.008830045 -0.04353807 0.0041474253 -0.005373433
0002f0 92 b3 85 3c 24 8b 1b bd d5 b7 a8 bc 8c 1a 04 3d
       0.016320977 -0.03797449 -0.02059547 0.03225188
000300 58 a5 99 3c f6 03 ee 3c a3 c7 35 3d 66 ab 4c 3c
       0.0187556 0.029054623 0.04437984 0.012492036
000310 98 99 00 3c 6a 70 29 3d df ad 3a bc 25 1c 1f bd
       0.00784912 0.041366972 -0.011393993 -0.0388452
000320 13 28 4c bc 83 86 09 3c f4 a0 1d bd 6f 7f fb 3c
       -0.012460726 0.0083938865 -0.038483575 0.030700414
000330 5a f3 4a bd a5 37 33 bd 44 2e 31 3d eb cd 33 bd
       -0.049548484 -0.04375424 0.043257013 -0.04389755
000340 9c 37 00 3c ca 06 5b bd 50 b0 e4 bc 97 d0 e5 bc
       0.007825758 -0.05347327 -0.027916104 -0.028053565
000350 82 4b 1c b9 25 e5 1d bd c4 0c 58 bd 9a fa 41 bd
       -0.00014905448 -0.038548607 -0.05274655 -0.047358133
000360 32 9f db 3b d4 9c c2 ba eb e5 09 3a e6 95 11 bd
       0.006702327 -0.0014847764 0.00052603957 -0.035543345
000370 1b 92 4a ba bc 27 7d 3c 65 7b 83 bc 49 0c ca 3c
       -0.000772746 0.015451368 -0.01605005 0.024664061
000380 13 b9 fd 3c 5c 5e 8c 3c d9 71 2a bd 06 a5 28 bd
       0.03097204 0.017134838 -0.04161248 -0.041173004
000390 63 a7 05 3d 6e a0 65 3c 88 dc bf bc 61 68 a9 bc
       0.032630336 0.0140153 -0.023420587 -0.020679655
0003a0 7c e7 df 3c e6 99 0a 3d 75 d2 18 bd 73 56 ec bc
       0.02733206 0.033838175 -0.037310082 -0.028849816
0003b0 76 dd 06 3d cc f1 5a bd 0c 66 95 3a 8c a5 ba bc
       0.032926045 -0.05345325 0.001139821 -0.022784017
0003c0 76 16 f4 bc 48 bf 92 3c 89 d7 a0 39 68 15 e0 3b
       -0.029795866 0.017913476 0.00030678164 0.0068384893
0003d0 71 66 75 3c 86 e8 5a 3c 52 44 0c bd 8a 66 27 3d
       0.014978037 0.013361102 -0.034244843 0.040869273
0003e0 d2 1d 1c 3c e9 88 2a bd cd a8 10 3c f3 c9 0f bd
       0.009528594 -0.041634474 0.008829308 -0.035104703
0003f0 74 e5 0d 3d ac da 9b 3b 90 6d ca 3c 5f a0 6d bc
       0.03464265 0.0047562923 0.024710447 -0.0145035675

conv4.bias f4 [32]
000000 6e 5b 18 bd aa b5 4f bd 32 83 24 bd 1d 6c d8 3c
       -0.03719657 -0.050710358 -0.04016418 0.02641874
000010 94 a9 78 bb 91 d6 bf bb dd b7 d1 3c 54 ec 6d bd
       -0.0037942873 -0.0058544357 0.025600368 -0.05808671
000020 85 65 1b 3d cf 48 10 bd 8e 3a b8 3c 90 56 30 bd
       0.037938613 -0.035225686 0.022488859 -0.043051302
000030 2d 59 ea 3c cf a1 4f ba 39 ed 2a bb 80 ef 4a bd
       0.028606975 -0.00079205347 -0.0026081337 -0.04954481
000040 4a 4d 82 3d 88 02 93 3c 12 73 aa bc 25 69 9c 3c
       0.06362398 0.017945543 -0.020806823 0.019093106
000050 37 1d b4 bb aa 62 12 bd f6 38 15 bb cf 2a 9a bb
       -0.0054966467 -0.035738625 -0.0022769547 -0.00470481
000060 7c 56 e4 3c 8a e8 df bc 3a 7b 76 3c 2a 91 4b bb
       0.02787327 -0.027332563 0.015044028 -0.0031061866
000070 02 07 de 3b c6 f0 7a 3d 56 f8 67 3d 65 ef 2a bd
       0.0067757377 0.061264776 0.056633316 -0.04173221

conv5.weight f4 [64, 32, 2, 2, 2]
000000 64 59 1f bd 43 29 44 bd 2e 47 9a 3a 4d 2f 2a 3c
       -0.03890361 -0.047890913 0.0011770481 0.010387254
000010 46 8f 56 3d 84 6c 1c bd d3 f8 b3 3c 00 c5 75 3d
       0.05238273 -0.038189426 0.021969235 0.060002327
000020 54 6f 9a bc 74 ff 24 3d 28 cb ec 3c 6e d7 2d 3d
       -0.018851914 0.04028268 0.028905466 0.042441778
000030 2f b9 f7 bb 79 86 2a 3d 20 a0 6c bd 1a b9 f1 3c
       -0.0075599174 0.04163215 -0.057769895 0.029507209
000040 cc 64 4f bc aa 14 4e bd 31 49 86 bd c8 2b 18 3d
       -0.012658309 -0.050312676 -0.06556929 0.037151128
000050 b9 e7 62 bd 89 f9 d0 3b 91 0c 61 bd 4c db 04 bd
       -0.05539677 0.006377403 -0.054943625 -0.0324357
000060 77 c5 8b 3d 82 5e 20 3d f8 f7 25 3d d0 51 7a 3c
       0.06824773 0.03915263 0.040519685 0.015278295
000070 ce 6c 30 3d 1c 1e fc 3c f8 ef b6 3c dd 15 34 3d
       0.043072514 0.030776076 0.022331223 0.043966163
000080 ce 73 de 3c 58 42 cf bc 21 ac 77 bb 20 74 36 3d
       0.02715483 -0.02530019 -0.0037791806 0.04454434
000090 ab bb 42 bd 9c 0b cf 3c 70 e4 d7 3c 55 69 f3 3c
       -0.047542255 0.02527409 0.026354045 0.029713312
0000a0 95 02 79 bd 5a 31 a0 bc cd 85 a1 3d 0d b0 47 bd
       -0.060793478 -0.019554783 0.078868486 -0.04875188
0000b0 84 a8 a9 3c 59 8d 4b bd 1f 67 55 3d 79 9b 2a bd
       0.020710237 -0.049695347 0.052100297 -0.041652177
0000c0 4b 6d 93 3d e8 78 96 3d 5f c5 3c 3d f2 0a 13 3d
       0.0719858 0.0734728 0.046086665 0.03589911
0000d0 7e dc 1c bc 5f 0a 53 3b 9c 90 04 bd 8f f8 39 3c
       -0.009574054 0.0032202227 -0.032364473 0.011350765
0000e0 74 aa 94 3c 3e c0 66 bd 54 62 68 bd d8 1b 56 bd
       0.018147685 -0.05633568 -0.056734398 -0.052272648
0000f0 6a 0d 3a 3d c6 b1 46 bd 84 68 d7 bc 5a ea 78 3d
       0.04542295 -0.04850938 -0.026294954 0.06077037
000100 0b 2a 3a bd 5b 54 3a bc 04 50 a5 3d c2 65 a2 3c
       -0.04545025 -0.011372651 0.080719024 0.019823913
000110 44 17 ef bb aa 99 56 3b 91 18 0a 3d 36 7e 4e 3c
       -0.0072964747 0.00327454 0.033714835 0.012603333
000120 24 63 c2 3c c8 08 89 bc ac d2 12 3d c6 58 4a 3d
       0.023728915 -0.01672782 0.035845444 0.049401067
000130 31 5e fa 3c db 48 56 bd e5 26 ea 3c b0 cd 6a 3d
       0.030562492 -0.052315574 0.028583 0.057325065
000140 d0 e9 82 3d 68 c2 0e 3a 0f bc dd ba 9a 16 80 bc
       0.063922524 0.0005445839 -0.0016917008 -0.015635777
000150 85 80 8b 3c 61 41 d5 bc 5c 02 8d 3d ea 55 e4 3c
       0.017029056 -0.026032152 0.06885216 0.027872998
000160 dc 03 28 bd 49 9c 83 bd cb 64 6c 3d 1f 48 3f 3d
       -0.041019306 -0.064262934 0.05771331 0.04669964
000170 b8 e0 17 3d 7a c0 4c bd 0d 76 4d 3d a7 22 74 3d
       0.037079543 -0.049988247 0.05016141 0.05960336
000180 03 a0 89 bb 92 83 94 3d e1 f1 54 3c 6f a0 e6 3c
       -0.004199983 0.072516575 0.012997122 0.028152673
000190 84 8a 47 3d e3 d4 b6 bc 5a b0 28 3d 29 a0 93 3c
       0.048716083 -0.02231831 0.041183807 0.018020706
0001a0 7c f9 97 bd 98 c3 89 bd 2c a2 89 bd a7 54 03 3c
       -0.07420632 -0.0672676 -0.06720385 0.008015788
0001b0 50 0c 02 3d 6c d7 5a bd 1e c8 69 3c f3 ab 6c 3d
       0.031750023 -0.0534281 0.014268903 0.05778117
0001c0 ad d5 d2 bc d6 7b 20 3d c6 5f 97 bc a7 3a 22 bc
       -0.025736654 0.0391806 -0.018478286 -0.009901679
0001d0 5c 7b 65 3c 6d 5b e7 bb fb b3 8c bc 9d 45 06 bc
       0.014006462 -0.0070604593 -0.017175665 -0.008195308
0001e0 22 40 de bb 76 05 44 3d 31 f6 69 3d 3a 72 23 3c
       -0.0067825476 0.04785677 0.057119552 0.009975964
0001f0 5f 55 97 bd 7a 8e 3a bc a0 d6 81 bc 22 60 a4 3b
       -0.0738933 -0.011386508 -0.015849411 0.0050163427
000200 c2 97 64 3d 5c bf cd 3c 5b 50 5d 3d 92 e4 a1 3d
       0.05580879 0.025115661 0.05403171 0.079049245
000210 b4 51 a1 3c 3d 9e bb 3b 76 75 b2 bc ec 78 1e 3c
       0.01969228 0.0057256506 -0.021784525 0.009672385
000220 f2 3a 81 3b c3 03 8c 3c b1 79 8e 3c 50 bb 64 3d
       0.0039437944 0.017091637 0.017392011 0.055842698
000230 29 78 8b bd 9a 78 06 3d 98 3d 2c 3d 39 e4 0d bb
       -0.06810028 0.03282986 0.042050928 -0.0021650924
000240 30 13 72 bc 1c f2 3d 3c 18 5a 01 3b e1 b4 4b bc
       -0.0147750825 0.011593368 0.0019737538 -0.012433262
000250 dc cc 80 3d f3 c3 39 bd 67 e8 e5 bc 04 e2 05 3c
       0.06289074 -0.045352887 -0.02806492 0.008171562
000260 af e8 76 3d 05 03 a9 3d 0c 59 e7 3b d3 26 c4 3b
       0.060280498 0.08252529 0.0070601758 0.0059860735
000270 9a 1b 33 bc 6a 8e 9c 3d 01 b4 d8 3c 18 d8 0e 3d
       -0.010931874 0.07644351 0.02645302 0.03487405
000280 90 d1 56 b9 5d bd 80 bd 78 8a 96 3c 76 21 d7 3b
       -0.00020486698 -0.06286118 0.018376574 0.006565268
000290 92 63 16 3d 84 44 f8 bb a0 77 19 3d 69 f4 b6 bc
       0.03671605 -0.007576527 0.0374676 -0.02233334
0002a0 18 d0 0d bc 58 b9 64 bd a6 5b 62 3d be 00 0c 3d
       -0.00865557 -0.05584082 0.055263184 0.034180395
0002b0 68 8f 4c bc 0c 7c 6a bd ee 83 88 bc 7c ee 1b 3d
       -0.012485363 -0.057247207 -0.016664471 0.038069233
0002c0 9e 1b 58 bd 1e 02 dc bc 7f a2 8e bd 5c 00 22 bd
       -0.052760713 -0.026856478 -0.069645874 -0.039551124
0002d0 ca 18 6b 3b bd 2b 19 bd b6 29 13 bd c4 8b 25 3d
       0.003587293 -0.037395228 -0.03592845 0.040416494
0002e0 df b7 57 3a 51 0f 8d bb 27 3e 35 bc 1a f5 b4 3b
       0.0008228998 -0.0043048044 -0.011062182 0.0055223824
0002f0 f4 d7 98 3c c4 71 6a 3c 5e f1 e4 bc 34 31 88 3d
       0.018657662 0.01430935 -0.027947124 0.0665001
000300 52 99 f4 bb 45 fb b4 bc ed fa 4b bd 2d b6 4b 3d
       -0.0074645663 -0.02209247 -0.04979985 0.049734283
000310 e9 79 19 bd c5 fc aa bc 0a bf 62 bd 1e 3f 83 ba
       -0.03746978 -0.020872483 -0.05535797 -0.0010013317
000320 3e 75 4a bc 39 42 d9 3c b2 2d 88 bd 3b 42 cf bc
       -0.012357054 0.026520835 -0.06649341 -0.025300136
000330 e2 8d 51 3d 98 aa 43 3d b4 66 93 3c 68 28 38 3d
       0.0511607 0.047770113 0.017993309 0.04496041
000340 c7 e8 e8 bc 49 aa 63 bc f6 3e 1f 3d 06 e6 82 3d
       -0.02843131 -0.01389558 0.038878404 0.0639153
000350 eb e1 1d 3d 55 48 0f 3d 6f a4 0f 3d 96 52 ef 3a
       0.03854553 0.03498109 0.035068925 0.0018258865
000360 ca fc c6 3c 09 50 60 bd c2 23 38 bd 08 5a 90 3b
       0.024290461 -0.054763827 -0.044955976 0.004405264
000370 ce 1c 92 bd 1c 33 13 bc 07 a1 a7 bc 0a ad b1 bc
       -0.071344 -0.008984353 -0.020462526 -0.021688957
000380 28 48 c1 3c 63 69 1d 3d 80 53 e4 bb 70 d8 94 bc
       0.023593977 0.038430583 -0.006967962 -0.018169612
000390 33 24 5e 3d 13 74 c3 bc 6b 83 2d 3d 36 e6 73 3d
       0.05423374 -0.02385906 0.042361658 0.059545718
0003a0 f8 77 87 3d c5 ab a9 3d 86 2d 4c 3d b6 f8 84 3d
       0.06614679 0.082847156 0.049848102 0.0649275
0003b0 ba d5 51 3d ae 11 92 3d 26 13 0f 3d a6 fa 88 3d
       0.051229216 0.071322784 0.03493037 0.066884324
0003c0 95 28 90 3d fb 1a be bc 8d c8 8c 3c fb c3 bd bc
       0.070389904 -0.023206225 0.017185474 -0.02316474
0003d0 a2 ff 32 3d b5 a5 3b bb 3c ed ae 3d ab 06 a7 3c
       0.04370082 -0.0028632705 0.085413426 0.020388922
0003e0 1c d5 c1 bc 5c 5d 19 bb 34 d7 93 3c 00 1b 10 3d
       -0.023661189 -0.0023401594 0.018046953 0.035182
0003f0 48 c4 42 3d 59 93 29 3d 0a ca 56 bd 48 eb 6b bb
       0.04755047 0.041400287 -0.052438773 -0.0035998393

conv5.bias f4 [64]
000000 bb ac 89 3c df 8e 83 3d c6 54 f4 3c 8d 59 7d 3c
       0.016805997 0.06423735 0.02982558 0.015463245
000010 19 57 13 bd b3 cb 2e 3d fc 75 2a ba ed ae 3c bb
       -0.035971735 0.04267473 -0.00065025664 -0.0028790787
000020 bf 40 88 b9 62 e8 1e 3c dc 1c 42 bb 9e ff e2 bc
       -0.0002598818 0.009698959 -0.0029619252 -0.027709778
000030 0e c2 53 3b 7c de 9a 3c 02 6c a7 3d 7b 7a 18 bc
       0.003231171 0.018904917 0.08174898 -0.009306545
000040 ff fd 13 bd ab 56 8d 3c 4a 08 9d bc 50 57 c7 bc
       -0.0361309 0.01725324 -0.019168992 -0.024333626
000050 ea 2f 13 3d 93 2d e1 bb f5 64 0b 3d 4b ea cb bc
       0.035934366 -0.006871888 0.034031827 -0.024891993
000060 5f ee 98 bd 5b e0 18 bd 96 31 30 3d 6e 49 15 bd
       -0.07467341 -0.037323337 0.04301604 -0.03644698
000070 32 c6 4f 3d 8c 44 ad 3c 14 bb 0c bd dc c6 56 3d
       0.050726123 0.02115085 -0.0343581 0.05243574
000080 58 d5 4b 3c 09 a3 62 bd 69 eb 8a bc b6 a2 98 3c
       0.012441002 -0.055331264 -0.016957955 0.018632274
000090 76 70 bb bc 27 21 84 bd f2 3c 3d bd d8 72 56 bd
       -0.022880774 -0.06451636 -0.0462007 -0.052355617
0000a0 08 4f e9 bc 14 19 2e 3d 1c ca 83 bc 47 da 45 3d
       -0.028480068 0.042504385 -0.016087584 0.04830387
0000b0 72 49 1d bd c9 29 83 bd a3 67 1a 3c d6 bc 9e bd
       -0.03840012 -0.06404454 0.009424123 -0.07750861
0000c0 bb dc ba bc 0f 6d 0d 3d c6 51 7b bd 35 72 84 bd
       -0.02281033 0.034527835 -0.061357282 -0.06467096
0000d0 2e e8 32 3d ed d4 3a 3d 6a 50 5b bd bb 59 ad 3d
       0.043678455 0.045613218 -0.053543486 0.0846438
0000e0 df 08 86 3d 7e 56 6b 3c 0e e4 bc 3c 95 ec 75 3a
       0.06544661 0.014363883 0.023057964 0.0009381262
0000f0 c5 e3 51 3d a8 2d 9b 3d 86 11 99 3c 83 a5 20 bd
       0.05124261 0.075770676 0.018685114 -0.039220344

linear1.weight f4 [128, 512]
000000 c1 e9 fa bc a6 84 0e 3d e5 7b 2d bc d3 9b f3 3c
       -0.03062904 0.034794472 -0.010588621 0.029737389
000010 8b 7f 46 bc b4 c0 e0 bc ad 53 ed bb cf e0 4b 3c
       -0.01211537 -0.027435638 -0.007242641 0.012443735
000020 70 3c 31 bd fc 22 09 3d b3 2b 5b 3c d0 ba ec 3c
       -0.04327053 0.03348063 0.013377118 0.028897673
000030 a0 74 6c bc 11 cd cd 3c ad 51 6d 3c 5e ec 40 bd
       -0.014432102 0.025122197 0.014484805 -0.047100417
000040 74 36 54 bc 64 ee ce 3c 77 0d 20 bd c9 47 1c bc
       -0.012952436 0.025260158 -0.03907534 -0.009538599
000050 0f d9 26 3c c4 1f 5d 3a a1 f6 b5 3c 14 28 b3 bb
       0.010183587 0.00084352144 0.022212328 -0.005467424
000060 fc fb 26 3d b6 85 5f 3c cc a3 d8 bb 90 07 0f bd
       0.040767655 0.013642719 -0.006611323 -0.03491932
000070 55 59 10 3c f6 01 4f bc 4c 2e 7c bc a2 bd d3 3c
       0.008810361 -0.012634745 -0.015391897 0.02584726
000080 6f 23 ff bb f3 ef dd 3b ea ee 8a 3c 79 0d 89 3c
       -0.0077862064 0.006772989 0.016959626 0.016730057
000090 69 a1 06 3d 24 8d 26 bd be c5 a0 3a 79 c5 2e 3c
       0.032868776 -0.040661946 0.0012265963 0.010667198
0000a0 bf 3f b2 3c 5b 89 2d 3c cf 7a 18 bc 9d 60 58 bd
       0.021758912 0.01059183 -0.009306624 -0.052826513
0000b0 9c 8d 54 bc de 86 9b 3c cd 3f c9 3c ca 03 9a bc
       -0.012973215 0.018985208 0.024566555 -0.018800635
0000c0 a1 75 0e 3d e3 cc e9 bc 67 21 24 bc 91 fb 3b bd
       0.03478015 -0.02854008 -0.010017729 -0.04589421
0000d0 27 78 75 ba 48 56 c6 bc 78 2d 2c bd d1 61 d7 3c
       -0.00093639124 -0.024211064 -0.04203555 0.02629176
0000e0 10 52 e1 3c 03 70 3c bd 8a 80 f7 3c 58 af b7 3c
       0.02750495 -0.04600526 0.03021266 0.022422478
0000f0 12 75 f6 3a a2 65 ac 3c f4 7e f7 ba d9 22 bb bc
       0.00188032 0.021044556 -0.001888244 -0.022843765
000100 84 23 10 3d 01 5a 8a 3b 42 c7 ee b9 a1 97 98 bc
       0.03519012 0.004222155 -0.00045543356 -0.01862699
000110 38 79 9d bb 53 c9 31 bd ed 47 dd bc 5a c3 80 bc
       -0.00480571 -0.04340489 -0.027011836 -0.01571815
000120 3c 35 01 bd 16 6f 56 bc a9 32 ed 3b c6 b0 18 3b
       -0.03154491 -0.013088008 0.007238705 0.0023298725
000130 bb c3 f1 bc ac d4 2c 3d 59 b8 bb bb c4 63 a7 3c
       -0.029512277 0.042195007 -0.005728763 0.020433314
000140 c1 4e ae 3c 76 5b 5d 3c c4 5f 62 3c 0d 63 df 3c
       0.021277787 0.0135105755 0.013816778 0.02726891
000150 52 b9 0d 3d b2 2c ba 3c 95 a8 a2 3c c0 0d 87 3b
       0.034600563 0.02272639 0.019855777 0.004121512
000160 20 46 3b 3c d3 70 18 bc 3e b5 e1 bc b1 ba b6 bc
       0.011430293 -0.009304243 -0.027552243 -0.022305818
000170 13 16 12 bd e6 20 be 3b 75 59 00 bd 87 bd 24 3d
       -0.035665583 0.0058022616 -0.031335313 0.04021981
000180 26 b3 ab bc 4a b6 89 bc 47 d5 9a bc 38 8f c1 bc
       -0.020959448 -0.016810555 -0.018900527 -0.023627862
000190 57 7f e2 3c 34 a1 94 bc 20 4d 70 3c a2 e8 76 bc
       0.027648611 -0.018143274 0.0146668255 -0.015070112
0001a0 e4 a0 f5 bb 2c 65 4a bd 90 ea 18 bd 47 2c c4 bb
       -0.0074959863 -0.04941289 -0.03733307 -0.0059867236
0001b0 85 e2 1a bd 41 60 2d bd aa 58 09 3c 25 bb 43 bd
       -0.037813682 -0.042328123 0.008382956 -0.047785897
0001c0 cf 1d 9a 3c 33 31 c6 bc 19 f5 34 bd d9 65 b6 3c
       0.018813042 -0.024193382 -0.044179056 0.022265362
0001d0 dd b9 00 bd 9b a0 15 bd 91 29 d4 bc 34 70 a8 bc
       -0.031427253 -0.03653012 -0.025898727 -0.020561315
0001e0 b3 ce a2 bc e4 48 84 3b 28 61 52 bc 01 58 e0 bc
       -0.019873952 0.0040370096 -0.012840547 -0.027385714
0001f0 54 5d 8b 3c 3a 26 b3 bb 77 b2 90 3c df 34 94 38
       0.017012276 -0.0054672034 0.017663224 7.067038e-05
000200 7f f2 a8 bc c5 17 24 3d 87 cd 78 3c d2 6b 48 3c
       -0.020623444 0.04006173 0.01518572 0.012232738
000210 58 b3 7c 3b 94 fc 1d 3d 14 05 83 3c 17 df 32 bd
       0.0038559046 0.038570955 0.015993632 -0.043669786
000220 45 d0 05 bd 89 ca 51 3d 7a 99 0f bd 78 24 6f 3c
       -0.032669324 0.051218543 -0.035058476 0.014596097
000230 26 86 2d 3c 30 ca 4e 3d 3f 8e ff 3a 24 7e 27 3c
       0.0105910655 0.05048579 0.0019497349 0.010222945
000240 15 5b c2 3b a3 70 03 bd ff 33 bf 3c 26 12 05 bc
       0.005931268 -0.03208984 0.023340223 -0.008122003
000250 58 75 2f bc 46 ad 2f bc 2f ec d5 3c 6f 15 5f bc
       -0.010709129 -0.010722464 0.026113598 -0.01361595
000260 ae e1 e5 bc 72 e1 b9 3a da d7 0d bd 86 92 f8 bc
       -0.028061714 0.0014181568 -0.03462968 -0.030343305
000270 c0 19 93 3c 31 eb ff bc 2c f1 29 bd c3 8c 30 bd
       0.017956614 -0.031240078 -0.041489765 -0.04310299
000280 b2 42 20 bd 5b a6 09 bd 68 ce 35 bd be 0c 10 bd
       -0.039126106 -0.033605915 -0.044386297 -0.035168402
000290 35 64 b5 bc 31 11 72 bc 0a 0f bb 3c 37 a4 bd 3c
       -0.022142509 -0.014774607 0.02283432 0.023149593
0002a0 f5 a7 46 3c c9 c4 26 3c 41 a8 12 bd 65 44 08 bd
       0.012125005 0.010178753 -0.03580499 -0.03326835
0002b0 3e 66 dd 3c a1 57 c1 3c b7 42 99 bc 84 40 c7 3b
       0.027026292 0.023601355 -0.01870857 0.006080689
0002c0 2e 6a 97 3b 6e 49 e7 bc 89 5d 18 bc 45 49 2c 3d
       0.004620812 -0.028233256 -0.009299644 0.042062063
0002d0 2c f3 2e 3b 52 d9 7d 3b 15 75 12 3d 2b af 88 3c
       0.0026695235 0.003873427 0.03575619 0.01668509
0002e0 0b d5 10 3d cb 00 c8 3c 00 15 6e 3c ba 88 34 bd
       0.035359424 0.02441444 0.014531374 -0.044075705
0002f0 af 0f cd 3c 4b b7 00 3d 6a cf 09 3b 3d 7b 56 3c
       0.025031893 0.0314248 0.002102817 0.013090906
000300 2f fc a4 3c 34 50 28 bd c9 53 20 3d 73 76 f9 bc
       0.020139782 -0.041092113 0.039142404 -0.030451989
000310 09 58 cc 3c 01 e8 0d 3d 14 74 2d bd 94 6e d4 3c
       0.024944322 0.034645084 -0.04234703 0.025931634
000320 71 a9 c8 3c 90 5d f1 bc 22 60 c4 bc e2 18 00 bd
       0.024494858 -0.02946356 -0.023971621 -0.03127373
000330 c7 ee 2d bd b5 86 1a 3d 91 cb ab bc 53 37 2b 3d
       -0.042464044 0.037726123 -0.020971091 0.04180081
000340 a7 5a 11 bd 9c ca 82 bb 87 7e 4a 3c 6d c0 d3 bc
       -0.035486843 -0.003991438 0.012359268 -0.025848592
000350 82 fe 0b bd 41 f0 ae 3c 8c 54 94 3b 94 2e 42 bd
       -0.034178264 0.021354796 0.0045266803 -0.0474077
000360 50 7e a6 3c 9c a2 a4 3c 75 26 bb 3c 28 5e 79 bb
       0.020323902 0.02009707 0.022845486 -0.0038050506
000370 da 7a a2 bc 70 ab af bc 17 03 15 bd 7e dc 90 3c
       -0.01983397 -0.021444052 -0.0363799 0.017683264
000380 35 94 02 3c 53 71 18 bc fd 7a fd bb 80 61 1c bd
       0.007969906 -0.009304362 -0.0077356086 -0.03817892
000390 e9 ea f4 3b c3 51 a5 bc 31 c9 82 bc ec 34 02 3d
       0.0074742925 -0.020180589 -0.015965076 0.03178875
0003a0 8c 8f e5 3b f7 98 12 3c 45 5f 54 bd 0a a5 41 bb
       0.0070056375 0.0089476025 -0.05184867 -0.0029547834
0003b0 4d 10 75 3c 63 de 38 bd a4 47 5f 3c 03 e3 ab bc
       0.0149575 -0.04513396 0.01362792 -0.020982271
0003c0 6f 97 24 bd f7 6d 2b bd 19 ba 83 bb 7c f3 a7 3c
       -0.04018348 -0.041852918 -0.0040199873 0.020501845
0003d0 bd f0 15 bc 22 19 a0 3c 7a 31 5f bc 83 6e 9f 3b
       -0.009151635 0.019543234 -0.013622636 0.004865469
0003e0 4f d0 19 bd 1a 8b 21 3c ba 7c 20 3c 3f aa de bc
       -0.037552174 0.009859825 0.009795362 -0.027180789
0003f0 c7 ae 3b 3d 59 35 40 bc 23 80 75 3c af 41 0d bd
       0.045820978 -0.011731469 0.014984163 -0.03448647

linear1.bias f4 [128]
000000 53 c0 b8 bc 16 98 a8 3d fa 73 a9 bc 45 b0 84 bc
       -0.022552645 0.08232133 -0.020685185 -0.016197333
000010 38 db 72 bc a6 fa a4 bc 42 fd b1 bb ec 76 c3 3c
       -0.014822774 -0.02013905 -0.005431802 0.023860417
000020 59 cb 33 bd 4c 7b c8 3b 76 23 4e bd cd 20 3e bd
       -0.0438951 0.0061182138 -0.050326787 -0.046418
000030 a6 cd 0b 3c d4 07 28 3d 52 92 97 39 90 d5 2c bb
       0.008532917 0.04102309 0.00028909981 -0.002637241
000040 26 37 30 bd ed 83 57 bc bd 32 b0 3b 11 34 63 bd
       -0.043021344 -0.013154012 0.005377142 -0.055469576
000050 0a 39 ff 3b 20 0e 94 bc 7c 54 09 bb d7 a6 4e 3d
       0.007788782 -0.018073142 -0.0020954898 0.05045208
000060 f0 d5 04 bd 3e 8c 9c bc 10 47 cf 3b 54 7d fe bc
       -0.03243059 -0.019109841 0.00632561 -0.03106562
000070 49 ab 49 3d 8e 14 81 3c 95 ff 1e bd 7a 39 61 3c
       0.049235616 0.015756872 -0.03881796 0.013746614
000080 97 d3 84 3d 19 5d 8a 3d 89 4a 19 bd 5f d4 0d bd
       0.0648567 0.06756038 -0.037424598 -0.03462636
000090 44 ce c1 bc 78 e6 2f 3b 5c 58 1b 38 f2 8d 0a bd
       -0.023657925 0.002684025 3.703717e-05 -0.033826776
0000a0 aa 19 00 3c b6 25 1a bd 7d c8 31 3c ef 66 0d ba
       0.007818619 -0.03763362 0.010851023 -0.00053940614
0000b0 ed 39 1b bd c5 34 62 3d 2b 29 33 bd 89 9e 1b bd
       -0.03789704 0.055226106 -0.043740433 -0.037992988
0000c0 da 92 c8 3c 2e 43 81 3c f3 84 96 bb f5 a8 2f 3d
       0.024484087 0.015779104 -0.0045934855 0.04288574
0000d0 e2 c9 2a bd ef 44 e5 bc 09 eb 21 3d e0 aa 89 bc
       -0.041696437 -0.027986972 0.039530788 -0.016805112
0000e0 ea cc 5f bd 6d b3 ff bc 51 a6 cc 39 79 6f 4b bd
       -0.05463878 -0.031213487 0.00039033827 -0.049666855
0000f0 ed 2c 21 3d b1 95 da bc 6f f9 eb bc 81 4d 34 39
       0.039349485 -0.026682707 -0.028805463 0.0001719501
000100 a4 4e 8e 3d 7d 43 d6 bc dd 74 ca 3b cc e6 16 3d
       0.06948593 -0.026155228 0.006178482 0.0368412
000110 6e 0d 6c bc 16 5f 81 bb bb 75 29 3d 73 a0 6a bd
       -0.014407499 -0.0039481027 0.041372042 -0.057281923
000120 5a d7 3c 3b 51 ae 02 bd 06 26 f2 3a 70 41 a9 bc
       0.0028814883 -0.031904522 0.0018474467 -0.020661086
000130 98 e3 eb bc b7 7b 93 3d ab 45 6f 3c 65 28 02 bd
       -0.028795049 0.07201331 0.0146040125 -0.031776804
000140 38 2d bb ba d7 46 32 bd f7 3f c9 bc ce 18 06 3d
       -0.0014280444 -0.04352459 -0.024566634 0.0327385
000150 c0 44 09 bd 2d b0 01 3d c3 58 f8 bc a2 f9 82 bc
       -0.03351283 0.031662155 -0.030315762 -0.015988175
000160 1a 61 39 bd f2 ea a2 3d 9f 96 ab bc 69 34 54 3d
       -0.04525862 0.079549685 -0.020945845 0.051807795
000170 6a 2c d6 bc 7a 0c a1 bb c1 7a f2 ba 20 69 87 bc
       -0.026144225 -0.0049148174 -0.0018499718 -0.01652962
000180 f2 29 c3 bc 88 34 cd bc bc 3d ff bc a6 02 49 3d
       -0.023823712 -0.025049463 -0.031157367 0.04907479
000190 98 21 0b bd e9 ef 8b 3d 84 47 3e 3c a1 d8 12 3d
       -0.033967584 0.068328686 0.01161373 0.035851125
0001a0 86 4c 2c bd 4e 41 6b 3c ef be 72 3d ed 0b 99 3d
       -0.042065166 0.014358832 0.05926412 0.07472978
0001b0 2b 67 0c bd 2b 85 6c 3c 2c 32 e3 ba 5a c4 6b bd
       -0.034278076 0.014436047 -0.0017333678 -0.057560302
0001c0 08 92 27 bd 1a 69 bb bc 0e e1 be bc 05 c4 75 bb
       -0.04091075 -0.022877265 -0.023300674 -0.003750087
0001d0 bb b4 98 3d d4 0e 86 3c 08 6b c1 3c f5 4c 37 bd
       0.074563466 0.016364492 0.023610607 -0.044751126
0001e0 c8 22 32 bd 9e 71 3a 3d a1 f4 52 bb 0b 54 0d bd
       -0.0434902 0.04551851 -0.0032189267 -0.034503978
0001f0 03 8f 91 3d bc a2 12 bd 58 74 a2 bc 44 35 bd bc
       0.071073554 -0.035799727 -0.019830868 -0.023096688
