models/5A_SSE_experimental.pth (torch, 421229 bytes, 13 tensors)

conv1.weight f4 [4, 1, 5, 5, 5]
00000000: 4335 00bd e2fb 2a3d b2f5 4cbc 7fd1 08bd
00000010: 3561 74bc 4aa7 69bd 7f21 8a3d ada0 5d3d
00000020: 1cd4 753c b53e 793c 45de f23c c601 5dbd
00000030: b76d 953d 401a 053d b1a5 28bd 1939 163d
00000040: ca98 9e3d 050d 93bd 64df 5c3c c1d3 523c
00000050: 53b8 203d 09df a2bd 2f52 8cbd c2fa c73c
00000060: 8ede b83c 565e 8cbd 78c0 aa3d d29e 68bd
00000070: 267c e1bc 0857 95bd 7f8a 15bb 0acc a83d
00000080: 35a5 243d 8b72 a8bd 5229 80bd d172 ae3c
00000090: 85a0 82bd d6ed 9a3d fb05 b3bd 0949 0c3d
000000a0: b9d8 90bc 7ae1 a03c b7bd 9c3d 5104 94bd
000000b0: b0e2 f53b ac78 6c3d 215f 693d 6e3f f83c
000000c0: 4426 913d 7fe5 76bc 4f8a 663c 727f 0c3d
000000d0: 3543 3bbd 39da e53b 560e a3bd 0015 bd3d
000000e0: 39c3 f13c ccc9 be3c c5d9 46bc 627f 8f3d
000000f0: cf4c bc3d 9b62 97bd 73b0 9dbd 628d 01bd
00000100: 05ee 5dbd e087 9cba ed5b be3d 9ffc 763b
00000110: dacf c4bc 03df 46bb 3021 68bd 12ab 333d
00000120: fae0 8f3d 5b9c a0bc ce3c 273a 146c 053d
00000130: 6ed2 043d 201d 0b3d eade 55bd 1dd6 b4bd
00000140: 176b ec3c 385d 013d 9c33 ed3c 630b 02bd
00000150: 098a 55bd da7b 173d 5825 80bd 48c0 9d3d
00000160: dec8 b2bd 6137 3e3d 645c 083d 7efd 363d
00000170: c15c 543d f4f3 0dbc 91a7 8cbc 83e1 9c3d
00000180: 301c 293d b7e6 8e3d 1ced 81bb 8fc8 90bd
00000190: 09ac 1b3d 185c d53c 204a 093c 8e91 cdbd
000001a0: 1e72 abbd d170 dabc b520 2c3d f888 13bd
000001b0: b576 c9bc 3d93 61bd 1206 1a3d 9922 513d
000001c0: e7d7 27bd 05df 4ebd 4a7d 0f3c a1f3 31bd
000001d0: df8b d53c dc3c c53c b9fe a23d d3d0 2d3d
000001e0: 9bb8 243c ea1b 453d bdd2 a6bd 528b ac3d
000001f0: 893e 5bba d392 53bd 89de c2bc 6490 d13c
00000200: 450f 6e3c 1c70 e0bb d747 8abd b183 1fbc
00000210: ae89 463d df20 adbc 5c00 1dbc 96ca 76bd
00000220: 3ba3 9c3c 8379 833b e6e8 43bc 59a9 7f3d
00000230: fd7c 523d 0438 30bd 79d3 cabc f05e 283d
00000240: f44c 26bd a2c7 483d 4a81 1dbc efd3 91bd
00000250: b594 18bb 8a70 edbb f70f dbbc 5b04 a93d
00000260: 26fe a33d af15 383b b979 96bd fb7d b43d
00000270: f427 933d f889 8cbc 7e56 0e3d abc0 63bb
00000280: 1029 aebd 6e0e 82bc a9cd 36bc 6df6 d03d
00000290: d3ca 42bd 4087 953c 6b53 ad38 ceed 09bd
000002a0: 6006 d23d 64b0 68bd c7f2 8b3d c754 b73d
000002b0: f06d f93c cee8 0f3c 539e f3bc c5ee 80bd
000002c0: 1801 a1bc a56e 963b 0fcb af3c 8a15 e1bb
000002d0: f774 023c 5747 39bd 7007 043d 4101 9c3d
000002e0: 9aec 2c3d 669e 133d 05d4 d03c 1a8a ed3d
000002f0: 224a 983d d928 2fbd 7f0d 5abd 6e6b 89bd
00000300: 3e87 d93d e611 adbc d5d7 bbbd 753d 293d
00000310: 0a67 853b 5a3b 76bd 78c1 2dbd 5dbf 74bd
00000320: 7352 97bd 51b3 1fbd e527 78bd 73e7 2fbb
00000330: b9fa f8bc 5b00 cdbd f029 38bd d6ab bebb
00000340: 7aa1 82bd cd07 263c 8b68 e5bd b857 a43c
00000350: 7f84 6ebd b143 7abd 9dc4 58bd adfb bb39
00000360: ea08 913d 688e acbc 46f3 11bd f235 5b3d
00000370: b9c8 c53b 38af c7bb 7aff 64bd 6c1c 80bd
00000380: c4c4 deba eb52 913d c5ec 53bd bcec 983d
00000390: 7590 d83b dd35 3f3c 35ec 11bd 3796 92bd
000003a0: 8726 263c a3ff 983c 72c2 b83b 25d7 483b
000003b0: 82be 02bd 981d cd3c 0a53 b93d cbcb b13d
000003c0: 1eee dc3c a32a 38bc cbe0 18bd f0b6 433c
000003d0: b2c6 aebd 56c3 86bd da7e 4fbd 6d3c 743d
000003e0: a84f 53bd 531a 8abd 6aa2 8e3b 085c 713d
000003f0: 1e1f 4f3d 02b7 80bd 011b 8ebc 8103 37bc
-0.031300794 0.04174412 -0.01250975 -0.033402916 -0.014915754 -0.057044305 0.0674467 0.05410831
0.015004184 0.015212704 0.029647002 -0.05395677 0.07296317 0.032495737 -0.04117364 0.036675546
0.07743986 -0.07180218 0.013480995 0.012867869 0.039238285 -0.07952697 -0.06851613 0.024411563
0.02256706 -0.06853931 0.08337492 -0.056792088 -0.027525019 -0.072919905 -0.0022818146 0.08242042
0.040196616 -0.08224972 -0.06257881 0.021294983 -0.06378273 0.07564895 -0.08741375 0.03424934
-0.017681466 0.019638766 0.07653373 -0.07227386 0.00750383 0.05773227 0.056975488 0.030303683
0.07087377 -0.015069365 0.014071061 0.03430123 -0.04571839 0.0070145396 -0.07961719 0.09232521
0.029512035 0.023289584 -0.012136881 0.07006718 0.091943376 -0.073918544 -0.07699671 -0.031628974
-0.05418207 -0.0011942349 0.09294877 0.0037687195 -0.024024893 -0.0030345328 -0.056672275 0.043864317
0.07025333 -0.019605806 0.0006379605 0.032573774 0.032427244 0.033963323 -0.05221454 -0.08829901
0.028859658 0.03158304 0.028955273 -0.03174914 -0.052133594 0.03698335 -0.06257123 0.0770269
-0.087297186 0.046439532 0.033291236 0.044675343 0.05184627 -0.00866412 -0.017169746 0.076602004
0.041286647 0.06977599 -0.003965033 -0.070695035 0.038005862 0.02604489 0.008379489 -0.10037528
-0.083713755 -0.026665123 0.04202338 -0.036019295 -0.024592737 -0.055072058 0.037603445 0.051058386
-0.040977385 -0.050505657 0.008757899 -0.043445233 0.026067672 0.024076872 0.07958741 0.04243548
0.010053779 0.048122324 -0.08145664 0.08425011 -0.00083635055 -0.051653694 -0.023787754 0.025581546
0.014530008 -0.006849302 -0.067519836 -0.0097359875 0.048471145 -0.021133838 -0.009582605 -0.060251795
0.019120803 0.004012288 -0.011957383 0.062417362 0.05138873 -0.04302217 -0.024759041 0.041106164
-0.040600732 0.04901851 -0.009613344 -0.07120501 -0.0023281996 -0.0072460817 -0.026741011 0.08252784
0.08007459 0.0028089096 -0.073474355 0.08813091 0.07185355 -0.017155632 0.034750454 -0.003475229
-0.08503926 -0.015876021 -0.011157432 0.10203252 -0.04755671 0.018252969 8.264821e-05 -0.033674054
0.10255122 -0.056808844 0.068334155 0.08951717 0.03044793 0.008783532 -0.02973858 -0.06295542
-0.019653842 0.0045908266 0.02145913 -0.0068690227 0.007962457 -0.04523405 0.032233655 0.07617427
0.04221783 0.036039732 0.025491724 0.115986064 0.07436015 -0.042763565 -0.053235527 -0.06709944
0.106214985 -0.021126699 -0.09172026 0.041318376 0.004071121 -0.060115196 -0.042420834 -0.05975281
-0.07388773 -0.03898937 -0.06058492 -0.0026840835 -0.030392991 -0.100098334 -0.04496187 -0.0058188243
-0.063784555 0.010133696 -0.112015806 0.020061359 -0.058231827 -0.06109971 -0.05292188 0.00035854933
0.07081778 -0.021063998 -0.035632394 0.053518243 0.006035891 -0.0060938857 -0.055907704 -0.06255421
-0.0016995897 0.070958935 -0.051739473 0.074670285 0.0066090175 0.011670557 -0.035625655 -0.071575575
0.010141022 0.018676585 0.005638414 0.0030645814 -0.031919964 0.025038525 0.090490416 0.086814485
0.026969012 -0.011240634 -0.037323754 0.011945471 -0.08533992 -0.06580226 -0.050658084 0.05962794
-0.051589638 -0.06743302 0.0043528574 0.05892566 0.050566785 -0.06284906 -0.01734686 -0.011170269

conv1.bias f4 [4]
00000000: 4476 a5bd 471a b83d 9ce2 453d 0633 9bbd
-0.08079198 0.08989387 0.048311815 -0.07578091

conv2.weight f4 [8, 4, 5, 5, 5]
00000000: 04dd 4dbc 5ed2 dd3c 606a 22bd 65fe 3ebc
00000010: b6f2 443c 42f9 06bd c90b 003d 99cc 083c
00000020: 90f2 aa3b 8cf7 1fbd c8b2 e6bc 6b21 4dbd
00000030: 2d29 0e3d c65b 1bbd b1d2 1cbc 4693 49bd
00000040: 5a7d 8bbd e500 3dbd 5cae c63b 6323 9f3c
00000050: f286 95bd 2bcf d2bb a5aa a1bd 57e5 9fbc
00000060: 8b7a 80bd 671a dabb bb73 81bc 3c59 d03c
00000070: 7424 12bc 28fb 54bb e6d6 56bd f5ce 973c
00000080: 2334 a13c 18af 0f3d 02c2 b3bc 5017 1ebd
00000090: e133 e93a b46f 343d f6d1 f63c 3856 0a3d
000000a0: 90d5 79bd abc5 e2bb 6020 ef3c 5c76 113c
000000b0: ffc0 a33b 7818 04bc 8ebf 46bd b691 87bd
000000c0: b3f3 853c 4089 1cbd d1f6 babc 4188 fcbc
000000d0: ff92 343d b963 ecbb 4ba9 c03b 4ce9 32bd
000000e0: e308 46bc a073 dcbc b94b 333d 0482 453c
000000f0: d966 12bd 2d0b 11bd 43a6 4c3d a389 a2bc
00000100: 0deb 073c f48e bebb 106a 3b3b cca3 133d
00000110: fa20 babc 961e 69bc f3af 9dbd 6a68 0f3c
00000120: 6971 19bd 714e 06bd 3e1c fc3a c719 46bd
00000130: 9f36 293c 4500 4b3d 777b 4c3d 1957 6cbc
00000140: 93ad 0ebc 0026 1aba 3cae f2bc 87cd a6bc
00000150: 780f 213d fdf7 11bb f862 113d ff03 9cbc
00000160: 1274 833c 1606 653d fd6b fcbc ba98 5bbd
00000170: 4845 c23c d3db 85bc af79 e13c a88f 47bd
00000180: d130 24bc 5fbf 693c fc2d cf3c 2e33 14bc
00000190: 47bb c73c 70a1 3e3d e638 bf38 396e d9bc
000001a0: bc55 003d b449 82bd 9c55 06bd 4238 473a
000001b0: 4b98 2b3d 0e43 223c ee29 34bd d97e b03c
000001c0: ce47 343d f63e 313d dce4 493b 37d7 6bba
000001d0: ebe3 a2bb d9f9 883c 7ef7 8b3c c56a 883b
000001e0: dc65 23bd 2c33 6bbc 8409 cbbc 971a 72bc
000001f0: 2302 c23c 944f 473d 8c9d 703d caf9 873c
00000200: 50e2 0cbd e0fd 9abc d7c6 f53b 7786 00bc
00000210: 5f38 8e3d 6f3f 373c a50e 5d3d c07d 613d
00000220: cb8f 433d 38a8 903d 5659 a33d 4bf5 5cbb
00000230: e7a1 533d 4f46 2f3d 900b beba df8f b93c
00000240: b740 683d 4fec 0f3b a6c6 363d eae9 253d
00000250: ccdd 0fbc 27ec 753c 6b61 ca3c 62af 743d
00000260: 0cd7 0c3d c6ca 55bc 2b35 163d 04d3 60bc
00000270: c72b 4fbc 35be 403d c1ab 0f3d 9cdd 933d
00000280: 92d0 d43c 85c1 573d 7f76 09ba d738 023d
00000290: 7b8b de3a b778 cc3c 053c 22bd ed26 d3bb
000002a0: 19d4 f03a 71c0 2f3d a66a 553b d4ce 1e3d
000002b0: 30ed 97bc 4502 72bc 6c4d b43c e032 1b3d
000002c0: 3712 e63c c3c4 05bd 4139 38bd e302 b5bc
000002d0: e817 423d ac10 cabc 6794 24bb 8985 a2bc
000002e0: d146 c53c 8833 b03c 6e6f a9bc b628 4b3d
000002f0: 2d07 413d 51d2 5c3d a3a8 413c 4925 3a3c
00000300: 5a92 f23c 6b3d bbbb a701 f4bb a6d3 4a3d
00000310: bd2f ff3c 22d7 f83c aba1 213c 8b95 4abc
00000320: 0858 17bb f805 0dbd e6ea 2a3c 338c 9f3c
00000330: 837e e53c 5a52 043d 8f6e 0f3d e58c f5bb
00000340: 6ba4 21bd 5765 923d 9626 163c 657d 483d
00000350: 3d5f 5b3c 219f 05bd d268 813d 224e aabc
00000360: 1f7a 953c 20e5 663b 74a3 ffbc 5491 1c3d
00000370: a6f2 5f3c d1ab 253d 4a98 d13c f8f0 0ebb
00000380: 8da5 88bc b706 11bc bd27 44bd be3a 42bd
00000390: 6c55 aa3c d752 eaba be1e 99bc 58a8 29bd
000003a0: 8a2c 5abd f6ab 8bbc 4bb7 8cbc 29f5 59bc
000003b0: 9219 bc3b d44a 42bd badb a439 4b6b bdbc
000003c0: 7c02 95bc 6279 5bbc ba06 82bd 5cd1 3bbc
000003d0: 1177 cb3c 2044 66bb 06cb a7bc 3448 953c
000003e0: a497 2dbd 181a 39bd 29f7 d6bc b8da 813c
000003f0: 98d8 16bd 0524 0c3d dfcb 1b39 8ac2 aebc
-0.012564901 0.02707785 -0.03965223 -0.011657332 0.012020757 -0.032952555 0.03126124 0.008349561
0.005216904 -0.03905444 -0.028161421 -0.050080698 0.034707237 -0.03792932 -0.009571717 -0.049212717
-0.06811018 -0.04614343 0.0060632657 0.019426053 -0.073011294 -0.0064333878 -0.07893876 -0.019518537
-0.06273373 -0.0066559794 -0.015802255 0.025433175 -0.008919824 -0.0032498334 -0.052451037 0.018531302
0.019678181 0.03507909 -0.021943096 -0.03859645 0.001779195 0.04405184 0.030129414 0.03377363
-0.060994685 -0.0069205365 0.029190242 0.008878317 0.004997372 -0.008062474 -0.048522525 -0.06619589
0.016351556 -0.03821683 -0.02282277 -0.03082669 0.0440855 -0.0072140363 0.0058795563 -0.04367952
-0.01208708 -0.026910603 0.043773387 0.012054924 -0.035742614 -0.03541105 0.049963247 -0.01984102
0.008295787 -0.005815381 0.0028597154 0.03604488 -0.022720803 -0.014228484 -0.07699575 0.008752922
-0.037461672 -0.03278965 0.0019234491 -0.048364427 0.010327964 0.049560804 0.049922433 -0.014425063
-0.0087083755 -0.0005880296 -0.029624097 -0.020361675 0.039321393 -0.0022273057 0.035494775 -0.019044874
0.016046558 0.055914007 -0.030813212 -0.05361245 0.023714676 -0.016340172 0.027523844 -0.048720986
-0.010021404 0.014266818 0.025290482 -0.009045405 0.024381293 0.046540678 9.118188e-05 -0.026541816
0.031331763 -0.06361714 -0.032796487 0.00075996306 0.041893285 0.009903682 -0.0439853 0.02154486
0.04401379 0.043272935 0.0030806577 -0.0008996608 -0.0049710176 0.0167207 0.017085787 0.0041631185
-0.039892063 -0.014355462 -0.02478481 -0.014776847 0.02368266 0.048659876 0.058744 0.0165986
-0.034395516 -0.018919885 0.00750051 -0.007844559 0.06944346 0.011184557 0.053969044 0.055051565
0.047744554 0.07063335 0.07976024 -0.0033715542 0.051668074 0.04279166 -0.0014499296 0.02265161
0.056702342 0.002196092 0.04462304 0.04050628 -0.008780908 0.015009916 0.024704656 0.05973757
0.034384772 -0.013048833 0.0366718 -0.013722185 -0.012644715 0.047056396 0.035075907 0.07220003
0.02597836 0.05267479 -0.00052437925 0.031792488 0.0016978824 0.024959905 -0.03960802 -0.0064438493
0.0018373757 0.042908136 0.0032564788 0.038771465 -0.018545717 -0.014771049 0.022009574 0.037890315
0.028084857 -0.03265835 -0.044976477 -0.022096103 0.04738608 -0.024666153 -0.0025112869 -0.019839065
0.02408162 0.021508947 -0.020683017 0.04959937 0.047125984 0.05391151 0.011819991 0.011361429
0.029610801 -0.0057141087 -0.007446486 0.04951825 0.031150693 0.03037602 0.009865205 -0.012364755
-0.0023093242 -0.03442952 0.010431981 0.019476032 0.028014427 0.0323051 0.035017546 -0.0074936026
-0.03946344 0.07148235 0.009164473 0.04894771 0.013389406 -0.03262246 0.06318821 -0.02078921
0.018246708 0.0035231784 -0.03120587 0.038224533 0.013668692 0.04044706 0.025585312 -0.002181111
-0.016680503 -0.008851699 -0.04788946 -0.047419302 0.020792685 -0.0017877471 -0.018691417 -0.04142031
-0.053265132 -0.01704977 -0.017177245 -0.01330308 0.005740353 -0.047434643 0.00031444227 -0.02312245
-0.018189661 -0.013395639 -0.06348939 -0.011463489 0.024837049 -0.003513582 -0.020482551 0.018222906
-0.042380944 -0.0451909 -0.026240902 0.015851364 -0.036827654 0.03421404 0.000148579 -0.021332998

conv2.bias f4 [8]
00000000: c5fb c8bb fb9c 8abc 9fb6 ea3c c827 5bbd
00000010: 32e4 f23b e384 2e3b cee0 6a3d 3b31 0c3d
-0.006133529 -0.016920557 0.028651534 -0.053504735 0.007412457 0.00266295 0.057343297 0.034226637

conv3.weight f4 [16, 8, 3, 3, 3]
00000000: e569 963d 0867 083c 98fe cabc 8774 4f3d
00000010: de4d 96ba db5f 483d a7fd a83d f489 67bd
00000020: cbdf 503d ed66 a13c 45ae 433c adf7 03bd
00000030: 37c0 be3c 84ce 59bd 5bc7 aabc 9d61 52bd
00000040: 4d89 6bbd 0a94 92bd 2bef 093d 5227 4a3c
00000050: 9535 8dbd ea6e 7a3d ed3f 4a3c a14f 913c
00000060: bc32 3d3d 579c 1dbb 8ef7 e33b 7488 f3bd
00000070: b955 c8bd 11e7 4bbd c272 98bd e6e9 74bd
00000080: e927 703d 8a8a df3b ffa4 80bd 9c5a 743d
00000090: b60d 11bd c3ab 833a 0bff 03bd 5223 ab3c
000000a0: 3740 77bc 9741 5fbd 9f6e fd3c 8deb 233d
000000b0: fcfd 753d 5dc6 fabc 3311 d63b 656a 633d
000000c0: ef5f 52bd 2f96 cfbb 311e 3a3d 3709 2a3c
000000d0: 5108 42bd b291 3cbc 86f1 173d 6be4 2abd
000000e0: 9253 aa3b 996a 6c3d 4f31 2e3d f277 1d3d
000000f0: 88f3 3f3d 934b 77bd 0ace 5dbd 9b60 363c
00000100: 3b38 4d3d aa22 8b3d 34e2 8f3d fab1 5e3d
00000110: 322f ebbc 3ec9 3a3c 1f56 de3c ade9 5c3d
00000120: 8d98 82bc 9e0d 2a3c 3d3b b93b 4e86 0fbd
00000130: 9e27 763d 692f f43c 4234 3c3d bfc5 6d3d
00000140: 5b25 3bbd f12e 863d ef0d 24bd ab91 8d3d
00000150: 825d 9dbb eeb0 06bd 146f eabc 833c 61bd
00000160: 5caf 1abd f965 ec3c 986f 07bc 59c3 0e3d
00000170: 388e c73c 3f0c 1d3d e2c0 633c 18a5 0837
00000180: 7ec6 1ebd 91cc 58bd d8e9 9cbc ced2 5f3c
00000190: b9ad 87bc 48ae 0dbd 3afc 47bd 6e00 66bd
000001a0: 3366 b43b e13f 463d c088 a63c b171 c03c
000001b0: 47fb a1bc c987 98bd 2191 bc3c 9f26 a8bd
000001c0: f820 42bd 1ca0 d1bc a05a 7d3c 60e9 ebbc
000001d0: c54a 62bd cbe0 0cbd 1cf3 0d3d f440 3b3b
000001e0: 5bfa 79bc 7ed7 48bd 915b 443d fe6c 2b3c
000001f0: b5e0 0abd a96b 533d ec3b 91bd 76e3 4fbd
00000200: 3906 293b 4c92 84bc d060 15bd cfad 8cbd
00000210: 9087 90bd 806d a83c f350 d4bb fc7e 703b
00000220: 597e adbd 280f 5cbd c47b d53c 9ab0 f9bb
00000230: 126f cc3c 1fdd 643c 83b3 813d cf29 533b
00000240: 8bd5 dfbc 29c9 9c3c d939 86bc 02e2 3fbc
00000250: 8f09 a0bb 7bfe 6d3d 5330 7cbd 15a1 083c
00000260: 084b 83bc dcb8 4bbd 9eb3 623d f114 543d
00000270: d13d 32bc 0076 83bd d9f1 1b3c a241 aebc
00000280: dbba 0bbd 64fa c23c 1b1b 223d a4ad 53bc
00000290: baa1 35bd 97d4 9b3d debb 973d 7efa 1ebd
000002a0: 1470 ed3a d05a 383d 3b09 cdbc b1b9 24be
000002b0: 8bc8 34be 1164 efbd 255f dabc 3857 8dbd
000002c0: 9221 74bd 0f72 91bd dd26 d3bd 674b d0bd
000002d0: 8da2 1fbe 0dd4 a2bd 106d 82bd 2513 65bc
000002e0: 67ed d0bc 6540 51ba 288e 8abd d5ce 96bd
000002f0: 562a ffbd 3922 c9bc 6572 86bd 80e4 9cbd
00000300: 677b 8d3b 41d9 4c3c 4f37 823d ce04 923c
00000310: d166 23bd f0bf 0abd 3383 aebd e535 96bd
00000320: 26f0 2b3c cf3f df3c d83e 8f3b ac5e 8ebd
00000330: 29c0 243d 8873 783d 40a3 133c ece6 01bd
00000340: 39f0 c13c 5dd3 c73c 91e2 843c 402e 913c
00000350: e23a 06bc b2e3 ecbc 8026 4abd c5da 8dbb
00000360: 1fbb 013c 6ad1 e6bc 1882 2bbd 8149 26bc
00000370: 9c94 80bc 211d 553d 7b2d 9d3d a8ea 8e3c
00000380: 6777 a23c 9bff 973d 2357 9a3c b06c 6b3d
00000390: 3be7 b63c c195 a1bc 00c3 7dbd 9a33 d93c
000003a0: 7124 ccbc 00de 313d d91c 0ebd e3fc f03c
000003b0: 63fc a93b fbd8 333d e59e 84bd 1517 9a3b
000003c0: 28b1 193d 30b4 8bbc 1e67 82bd fd85 bf3c
000003d0: b9b5 37bd 9dcc 433d ebc2 26bc ebe6 9c3c
000003e0: e247 3dbc 4b97 503c 22d3 80bc fbc9 ea3c
000003f0: dc60 463d c9c1 31bd af46 2e3d a5db b23c
0.073444165 0.008325346 -0.024779603 0.05064824 -0.0011467298 0.04891954 0.08251505 -0.056528047
0.050994676 0.0197024 0.011943405 -0.032218624 0.023285015 -0.053175464 -0.020847013 -0.051362623
-0.057503987 -0.071571425 0.033675354 0.012338476 -0.068949856 0.061140932 0.012344343 0.017738165
0.046190962 -0.0024049485 0.006957001 -0.11891261 -0.09781975 -0.04978091 -0.07443763 -0.059793375
0.05863181 0.006821935 -0.062814705 0.059656724 -0.035413466 0.0010045696 -0.03222565 0.020890865
-0.015090994 -0.05450591 0.030936537 0.04001956 0.06005667 -0.030612165 0.006532812 0.055521388
-0.05136102 -0.006335042 0.04543895 0.010378174 -0.047371212 -0.011509346 0.03709557 -0.041721743
0.0051979506 0.057718847 0.042527493 0.038444467 0.04686311 -0.060374808 -0.054151572 0.011131431
0.050102454 0.06793721 0.07025567 0.05436895 -0.028709028 0.011400519 0.027140675 0.053933788
-0.015941883 0.010379223 0.0056528137 -0.035040192 0.060096376 0.029807763 0.045948274 0.058049913
-0.04568992 0.06551922 -0.04005235 0.069125496 -0.0048024068 -0.032883577 -0.02861742 -0.05498935
-0.037764892 0.028857218 -0.008266352 0.034854267 0.024359807 0.038341757 0.013900967 8.144671e-06
-0.038763516 -0.052929465 -0.019154474 0.0136611 -0.01656233 -0.034590036 -0.048824526 -0.056152754
0.005505347 0.048400763 0.02032888 0.023491712 -0.019773139 -0.07447774 0.023018422 -0.082104914
-0.047394723 -0.025589041 0.015463501 -0.028797805 -0.055247087 -0.034394067 0.034655675 0.002857265
-0.015257443 -0.049033634 0.047938887 0.0104629975 -0.033905704 0.051616345 -0.07091507 -0.050754033
0.0025791063 -0.016183041 -0.03646928 -0.06869089 -0.070571065 0.020560026 -0.0064793765 0.0036696782
-0.084713645 -0.05372539 0.026059993 -0.0076199295 0.024955306 0.013968735 0.06333067 0.0032220965
-0.027323505 0.01913889 -0.016385006 -0.011711599 -0.004883952 0.05810402 -0.061569523 0.008339186
-0.016026989 -0.049736843 0.055347078 0.051777784 -0.010878996 -0.06418991 0.00951811 -0.02127153
-0.034113746 0.023801036 0.03957663 -0.012919817 -0.044343688 0.07608908 0.0740888 -0.038813107
0.0018115067 0.04500848 -0.025028815 -0.1608646 -0.17654626 -0.11689008 -0.026656697 -0.06901401
-0.059602328 -0.07101833 -0.10310147 -0.10170632 -0.15589352 -0.07950602 -0.06368458 -0.013981615
-0.025503827 -0.0007982313 -0.067653954 -0.07363669 -0.12459247 -0.024552451 -0.06564788 -0.076607704
0.004317689 0.012502969 0.063582055 0.017824557 -0.039892975 -0.033874452 -0.08521118 -0.07334498
0.010494268 0.027252106 0.004371505 -0.06951651 0.04022232 0.060657054 0.00901109 -0.031714365
0.023674117 0.024392778 0.016221317 0.017722249 -0.00819275 -0.028917167 -0.049353123 -0.004329058
0.007918148 -0.028176028 -0.041872114 -0.010149361 -0.015695862 0.052029733 0.0767469 0.017445877
0.019832326 0.074218 0.018840378 0.0574767 0.022327056 -0.019724729 -0.061953545 0.026513863
-0.02491972 0.043424606 -0.03469548 0.02941746 0.0051875575 0.0439081 -0.06475619 0.0047024586
0.037522465 -0.017053694 -0.06367324 0.02337932 -0.04485104 0.047802556 -0.010178308 0.019153079
-0.011552783 0.012731384 -0.015725676 0.028660765 0.048432216 -0.0433977 0.042547878 0.02183325

conv3.bias f4 [16]
00000000: e34d af3d 23c9 373d 1ca2 8f3d 7f44 173d
00000010: 8003 993d d555 8d3d 5f93 353d c32f f0bc
00000020: f0c7 7dbd 4e02 ca3d 7937 5d3d 24c8 533c
00000030: 988a 893d 56ed 483d dacc afbc 4555 09bd
0.085597776 0.044869553 0.07013342 0.036930557 0.07471371 0.06901137 0.044329997 -0.02931965
-0.061958253 0.09863721 0.05400798 0.012926135 0.06715888 0.049054466 -0.021459986 -0.033528585

conv4.weight f4 [32, 16, 3, 3, 3]
00000000: 2cd5 153d ca5a 26bd fbac c33c baf7 efbb
00000010: db29 2cbc 056d 003d fa2a e9bb 3adb 263d
00000020: 93a3 093b 665f 4bbd 1ab6 21bd 1833 31bd
00000030: cc1f 98ba b0b2 10ba 9dc2 4ebd 875a 5fbc
00000040: fc3c 29bc 1cfb f5bc e47a 133d ebc8 1fbd
00000050: 4e47 8239 c667 c5bb a84f 44bd 6493 99bc
00000060: e776 163c b4b3 1ebd 843f abbc bc8c 2fbd
00000070: e284 a03c 65fd 26bc ebc0 c83c de50 b83b
00000080: ea29 4d3c 04bf efbc 197a c6bb 5336 e2bc
00000090: 06d0 503a 8529 bd3c 87e3 f5bc deda ce3c
000000a0: 85ca 983c 2a80 37bd 31e5 d43b f09a ee3c
000000b0: 1305 7abc 5d7e 083b 05ec 2bbd 1a95 0fbc
000000c0: c5ed 3d3c 9e6d 8cbc b483 fdbb d4b7 89bc
000000d0: a937 ab39 43f8 09bd bf72 debb 7ebd 103d
000000e0: a6df f53c 615d a0bc 47be b13c 6a6e 26bc
000000f0: a5f5 5bbb 3409 6e3c 3d40 c43a 7871 903c
00000100: a41f 30bd ac0d d3bc 766c 6b3c 2649 b5ba
00000110: bafb 1fbd ba9a 873a 601d 3c3d 2ae7 c4bc
00000120: e7ad f7ba 5fd8 cb3b 7a82 ddbc 1548 40bd
00000130: 9704 b93c 82b2 9f3b e081 363d ed2e 2c3d
00000140: 2740 0d3d a2fd 48bd a404 2fbd 3789 a9bc
00000150: c76d eabc d2f2 b03b 255b a83b b3ba 513c
00000160: 0d04 11bb 95c7 dfbc 391c f33c 27b1 4abd
00000170: 7953 34bd 1149 1cbd 0915 cebc d3de 133d
00000180: 1b69 ed3c 6a4f 833c 2ef9 8f3c 51e0 073d
00000190: 6274 04bd 664e d5bb 846b 8cbc 77b2 0a3d
000001a0: b2c0 593c aff9 4cbd f619 243d ae9e 2dbd
000001b0: 4438 e5bc 6e62 0cbd c6d6 c839 5848 fdbc
000001c0: 25d3 18bd d5e5 3bbc ef04 173d 3e94 c9bc
000001d0: 96bd 40bd f370 233d fd70 80bc 0f57 23bc
000001e0: a3de 33bd fa3f 1d3d ac26 1a3d 4d1c 583c
000001f0: 3716 f3bc 40de 4b3b c7e1 dabc d456 16ba
00000200: 0715 d3bc fae4 0fbd bfb2 183d 629e 293d
00000210: 4395 193d 0a98 dbbc 18e0 5e3c 1aff 37bd
00000220: 4ea8 45bd 9eb3 b5bc 8105 883c 8f13 beba
00000230: 2b45 e83c 5b6b e03a 90fe 06bd 1c33 1f3d
00000240: b90a 0bbd d17c 0dbd d861 83bc 3344 c63c
00000250: d5c5 43bc bcb9 083d 158a 1dbd 3fa1 45b9
00000260: b7a8 c5bc d97c 823c 4b00 29bd 9e3d 763c
00000270: 204f 293d 4445 d7bb 40aa 3dbd 6a9c 02bd
00000280: b94f 933c 17c7 2a3d 6f3a 9eba 9106 e0bc
00000290: f668 00bd a12a b1bc b24c 413a c5a3 17bc
000002a0: a4e8 e93c d728 313c 9f56 423b 120a 2b3d
000002b0: 96ab fb3c 5cfe ebbc eb69 363c bd22 2ebd
000002c0: 66aa 29bb 97b9 37bd a81c 2e3b 4d6a cebc
000002d0: e40d 70bc c659 06bd e464 de3c 8b95 9dbc
000002e0: 317a 10bc 7e19 96ba bc15 273d cedd acbc
000002f0: b44a 1cbc 2262 dd3c 1172 21bd 4190 5ebb
00000300: 65ac 323d ec37 54bc 447b 36bd 7f9c 04bd
00000310: 8bad 0e3d a8fb 51bc 4fbf c1bc 50cf 343d
00000320: 845c 593c 12a1 373d 51ff fdbc 6ccb 3ebc
00000330: 7235 25bd 633f f5bc 6050 2c3c 231e 11bd
00000340: 54b1 5cbb 1b26 b9bb 8c8c a63a 113e 33bd
00000350: 1d88 6ebc 76b7 f83c da66 cc3c 98d8 0c3d
00000360: ee7c b5bc bc4b 2fbc b8a2 55bd a8ba 083d
00000370: ef43 2cbc f0d5 5bbc 4141 bd3c 593d ec3c
00000380: 926b aebc 3739 05bb 2e7f a53c c531 d23c
00000390: 8498 d7bb bc72 213d 87fe 283d 0b0a 4fbb
000003a0: a185 3dbd 42ac 1e3d 6386 0dbd f6f0 00bd
000003b0: df51 113d 1e1d a7bc a4d8 863c 3c1b 38ba
000003c0: 161f 9d3c 0060 eabc 854b 393c b07b 143d
000003d0: 0e6b f4bc c4d6 4bbd 1522 1e3d e345 5c3c
000003e0: ef1a 49bc 52f6 babb 71a8 d0bc 7cf7 6bbc
000003f0: 4797 1a3d ce33 d73c e81f 1e3d c2e7 1c3d
0.03658025 -0.040613927 0.023886194 -0.0073232325 -0.010508026 0.03135397 -0.007115719 0.040736414
0.002100204 -0.049651526 -0.039480306 -0.043261617 -0.0011606156 -0.00055197906 -0.050478566 -0.013632423
-0.010329481 -0.030026965 0.03600587 -0.03900997 0.00024848658 -0.0060243336 -0.04792753 -0.01874704
0.009183622 -0.038745597 -0.02090431 -0.042858824 0.019594613 -0.01019225 0.024506053 0.0056248745
0.0125222 -0.029265888 -0.0060570356 -0.027613794 0.0007965568 0.023091087 -0.03001572 0.025250848
0.018651256 -0.04479996 0.0064970483 0.029126614 -0.015259999 0.0020827272 -0.041973133 -0.008763576
0.011592333 -0.017142113 -0.0077366475 -0.016811289 0.00032657132 -0.033684026 -0.006788581 0.035336964
0.03001387 -0.019575777 0.021697177 -0.010158161 -0.0033563164 0.014528561 0.0014972758 0.017632231
-0.042998925 -0.025763355 0.014369121 -0.0013831004 -0.039058425 0.0010345795 0.04592645 -0.024036009
-0.0018896431 0.006220862 -0.027039755 -0.046943743 0.022585196 0.0048735747 0.044557452 0.04203694
0.03448501 -0.049070008 -0.042729035 -0.020695312 -0.028616799 0.00540004 0.0051378184 0.01280086
-0.0022127659 -0.027316848 0.029676544 -0.049485352 -0.04402492 -0.03815562 -0.025156515 0.036101174
0.028980782 0.016029079 0.017574873 0.03317291 -0.032337554 -0.00650959 -0.017141111 0.033861604
0.013290571 -0.050042804 0.04006382 -0.042387657 -0.027980931 -0.034273557 0.0003830699 -0.030918285
-0.037310738 -0.01146837 0.03686994 -0.02460682 -0.047055803 0.03990264 -0.015678877 -0.009969487
-0.043913495 0.03839109 0.037634537 0.013190341 -0.029673679 0.0031107813 -0.026718987 -0.00057349843
-0.025766863 -0.03513048 0.03727984 0.04141081 0.037495863 -0.026805896 0.013603233 -0.04492102
-0.04825621 -0.022180375 0.016604187 -0.0014501679 0.028353294 0.0017121838 -0.032957613 0.0388671
-0.033945773 -0.034542862 -0.016037866 0.024202442 -0.011949022 0.033380255 -0.038461763 -0.00018847453
-0.024128301 0.015928673 -0.041260045 0.015029339 0.041335225 -0.0065695364 -0.04630494 -0.03188745
0.01798235 0.041693773 -0.0012071858 -0.027346881 -0.0313501 -0.021626772 0.0007373794 -0.009255354
0.028553315 0.01081296 0.002965368 0.04175765 0.030721467 -0.028807811 0.011133651 -0.042513598
-0.002588892 -0.044854727 0.0026567373 -0.025197173 -0.014651749 -0.03280046 0.027147718 -0.019236347
-0.008818195 -0.0011451689 0.040792212 -0.021101858 -0.009539295 0.027024332 -0.039415423 -0.0033960494
0.04362144 -0.012952786 -0.04455115 -0.03237581 0.034833472 -0.012816347 -0.023650793 0.04414302
0.013266686 0.044831343 -0.031005533 -0.011645179 -0.040334173 -0.029937452 0.01051721 -0.03542913
-0.0033675032 -0.0056502945 0.0012706681 -0.043760363 -0.014558819 0.030360918 0.024951387 0.034386247
-0.022154298 -0.010699209 -0.052157134 0.033381134 -0.0105142435 -0.013417706 0.023102405 0.028837847
-0.021291528 -0.0020328292 0.020202246 0.025658498 -0.0065794606 0.03941606 0.04125836 -0.003159168
-0.046270017 0.038738497 -0.03455199 -0.0314798 0.03547847 -0.020399626 0.016460724 -0.0007023101
0.019179862 -0.02861023 0.011309509 0.03625077 -0.029836204 -0.049765363 0.038606722 0.013444397
-0.012274488 -0.005705633 -0.025470944 -0.014402267 0.037741926 0.02626982 0.038604647 0.03830696

conv4.bias f4 [32]
00000000: 432e 1fbd 0916 6cbd 0b89 4ebd faa0 02bd
00000010: e09f 58bd 6a5e 4fbc 2579 033d a43d 653b
00000020: 9217 e33b 8870 45bd 3db7 513d 8983 a63c
00000030: 746b d4bc a8b7 103d b15f 0cbd 2cef 453c
00000040: e091 883d b1d1 873c 576b 9e3c 55cb 203d
00000050: c5ea 793d 132f a8bc fcd7 703d e942 f73c
00000060: e6be 863c 71a0 02bd f8d4 473c ec57 513d
00000070: 9051 623b 6d96 9c3c d513 debc 8f16 1ebc
-0.038862478 -0.0576382 -0.050423663 -0.0318918 -0.052886844 -0.012656787 0.032097954 0.0034979368
0.0069303 -0.04820302 0.05120014 0.020326393 -0.025930144 0.0353314 -0.034270946 0.012080949
0.066684484 0.01657948 0.019338293 0.039256413 0.06101491 -0.02053026 0.05879973 0.030183272
0.01644845 -0.03189129 0.012196772 0.05110924 0.0034533478 0.019114697 -0.027109066 -0.009648933

conv5.weight f4 [64, 32, 2, 2, 2]
00000000: 3850 4ebd e426 fe3c f4d4 8b3c 16a6 293d
00000010: d4ca 7f3d 5438 153d ded2 68bd b4c2 2fbd
00000020: 1887 923c 045e 2abd d170 553d 593a e33c
00000030: cfd0 e83b f60f 1abd c8b7 ff3c b7e9 38bd
00000040: 21dc 023d 1d95 b6bc f216 16bd c8be b3bc
00000050: 69f1 b7bc 3bf8 3b3d 4d42 a73c 5798 a53b
00000060: 5b38 dbbd b20c 94bd 8552 49bd 6789 e83c
00000070: fce3 a13c 0093 07bc 6aff 123b b41e ce3d
00000080: 1574 a6bc 13a8 273d 4580 b13c fd7a dfbc
00000090: fc42 203d 7ae1 44bc 76cd 41bc 80c9 b13c
000000a0: 6f06 88bd 8f00 adbc dbe4 2d3d 711c c83c
000000b0: 7194 71bd 39d8 de3c 4a29 adbc c449 303d
000000c0: e9e1 88bd 5a93 abbd 3c94 92bd c4bc abbd
000000d0: 2333 a5bd 1bef 01be 7a3e 0ebe a1a8 d7bd
000000e0: 0c8b 4d3d b237 8fbc f1fc 123d d31a 8cbd
000000f0: 4a40 2c3d 5dd7 8abc b51e 43bd 0dc4 30bd
00000100: 14fb 53bd 20df bd3c 54c5 ef3c fb49 67bc
00000110: dece cf3c 8e75 413d cf44 613d 5f5e 8dbd
00000120: c113 9339 a58c 823c 68d0 023d 429d 2dbd
00000130: 0df1 223d a4e2 733c 24ed 29bd afe8 653d
00000140: bf3b d1bc 6db5 4a3d ceb6 a7bc 99b5 8e3d
00000150: 0e61 5bbd 4de3 3d3d 8f31 74bc 62d2 403d
00000160: 05a6 cf3c ac48 503c 0766 8bbc 5d52 683d
00000170: 5ba6 2cbd be6c 223b bce0 d0bc bf00 033d
00000180: 255d 5cbb 3ff2 63bd c141 3d3d 8936 05bd
00000190: b88d d13c 0b01 26bd 2956 c4bc 9564 fc3b
000001a0: ed45 913d 6641 833d c107 663d 18a0 abbc
000001b0: 4f26 5d3d bc18 443d 0b36 6d3c 4a15 d63c
000001c0: 29c1 14bd 418f 00bc 39cb 28bd 30c2 9a3c
000001d0: e401 233d 4db4 3c3c beef 003d a644 41bd
000001e0: 49ab 55bc 2199 5f3c 0793 603a e383 f0bb
000001f0: dcca 193c 433c 123d 182f b4bc 1538 703d
00000200: d251 b4bb 95ea a33b b517 5b3c ecfc 603d
00000210: adf6 09bd 3a58 63bd b04e 3cbd 69e6 b33c
00000220: d7c9 dabc 5993 29bc eceb 88bc 32fa 61bd
00000230: 4e43 b53b 451c d6bc 5aa3 64bd 499c 81bd
00000240: 9a79 30bd 867d be3c f925 81bb 19de 453d
00000250: a7db 6a3d f5cd 413c cf4e 8abc f8ef 563d
00000260: a327 273d 884e 8ebd 01cd 82bd 0c9c 83bd
00000270: cba3 9dbc 5a35 45bc e8a8 703b 17a6 c23c
00000280: 45da fb3c 8470 703d a726 4bbd c1b7 1e3d
00000290: 4fbd 613d 9271 733d d1a3 1d3c 0439 7ebc
000002a0: d97a ba3c 1869 683d 7d8f 713c 4ad2 3bbd
000002b0: 7dcc 93bc c472 08bd 1ff4 73bc cd96 54bc
000002c0: 5919 693d 883a bbbc 388e 7e3d 9051 04bc
000002d0: aada 663c 8107 723d d1e3 843d eda3 e2bb
000002e0: 539a d6bb e357 003d 435b 6abd a1eb 6f3c
000002f0: 7a9f 0ebc aba2 773c 54e5 7cbd 7106 553d
00000300: 84f9 7f3c b2b9 2fbd 368b c5bd 70f2 e5bd
00000310: 7411 86bd 33c6 c1bd 30ec 05bd c430 f13c
00000320: 9504 3ebd 388b 87bc b9cd 6ebd 7b59 6d3d
00000330: 6d3b 3bbd af00 0f3d a5b9 be3c 3739 0c3d
00000340: 431e 01bb 0e72 88bc f4e5 873d 91da bbbb
00000350: 42a8 41bc 2189 8e3d 51aa 2f3d be02 ed3c
00000360: 27b2 e0bc f692 49bc 8604 8fba 7651 9a3d
00000370: d0d9 793d 5b3b 7e3d bb09 d1bc b323 94bc
00000380: a5b2 debb d79f 13bc ecf6 ec3c 3009 42bc
00000390: b962 86bd 067d 4abd c5a8 9abc f352 553c
000003a0: b76a 2ebd 6d24 f0bc ae3e 593d 4ff9 6cbd
000003b0: 5248 e5bc 5805 0e3d 8b92 58bd f0bd b03c
000003c0: b4a5 1d3d 07dc 283d 46f7 33bd f5e0 8abd
000003d0: 4d15 4dbd 3770 243c e0f3 adbb 74c7 a6bc
000003e0: 9e62 97bc 2d6c 443d 852e 10bd 732f 59bd
000003f0: d888 2dbc 998b 5fbd 02a7 b9bc 7dba 30bd
-0.05036947 0.031024404 0.017069317 0.041418158 0.06244929 0.03643067 -0.056841724 -0.042910293
0.017886683 -0.041593567 0.052109543 0.027737783 0.00710497 -0.037612878 0.031215563 -0.045144763
0.031948213 -0.0222879 -0.036642976 -0.021941558 -0.02245398 0.045891028 0.020417357 0.0050535607
-0.10704108 -0.07228984 -0.049150962 0.028385831 0.019762032 -0.008274794 0.002243007 0.1006445
-0.020319024 0.040931772 0.021667609 -0.027280325 0.03912638 -0.012016648 -0.011828771 0.021702528
-0.06641852 -0.02111843 0.04245458 0.024427624 -0.058979455 0.027202712 -0.021137852 0.0430391
-0.06683714 -0.083777145 -0.0715718 -0.083856136 -0.08066394 -0.12688868 -0.1389102 -0.1053021
0.050181434 -0.017482612 0.035885755 -0.06841054 0.0420535 -0.016948396 -0.047636706 -0.04315572
-0.05175312 0.023177683 0.029268898 -0.014116759 0.025367197 0.04723125 0.05499726 -0.069027655
0.00028052743 0.015936205 0.031937033 -0.0423863 0.039780665 0.014885578 -0.04148592 0.056130107
-0.025541184 0.049489427 -0.02047291 0.06968231 -0.053559355 0.04635935 -0.014904394 0.047075637
0.025347719 0.012712639 -0.017016424 0.056719173 -0.042150836 0.0024784054 -0.025497787 0.031983133
-0.0033624854 -0.055650946 0.046205286 -0.032522712 0.025580272 -0.04052834 -0.023966866 0.00770242
0.070934154 0.06408958 0.05615974 -0.020950362 0.053991612 0.04787515 0.014478217 0.026133198
-0.036317024 -0.007846654 -0.041209433 0.018891424 0.039796725 0.011517596 0.031478636 -0.04718461
-0.013041326 0.013647349 0.00085668307 -0.007339941 0.009386744 0.035702 -0.021995112 0.058647234
-0.005502918 0.0050023296 0.013372351 0.054928705 -0.033682514 -0.05550406 -0.04597348 0.021960454
-0.026707573 -0.010350072 -0.016714059 -0.055170245 0.005531705 -0.026136527 -0.055819847 -0.06328637
-0.04308472 0.023253214 -0.0039412943 0.048307512 0.057338383 0.011828889 -0.016883282 0.052474946
0.040809285 -0.069485724 -0.06386758 -0.06426248 -0.019243142 -0.012036646 0.003672177 0.023760838
0.030743727 0.058701053 -0.04959741 0.03874946 0.05511218 0.05943448 0.009621576 -0.015516523
0.022763656 0.05674085 0.014743683 -0.045854844 -0.018041844 -0.033312574 -0.014889746 -0.012975407
0.05690894 -0.022855058 0.06214735 -0.008076087 0.0140902195 0.059089188 0.06488765 -0.006916514
-0.0065491586 0.031333815 -0.05721594 0.014643581 -0.008705014 0.015114467 -0.06174214 0.052008096
0.015623454 -0.042901702 -0.09645693 -0.11227882 -0.06546298 -0.094616316 -0.03269595 0.029442199
-0.04639109 -0.016545877 -0.05830166 0.057946663 -0.04571097 0.03491276 0.023281882 0.03423425
-0.0019701875 -0.016655948 0.06635657 -0.0057328423 -0.011819901 0.06959749 0.042887036 0.028931972
-0.0274287 -0.012303105 -0.0010911382 0.07535069 0.060998738 0.062068325 -0.025517335 -0.018083429
-0.0067961984 -0.009010277 0.028926335 -0.011843011 -0.065617986 -0.049435638 -0.018879304 0.013020265
-0.04258224 -0.029314244 0.05303829 -0.057854947 -0.027988587 0.034673065 -0.05287413 0.021574944
0.038488105 0.04122546 -0.04393699 -0.067811884 -0.050069142 0.01003652 -0.005308613 -0.020358779
-0.018479642 0.047954727 -0.035200614 -0.053023767 -0.010591708 -0.05457649 -0.022662643 -0.0431466

conv5.bias f4 [64]
00000000: 6db6 5b3c 2f12 473d 1b6e 823d fdae a63d
00000010: 27bd 773c f63d a3ba aeaa afbc 5810 e83c
00000020: 0ea5 323d 3b98 79bd efc7 4f3d 4d15 93bc
00000030: 9823 b23c 6e6e 3e3d 195f e63c 9401 79bd
00000040: ebb6 5cbd a3b8 6cbd cc7b 543d 23ad 1f3d
00000050: c639 713d e741 2fbc 1f55 7ebd 0dbe 493c
00000060: 2c61 54bd b982 513d 4621 0dbc 89d6 023d
00000070: 465b 6bbd cdf8 a43c 3a1a a5bc 6aea a13c
00000080: 38b6 a03d df32 423d ba79 f1bb 163f 463c
00000090: 48a3 213d 2fd4 debc ecb2 583d fa3f 04bd
000000a0: b8c2 cc3b a9d4 373d 4d55 4b3d 0839 233c
000000b0: 61f8 63bc 4ea4 e03b 40ff 34bd 13d8 3f3d
000000c0: 8cb7 b4bc a4f5 42bc 9d87 54bd ce38 263d
000000d0: 0693 26bd cf6d eb3c 37f0 2dbb c7f0 623d
000000e0: 91e0 593c 4762 30bc 3e8e 133d 703f dbbc
000000f0: 5949 46bc 194f dd3c 8531 0bbd e055 5b3d
0.013410193 0.048601326 0.06368657 0.08138845 0.015120781 -0.0012454379 -0.021443691 0.028328106
0.04361444 -0.060936194 0.05072778 -0.017954493 0.021745488 0.046492033 0.028121518 -0.06079252
-0.05388538 -0.05779327 0.051875874 0.038983475 0.058892988 -0.010696865 -0.062092897 0.012313378
-0.051850483 0.051150057 -0.00861389 0.031942878 -0.057460092 0.020138169 -0.020154107 0.019765098
0.078472555 0.047411796 -0.0073692473 0.012100002 0.039462358 -0.027200786 0.05290501 -0.032287575
0.006248798 0.044880543 0.049641896 0.009962328 -0.013914199 0.006855524 -0.044188738 0.046836924
-0.022060178 -0.011899386 -0.051887143 0.040581517 -0.040667556 0.028738884 -0.0026540884 0.055405404
0.01329817 -0.010765619 0.036024325 -0.026763648 -0.012102448 0.027015256 -0.033982772 0.053548694

linear1.weight f4 [128, 512]
00000000: 140a 46bd 2406 45bd e8bd 15bd 6430 1bbd
00000010: 8ea3 8dbb beb9 27bd d41a c5bc c96d 92bc
00000020: a248 b2bc 81bc 133d 265c 313b eb30 913c
00000030: 9bd3 403d df81 b2bb d0a7 2d3d c9cd cc3b
00000040: 0b97 83bd e5e1 8bbd 3acb 35bd f523 07bd
00000050: 32c0 1abd 5938 ddbb 2e2c 1ebd 6ac3 1a3c
00000060: 4bfc 85bd f53c 75bc 3ef1 29bd c754 85bd
00000070: c08f e0bc a974 743c 0a0f 85bc 8f03 5bbc
00000080: 35a9 4fbd e5dd 9d3c 2e5c 4dbd d181 173c
00000090: 5bd7 403c 697a 6bbc 9d8a b23a 414e 083d
000000a0: 4b5f 4d3d ded1 563d e7cc 6bbc 34c5 a0bc
000000b0: 8e1f 98bc a257 c43c 4573 cc39 a788 083d
000000c0: 6b2e b6bc afb0 eebb d31a f0bb c725 a0bc
000000d0: f9c7 b93c 0f9b dd3c a538 613c 783f c23b
000000e0: e032 f6bc faa9 7ebd 7532 57bd 8785 3cbd
000000f0: f16e 303c adc8 3d3c 1871 943c 48f8 4bbd
00000100: 2c11 e6bc 11a3 80bd cef4 f2bc 5e14 33bd
00000110: 509e 64bd 2d6c 18bd 1632 12bc 5af8 223b
00000120: 8b9f 28bd 85d7 c9bc cb17 0ebd 3814 143d
00000130: 7e94 5b3c 91d5 183d 3969 39bc 66b5 7c3c
00000140: 5233 1f3d 1ec6 cd3c 20b2 e8bb 44ba cdbb
00000150: 5da2 053d 23bf bcbc 2c67 353d 62f3 833c
00000160: e363 403d 9fe8 383d 5793 e53c c8f6 75bb
00000170: a383 d83c 6614 fe3a ceaa 79bc bdfa 1f3d
00000180: 669f 1cbd ca41 89bd 304d 82bb c9fd 22bd
00000190: 12b5 a6bb a3ff 8839 ac6d 773d 97df 423d
000001a0: 2b42 76bd d5bb b9bc d02c ac3c 9edc 863b
000001b0: fc43 a4bc 047e 6b3c ddc4 59bd 6009 dd3c
000001c0: a67a 5cbd 9cd2 8fbc f508 76bd 73bb 66bd
000001d0: 8e74 4bbd 4039 48bd 6edd 09bd 62d1 83bd
000001e0: f031 2e3d f087 4fbb bcaf f5bb 71b9 28bd
000001f0: 1a6c e7bb 91f4 83bb 7010 f0bc 0624 d83c
00000200: 99fb 733d 8b36 943c d2d4 df3c 27e2 0e3d
00000210: 6f48 ee3c 70ef debc 6e91 413c cf9f 843c
00000220: 0812 e6bc f842 0b3d 5cbe 60bb 455c 2f3d
00000230: 2713 8c3c 00b5 1bbc 4058 883b b8c4 ffbb
00000240: 0c22 5d3d 7907 04bc 296f 733c 98cf 413d
00000250: ddeb 1c3d 9d6d 8c3d 3a7d afbc 48a1 a53b
00000260: 74c7 343c f9c4 253c 2b05 113d 93dd 063d
00000270: 501a bc3c fa15 2f3d 9dea d13b 7dd7 fb3c
00000280: cd5a 173c abdc 9cbc dd08 823d 8bdf 203d
00000290: 3f42 243d a510 683d edb9 6fba 1cc0 033d
000002a0: c908 cdbc 2af9 753d 9868 523d a189 0f3d
000002b0: e953 5d3b bfdd 91bc 58c8 d13c 0f74 62bc
000002c0: 2478 89bc 14e5 873b 878b 8c3c 4556 163d
000002d0: 7e07 80bc 7e50 a13b a85e a13c 0961 6a3c
000002e0: 652c a23a eea8 2c3d f8d9 5dbb 397a 063c
000002f0: 1766 513d adb8 8e3c 97b4 eb3c 1d01 393d
00000300: 83f8 bfbb ad12 353d 71d1 b0b9 24eb a9bc
00000310: 3a8e 2bbd 2aa3 e2bc 58df 9abb 409d ec3c
00000320: 4603 3fbc 7cd9 cbbc c90d 1abd b9ca 31bc
00000330: d98a abbc c366 4abb da79 d5ba ed46 23bd
00000340: 04b1 493d d3cd aebc a727 703d f013 6f3d
00000350: 43e5 e43b d039 033d d3f2 55bc 9b18 da3c
00000360: dc24 283c 4f91 9bbc e859 153c e970 40bd
00000370: 71ed d3bb e450 0dbd 8d5f 023c ad05 e0ba
00000380: 0123 67bc 22d7 27bd 2e0d c8bc bb9d f63c
00000390: 0df0 d7bc 24c0 933c ffa8 87bc 4dac 30bd
000003a0: 81d2 fa3c d329 053d 8ef2 fc3c 5bfd 3c3d
000003b0: 3bf8 a5bc d405 53bc 1f2c 623d 605c f83c
000003c0: cf46 913d 861b 653c 6e72 8b3d c3e2 043b
000003d0: 4a8d d83c 11ce bcbc 5c5d efbc cd39 a83c
000003e0: 6e7b cf3c a1cf 573c 5424 a73b 1099 d1bc
000003f0: 3318 a63c f8d7 ebbc 4e8c 313d 7b4f 7b3c
-0.048349455 -0.04810156 -0.03655806 -0.037887946 -0.0043224758 -0.040948622 -0.024060644 -0.017874615
-0.02176315 0.036068443 0.0027062981 0.017723521 0.047076803 -0.0054476107 0.042396367 0.0062501174
-0.064252935 -0.06830195 -0.044383265 -0.032993276 -0.037780948 -0.006751102 -0.03861635 0.009446004
-0.06542262 -0.014968147 -0.041489832 -0.065103106 -0.027412295 0.014920392 -0.016242523 -0.013367548
-0.050698478 0.019270847 -0.050136738 0.009247259 0.011770095 -0.014372447 0.0013621632 0.033277754
0.050139707 0.05244624 -0.014392114 -0.019625284 -0.018569734 0.023967568 0.00038995795 0.033333447
-0.02223893 -0.007284246 -0.0073274164 -0.019549264 0.022678362 0.027051477 0.013746415 0.005927976
-0.030053556 -0.06217382 -0.052538354 -0.04602578 0.010768638 0.011583489 0.018120334 -0.049797326
-0.02808436 -0.062811024 -0.029657748 -0.043720596 -0.05581504 -0.03721254 -0.008923074 0.0024867267
-0.041167777 -0.0246389 -0.03469066 0.036152095 0.0134021025 0.037313048 -0.011316591 0.015424108
0.038867302 0.025118884 -0.0071013123 -0.006278308 0.032625545 -0.02304036 0.044287845 0.016107265
0.04697026 0.04514372 0.028024359 -0.0037531126 0.026429957 0.0019384741 -0.015238477 0.039057482
-0.03823795 -0.067020014 -0.0039764866 -0.03979281 -0.005087503 0.00026130406 0.060407326 0.047576513
-0.060121696 -0.022672573 0.021017462 0.004115655 -0.020051949 0.014373306 -0.05316626 0.02698201
-0.053827904 -0.017556481 -0.060067136 -0.05633111 -0.049671702 -0.048882723 -0.033658437 -0.06436421
0.042528093 -0.0031666718 -0.007497756 -0.041192476 -0.0070624473 -0.0040269573 -0.029304713 0.026384365
0.059566114 0.018092414 0.02732316 0.034883644 0.029087273 -0.027213782 0.011814458 0.016189484
-0.02808477 0.033999413 -0.003429315 0.042812604 0.017098976 -0.009503603 0.004160911 -0.007805433
0.053987548 -0.008058422 0.014858046 0.047317117 0.038310874 0.068568446 -0.021422017 0.0050546266
0.011033881 0.010117763 0.03540532 0.032926153 0.022961766 0.042745568 0.006406142 0.030742401
0.009237957 -0.019148191 0.06349347 0.039275687 0.04010224 0.0566565 -0.00091448316 0.03216563
-0.025028603 0.060052074 0.05136928 0.035043363 0.0033771938 -0.017805932 0.025608227 -0.013821616
-0.01678092 0.0041471813 0.017156376 0.036703367 -0.015628573 0.0049229255 0.019698456 0.014305362
0.001237285 0.04215329 -0.0033851843 0.008207851 0.05112275 0.017422045 0.028772635 0.045167077
-0.0058584823 0.044207264 -0.00033725382 -0.020742007 -0.041883685 -0.027665693 -0.0047263317 0.028883576
-0.011658495 -0.024883978 -0.037610803 -0.0108515555 -0.020940231 -0.0030884005 -0.0016286925 -0.039862562
0.04924108 -0.021338379 0.058631565 0.058368623 0.006985338 0.032037556 -0.013058382 0.02662306
0.010262694 -0.018990187 0.009115674 -0.04698268 -0.006467514 -0.03450097 0.007957351 -0.0017091535
-0.014107467 -0.04097665 -0.024420347 0.030104509 -0.026359582 0.018035956 -0.016560076 -0.04313307
0.030617954 0.03251059 0.030877378 0.046140056 -0.020259967 -0.0128798075 0.05521786 0.030317485
0.07093584 0.013983613 0.06808935 0.0020276762 0.02643456 -0.023047479 -0.029219322 0.020535374
0.02532741 0.013172061 0.005100766 -0.025585681 0.020275211 -0.028789505 0.043346696 0.015338774

linear1.bias f4 [128]
00000000: d061 873c 0341 1cbd f672 1bbd 8909 093c
00000010: 607a a3bb 9594 1abd fdcc 163d 6751 06bb
00000020: aa3e 113d e54f 283c 4f76 813c 5b47 f33c
00000030: 88d5 db3b 4413 353d 9833 5ebc 8be9 9bbc
00000040: 6ba5 883c b2b5 c23b 3713 403c d485 a63c
00000050: 91f8 9dbc 25a3 d5bc d964 bebb 3146 313d
00000060: 559c 0a3d b7b8 e2bc 1fdc 2cbd 578a be3c
00000070: b177 693c da8e 513c 35e3 df3b 5179 a1bc
00000080: 017b 6c3c dccb 4c3d 6ce9 2ebd 4717 de3b
00000090: f580 50bd f107 0d3c de86 3d3d b89d 1fbd
000000a0: 6dd7 f8bb 0a4d 613b e94e 4d3c a6d2 343d
000000b0: 946c fe3c 8f86 ab3c a13a 33bd 463c b13b
000000c0: 9a8b 343c ec89 2bbd b5c7 223d 1225 16bd
000000d0: 4329 56bb 125b 743c 4eb1 4d3d 7706 2dbc
000000e0: 46a0 c1ba e910 b33b 70ad 203c a489 323b
000000f0: 0ff9 52bc e869 37bd 6307 97bc b46e b83b
00000100: 26c7 a83c 3b38 c9bc 8beb 1abb 9c38 f7bc
00000110: 8197 053d 1dd7 113d 6357 91bc 86a9 923b
00000120: dabe bbbc 0ca4 173d 074c 443c c7e4 b13c
00000130: a2b8 cebb 2a0f 0a3c 0f1f aabc 91cd b33b
00000140: 4408 483c 27cc 12bd a4e1 1fbd 7960 80bc
00000150: 5d09 bb3d c2ef 94bc 3278 fd3c 7e1a bfbc
00000160: 805e 6c3c 7990 1d3d 225a d9bc d811 e73c
00000170: 9892 633d a93d cb3c 71a4 ccbc 027b aa3c
00000180: f021 153d 25e9 0f3c d24f ee3c ac05 8cbc
00000190: 22aa 7d3c 5593 a43c 70bd 48bc 5512 263d
000001a0: bc5c e03c 83d2 79bd e738 23bd 7997 49bd
000001b0: 17e6 fd3b 7271 cabc f63e 15bd 2821 27bd
000001c0: d0bb 003c 7bb6 4abd 5e9e a1bc 5a22 e43c
000001d0: 43f2 ef3c 18c1 6ebc 004f ad3c 3d48 7a3c
000001e0: 3cdc b6bc 2f8f 33bd 107e 003d c602 863a
000001f0: c210 39bd 3975 9fbc e7d6 843c 2469 8a39
0.016526133 -0.038147938 -0.037951432 0.00836409 -0.0049889535 -0.037739355 0.036816586 -0.0020495297
0.03546015 0.010272955 0.015803484 0.02969711 0.0067088045 0.044207826 -0.013562106 -0.01903226
0.01668044 0.00594207 0.011723331 0.020327486 -0.019283565 -0.02607877 -0.005810362 0.04327983
0.033840496 -0.02767597 -0.04220211 0.023259325 0.014249728 0.012790406 0.006832505 -0.019711168
0.014433623 0.049999103 -0.042703077 0.006777677 -0.050904233 0.00860785 0.046271197 -0.03896877
-0.00759404 0.0034378194 0.012531021 0.044146203 0.031057633 0.020938186 -0.043757085 0.0054087965
0.011019612 -0.04187958 0.039741237 -0.036656447 -0.0032678402 0.014914291 0.05021792 -0.010560623
-0.0014772497 0.0054646623 0.009806976 0.0027242685 -0.012876763 -0.044778734 -0.01843614 0.005628431
0.020602774 -0.024562946 -0.002363893 -0.03017836 0.03261519 0.03560554 -0.017741865 0.004475775
-0.022918154 0.03702168 0.011981017 0.021715535 -0.006308631 0.008426467 -0.020766763 0.005487152
0.012209002 -0.035839226 -0.039033547 -0.015671002 0.09132645 -0.018180732 0.030941103 -0.023328062
0.014426827 0.038467858 -0.026532236 0.02820675 0.055559725 0.024809675 -0.024980756 0.020810608
0.03640932 0.008783613 0.029090796 -0.017092548 0.015482457 0.020089785 -0.012252197 0.040544827
0.02738797 -0.060991775 -0.03984919 -0.04921672 0.007748376 -0.024712298 -0.036436997 -0.040803105
0.007857278 -0.049490433 -0.019728836 0.027848411 0.029290324 -0.014572404 0.021155834 0.015276012
-0.022321813 -0.043837722 0.031370223 0.0010224215 -0.045181997 -0.019465076 0.016215755 0.00026399747

linear2.weight f4 [1, 128]
00000000: b922 d33d 0e78 813c e99c a23d b0cb 043d
00000010: 96d7 d63c c401 0a3d 54c6 523d 59aa 4bbd
00000020: 9321 5c3d a13b 0a3d bd46 783d 6cc9 d7bd
00000030: b522 8d3d f453 df3c 2eb4 643d fc69 903d
00000040: c5c3 8d3d 420b d8bd 3e06 e63c 8706 84bd
00000050: 302f cbbd 8ac6 8e3d 8611 3b3d e34f 9cbd
00000060: c37e 0abd 20aa 893d 025b fe3c ca8a 27bd
00000070: 1673 ab3d 540e bc3d a2b7 eebc f408 703d
00000080: 830d b2bd b529 dc3d da34 283d c4a0 e2bd
00000090: 53cf 7ebb 2989 20bd cecf d5bd 331d 8abd
000000a0: 37f6 a23c 9aad c9bd 6915 62bd fb30 89bd
000000b0: f21a 0c3d 51f0 d7bd cffa 1d3d f576 9ebd
000000c0: feb7 ac3d 58d6 92bd ac6c b33d e0f9 43bd
000000d0: 7f65 08bd c061 dfbd 6e69 3dbd 4cee 65bd
000000e0: e108 f1bd d023 52bd ef03 9e3d a6f9 9fbd
000000f0: 189e 823d 4dd0 303c b23f 993d f957 433d
00000100: 5d4d 383d ae01 50bd ddb5 fc3c 62d4 1fbd
00000110: 51fe bc3d e85b 943d 95ac bdbd 6c08 563d
00000120: c83e 8fbd 0279 a6bd 2880 6a3d a1a5 a03d
00000130: 63fc 87bd e069 abbd 2bfb 143d 346f d6bd
00000140: a040 84bd cc0b 9cbd 71b1 743c 984d 013d
00000150: f045 da3d 5787 e13b 9eb9 7fbd 3d00 74bd
00000160: a66a a33d 37a4 a23d 4ad8 1a3d 5c2b 1fbd
00000170: bde4 83bd 41af 0d3d bf45 53bd 1cc0 9fbd
00000180: cd5f 5dbd 031d c53d 7a40 bfbd 8d6e 863d
00000190: 346a 9cbd 632c bbbd 32c2 30be 5f64 a1bd
000001a0: 0f1e 53bd f2d7 093d a9d6 69bd da3e 79bd
000001b0: 3d92 d6bd 51d1 203c 770e 763d e07c 5e3d
000001c0: 8019 143d 29a0 ad3c 02de 613d 89c9 83bd
000001d0: 33a6 a63d 5bf8 b63d cc31 e53c d841 043d
000001e0: 9a32 8dbd 8dec 1bbd 5a6f 6abd 050f 423d
000001f0: 19d7 473d 825c 973d d419 63bd abb4 0e3d
0.10309357 0.015804317 0.079400845 0.032420814 0.026225846 0.03369309 0.05145867 -0.049723003
0.053742956 0.033748273 0.060614336 -0.10536465 0.068913855 0.027261712 0.055835895 0.07051465
0.06922106 -0.10549022 0.028079148 -0.064465575 -0.0992111 0.06971462 0.04567101 -0.07632425
-0.033812296 0.06721902 0.031049255 -0.040903844 0.0837156 0.091824204 -0.029140297 0.05860229
-0.086939834 0.107501425 0.04106603 -0.1106582 -0.00388809 -0.039193306 -0.10440026 -0.067438506
0.019892795 -0.09847565 -0.0551962 -0.066987954 0.034205385 -0.105438836 0.038569268 -0.07737533
0.08433531 -0.07169789 0.08760962 -0.04784572 -0.03329992 -0.10907316 -0.046243124 -0.05613546
-0.11769272 -0.051303685 0.07715594 -0.078112885 0.0637781 0.01079185 0.07482852 0.04769132
0.044995654 -0.050782852 0.030848438 -0.039020903 0.092281945 0.07244092 -0.09261433 0.052254125
-0.069943964 -0.08128549 0.057251126 0.07844091 -0.06639936 -0.083698034 0.036372345 -0.10470429
-0.06457639 -0.076194376 0.014934883 0.03156814 0.10657871 0.006882589 -0.062432878 -0.05957054
0.07979326 0.07941478 0.037803926 -0.03885971 -0.06440113 0.034590963 -0.051580187 -0.07800314
-0.05404644 0.09624674 -0.0933847 0.06564055 -0.07637444 -0.091393255 -0.1726158 -0.078804724
-0.051542338 0.033653207 -0.05708948 -0.060850956 -0.104771115 0.00981553 0.06007239 0.05431831
0.03615713 0.021194534 0.055143364 -0.06434924 0.08137169 0.08934089 0.027977847 0.032289356
-0.06894417 -0.03806739 -0.0572351 0.047377605 0.048789117 0.07390691 -0.055444553 0.034840267
