models/5A_SSE_alpha.pth (torch, 421229 bytes, 13 tensors)

conv1.weight f4 [4, 1, 5, 5, 5]
0	0x3cd400bd	0.025879258
1	0x3d095892	0.033531733
2	0xbd8ac372	-0.067755595
3	0x3d9609f8	0.0732612
4	0xbca065fa	-0.019579876
5	0xbcbb1e0b	-0.022841474
6	0x3cc51c27	0.024061276
7	0x3b5178dd	0.003196291
8	0x3d3c4a94	0.04596956
9	0xbd7eff35	-0.062255103
10	0x3d71e5ff	0.059057232
11	0xbd5abdb6	-0.05340358
12	0xbd0dc67d	-0.03461312
13	0x3d7d38f1	0.06182188
14	0x3d945dc4	0.07244447
15	0xbd8226f0	-0.06355083
16	0xbd48ea38	-0.049051493
17	0x3d2f8ac2	0.04285694
18	0x3d847300	0.06467247
19	0xbc3ec6e2	-0.011644097
20	0xbca5f950	-0.020260483
21	0x3d839857	0.06425541
22	0xbda41a88	-0.08012873
23	0xbd903d98	-0.07042998
24	0xbd9ca6c0	-0.076489925
25	0xbdd25ecb	-0.102719866
26	0x3db4a4d6	0.088205025
27	0x3b98cb12	0.0046628797
28	0x3d95f690	0.07322419
29	0x3cd3beeb	0.025847873
30	0xbd644ed2	-0.05573923
31	0x3db01155	0.08597056
32	0x3c115f29	0.008872786
33	0x3d7bed89	0.061505828
34	0xbd11377f	-0.035453316
35	0x3b11a549	0.0022223762
36	0x3cbcd5dd	0.023051197
37	0x3c85297f	0.016255138
38	0xbd5a4378	-0.053287
39	0x3dcaacd9	0.09896249
40	0x3d2a1d3a	0.04153178
41	0x3d0c7e6c	0.034300253
42	0xbc5292f7	-0.012852422
43	0xbcd7d10e	-0.026344802
44	0xbd01c9dd	-0.031686652
45	0xbd8ca7a7	-0.06867915
46	0x3c9837dd	0.018581325
47	0x3ccd6247	0.025071276
48	0x3da61e41	0.08111239
49	0xbb26963a	-0.0025419132
50	0xbb25ed8f	-0.0025318598
51	0xbd43046b	-0.047611635
52	0x3c4b44c3	0.012406531
53	0x3da1a69a	0.07893105
54	0x3d50152a	0.050801434
55	0xbbf18530	-0.0073706135
56	0x3d94e050	0.07269347
57	0xbd57ce1a	-0.05268679
58	0x3df12ffb	0.1177673
59	0x3d659864	0.056053534
60	0x3c55d6d9	0.013051712
61	0x3d4c7999	0.049920652
62	0x3d051f16	0.03250035
63	0x3d5d4751	0.05402309
64	0x3ddd1f4b	0.10796984
65	0xbd1aef7d	-0.03782605
66	0x3dcc4160	0.09973407
67	0xbccc4a14	-0.024937667
68	0x3de67993	0.11253657
69	0xbcc6b49e	-0.024256047
70	0xbd7b7ee6	-0.061400317
71	0xbc89f0f8	-0.016838536
72	0xbc69e262	-0.014275165
73	0x3d8613fb	0.0654678
74	0xbdbe0db0	-0.092799544
75	0xbd8437e4	-0.06455973
76	0x3ca58c0f	0.020208387
77	0xbdb0dbc0	-0.08635664
78	0xbbc05ddd	-0.0058705644
79	0x3b16528f	0.0022937392
80	0xbd5bd68c	-0.053671405
81	0xbd0f03d3	-0.034915756
82	0x3dd9ec99	0.106408305
83	0x3dc8167c	0.097699136
84	0x3c91cad0	0.017796904
85	0xbc1fe341	-0.009758771
86	0x3d2ce563	0.042210948
87	0x3d984cde	0.07436536
88	0x3db2faa1	0.0873921
89	0x3c6e94d5	0.0145618515
90	0x3cb05437	0.021524532
91	0xbd642474	-0.055698827
92	0x3d944fff	0.072418205
93	0xbd24960b	-0.040182155
94	0xbd033feb	-0.03204338
95	0xbd1505d9	-0.03638253
96	0x3d975916	0.07390039
97	0xbcf77e5e	-0.030211624
98	0xbcb16702	-0.021655563
99	0x3d9e7848	0.077377856
100	0xbd6ccfa4	-0.05781521
101	0x3d7ad547	0.061238553
102	0x3d6428eb	0.055703085
103	0x3cbb3ae0	0.022855222
104	0xbca39702	-0.019969467
105	0x3c1ce6d2	0.009576516
106	0xbd841351	-0.06448997
107	0xbcde5165	-0.027138421
108	0xbd42191f	-0.04738724
109	0xbc148144	-0.009064022
110	0xbd569037	-0.052383628
111	0xbd8e68d8	-0.06953591
112	0xbc8cad49	-0.017172473
113	0xbdc2d5d9	-0.095134445
114	0x3d2057c1	0.03914619
115	0x3d6c6af6	0.057719193
116	0x3dbcb050	0.092133164
117	0xbd2a74b5	-0.041615207
118	0x3dc3ee31	0.09566916
119	0x3d6adcf5	0.057339627
120	0x3d7c7bb2	0.061641403
121	0xbd29604d	-0.041351605
122	0xbd86b8f5	-0.065782465
123	0xbd9fff9f	-0.07812428
124	0xbd45a02c	-0.048248455
125	0x3db17b63	0.08666112
126	0x3da770e9	0.08175833
127	0x3cbdf425	0.023187706
128	0xbd00f405	-0.031482715
129	0x3d44361a	0.047903158
130	0xbd233aaa	-0.03985087
131	0x3d167ffb	0.036743145
132	0x3c7b3201	0.015331746
133	0x3d88eabc	0.06685397
134	0xbc17bfdb	-0.0092620505
135	0xbc852b52	-0.016256008
136	0xbd315148	-0.043290406
137	0x3c938d7d	0.018011803
138	0xbdaedc5b	-0.08538123
139	0xbc664383	-0.014054182
140	0xbd8454b9	-0.06461472
141	0xbd8c9996	-0.06865232
142	0xbad197b6	-0.0015990648
143	0xbdba870c	-0.091077894
144	0xbd32f2eb	-0.043688696
145	0x3b4b31f0	0.0031005107
146	0xbd0977b4	-0.033561423
147	0xbd2c1c29	-0.042019043
148	0x3afab5a3	0.0019127618
149	0xbd0e4422	-0.034732945
150	0x3db93ae0	0.09044433
151	0xbc0a8a0c	-0.0084557645
152	0x3bae7398	0.0053238384
153	0xbd66cec8	-0.056349546
154	0x3db9a5e2	0.09064843
155	0xbd46418d	-0.048402358
156	0xbd493e8a	-0.049131908
157	0xbdc18074	-0.094483286
158	0x3d9c60fe	0.07635687
159	0xbd3f25a0	-0.04666674
160	0x3d445cfd	0.047940243
161	0xbdb85e36	-0.09002344
162	0xbdcdc297	-0.10046881
163	0x3bcbe14e	0.006221927
164	0xbb78ed10	-0.0037983097
165	0xbc7f07b3	-0.0155658005
166	0xbd792993	-0.060830664
167	0x3cb048d7	0.021519108
168	0x3d56013e	0.05224728
169	0xbd479495	-0.048725683
170	0x3cf0f508	0.029413715
171	0x3c819af3	0.015820956
172	0xbd8bef8f	-0.068328016
173	0xbd455e01	-0.048185352
174	0x3d1eec67	0.03879967
175	0x3d75aba7	0.059978154
176	0x3d004e49	0.03132466
177	0xbd02c331	-0.03192443
178	0x3b4b124b	0.0030986245
179	0x3d7cb1e7	0.0616931
180	0xbcb8e7cb	-0.022571465
181	0xbdb9eaf7	-0.09078019
182	0x3c81748d	0.015802646
183	0x3cc4f6a4	0.024043389
184	0x3dad28d0	0.0845505
185	0x3c8648a5	0.016392061
186	0xbd823d78	-0.063593805
187	0xbdba77b3	-0.09104862
188	0x3da3dcee	0.08001123
189	0x3d897282	0.06711294
190	0xbcaf9f0a	-0.02143814
191	0xbd75c7de	-0.06000506
192	0xbba1796f	-0.004927806
193	0xbd3588db	-0.04431997
194	0x3d26a223	0.04068197
195	0xbd4f0a61	-0.050547007
196	0x3c8c664d	0.017138625
197	0x3d3f6246	0.04672458
198	0xbdaf35c7	-0.08555179
199	0x3d9ffa84	0.07811454
200	0xbd00627a	-0.031343915
201	0x3d3f1258	0.046648353
202	0xbd4f7316	-0.050646864
203	0x3dba8472	0.09107293
204	0x3d9e5436	0.07730906
205	0x3d87d199	0.066317745
206	0xbdb05839	-0.08610577
207	0xbd8f8ac0	-0.07008886
208	0x3d21006e	0.03930705
209	0xbd8732b0	-0.06601465
210	0x3cd93ae4	0.026517339
211	0xbd88aab3	-0.06673183
212	0xbcf89636	-0.030345064
213	0xbd8f541c	-0.069984645
214	0xbd431c3e	-0.047634356
215	0xbcb3dc06	-0.021955501
216	0x3d3e3c40	0.046444178
217	0x3d53101f	0.051529046
218	0x3bf458a6	0.007456857
219	0xbd6dfb0b	-0.05810074
220	0xbd2b13b8	-0.041766852
221	0x3d87d2c2	0.06631996
222	0x3d96c879	0.07362456
223	0x3da32b18	0.07967204
224	0xbce46281	-0.027879002
225	0x3cbc1e3f	0.022963641
226	0xbd113814	-0.03545387
227	0x3d18076d	0.037116457
228	0xbc874006	-0.016510021
229	0x3d538ec5	0.051649828
230	0x3d5a8002	0.053344734
231	0x3daf3ce9	0.085565396
232	0x3d7366b0	0.059424102
233	0x3d31782f	0.043327507
234	0xbcccb4fd	-0.024988646
235	0x3cafcdfb	0.021460524
236	0x3d094afb	0.033518773
237	0xbd5a2559	-0.053258274
238	0xbd6182b5	-0.055056293
239	0x3d6a8d84	0.057263866
240	0x3c8ac29f	0.016938506
241	0xbcd3b181	-0.025841476
242	0x3d8dd880	0.0692606
243	0x3dc80606	0.09766774
244	0xbd8c6bcd	-0.06856499
245	0x3d876491	0.066109784
246	0xbc19fc97	-0.009398601
247	0xbceedeb7	-0.029158933
248	0xbbbca8b2	-0.0057574147
249	0x3da031de	0.078220114
250	0x3bee554b	0.0072733513
251	0xbce949a5	-0.0284775
252	0xbdb9de16	-0.09075563
253	0x3c61344d	0.01374538
254	0xbd050348	-0.032473832
255	0x3dc379d9	0.09544725

conv1.bias f4 [4]
0	0xbe02479e	-0.12722632
1	0x3d5df1d7	0.054185715
2	0xbd40a633	-0.0470335
3	0x3da54b07	0.08070951

conv2.weight f4 [8, 4, 5, 5, 5]
0	0xbc8bb98c	-0.01705625
1	0x3d08a565	0.033360858
2	0x3d467d2a	0.04845921
3	0x3aa21244	0.0012365063
4	0x3be653f1	0.0070290496
5	0xbc439d94	-0.011939425
6	0xbbb4df58	-0.0055197887
7	0xbbdaef40	-0.006681353
8	0xbc163d2c	-0.009169858
9	0x3d72f235	0.059313018
10	0x3ce4de81	0.02793813
11	0x3cd0be81	0.025481464
12	0x3cb9d51a	0.022684623
13	0x3d3155ef	0.043294843
14	0x3c193d1a	0.009352947
15	0x3d392a30	0.04520625
16	0x3c8b5df6	0.017012578
17	0x3d653424	0.05595793
18	0x3d73590f	0.059411105
19	0x3a338e73	0.00068495347
20	0x3b8647ab	0.004097899
21	0x3cafd9c3	0.021466142
22	0x3c7b0f33	0.015323448
23	0x3c954be0	0.018224657
24	0x3d01a450	0.03165084
25	0x3d88bf28	0.06677085
26	0x3cc331eb	0.023827514
27	0xbc928a02	-0.017888073
28	0x3d4a0e71	0.04933018
29	0xbcc81f63	-0.024429029
30	0xbbc11108	-0.005891923
31	0x3c8d8bc5	0.017278561
32	0x3d14b865	0.036308665
33	0x3d0a77f1	0.03380579
34	0xbb97a5f8	-0.0046279393
35	0x3d3ffc10	0.046871245
36	0x3d320896	0.04346522
37	0x3d0a716a	0.033799566
38	0xbb9f8320	-0.0048679262
39	0x3d470f98	0.048598856
40	0x3cef5fc8	0.029220477
41	0xbc9c76d9	-0.01909964
42	0x3cefa236	0.029252153
43	0x3b6eb76a	0.0036425241
44	0xbc172c01	-0.0092268
45	0x3c8eeabb	0.017445913
46	0xbc38c8c3	-0.011278334
47	0x3c5de8a7	0.013544238
48	0x3d572998	0.0525299
49	0x3c39d0c5	0.011341278
50	0x3d352bd2	0.044231243
51	0x3cbeef22	0.023307387
52	0xbce5b9a1	-0.028042616
53	0xbb4ae4a8	-0.0030959044
54	0x3cc19960	0.023632705
55	0x3d66db87	0.0563617
56	0xbccc8803	-0.0249672
57	0xbcb0d810	-0.021587402
58	0xbb9a9ea4	-0.0047186185
59	0x3c47bcd9	0.012191021
60	0x3c83e85b	0.016102007
61	0x3cb4a396	0.02205066
62	0x3ca1c940	0.019749284
63	0xbd38df7a	-0.045135
64	0x3cd9c0ac	0.02658113
65	0x3d008703	0.031378757
66	0x3c08e109	0.008354434
67	0x3c59e631	0.013299511
68	0xbcec460e	-0.028841998
69	0xbc14506b	-0.009052376
70	0xbbce5ccb	-0.006297683
71	0xbcbb879f	-0.022891818
72	0xbd3aa47b	-0.045567017
73	0x3c10ae7a	0.008830661
74	0x3d384293	0.044985365
75	0x3d3d8f95	0.04627951
76	0xbcdf86f0	-0.027286023
77	0xbcc91d15	-0.02455
78	0x3ab554b7	0.0013834451
79	0xbbbce2a2	-0.0057643214
80	0x3a894a70	0.0010474455
81	0x3bad999e	0.0052978536
82	0x3cf04203	0.029328352
83	0xbc6b472c	-0.01436023
84	0x3b696b5a	0.0035616965
85	0x3d37d244	0.04487826
86	0x3863dab6	5.4324708e-05
87	0xbd28881d	-0.041145433
88	0x3bc4bf29	0.0060042334
89	0xbd1df132	-0.0385601
90	0xbb3bd9ef	-0.0028663834
91	0xbb8f198f	-0.0043670605
92	0xbc2c8c04	-0.010531429
93	0xbcf9232f	-0.030412285
94	0x3ccbd554	0.024881996
95	0x3ccb9b63	0.024854368
96	0x3c7aee30	0.015315577
97	0xbc6c0564	-0.014405582
98	0xbca1cb08	-0.019750133
99	0xbcf9b517	-0.030481858
100	0xbc8febc4	-0.017568476
101	0x3d044a1a	0.03229723
102	0x3d54461d	0.051824678
103	0x3d0f037b	0.03491543
104	0xbbd60e60	-0.0065324754
105	0x3cf3c3c4	0.029756434
106	0x3d4d1cfb	0.050076466
107	0x3d2be251	0.04196388
108	0x3d08c818	0.03339395
109	0xbca299f0	-0.019848794
110	0x3d791f02	0.060820587
111	0x3cac21a3	0.021012133
112	0x3d00b6d4	0.03142436
113	0x3baf1f06	0.0053442745
114	0x3d2fe372	0.042941518
115	0xbb26b2e9	-0.0025436229
116	0x3bf6380e	0.0075140065
117	0xbd1372f0	-0.035998285
118	0x3d0a4176	0.033753835
119	0x3c76cc85	0.01506341
120	0x3ca7af77	0.02046941
121	0x3d8228cd	0.063554384
122	0x3cb1f19e	0.021721657
123	0xbc5a2a49	-0.013315746
124	0x3cc2e9d1	0.023793133
125	0x3c7ee4ce	0.015557481
126	0xbd52e9c6	-0.051492475
127	0xbd5a469c	-0.053289995
128	0xbd841bf0	-0.06450641
129	0xbd93133d	-0.07181404
130	0x3ceff481	0.029291393
131	0x3beb61b2	0.007183277
132	0xbd3c7d38	-0.046017855
133	0xbb0b0bc9	-0.0021216741
134	0xbd272564	-0.040807143
135	0xbc85fb27	-0.01635511
136	0xbcefd625	-0.029276917
137	0x3cf2cdc6	0.029639136
138	0xbd2802a3	-0.04101814
139	0x3b396f4a	0.0028295093
140	0x3c23056c	0.009950023
141	0xbd1a8cbc	-0.03773187
142	0x3c8d6735	0.017261127
143	0xbc4b71d6	-0.012417277
144	0xbd4879e6	-0.048944376
145	0xbc36e682	-0.011163356
146	0xbd819795	-0.0632774
147	0xbc7eadc0	-0.015544355
148	0x3d22c7c1	0.03974128
149	0xbb98a569	-0.0046583903
150	0xbbd19832	-0.006396317
151	0xbd165fcf	-0.036712464
152	0xbbe29891	-0.00691516
153	0xbd4b01b8	-0.049562186
154	0xbcfc4d5c	-0.030798607
155	0xbc770213	-0.015076178
156	0xbd6c6d16	-0.05772122
157	0xbc1465cb	-0.009057472
158	0x3ba6f85b	0.0050955242
159	0xbc00f882	-0.007871749
160	0xbaca5e8e	-0.0015439556
161	0xbd859680	-0.06522846
162	0xbbcb1350	-0.0061973706
163	0xbcacd30c	-0.021096729
164	0xbc5caec9	-0.013469406
165	0x3b9205ec	0.0044562723
166	0xbd42e786	-0.04758408
167	0xbd5bda8c	-0.05367522
168	0xbd04d896	-0.032433115
169	0xbb258cc8	-0.0025260914
170	0xbd890964	-0.06691244
171	0xbd61b5a8	-0.05510488
172	0xbd6a3d60	-0.057187438
173	0xbb980746	-0.004639539
174	0x3c889886	0.016674291
175	0xbd7aea7e	-0.061258785
176	0xbba05c52	-0.004893818
177	0xbb4ace99	-0.0030945896
178	0x3c8aba1a	0.016934443
179	0x3d82f7d7	0.06394928
180	0xbb832391	-0.0040020426
181	0xbd0f3acc	-0.034968182
182	0x3d70a986	0.05875542
183	0x3d12215f	0.035676356
184	0x3da00f73	0.07815447
185	0xbc53e288	-0.012932427
186	0x3bd4f86b	0.0064993403
187	0x3d2fb9c0	0.042901754
188	0xbca44ad2	-0.020055208
189	0xbc9320c7	-0.017959965
190	0x3b5b2f96	0.0033445111
191	0x3caf53c1	0.021402242
192	0x3d079eac	0.033110306
193	0xbc581e5c	-0.013190832
194	0x3bec4bee	0.0072112
195	0x3cc48536	0.023989301
196	0xbd4f6344	-0.050631776
197	0xbd1a1fbb	-0.037627917
198	0x3cb0bd33	0.021574592
199	0xbc84853c	-0.016176812
200	0xbdface2d	-0.12246356
201	0x3c8e585b	0.017376116
202	0x3ca6572c	0.020305239
203	0xbb3122e8	-0.0027028862
204	0x3cb3f6f7	0.021968348
205	0xbcc77f4a	-0.024352688
206	0x3d1a6692	0.037695475
207	0x3d6b90c8	0.05751112
208	0x3d813a6d	0.06309972
209	0x3d8af89c	0.067857
210	0xbc0d30fd	-0.008617637
211	0x3bdcaa3f	0.006734162
212	0x3d971038	0.0737614
213	0x3c50cf50	0.01274474
214	0x3cd9883f	0.026554225
215	0x3b9c078c	0.004761642
216	0xbc9e3edf	-0.019317089
217	0x3cd8fa9f	0.026486693
218	0xbcaa2fdb	-0.020774772
219	0xbd955e07	-0.07293325
220	0x3c359214	0.011082191
221	0xbcfc391d	-0.030788952
222	0xbc2328c8	-0.0099584535
223	0x399ea32f	0.0003025769
224	0xbbaad43e	-0.0052132895
225	0xbdf96d50	-0.12179053
226	0x3d818a70	0.06325233
227	0x3ddf59af	0.10905778
228	0x3aa9162f	0.0012900288
229	0xbdc66a49	-0.09688241
230	0xbd9c59e9	-0.076343365
231	0x3dbf13f2	0.09329976
232	0x3d61d550	0.05513507
233	0x3ce0734f	0.027398733
234	0xbd82d643	-0.063885234
235	0xbcb60c33	-0.022222614
236	0xbcabb5e7	-0.020960761
237	0x3c882fd1	0.016624363
238	0xbd79d1ae	-0.06099098
239	0xbdc12d60	-0.09432483
240	0xbd9720d5	-0.07379309
241	0xbd126916	-0.03574475
242	0xbb6623ec	-0.0035116626
243	0xbcb217aa	-0.0217398
244	0xbe3e0dd6	-0.18559965
245	0xbd67c755	-0.056586582
246	0xbcbdfc67	-0.023191644
247	0xbdb24da3	-0.08706214
248	0xbdd65263	-0.10464933
249	0xbe255877	-0.16147028
250	0xbd88dc41	-0.06682635
251	0x3c2dfa50	0.010618761
252	0x3c7a1613	0.015264052
253	0xbcad4e31	-0.021155449
254	0xbcf5a18c	-0.029984258
255	0xbb669940	-0.003518656

conv2.bias f4 [8]
0	0xbcb8607d	-0.022506947
1	0xbcc18d51	-0.023626955
2	0xbb32acd7	-0.0027263665
3	0x3c4a30b2	0.012340711
4	0xbd16dd66	-0.036832236
5	0x3ca9501d	0.020668084
6	0x3c33cb68	0.010973789
7	0xbda8b4b8	-0.08237594

conv3.weight f4 [16, 8, 3, 3, 3]
0	0x3d34c2dd	0.04413115
1	0x3d0c54a2	0.0342604
2	0xbcd21518	-0.025644824
3	0x3ad403c8	0.0016175443
4	0x3d19a794	0.03751333
5	0xbda15969	-0.07878382
6	0xbcd23e43	-0.025664454
7	0xbc396aee	-0.011316998
8	0x3d4d05b3	0.050054263
9	0xba06dfb0	-0.00051450264
10	0x3b2dac23	0.0026500307
11	0x3c7b46ff	0.015336751
12	0xbaceb95f	-0.0015771798
13	0xbc66b2e7	-0.01408074
14	0xbd9f9b9c	-0.07793352
15	0x3d83fa04	0.06444171
16	0xbc7f0e21	-0.015567333
17	0x3d1b6797	0.037940588
18	0x3bfb1160	0.0076619834
19	0x3d45b8c2	0.048271902
20	0x3a36a6a7	0.0006967582
21	0xbb5c63b5	-0.0033628766
22	0x3c4b250d	0.01239897
23	0x3c627694	0.013822217
24	0x3d39f171	0.045396272
25	0x3c98cc79	0.018652188
26	0x3c3d1075	0.011539568
27	0xbd5c952c	-0.0538532
28	0x3c9ae41d	0.018907601
29	0x3d7685fc	0.06018637
30	0xbd776953	-0.06040318
31	0x3d47d4c3	0.04878689
32	0xbd001d70	-0.031278074
33	0xbd390119	-0.045167062
34	0x3d308159	0.043092106
35	0xbcfd2efa	-0.03090619
36	0xbd3232a3	-0.043505322
37	0xbcf375f9	-0.02971934
38	0xbc8ef8db	-0.017452648
39	0xbcd5c3e4	-0.026094384
40	0xbd112951	-0.035439793
41	0x3c041db8	0.008063726
42	0x3c3006bf	0.010743796
43	0x3bc11f7f	0.005893647
44	0xbb8ce582	-0.0042998204
45	0xbd6672e3	-0.05626191
46	0x3cea96ce	0.028636362
47	0xbdb5d656	-0.08878772
48	0xbd92ad51	-0.07161964
49	0xb9154f02	-0.0001423918
50	0xbd926a4b	-0.0714918
51	0x3a102836	0.0005499156
52	0xbcedcfb9	-0.029029714
53	0xbd364438	-0.044498652
54	0xbd9813f3	-0.0742568
55	0x3d2109c1	0.039315943
56	0x3becd3cb	0.007227396
57	0x3d03816d	0.032105852
58	0x3c5e7c3b	0.013579424
59	0x3d911ed2	0.07085957
60	0xbd4008a7	-0.04688325
61	0xbc59f1fb	-0.013302322
62	0xbc5dd848	-0.013540335
63	0x3d09be57	0.033628788
64	0x3cd2abcd	0.025716687
65	0xbd040412	-0.032230444
66	0x3cb9dc66	0.022688102
67	0x3daf516f	0.08560454
68	0x3d0099b1	0.03139657
69	0xbd70f824	-0.058830395
70	0x3d0df788	0.034659892
71	0x3d5c3433	0.05376072
72	0x3c393b0e	0.011305584
73	0xbc5df7e7	-0.013547874
74	0x3c030747	0.0079973405
75	0xbcf3a791	-0.029742988
76	0x3c2ddc53	0.010611611
77	0x3d478d88	0.04871896
78	0x3c61c8ed	0.013780815
79	0x3d7368ba	0.059426047
80	0x3d3238c8	0.043511182
81	0x3be3a433	0.0069470643
82	0xbd9ac086	-0.07556252
83	0xbd309446	-0.043110155
84	0xbdd1aae5	-0.10237674
85	0xbd811593	-0.06302943
86	0xbda9f9da	-0.082996085
87	0xbc26ef87	-0.010188944
88	0xbdbcfe46	-0.09228186
89	0xbd2f4601	-0.04279137
90	0xbc7871c6	-0.015163844
91	0xbd8e136f	-0.069373004
92	0xbd9553d4	-0.072913796
93	0xbdc32144	-0.09527829
94	0xbcb37f62	-0.021911327
95	0xbdf5e080	-0.120057106
96	0xbc33b395	-0.010968109
97	0xbd88ea65	-0.06685332
98	0xbdc848ff	-0.09779548
99	0x3b782ab5	0.0037867252
100	0x3a348aea	0.0006887155
101	0xbd5de194	-0.054170206
102	0xbbde44cb	-0.006783103
103	0xbd02191f	-0.03176224
104	0x3c85aede	0.016318735
105	0xbd94e55c	-0.07270309
106	0xbd4aa467	-0.049473193
107	0x3d137119	0.03599653
108	0xbd8d38a3	-0.06895568
109	0x3cfe5058	0.03104417
110	0xbd65338e	-0.05595737
111	0x3ceebcdc	0.02914279
112	0x3d237ba3	0.03991283
113	0xbcc79d44	-0.024366982
114	0xbd56e353	-0.052462887
115	0xbd2be322	-0.041964658
116	0xbd2ec2f2	-0.042666383
117	0xbd804eb1	-0.06265009
118	0xbcca9b62	-0.024732295
119	0x3d416642	0.04721666
120	0x3c326190	0.0108875185
121	0x3d7c3570	0.0615744
122	0xbd41924f	-0.04725867
123	0x3b242b26	0.0025050133
124	0x3d3d1981	0.0461669
125	0x3c903de2	0.017607633
126	0xbd52fe67	-0.05151215
127	0x3d80e3c6	0.06293444
128	0x3d1dc30d	0.038516093
129	0x3d3f73c4	0.046741262
130	0xbc396780	-0.01131618
131	0xbcb98976	-0.022648554
132	0xbc13f8b9	-0.009031468
133	0x3ca4bfcb	0.020110985
134	0x3cc52303	0.024064546
135	0xbd827b73	-0.06371202
136	0xbccd67c6	-0.025073897
137	0xbd84c4bd	-0.06482837
138	0xbd6ef4b7	-0.058338847
139	0xbd82f974	-0.06395236
140	0xbd3b446f	-0.04571956
141	0x3d2ef0b7	0.042710032
142	0xbbd61781	-0.0065335636
143	0xbd79fa0b	-0.061029475
144	0xbd05b3c7	-0.032642152
145	0xbdb0ebdf	-0.08638739
146	0xbd97eeb5	-0.07418577
147	0x3cda09d1	0.026616009
148	0xbcf2a390	-0.029619008
149	0xbd9f247a	-0.07770629
150	0x3c5e23ad	0.01355831
151	0xbbf1fe06	-0.0073850183
152	0xbd4a918d	-0.049455214
153	0xbd255d85	-0.04037239
154	0xbd7068ea	-0.058693804
155	0xbd8459ab	-0.06462415
156	0x3d09fc8e	0.03368812
157	0xbc87a882	-0.016559843
158	0x3d0277c6	0.031852506
159	0x3c8c3bcd	0.017118359
160	0xbbd17913	-0.006392607
161	0x3d0be87c	0.03415726
162	0x3d971c2a	0.07378419
163	0xbc6dea83	-0.014521244
164	0x3da96bb9	0.082724996
165	0xbd4283a8	-0.04748884
166	0x3cf6c9cd	0.030125523
167	0x3d00a559	0.031407688
168	0x3c556107	0.013023621
169	0x3d2e7088	0.042587787
170	0x3d47990b	0.048729938
171	0x3d5e2cb2	0.054241844
172	0xbd24f265	-0.040270228
173	0x3d412700	0.047156334
174	0xbce593d3	-0.02802459
175	0x3d41637f	0.047214027
176	0x3c8b36a3	0.016993826
177	0xbd29d0f7	-0.04145905
178	0xbd8b3701	-0.067976005
179	0x3cd92311	0.026505979
180	0x3d37e0d9	0.044892166
181	0xbd72d1b8	-0.059282035
182	0x3c23912c	0.009983342
183	0x3c292370	0.01032339
184	0xbc55d9da	-0.013052428
185	0xbd26bf23	-0.040709626
186	0xbd41e6ae	-0.047339134
187	0xbd5c5590	-0.053792536
188	0xbc7e52c8	-0.015522666
189	0x3ca47035	0.020073036
190	0x3c639904	0.013891462
191	0xbd7aaf85	-0.061202545
192	0xbcd3bb9c	-0.025846295
193	0x3d699e5c	0.05703579
194	0x3d167616	0.03673371
195	0x3d2f68b0	0.042824447
196	0xbd3d0161	-0.046143893
197	0x3b6e4368	0.0036356095
198	0x3d276784	0.040870205
199	0xbd267e79	-0.040647957
200	0x3d4b64e6	0.04965677
201	0x3d45edce	0.04832249
202	0xbd07c8eb	-0.033150595
203	0xbd5c4a4a	-0.053781785
204	0x3ce43aee	0.027860131
205	0xbcdf91f5	-0.027291277
206	0xbd5bef39	-0.053694937
207	0x3da7decf	0.08196794
208	0x3d8350ae	0.06411873
209	0xbc0dc9cc	-0.008654069
210	0xbc6b9284	-0.014378194
211	0x3b8f97bf	0.004382103
212	0x3c28c2d0	0.010300353
213	0x3d3f1d2b	0.046658676
214	0x3d720c35	0.059093673
215	0x3c551428	0.013005294
216	0xbd6708f1	-0.05640501
217	0xbcddeb87	-0.027089847
218	0xbcdbe28b	-0.026841423
219	0xbce366e4	-0.027759023
220	0xbb72930e	-0.003701392
221	0xbd91232e	-0.07086788
222	0x3c7a4e95	0.0152775245
223	0x3bd4918d	0.0064870776
224	0xbd790c98	-0.060803026
225	0x3d54f717	0.051993456
226	0x3bf64ebf	0.0075167115
227	0x3d8c2491	0.06842912
228	0x3c06c319	0.008225226
229	0x3cf62d1d	0.030050809
230	0xbd18f489	-0.037342582
231	0xbb5af8d7	-0.003341248
232	0x3c4946c7	0.012284941
233	0xbc20a75c	-0.009805527
234	0xbcbe6415	-0.023241082
235	0xbd8d4ef9	-0.068998285
236	0x3bd35f49	0.006450568
237	0x3caf7328	0.021417215
238	0xbd51e39f	-0.051242467
239	0xbd92e92d	-0.07173381
240	0x3cd24ef0	0.025672406
241	0xbbac6654	-0.005261222
242	0x3d0aee58	0.03391871
243	0x3ca436a1	0.02004558
244	0x3d255076	0.040359937
245	0xbda44c8a	-0.08022411
246	0xbb75bbd3	-0.0037495985
247	0x3ca54b03	0.02017737
248	0x3c09c61e	0.008409051
249	0xbd19f0ef	-0.037583288
250	0xbd149595	-0.036275465
251	0xbd0f264e	-0.03494864
252	0xbd8bebb5	-0.06832067
253	0xbc81f16d	-0.015862191
254	0xbca5217f	-0.020157574
255	0xbd0f8d17	-0.035046663

conv3.bias f4 [16]
0	0x3d54a840	0.05191827
1	0xbdb3541c	-0.08756277
2	0xbd66ce43	-0.05634905
3	0xbd9fc49b	-0.078011714
4	0xbd3421a1	-0.043977384
5	0xbd464631	-0.048406783
6	0x3b9bea9c	0.004758192
7	0x3e17ad9b	0.14812319
8	0x3cbb94e1	0.02289814
9	0x3b0f24ad	0.0021841929
10	0xbc52e0e6	-0.012871003
11	0xbd30b173	-0.04313798
12	0xbd219565	-0.039449114
13	0xbd3b2ccf	-0.04569703
14	0x3c47e8b1	0.012201474
15	0xbcef3d48	-0.029204026

conv4.weight f4 [32, 16, 3, 3, 3]
0	0xbcb29584	-0.02179981
1	0x3d5d181b	0.053978067
2	0xbb966a23	-0.004590289
3	0x3cfcd8b1	0.030865045
4	0xbbbde4e9	-0.0057951105
5	0xbc16b31d	-0.009197977
6	0xbbd5e05c	-0.00652699
7	0x3d450073	0.04809613
8	0x3d3e6ec2	0.046492346
9	0x3d094c0e	0.033519797
10	0xbd22003e	-0.039551012
11	0xbca41b21	-0.020032467
12	0xbd231ef2	-0.039824434
13	0x3ca91ff8	0.020645127
14	0xbd0cdec6	-0.03439214
15	0x3d5b3c6a	0.053524412
16	0xbd2cea4c	-0.04221563
17	0x3c81238e	0.015764024
18	0xbd082aff	-0.03324413
19	0xbcf2abf2	-0.029623006
20	0x3ce5c5ce	0.028048422
21	0xbcb00c81	-0.021490337
22	0x3d17fab5	0.037104327
23	0x3d4826bf	0.048865076
24	0x3d2da1f7	0.04239079
25	0x3d2cf6c7	0.042227533
26	0xbd08a843	-0.033363592
27	0xbd14c6aa	-0.036322273
28	0xbd13b7cc	-0.036063954
29	0x3d30f41d	0.043201555
30	0x3d9374dd	0.07200024
31	0x3cb2adc9	0.021811383
32	0xbce582d4	-0.028016485
33	0xbc2d0305	-0.010559802
34	0x3d534348	0.051577836
35	0x3c980d04	0.018560894
36	0x3d14d49d	0.036335576
37	0x3c86f785	0.016475448
38	0xbc7a5c8b	-0.015280853
39	0x3bd4d165	0.0064946883
40	0xbd0d4132	-0.034486003
41	0x3d23734f	0.03990489
42	0xbcbbfb5e	-0.02294701
43	0x3a925757	0.0011164945
44	0x3d647f45	0.055785436
45	0xbd30aa74	-0.043131307
46	0xbcf83ffa	-0.030303944
47	0x3c86be5b	0.01644819
48	0x3d3efdaf	0.04662865
49	0x3c734bfd	0.01484966
50	0x3cd32d9b	0.025778582
51	0x3c5517e7	0.013006187
52	0x3cb54b79	0.022130715
53	0x3d2f8f77	0.042861428
54	0x3d86aaf5	0.06575576
55	0x3cfd3ca0	0.030912697
56	0x3db8b865	0.090195455
57	0x3cfe83ab	0.031068644
58	0xbc382b70	-0.011240825
59	0x3d3d6bf7	0.04624554
60	0x3d417281	0.04722834
61	0xbd0d3606	-0.03447535
62	0xbc152aec	-0.009104472
63	0x3b8aad06	0.004232052
64	0xbc5ac3d6	-0.013352355
65	0xbc58f7e0	-0.013242692
66	0xbd00eb12	-0.03147418
67	0xbdc271eb	-0.094943844
68	0x3c06172e	0.008184237
69	0x3c863ecc	0.016387366
70	0xbd4860e4	-0.048920527
71	0xbd4d91d4	-0.0501879
72	0x3d8d5acb	0.06902083
73	0x3d8f665d	0.07001946
74	0x3c96c934	0.018406488
75	0x3c99e6f1	0.01878688
76	0x3ac68dd9	0.0015148475
77	0x3bf2d0d5	0.0074101486
78	0x3d9d0e0b	0.07668694
79	0xbbbacbb2	-0.005700552
80	0x3d9a0d93	0.0752212
81	0xbc87f1ee	-0.016594853
82	0x3bf464a7	0.0074582878
83	0x3d61f753	0.055167507
84	0x3b9b7161	0.0047437404
85	0x3bf80925	0.0075694495
86	0xbbc04d62	-0.0058685998
87	0x3baf8b00	0.0053571463
88	0x3d00d802	0.031456
89	0xbc558b59	-0.013033711
90	0xbd9eb301	-0.07748986
91	0xbd49ea3f	-0.04929566
92	0x3cbc8e92	0.023017202
93	0xbdd2fa83	-0.103016876
94	0xbd61a0ef	-0.05508512
95	0x3d4b70b2	0.04966802
96	0xba403c89	-0.0007333239
97	0x3d372162	0.04470957
98	0x3d7990ff	0.060929295
99	0xbd7b5336	-0.061358653
100	0xbd3daac9	-0.04630545
101	0x3de99a34	0.11406365
102	0xbd815ef2	-0.063169375
103	0xbe09406b	-0.1340348
104	0x3de45b93	0.11150279
105	0xbb482a99	-0.0030542968
106	0xbbd3ddd4	-0.006465653
107	0x3d47e87c	0.0488057
108	0x3d7542a4	0.059878007
109	0xbca81ebd	-0.02052247
110	0x3d270a98	0.040781587
111	0xbca3783b	-0.019954791
112	0x3d0e1a36	0.034692965
113	0x3caddcae	0.021223392
114	0x3c79032a	0.015198508
115	0xbd3a0e52	-0.045423813
116	0xbc45471c	-0.01204088
117	0xbce959eb	-0.028485259
118	0xbbc4d8bd	-0.0060072825
119	0x3d7708f1	0.06031126
120	0x3d18933f	0.0372498
121	0x3d3a00c8	0.0454109
122	0x3d49e1fb	0.049287777
123	0x3be76d75	0.007062609
124	0x3c824b08	0.015904918
125	0x3cee6ad4	0.029103674
126	0x3cdebba8	0.02718909
127	0x3ca99f50	0.020705849
128	0x3d35ce12	0.044385977
129	0x3cecc99f	0.028904734
130	0x3d0fb735	0.03508683
131	0x3d344108	0.04400733
132	0x3c82f8ba	0.015987743
133	0x3c5bd2b6	0.013416937
134	0x3c11cfcd	0.008899641
135	0x3d118066	0.03552284
136	0xbd013525	-0.031544823
137	0x3d80c0fc	0.06286809
138	0xbca9a929	-0.020710545
139	0x3d022def	0.031782087
140	0xbc0612d8	-0.008183204
141	0x3db70dcf	0.08938181
142	0x3d9bc248	0.076054156
143	0x3df95ef6	0.121763155
144	0xbd5a1684	-0.05324413
145	0xbd5cbab8	-0.053889006
146	0xbd53c692	-0.051703043
147	0xbac489fe	-0.0014994738
148	0xbcbd8833	-0.023136234
149	0x3d058063	0.032593142
150	0x3d827072	0.063691035
151	0x3d0ab8de	0.03386771
152	0x3d20389d	0.03911649
153	0xbc96684d	-0.018360281
154	0xbd67d402	-0.05659867
155	0xbd80be3a	-0.06286283
156	0x3b55da31	0.0032631273
157	0xbd301f04	-0.04299833
158	0xbcba7753	-0.022761976
159	0x3b8e9ee5	0.004352438
160	0x3d2cb58d	0.042165328
161	0x3d1890c8	0.03724745
162	0x3cfcb56d	0.03084823
163	0x3d7155d7	0.058919754
164	0x3db170c1	0.08664084
165	0x3cb31ace	0.021863367
166	0x3d141edc	0.036162242
167	0x3d9099d8	0.07060593
168	0x3d5035a7	0.050832417
169	0xbcdbb61d	-0.026820237
170	0x3cedfcc4	0.029051192
171	0xbd252f9e	-0.040328614
172	0xbd3fd270	-0.04683155
173	0x3d1b7766	0.037955664
174	0xbc6f5641	-0.014607967
175	0xbd3f0b15	-0.046641428
176	0xbc12da2f	-0.008963152
177	0x3c3257de	0.010885207
178	0x3d1d5971	0.038415376
179	0x3d02d5dc	0.031942233
180	0xbcb05b72	-0.02152798
181	0x3cb5c374	0.022187926
182	0x3cddf937	0.027096374
183	0x3d56bdfd	0.05242728
184	0xbc306ab5	-0.010767628
185	0x3d29b29f	0.041430112
186	0x3ca4d1d7	0.02011959
187	0x3c81430d	0.015779043
188	0x3d8f91a0	0.07010198
189	0xbb640e19	-0.0034798442
190	0x3c77052c	0.015076917
191	0xbc14f7a0	-0.0090922415
192	0xbd3669ba	-0.044534422
193	0x3c0b10ba	0.008487875
194	0xbc2c79a9	-0.010527053
195	0xbc470165	-0.012146329
196	0xbcbb7954	-0.022885002
197	0xbaf3d01b	-0.0018601449
198	0x3cb58b3e	0.022161122
199	0xbb53682e	-0.003225814
200	0xbbf70c17	-0.007539283
201	0xbcf7ff16	-0.030273002
202	0x3d55977e	0.052146427
203	0xbc0909c7	-0.0083641475
204	0xb96e3e2f	-0.00022720614
205	0x3d04b609	0.032400165
206	0x3b92c919	0.004479539
207	0x3c9a1f23	0.018813675
208	0x3cafafae	0.021446075
209	0xbc32e692	-0.01091923
210	0x3b84ed11	0.004056581
211	0x3b0104d1	0.0019686709
212	0x3bedafea	0.0072536366
213	0xbd06d08a	-0.032913722
214	0xbbb14a42	-0.0054104635
215	0xbb96ec55	-0.0046058097
216	0xbc7ef4dc	-0.015561309
217	0x3cf9d332	0.030496214
218	0xbd78950c	-0.060689017
219	0xbd111af8	-0.03542611
220	0xbccbc9e0	-0.024876535
221	0x3cb0d1ef	0.02158448
222	0xbc88c3e9	-0.01669498
223	0x3d20ba31	0.039240066
224	0x3d11b2ee	0.03557103
225	0xbd167390	-0.036731303
226	0xbb1b91e3	-0.0023738078
227	0xbd2fed2b	-0.04295079
228	0xbd203e48	-0.039121896
229	0x3d036497	0.03207835
230	0xbd3e350f	-0.04643732
231	0xbcb47b79	-0.022031533
232	0x3c9ccadd	0.019139702
233	0x3c630d16	0.0138581
234	0x3b7acb23	0.0038268052
235	0xbcde132d	-0.027108753
236	0xbce8ba35	-0.028409103
237	0xbb492014	-0.0030689286
238	0xbcbb024c	-0.022828244
239	0xbc84f3fb	-0.01622962
240	0x3ccf8717	0.02533297
241	0x3d16144a	0.036640443
242	0x3d09c27a	0.033632733
243	0x3c94379b	0.018092921
244	0x3d623442	0.05522562
245	0x3d1cea92	0.03830964
246	0x3c7bd743	0.015371147
247	0x3d3dacf7	0.04630753
248	0x3b4e02bf	0.0031434742
249	0xba81417b	-0.0009861434
250	0x3d68d4d2	0.056843586
251	0x3ce1a6e8	0.027545407
252	0xbceb3b52	-0.02871481
253	0x3c9f3698	0.019435212
254	0x3d6094bd	0.054829348
255	0x3ce12725	0.027484486

conv4.bias f4 [32]
0	0xbb3a7ed6	-0.0028456948
1	0x3c1852ee	0.009297116
2	0x3d374501	0.04474354
3	0x3c190403	0.009339335
4	0x3d2dc78f	0.042426642
5	0x3d28e13d	0.04123043
6	0xbd559307	-0.05214217
7	0xbb03953d	-0.0020077967
8	0x3c5050d7	0.012714586
9	0x3adbc706	0.0016767688
10	0xbb8e5d45	-0.0043446147
11	0x3cf06813	0.029346501
12	0x3b8d9a88	0.0043214
13	0x3c28d22d	0.010304016
14	0xbd1fa633	-0.03897686
15	0x3c3d0ab0	0.011538193
16	0x3d19fe89	0.03759626
17	0x3d5d2983	0.053994667
18	0x3c45280f	0.0120334765
19	0xbcdc0325	-0.026856968
20	0x3c9bc0be	0.019012805
21	0x3d3ed5ed	0.046590734
22	0xbd8c346a	-0.06845935
23	0x3ca572f7	0.020196421
24	0xbb3ef593	-0.0029138073
25	0x3c86b27f	0.016442535
26	0x3ca00b37	0.019536598
27	0x3d5a9570	0.05336517
28	0xbd876f57	-0.06613033
29	0x3d5260b9	0.051361773
30	0x3db85e17	0.09002321
31	0x3cba1902	0.022717003

conv5.weight f4 [64, 32, 2, 2, 2]
0	0xbcd0e681	-0.025500538
1	0x3d05e8b5	0.03269263
2	0xbc851cd6	-0.016249102
3	0x3a85a09f	0.0010194964
4	0xbd42f660	-0.047598243
5	0xbd782977	-0.06058642
6	0xbc8ff2e2	-0.01757187
7	0x3d38b417	0.045093622
8	0x3d41bb12	0.047297545
9	0xbb5da8ed	-0.0033822611
10	0x3d01aafe	0.03165721
11	0x3cc3e1cb	0.023911377
12	0x3d4c8488	0.04993108
13	0x3c980699	0.018557834
14	0x3d2a1588	0.04152444
15	0x3d55d5c9	0.052205835
16	0x3d4a39bd	0.04937147
17	0x3d4071bd	0.04698347
18	0x3bf9724e	0.007612503
19	0x3cd59d5e	0.026076015
20	0xbcf22bc5	-0.029561887
21	0x3d7908bb	0.06079934
22	0x3d84f6df	0.064923994
23	0xbc832b4b	-0.016011855
24	0xbc9c2905	-0.019062528
25	0x3c837d3b	0.016050925
26	0x3c4ea28d	0.012611997
27	0xbcabcef2	-0.020972703
28	0x3d90a591	0.07062829
29	0xbcf20515	-0.029543439
30	0x3d455843	0.048179876
31	0x3d646822	0.05576337
32	0xbbe56f21	-0.007001773
33	0x39813e1e	0.00024651078
34	0xbba717f1	-0.0050992896
35	0x3c7f914d	0.015598607
36	0xbd940495	-0.072274365
37	0xbbd1bba3	-0.006400542
38	0xbd64dce0	-0.055874705
39	0x3cd8d887	0.026470436
40	0x3d0062c2	0.031344183
41	0xbc91c115	-0.017792264
42	0x3d1acf81	0.037795547
43	0x3dbe1bfa	0.0928268
44	0xbce9f370	-0.028558463
45	0x3cdc0a42	0.02686036
46	0x3ce548ae	0.027988758
47	0x3e005e1f	0.12535904
48	0xbcfeb204	-0.031090744
49	0x3c522ce8	0.012828089
50	0x3ce2374c	0.027614258
51	0x3c80a60c	0.015704177
52	0x3c880764	0.016605087
53	0xbcfa7628	-0.03057392
54	0x3c6489f0	0.0139489025
55	0xbcf426f0	-0.029803723
56	0x3ce0f6b2	0.027461383
57	0x3d03c73a	0.03217242
58	0x3d52316b	0.05131666
59	0x3c527c1b	0.012846972
60	0xbd00f34c	-0.031482026
61	0xbc9e1d88	-0.019301191
62	0xbd6b50ca	-0.057450093
63	0xbd50f950	-0.051019013
64	0xbd5e4dad	-0.054273296
65	0xbd5500c6	-0.05200269
66	0xbd64b363	-0.05583514
67	0x3c702644	0.014657561
68	0x3cf6f8cd	0.030147934
69	0x3ccea5eb	0.0252256
70	0x3d2fe798	0.042945474
71	0xbcc0ddb8	-0.023543224
72	0xbda612d1	-0.08109058
73	0xbd9af535	-0.07566301
74	0x3d050fba	0.0324857
75	0x3d44e944	0.048074022
76	0xbd0e55a6	-0.03474965
77	0xbcccaa1c	-0.024983458
78	0xbcdb9b94	-0.026807584
79	0xbb1c3cd1	-0.002383996
80	0x3db06940	0.08613825
81	0x3b8058a4	0.003916817
82	0x3c587309	0.01321102
83	0x3da20f31	0.07913054
84	0x3b4e7ef6	0.003150878
85	0xbc2dde2f	-0.010612055
86	0xbbb6c038	-0.0055771135
87	0xbc889889	-0.016674297
88	0xbd5b7793	-0.05358083
89	0x3cd482ab	0.025941214
90	0x3cad5c1a	0.021162082
91	0x3d8c3af7	0.06847184
92	0x3ca22cd3	0.019796764
93	0x3cd4c284	0.025971659
94	0x3d0a51db	0.03376947
95	0x3c35d83c	0.011098918
96	0x3b316c3e	0.0027072574
97	0x3d249ff7	0.040191617
98	0x3dbeaf4c	0.09310779
99	0xbc4702a0	-0.012146622
100	0x3d5e7b5c	0.054316863
101	0x3b252a1d	0.0025202103
102	0x3d01663c	0.03159164
103	0x3cc6579c	0.024211697
104	0x3d93d7c5	0.07218889
105	0xbbfae38c	-0.00765652
106	0x3d6142bf	0.054995295
107	0xbd15f6ab	-0.036612194
108	0x3db16cbf	0.0866332
109	0xbca9e7f5	-0.020740489
110	0x3cf796b8	0.030223235
111	0x3caa147b	0.020761719
112	0xbd3fc505	-0.04681875
113	0x3d37cbab	0.044871967
114	0xbd7432d6	-0.059618793
115	0x3999d15e	0.00029338425
116	0xbd15b6d2	-0.036551304
117	0xbc2267e3	-0.009912464
118	0x3d690130	0.056885898
119	0x3d74cbc3	0.059764635
120	0xbc9241b6	-0.017853599
121	0x3d2f0ad3	0.042734932
122	0x3d8feb05	0.07027248
123	0x3bf42e7f	0.007451832
124	0xbc8017f8	-0.01563643
125	0x3d4525a3	0.048131596
126	0x3d2c89a9	0.04212347
127	0xbd2dbfdd	-0.042419303
128	0xbc0aa2dd	-0.008461681
129	0xbc27cf35	-0.010242273
130	0xbd3c31ee	-0.045946054
131	0x3d27684c	0.04087095
132	0xbc82377c	-0.015895598
133	0x3c98d361	0.01865548
134	0xbc400066	-0.011718845
135	0xbc5f0eec	-0.0136143975
136	0xbd482c6b	-0.048870485
137	0x3d3d8286	0.046267055
138	0xbd2b4e4a	-0.04182271
139	0x3b2980fe	0.002586424
140	0x3c1a2de7	0.009410358
141	0x3d3008d8	0.042977184
142	0x3cee34f9	0.029077994
143	0xbd43e104	-0.047822013
144	0xbd8b4154	-0.0679957
145	0xbd089804	-0.0333481
146	0xbd8f5169	-0.0699795
147	0x3ce3ba72	0.027798865
148	0xbda5c891	-0.08094896
149	0xbbf433f5	-0.007452483
150	0x3a2a60ff	0.0006499439
151	0xbd8b74c2	-0.06809379
152	0xbe0c0a31	-0.13675763
153	0xbd850f04	-0.06497005
154	0x3bb5efac	0.0055522528
155	0xbd21816e	-0.039430074
156	0xbd9cc47d	-0.07654665
157	0xbdfa523a	-0.12222715
158	0xbb8f89ea	-0.0043804543
159	0x3d8d3c99	0.06896324
160	0xbc292a20	-0.010324985
161	0x3d46bcf9	0.048520062
162	0x3cccd8fe	0.025005814
163	0x3d2a11df	0.04152095
164	0xbd76b741	-0.06023336
165	0xbda35e57	-0.07976978
166	0xbc8395bc	-0.01606261
167	0xbdb3645e	-0.08759378
168	0xbd0f18b2	-0.03493566
169	0xbcd1a1d9	-0.02558987
170	0xbcbb8c14	-0.022893943
171	0xbd08434e	-0.03326731
172	0xbc4a3989	-0.012342819
173	0xbd3abc33	-0.045589637
174	0xbcca67ef	-0.024707763
175	0x3d6f922e	0.058489017
176	0x3ccebdeb	0.025237044
177	0xbbc05146	-0.0058690635
178	0xbd006da4	-0.03135456
179	0xbd41dec1	-0.047331575
180	0xbbf7d67a	-0.0075634094
181	0xbbb8acbe	-0.005635827
182	0xbc65392b	-0.013990681
183	0xbd72a4e5	-0.059239287
184	0xbd1f2802	-0.038856514
185	0xbcd0eb10	-0.025502712
186	0xbd177aee	-0.03698247
187	0xbd63fab3	-0.055659007
188	0xbd5c5ce4	-0.053799525
189	0xbd36b4f2	-0.044606157
190	0xbc5fb3d2	-0.013653712
191	0xbcfdc797	-0.03097896
192	0x3d75ab6e	0.05997794
193	0x3c9c6189	0.019089477
194	0x3de14ca8	0.11000949
195	0x3ceb1ad0	0.028699309
196	0x3b91c855	0.0044489303
197	0x3cc8935c	0.024484329
198	0xbcd3c814	-0.02585224
199	0x3c424f89	0.011859783
200	0x3d9cb309	0.07651336
201	0x3dc88323	0.09790637
202	0x3bf9aa66	0.00761919
203	0x3d45a628	0.048254162
204	0x3d7e5c0f	0.062099513
205	0x3dce5997	0.10075682
206	0xbb2a60d1	-0.0025997648
207	0x3db4ad57	0.088221245
208	0x3d61fa87	0.055170562
209	0x3d4f6b4f	0.050639447
210	0x3d0e1089	0.034683738
211	0x3d93d6eb	0.07218727
212	0x3d6cebbe	0.05784201
213	0x3c74210d	0.014900458
214	0x3d105017	0.03523263
215	0xbcaaf664	-0.020869441
216	0xbd5fd589	-0.054647002
217	0xbb963386	-0.004583779
218	0xbbdd9afd	-0.006762861
219	0xbc98f3b4	-0.018670894
220	0xbce00ddf	-0.027350364
221	0xbd2adc8b	-0.041714232
222	0x3d0d9e7f	0.03457498
223	0xbbafb68f	-0.005362339
224	0xbd5e20d0	-0.05423051
225	0x3ccad6f0	0.024760693
226	0xbc99acc4	-0.018759139
227	0x3d6c5068	0.05769387
228	0xbd0fca72	-0.035105176
229	0x3d3bd174	0.045854047
230	0xbd0e1f7e	-0.034698002
231	0x3d5573f0	0.05211252
232	0xbb54812f	-0.0032425632
233	0x3d2ca892	0.04215295
234	0x3b2812a5	0.0025645879
235	0xbca378c6	-0.01995505
236	0xbc564586	-0.013078099
237	0xbd84b478	-0.06479734
238	0xbae6ed87	-0.0017618396
239	0x3cb49d63	0.022047704
240	0x3d83284f	0.06404173
241	0x3bbb0340	0.0057071745
242	0x3d9ce57c	0.07660958
243	0x3b3fb8bc	0.0029254397
244	0x3c9dcca7	0.019262625
245	0xba762557	-0.00093897193
246	0xbd31f2a1	-0.04344428
247	0xbbbb4d5b	-0.0057160086
248	0xbd6218bc	-0.05519937
249	0xbd466cf0	-0.048443735
250	0xbca6d063	-0.020363038
251	0xbd31ec11	-0.04343802
252	0xbc8349bf	-0.016026376
253	0xbdef4df8	-0.11684793
254	0xbd0ffeb3	-0.03515501
255	0xbde52276	-0.111882135

conv5.bias f4 [64]
0	0xbc5e80b4	-0.01358049
1	0xbc7329aa	-0.014841476
2	0x3d80d7ed	0.062911846
3	0x3cfcbe8d	0.03085258
4	0x3cb32f26	0.021873068
5	0xbc801eda	-0.015639711
6	0x3d4455fd	0.047933567
7	0x3d11064a	0.03540639
8	0x3d45db87	0.04830506
9	0x3d61a077	0.05508467
10	0xbd919e40	-0.07110262
11	0xbc3226e8	-0.010873534
12	0xbc28fb8c	-0.01031388
13	0xbd1f91f4	-0.03895755
14	0x3d040545	0.032231588
15	0x3c242db9	0.010020667
16	0x3d12c397	0.03583106
17	0x3da64c68	0.08120042
18	0xbc027a41	-0.007963718
19	0x3d204eb9	0.039137576
20	0x3c8cf0e7	0.017204715
21	0xbd261652	-0.04054863
22	0xbcbce9cc	-0.023060702
23	0xbcbce7c2	-0.02305973
24	0x3c59e6c2	0.013299646
25	0x3d457697	0.0482088
26	0xbb9829fd	-0.0046436773
27	0x3bcffd57	0.006347339
28	0xbcad94c6	-0.021189105
29	0x3d5ebdca	0.054380216
30	0x3d82dd77	0.06389897
31	0xbdb85fb8	-0.09002632
32	0xbd157284	-0.036486164
33	0xbda78f41	-0.081816204
34	0x3d1b93ff	0.037982937
35	0x3d772364	0.060336486
36	0x3d12d4be	0.035847418
37	0x3c06818e	0.008209599
38	0x3d84c3ee	0.06482683
39	0x3c55320a	0.0130124185
40	0x3d0cc7ee	0.034370355
41	0x3d912be3	0.07088449
42	0x3d6f568c	0.058432147
43	0xbcd257f9	-0.025676714
44	0x3d5a3b1e	0.053279035
45	0x3d464f8d	0.04841571
46	0x3d830fab	0.06399473
47	0xbd5b392a	-0.053521313
48	0xbd7e10c1	-0.062027697
49	0x3d25d6cb	0.040488046
50	0xbc9e479f	-0.019321261
51	0x3d1ae277	0.03781363
52	0xbd7eede9	-0.062238608
53	0x3d3d3188	0.046189815
54	0x3cf4a118	0.029861972
55	0x3d7599d8	0.05996117
56	0x3d37dcec	0.044888422
57	0x3cf7ecdf	0.030264316
58	0x3bf85d01	0.0075794463
59	0x3d126f4b	0.03575067
60	0xbd1598be	-0.03652262
61	0x3d582cf0	0.05277723
62	0x3b8079e6	0.0039207814
63	0x3d4aa86e	0.049477033

linear1.weight f4 [128, 512]
0	0x3c74ab93	0.014933485
1	0x3cf2aaf1	0.029622527
2	0xbd5935a8	-0.053029686
3	0x3c8a4662	0.016879264
4	0xbcf04341	-0.029328944
5	0xbc2fd010	-0.010730758
6	0x3c38f401	0.011288644
7	0x39c152bf	0.0003687348
8	0x3cd4a6e5	0.025958488
9	0xbca0619d	-0.019577796
10	0x3c050e45	0.008121078
11	0x3c7cd428	0.015431441
12	0x3cbefb16	0.023313086
13	0x3bb09b53	0.00538961
14	0xbd0e4e7b	-0.034742814
15	0x3baca74e	0.0052689677
16	0xbd32f93a	-0.043694712
17	0xbc962fef	-0.018333403
18	0xbc950d1f	-0.018194733
19	0xbd309c96	-0.043118082
20	0x3cbdf08a	0.023185987
21	0xbd345475	-0.044025857
22	0x3cc352aa	0.023843128
23	0x3c9caaa5	0.019124338
24	0xbd27e171	-0.040986482
25	0xbd06ed6d	-0.03294127
26	0x3bad1363	0.005281852
27	0xbc718c74	-0.014742959
28	0xbb3be877	-0.0028672495
29	0x3cd2e40d	0.025743509
30	0xbc0211de	-0.00793883
31	0xbc61c8d0	-0.013780788
32	0xbd328219	-0.043581102
33	0x3c182040	0.009285033
34	0xbcf14ab0	-0.02945456
35	0xbd64cbb2	-0.05585832
36	0x3cca0272	0.02465937
37	0xbd67756d	-0.05650847
38	0xbd5987aa	-0.053107895
39	0xbbf10f87	-0.0073565873
40	0xbb4ed14c	-0.0031557856
41	0xbcc2f983	-0.023800617
42	0x3bb4e4aa	0.005520423
43	0xbd5f7a9d	-0.054560293
44	0x3cb47a3c	0.022030942
45	0xbbb52268	-0.005527783
46	0xbc90a827	-0.017658306
47	0x3c1504ac	0.009095352
48	0xbb83a7ad	-0.0040177912
49	0xbce94f05	-0.028480062
50	0xbd7035f1	-0.058645193
51	0xbb6d08a0	-0.003616847
52	0xbd36c742	-0.04462362
53	0xbcbd84bf	-0.023134587
54	0x3b5791f7	0.0032893398
55	0x3cc1d90a	0.023663063
56	0xbcc761aa	-0.024338562
57	0xbca7e4e2	-0.020494882
58	0x3c6415df	0.01392123
59	0xbc8f5d21	-0.017500462
60	0x3cfd7e70	0.03094408
61	0xbd400160	-0.04687631
62	0xbbc0930f	-0.0058769058
63	0xbd19036e	-0.037356786
64	0xbd4d29e1	-0.050088767
65	0x3bf5578d	0.0074872435
66	0xbc88ce9b	-0.01670008
67	0xbb831e60	-0.0040014237
68	0x3c90e11a	0.017685462
69	0xbb858282	-0.0040743956
70	0x3cc18888	0.023624673
71	0x3cf4b826	0.029872965
72	0x3c5683ff	0.013092994
73	0x3cd039bd	0.025418157
74	0xbaeef83c	-0.0018231939
75	0x3c46e586	0.012139684
76	0xbb8c7915	-0.004286895
77	0xbd2c3f57	-0.042052593
78	0xbce19591	-0.02753714
79	0x3c59dbb8	0.013297014
80	0xbb4980c4	-0.0030746916
81	0x3c952f80	0.018211126
82	0x3cefd363	0.029275602
83	0xbcb1c9f2	-0.02170274
84	0x3c851d6e	0.016249385
85	0xbd332469	-0.043735895
86	0x3c5106fd	0.012758014
87	0xbc897857	-0.016781015
88	0xbcf8ca14	-0.030369796
89	0x3ce215ee	0.027598348
90	0xbc917535	-0.017756084
91	0xbd254e63	-0.04035796
92	0xbd3c3daa	-0.045957245
93	0xbcde8906	-0.027164947
94	0x3cab4872	0.020908568
95	0xbbf2f08b	-0.007413929
96	0x3be1c618	0.0068900697
97	0xbd41acbc	-0.047283873
98	0xbd0b422d	-0.033998657
99	0xbd468522	-0.04846681
100	0x3ce4a80d	0.027912164
101	0xbc2be12c	-0.010490697
102	0xbbe88aee	-0.00709664
103	0xbb37c126	-0.002803871
104	0x3b262066	0.00253489
105	0xbd4d1473	-0.05006833
106	0xbd0a1fe6	-0.033721827
107	0xbc17e008	-0.009269722
108	0x3ae83d31	0.0017718432
109	0x3b01c825	0.0019803133
110	0xbcd2b3dd	-0.025720531
111	0x3c8e933f	0.017404197
112	0x3c4f7a53	0.012663442
113	0xbd435ffe	-0.047698967
114	0xbd4b30e6	-0.04960718
115	0x3c41b895	0.011823793
116	0xbd12b3c6	-0.035815977
117	0xbd5bbd92	-0.053647585
118	0xbd32289b	-0.043495756
119	0xbd01de51	-0.031706158
120	0x3c1b259c	0.009469416
121	0xb903d5a1	-0.00012572717
122	0xbd0f7e0c	-0.035032317
123	0x3c235c0f	0.009970679
124	0x3b351790	0.0027632453
125	0xbbfa7386	-0.007643166
126	0xbd3c2aaf	-0.045939144
127	0xbd6991e0	-0.057023883
128	0xbd72e1d7	-0.05929741
129	0xbc9fe54a	-0.019518513
130	0x3c013967	0.007887221
131	0xbcc02bf3	-0.023458457
132	0x3c7e48c4	0.015520278
133	0xbba15310	-0.004923232
134	0x3be9b579	0.007132229
135	0x3a5544e0	0.00081355684
136	0x3d191b50	0.037379563
137	0x3c2c08df	0.010500162
138	0x3c2e0b6d	0.010622841
139	0x3cc4ea93	0.024037635
140	0xbaef03b2	-0.0018235354
141	0xbcb823b3	-0.02247796
142	0x3c129d72	0.008948671
143	0x3c32d376	0.010914674
144	0x3c6f7772	0.01461588
145	0x3cd2c0f3	0.025726771
146	0x3c518b1c	0.012789514
147	0xbd2a81c2	-0.041627653
148	0x3ae539a5	0.0017488493
149	0xbd515185	-0.051103134
150	0xbd11584c	-0.035484597
151	0xbc991172	-0.018685076
152	0x3c64f966	0.013975477
153	0xbd2d0f39	-0.042250846
154	0x3caf6dbb	0.021414628
155	0x3cdc940e	0.026926067
156	0xbd6a5e43	-0.0572188
157	0xbd6550a5	-0.05598511
158	0xbb93b130	-0.0045072064
159	0xbd22f071	-0.039780084
160	0x3cb58113	0.022156274
161	0x3d13b565	0.036061663
162	0x3ad5799b	0.0016286852
163	0x3cf8e1fd	0.030381197
164	0xbd115711	-0.035483424
165	0xbab8eea8	-0.0014109211
166	0x3c450d84	0.012027148
167	0xbc3858d2	-0.011251645
168	0xbc8ca8dc	-0.017170362
169	0x3c7e1c6e	0.015509708
170	0xbca88529	-0.020571308
171	0x3c931be3	0.017957633
172	0xbd26237c	-0.040561184
173	0xbb1aca2d	-0.0023619041
174	0x3d093954	0.033501938
175	0xbc565130	-0.01308088
176	0xbb30d99f	-0.002698518
177	0xbcd1f587	-0.025629772
178	0xbc45afec	-0.012065869
179	0x3d281095	0.04103144
180	0x3c9c479a	0.019077111
181	0x3cc10911	0.023563894
182	0x3c91ec11	0.01781276
183	0x3cc1f3f5	0.023675898
184	0xbc33e357	-0.010979495
185	0xbb7114d5	-0.0036786098
186	0xbd082024	-0.033233777
187	0xbce014ab	-0.027353605
188	0xbb8aec0e	-0.0042395657
189	0x3c3ce49b	0.011529113
190	0x3c2af2b2	0.01043384
191	0x3d2573cd	0.04039364
192	0x3c274687	0.010209686
193	0xbc6411f7	-0.013920299
194	0x3b9194ad	0.0044427724
195	0xbd269951	-0.040673558
196	0xbbfd92eb	-0.0077384613
197	0xbc187d67	-0.009307242
198	0xb996492c	-0.00028664747
199	0xbd490811	-0.04907996
200	0xbc404792	-0.011735814
201	0xbd696e0a	-0.056989707
202	0xbd3164ce	-0.043309025
203	0xbd29f7e6	-0.04149618
204	0x3b3b8dc5	0.0028618437
205	0xbd484718	-0.048895925
206	0xbd4a3e53	-0.049375843
207	0xbd02d5b2	-0.031942077
208	0x3d13f7ed	0.036125112
209	0x3d163a30	0.036676586
210	0xbcb13c91	-0.021635326
211	0x3cbe71cc	0.023247622
212	0xbcc30cf4	-0.023809887
213	0x3d1419bf	0.036157366
214	0x3d153305	0.03642561
215	0x3d1b0ad1	0.037852112
216	0x3c21e681	0.009881617
217	0x3ab38483	0.0013696108
218	0x3ca3dae4	0.020001836
219	0xbd74dd26	-0.059781216
220	0xbd390233	-0.045168113
221	0x3ca1954d	0.019724512
222	0xbd1c8ab0	-0.0382182
223	0xbb594d5a	-0.0033157677
224	0xbd0c2949	-0.03421906
225	0xbd393482	-0.04521609
226	0xbd2769c1	-0.04087234
227	0x3c6c8bca	0.014437625
228	0xbd2aecb1	-0.041729633
229	0xbce37767	-0.027766896
230	0xbcbecffe	-0.023292538
231	0xbbfc6bf3	-0.0077032982
232	0xbd3ebe66	-0.046568297
233	0xbd4e4bf4	-0.050365403
234	0x3cc5e0a5	0.02415497
235	0xbd1643a4	-0.0366856
236	0xbd6ae526	-0.05734744
237	0x3c007011	0.007839219
238	0xbcbc04f9	-0.02295159
239	0xbd16d588	-0.036824733
240	0xbcc3e92a	-0.023914892
241	0x3b2d828f	0.0026475524
242	0xbd47c8af	-0.04877537
243	0x3c2a6cbd	0.010401902
244	0xbd4e925f	-0.05043256
245	0xbc39def0	-0.011344656
246	0xbc5c605f	-0.013450711
247	0xbc3283bc	-0.010895666
248	0xbc8e7cab	-0.01739343
249	0x3c17d746	0.009267634
250	0xbc99aa46	-0.01875795
251	0xbd2f7f8c	-0.042846248
252	0x3d297acd	0.041376878
253	0x3be1694e	0.0068790084
254	0x3cc389f5	0.023869494
255	0xbc8223fa	-0.015886296

linear1.bias f4 [128]
0	0x3b8e07b0	0.0043344125
1	0x3db91e03	0.090389274
2	0xbd24e622	-0.040258534
3	0xbc5adea4	-0.013358746
4	0x3d8e1adb	0.06938716
5	0x3c9a7aa4	0.018857308
6	0x3dae5f79	0.08514304
7	0xbd035a59	-0.032068584
8	0x3d4578df	0.048210975
9	0x3cf20244	0.029542096
10	0x3c32abf4	0.010905255
11	0x3cc11df7	0.023573859
12	0xbcf48fa9	-0.029853659
13	0x3d904d1f	0.0704596
14	0x3c62634d	0.01381762
15	0xbd33d29b	-0.04390202
16	0x3bf965dc	0.0076110195
17	0x3d831731	0.06400908
18	0x3c6e1b0d	0.014532817
19	0x3b5d130a	0.0033733272
20	0xbd65ce87	-0.056105163
21	0xbc13b76d	-0.0090159
22	0x3cd4326c	0.02590295
23	0x3d5d7535	0.054066855
24	0xbcaa7a6d	-0.02081033
25	0x3c4fabe4	0.012675259
26	0x3d50a63b	0.05093978
27	0x3c128c55	0.008944591
28	0xbd2d6926	-0.042336605
29	0xb8fcbfce	-0.00012052023
30	0x3c86a5f8	0.016436562
31	0x3c0b7ee3	0.008514139
32	0xbd3d76fa	-0.046256043
33	0x3d99c08f	0.07507431
34	0x3cc5e782	0.024158243
35	0xbd4d4852	-0.0501178
36	0x3c7de97c	0.015497562
37	0x3dab73d0	0.08371699
38	0x3db7083e	0.08937119
39	0xbd115a63	-0.03548659
40	0x3d6b0dc1	0.057386164
41	0xbd2b24e7	-0.04178324
42	0xbb31bc8f	-0.0027120446
43	0x3cd6bcbf	0.026213048
44	0x3da16206	0.078800246
45	0x3cca1f51	0.024673136
46	0xbc43fa7a	-0.011961574
47	0x3cae7438	0.021295652
48	0x3c2f765f	0.010709374
49	0x3db3daae	0.08781944
50	0x3c6d25f8	0.0144743845
51	0x3da51e1f	0.08062386
52	0xbd21f172	-0.0395369
53	0x3ca2c6e1	0.019870223
54	0xbabee4f8	-0.0014564088
55	0xbbe44ea7	-0.006967384
56	0x3c257159	0.010097825
57	0x3cddd131	0.02707729
58	0x3d545c09	0.051845584
59	0x3c5d1486	0.013493663
60	0xbcfd85ef	-0.030947654
61	0xbd7b40ed	-0.061341215
62	0x3c33a4ef	0.010964616
63	0xbce41a9c	-0.02784472
64	0x3c8bf772	0.017085765
65	0x3b72dc92	0.003705774
66	0xbb99f894	-0.0046988223
67	0x3d9cb6f5	0.07652084
68	0xbc3a2a21	-0.011362583
69	0xbd76792c	-0.060174152
70	0x3d9e78e6	0.07737903
71	0xbd35aa83	-0.044352066
72	0x3d084263	0.033266436
73	0xbad85289	-0.001650409
74	0xbbbcfe1a	-0.005767596
75	0xbc976d15	-0.018484632
76	0xbc31892f	-0.01083593
77	0xbd45c03e	-0.04827904
78	0x3c264738	0.010148816
79	0xbc32ad25	-0.010905539
80	0x3bfb96d6	0.007677893
81	0x3cb19ed9	0.02168219
82	0xbccc7376	-0.0249574
83	0x3c98b26e	0.01863977
84	0x3c96e0b7	0.0184177
85	0x3bb2de5c	0.005458636
86	0xbcd1adb4	-0.025595523
87	0x3db087d9	0.08619661
88	0xbd3f5c66	-0.046718977
89	0x3c0a76ec	0.008451205
90	0xbd4f572b	-0.05062024
91	0x3cb2a7b4	0.021808483
92	0x3c22b48f	0.009930744
93	0x3cf9cc1f	0.03049284
94	0xbc1cbab7	-0.009566001
95	0x3d5d3a5d	0.054010738
96	0x3d61727a	0.055040814
97	0xbd361f7a	-0.044463612
98	0x3db608cc	0.088883966
99	0x3b8e0681	0.0043342714
100	0xbc8365f2	-0.016039822
101	0x3d36b60d	0.04460721
102	0x3da7a213	0.0818521
103	0x3d97bc73	0.07408991
104	0xbce1fcde	-0.027586397
105	0xbd234c0e	-0.039867453
106	0xbd93b5f4	-0.07212439
107	0xbcccb9d1	-0.024990948
108	0x3ca582d5	0.020203987
109	0xbd5af2f6	-0.05345436
110	0xbbdd264c	-0.00674895
111	0x3bb0c937	0.0053950804
112	0x3d4133f1	0.047168676
113	0xbd1221a2	-0.035676606
114	0xbd3fcbc7	-0.046825197
115	0xbd4ea7bc	-0.050452933
116	0x3d2d155a	0.04225669
117	0xbd2f1ab5	-0.04275008
118	0x3ce85a78	0.028363451
119	0x3d141608	0.036153823
120	0xbce959a4	-0.028485127
121	0x3dbc8f24	0.092069894
122	0xbd2cfa06	-0.04223063
123	0x3c92ae0f	0.017905263
124	0x3c81a6e3	0.015826648
125	0xbba0046b	-0.004883339
126	0xbcbd5008	-0.023109451
127	0xbc2125b2	-0.009835647
