models/5A_TL_hand_alpha.pth (torch, 421229 bytes, 13 tensors)

conv1.weight f4 [4, 1, 5, 5, 5]
0	0xbc296943	-0.010340038
1	0xbd6055a1	-0.054769162
2	0x3c4433a9	0.011975207
3	0xbafc05ae	-0.0019227767
4	0xbcdaafac	-0.026695095
5	0x3daeef93	0.08541789
6	0x3d07ef71	0.033187333
7	0x3d820dc5	0.063502826
8	0x3cc8575c	0.024455719
9	0x3b35ba2b	0.0027729373
10	0x3c91a6a3	0.017779654
11	0xbc451872	-0.012029754
12	0xbd6a36df	-0.057181235
13	0xbc1df4ba	-0.009640867
14	0x3b6ed2be	0.003644153
15	0x3c36ed9e	0.011165051
16	0x3a9367a7	0.0011246101
17	0xbd6b5baf	-0.057460483
18	0xbc5d8bc0	-0.0135220885
19	0xbd5a9fc3	-0.053375017
20	0x3daba04b	0.08380183
21	0xbcc4d735	-0.0240284
22	0xbda7883a	-0.0818028
23	0x3ce1ee2d	0.027579391
24	0xbd786211	-0.0606404
25	0xbc4eb1f2	-0.012615668
26	0x3da38e9d	0.07986186
27	0xbd53fb64	-0.051753417
28	0x3d977e98	0.07397193
29	0x3d1d861d	0.03845798
30	0xbbbb516f	-0.0057164948
31	0xbc4e7f39	-0.012603574
32	0xbe079b2a	-0.13242784
33	0xbd987ea4	-0.0744603
34	0xbdacd86d	-0.084397174
35	0xbc39b139	-0.011333757
36	0xbdfeef4e	-0.124479875
37	0xbd8650fb	-0.065584145
38	0xbd3e238a	-0.04642061
39	0xbcf67a0b	-0.030087491
40	0xbc8d9386	-0.017282259
41	0xbdcd09c8	-0.10011631
42	0xbd6c2ef7	-0.057661977
43	0x3da85b06	0.08220486
44	0xbbd70432	-0.0065617794
45	0xbd06be9d	-0.032896627
46	0xbe1f03bb	-0.15528767
47	0xbcc19190	-0.02362898
48	0x3ccbca1d	0.024876649
49	0xbe02fb72	-0.12791231
50	0xb9efaf28	-0.00045716134
51	0xbc90df73	-0.017684674
52	0x3da26be1	0.079307325
53	0xbcb42307	-0.021989359
54	0xbda1885a	-0.07887335
55	0x3baddf67	0.0053061727
56	0xbe132a8c	-0.14371699
57	0xbd80cc95	-0.06289021
58	0x3d1177ad	0.035514522
59	0xbc1fb920	-0.009748727
60	0x3a79d1a9	0.0009529838
61	0xbd7b83fc	-0.061405167
62	0xbcf15e53	-0.029463923
63	0x3db5ece9	0.08883078
64	0x3cf012b0	0.029305786
65	0xbd9926cd	-0.07478104
66	0xbdc9f4ef	-0.098611705
67	0x3e33ea3a	0.17569819
68	0x3e08278f	0.1329634
69	0x3d56b084	0.052414432
70	0xbd93f2e9	-0.07224066
71	0xbd170dd7	-0.036878433
72	0xbd111f58	-0.035430282
73	0x3db552aa	0.088536575
74	0x3da4364c	0.08018169
75	0x3d87f744	0.06638959
76	0xbc81b17e	-0.015831705
77	0xbbd1201e	-0.0063820025
78	0xbd5de843	-0.05417658
79	0x3c5a1845	0.01331145
80	0x3cb3d7a1	0.021953406
81	0xbd2bbdbd	-0.041928995
82	0xbdb7a0b6	-0.089662
83	0x3d8301f6	0.063968584
84	0xbdb7449c	-0.08948633
85	0x3d08bbe3	0.033382308
86	0xbd12b615	-0.03581818
87	0x3dbbc9db	0.0916936
88	0x3dee5a4a	0.11638315
89	0x3dc66054	0.09686342
90	0xbc845554	-0.016153969
91	0x3d2d65d8	0.042333454
92	0x3e0a4154	0.13501483
93	0x3e718b94	0.23588401
94	0x3e13d5c2	0.14437011
95	0x3d633b4f	0.055476483
96	0x3c98494d	0.01858964
97	0x3deb4035	0.11486856
98	0x3d76d502	0.060261734
99	0xbd74477d	-0.05963849
100	0x3c6698ce	0.014074517
101	0xbcd0d8b0	-0.02549395
102	0x3cf11493	0.029428756
103	0x3d8e2990	0.06941521
104	0xbc4e2d5a	-0.012584055
105	0x3cf16936	0.029469114
106	0xbdec8c52	-0.115502015
107	0xbc7e2503	-0.015511754
108	0x3cdc7c2d	0.02691468
109	0xbd3ece7a	-0.04658363
110	0xbd270bd3	-0.04078276
111	0xbd462ab6	-0.048380576
112	0xbc8a4e34	-0.016882993
113	0x3d398581	0.045293335
114	0x3dbb1b95	0.0913612
115	0x3d2a5d92	0.04159314
116	0xbdf8886b	-0.12135395
117	0x3d80c60e	0.06287776
118	0x3e04f6bb	0.12984745
119	0x3d7a6d7d	0.061139572
120	0xbd9aa37a	-0.07550712
121	0xbdb2f36d	-0.08737836
122	0xbb3b0145	-0.0028534692
123	0x3d7bdef4	0.06149192
124	0x3d89f96f	0.06737029
125	0xbc6f5d87	-0.014609701
126	0xbb4f9dcd	-0.003167975
127	0x3d3aee31	0.045637313
128	0x3b864df4	0.004098648
129	0x3d3a9788	0.045554668
130	0xbd207536	-0.03917428
131	0xbbb2761d	-0.005446209
132	0xbdb8c124	-0.09021214
133	0xbddb8e79	-0.10720534
134	0x3d3ef414	0.04661949
135	0x3b3b5dd7	0.0028589868
136	0x3d310bee	0.043224268
137	0xbd95fe2a	-0.073238686
138	0x3d3417c6	0.043967985
139	0xbc2ab908	-0.010420091
140	0xbcadbcea	-0.021208245
141	0xbd82cd84	-0.06386855
142	0xbcc1ad9a	-0.02364235
143	0xbde7a0f4	-0.11309996
144	0x3d46d444	0.048542276
145	0x3d0d8155	0.03454717
146	0x3d87cb1b	0.06630536
147	0x3b0ff499	0.002196586
148	0x3d072cb1	0.033001605
149	0x3d86718b	0.06564625
150	0x3d9b9cf4	0.07598296
151	0xbda8978d	-0.08232031
152	0xbd3be5f3	-0.045873594
153	0xbd9aaa1c	-0.07551977
154	0xbd25be28	-0.04046455
155	0xbda88162	-0.08227803
156	0x3cabb91f	0.020962296
157	0x3c6b323b	0.014355238
158	0xbd6603dd	-0.056156028
159	0x3ccacde4	0.02475638
160	0x3d835635	0.06412927
161	0x3d93dd16	0.07219903
162	0x3e098e57	0.13433205
163	0xbdb6401f	-0.08898949
164	0xbde17731	-0.11009062
165	0xbd349581	-0.04408789
166	0xbce8f940	-0.028439164
167	0xbcfb9efb	-0.030715456
168	0xbd80e67b	-0.06293961
169	0xbd37d874	-0.04488416
170	0xbd8c56b6	-0.06852476
171	0xbe116976	-0.14200386
172	0xbd99b5e6	-0.075053975
173	0xbdee4b6b	-0.116354786
174	0xbcaef89a	-0.021358777
175	0xbd3d9ef3	-0.046294164
176	0x3d97d089	0.07412822
177	0xbd92651e	-0.07148193
178	0xbc03193c	-0.008001622
179	0xbd099aa2	-0.033594735
180	0xbd454b8f	-0.04816776
181	0x3cccedf2	0.025015805
182	0x3e30933d	0.17243667
183	0x3d207be7	0.039180662
184	0xbc88b415	-0.016687432
185	0x3dd926f5	0.106031336
186	0x3e1d9f2e	0.15392753
187	0x3e2a343a	0.16621485
188	0x3e002587	0.12514316
189	0xbd294318	-0.04132375
190	0xba2a94db	-0.00065071665
191	0x3dab06f2	0.08350934
192	0x3de61fdb	0.11236545
193	0x3d06d5a5	0.03291859
194	0x3c69ff3a	0.014282042
195	0xbdd8adb3	-0.105800055
196	0xbd8c038a	-0.068366125
197	0x3d73bf27	0.05950847
198	0xbd6f64f6	-0.058445893
199	0x3d2155e6	0.03938856
200	0x3cd987b5	0.026553968
201	0xbd0e0060	-0.034668326
202	0xbdc3498c	-0.09535512
203	0x3c6ed381	0.014576794
204	0x3cad2808	0.021137252
205	0x3cc1eee7	0.023673488
206	0x3cd1ae33	0.02559576
207	0x3db5a25e	0.0886886
208	0xbddc76ac	-0.10764822
209	0xbd9f4744	-0.07777265
210	0x3d223ff3	0.039611768
211	0x3e4f2f3e	0.20232865
212	0x3e31e3ee	0.17372105
213	0x3ca63e0c	0.020293258
214	0xbc04eb21	-0.0081127
215	0xbdd63ed5	-0.10461203
216	0x3de83b8d	0.113394834
217	0x3d0201cb	0.03173999
218	0x3c2f90f4	0.010715712
219	0xbd4fd143	-0.050736677
220	0xbda2fbdc	-0.079581946
221	0x3dc44e4e	0.09585248
222	0x3d42a403	0.047519695
223	0xbdb27d37	-0.08715289
224	0x3c6c2f77	0.014415613
225	0x3d556bcd	0.05210476
226	0x3cd564ce	0.026049044
227	0x3d199587	0.037496116
228	0xbc15c377	-0.009140841
229	0x3c935075	0.0179827
230	0x3d26c676	0.04071661
231	0x3d42ae0a	0.047529258
232	0xbdcd154b	-0.10013827
233	0xbd43c1e8	-0.047792345
234	0x3a6db26e	0.00090674206
235	0x3d8e9111	0.06961263
236	0x3d0c367c	0.034231648
237	0x3d369e36	0.044584475
238	0xbc1f30d4	-0.009716231
239	0x3bb4aedc	0.005514009
240	0xbd29534b	-0.0413392
241	0xbce577a8	-0.028011158
242	0x3c534cb6	0.012896707
243	0xbdec2d26	-0.11532049
244	0xbb7d3c59	-0.0038640706
245	0x3dd952b5	0.10611478
246	0xbd7a8258	-0.06115946
247	0x3d146f7a	0.036239125
248	0xbdcb52cb	-0.09927901
249	0x3c5543be	0.013016639
250	0x3d3f8f9a	0.04676781
251	0x3d14943d	0.036274184
252	0xbd144296	-0.036196314
253	0xbd7e1d3c	-0.0620396
254	0x3da0323b	0.07822081
255	0xbd5b2cce	-0.053509526

conv1.bias f4 [4]
0	0xbd158e1e	-0.036512487
1	0xbdcd0a61	-0.10011745
2	0xbdf94306	-0.12170987
3	0xbc529541	-0.012852968

conv2.weight f4 [8, 4, 5, 5, 5]
0	0x3d948dc4	0.07253602
1	0x3dc466af	0.09589898
2	0x3dabeeaf	0.08395135
3	0x3d196593	0.037450384
4	0xbd65227b	-0.055941086
5	0x3c9a329b	0.018822959
6	0x3cf0df32	0.029403303
7	0x3da90c89	0.08254344
8	0x3d9da90c	0.07698259
9	0xbce05338	-0.027383432
10	0xbc8d0d1a	-0.017218161
11	0x3d93a7fc	0.07209775
12	0x3da2c123	0.07946994
13	0x3c886809	0.01665117
14	0xbbaf9e6d	-0.005359462
15	0xba60d161	-0.0008576122
16	0x3d10f9b8	0.0353944
17	0xbc2e3209	-0.0106320465
18	0x3ca6d1f8	0.020363793
19	0xbc79535b	-0.015217627
20	0x3bbe3d21	0.005805627
21	0x3cafcc9a	0.021459866
22	0x3da2ab03	0.07942774
23	0xbacc6310	-0.0015593488
24	0xbc5cb497	-0.01347079
25	0xbd10d064	-0.035354987
26	0xbd827fcb	-0.06372031
27	0xbc1a4dfb	-0.009418006
28	0x3c34d9d4	0.011038262
29	0x3d56c703	0.052435886
30	0xbe0bed6f	-0.13664792
31	0xbd26ab93	-0.04069097
32	0x3b928807	0.004471782
33	0xbc4a4811	-0.0123462835
34	0x3c24fb65	0.010069703
35	0xbd2cfa02	-0.042230614
36	0x3ddaf3cd	0.106910326
37	0x3d3d3e1a	0.046201803
38	0x3ce84597	0.028353496
39	0xbd9adecb	-0.07562026
40	0xbc97a58f	-0.018511562
41	0xbc977ab2	-0.018491123
42	0x39def2cc	0.00042524037
43	0xba983986	-0.0011613823
44	0xbb42d5e1	-0.0029729533
45	0x3d170c7a	0.036877133
46	0x3b867390	0.0041031316
47	0x3d040315	0.0322295
48	0x3d066e5a	0.032820083
49	0xbbd633c7	-0.006536934
50	0xbda74405	-0.081672706
51	0xbe199da9	-0.15001549
52	0xb92f93ec	-0.00016744406
53	0xbd60dc98	-0.054897875
54	0xbc935959	-0.01798694
55	0xbe3dc8d8	-0.18533647
56	0xbcf10fad	-0.02942642
57	0x3c28479a	0.010270977
58	0xbdc7726e	-0.097386226
59	0xbe3c6cec	-0.18400925
60	0xbd9c5c5e	-0.07634805
61	0x3cffbeea	0.031218965
62	0x3d49a203	0.049226772
63	0xbd9a4eda	-0.07534571
64	0xbdfd5011	-0.12368787
65	0x3bf77605	0.007551911
66	0xbdebfe22	-0.11523081
67	0xbe325058	-0.17413461
68	0xbd407db9	-0.0469949
69	0x3e09c7df	0.13455151
70	0x3d9f9e58	0.077938735
71	0xbd96f944	-0.073717624
72	0xbdaceda3	-0.08443763
73	0xbc30623e	-0.01076561
74	0x3c2c0a0a	0.01050044
75	0x3e130d0d	0.14360447
76	0xbcca929f	-0.024728118
77	0xbd4add3b	-0.049527388
78	0xbe19bd7e	-0.15013692
79	0x3d234aeb	0.03986637
80	0xbd0524d5	-0.03250583
81	0xbcc20dab	-0.023688158
82	0xbcbb756b	-0.022883138
83	0xbe5ad4f8	-0.21370304
84	0xbd118f89	-0.035537276
85	0xb99c0cfb	-0.0002976431
86	0x3ba4b619	0.0050265905
87	0xbc64b893	-0.013960022
88	0xbe5a72b0	-0.21332812
89	0xbc55bab2	-0.013045
90	0x3d99488a	0.07484539
91	0xbe22d135	-0.15900119
92	0xbe34d4e8	-0.17659342
93	0xbd7f95a0	-0.062398553
94	0x3e063cb4	0.13109094
95	0x3d33e152	0.043916054
96	0xbde6424b	-0.11243113
97	0x3ccb3522	0.02480561
98	0xbbb256b9	-0.005442467
99	0xbb91c060	-0.0044479817
100	0x3dd749a2	0.10512091
101	0xbdd9d331	-0.10635985
102	0xbd82d46c	-0.063881725
103	0xbcb1488c	-0.021641038
104	0x3dba30f5	0.09091369
105	0xbd80242b	-0.062568985
106	0xbe672af2	-0.22574976
107	0xbdaa7af7	-0.08324235
108	0x3c67ace3	0.0141403405
109	0x3dc74836	0.0973057
110	0x3c7a7348	0.015286274
111	0xbe97611e	-0.29566282
112	0xbe82d56b	-0.2555345
113	0xbe37a0a2	-0.1793237
114	0x3c38af1c	0.011272218
115	0x3cf38948	0.029728547
116	0xbe052746	-0.13003263
117	0xbc53b4e3	-0.012921545
118	0xbd1f33bd	-0.0388677
119	0x3d31fd9a	0.043454744
120	0xbded5270	-0.11587989
121	0xbd58f8e1	-0.052971724
122	0x3d79cf02	0.060988434
123	0xbd0a8d65	-0.03382625
124	0xbb81a646	-0.003956589
125	0xb9231a3e	-0.00015554667
126	0x3d9bd5d9	0.076091476
127	0x3dae31cc	0.08505592
128	0x3d5b72a7	0.053576138
129	0x3b86c403	0.004112722
130	0x3dedd9c4	0.11613801
131	0xbbc46df0	-0.005994551
132	0xbd4854f4	-0.048909143
133	0xbd5753d5	-0.052570183
134	0xbdd00735	-0.10157625
135	0x3d0d8439	0.034549925
136	0xbdbfa548	-0.09357697
137	0x3bb37a4f	0.005477227
138	0xbc8c0f62	-0.017097179
139	0xbd856298	-0.06512946
140	0x3d8ab293	0.067723416
141	0xbda50bfb	-0.08058926
142	0x3d2d67b0	0.042335212
143	0x3c96b5b9	0.018397199
144	0xbcbfef6b	-0.023429593
145	0x3dfcd8c1	0.1234603
146	0xbaf6bf84	-0.0018825387
147	0xbd635a2d	-0.05550592
148	0xbc1dc2f1	-0.009628997
149	0xbd0e5f9b	-0.034759145
150	0x3dadafd2	0.08480801
151	0x3c8fe051	0.017563017
152	0xbbf56987	-0.0074893865
153	0xbcc957cf	-0.024578003
154	0x3d465757	0.048423138
155	0x3dd93b04	0.106069595
156	0xbdd7587d	-0.10514925
157	0xbe26ec8f	-0.16301177
158	0xbd415593	-0.04720075
159	0xbc303647	-0.010755128
160	0x3d114745	0.03546836
161	0xbe5840e9	-0.21118511
162	0xbdca512f	-0.09878766
163	0x3cd79552	0.026316319
164	0x3d299174	0.04139848
165	0x3bd9a700	0.0066422224
166	0xbe78a2d5	-0.24280865
167	0xbc3462ce	-0.011009885
168	0x3d51e544	0.051244035
169	0x3d2b8847	0.04187801
170	0x3df36018	0.11883563
171	0xbdb71825	-0.08940152
172	0xbd5d37e1	-0.05400837
173	0xbc53e459	-0.01293286
174	0xbaf974cf	-0.0019032004
175	0x3d96fff4	0.07373038
176	0x3d1e0f36	0.038588725
177	0x3bc79b7c	0.006091533
178	0x3bc2e7b9	0.0059480336
179	0x3d530476	0.051517926
180	0x3e274899	0.16336288
181	0xbd93a80f	-0.07209789
182	0xbdc03d01	-0.093866356
183	0xba09f22f	-0.00052622234
184	0x3d245389	0.040118728
185	0x3dbd949e	0.09256862
186	0xbe5a2838	-0.21304405
187	0xbd34c2f7	-0.044131245
188	0x3e0541ae	0.13013336
189	0x3dfa9c33	0.12236824
190	0x3d6d9038	0.057998866
191	0xbde501a0	-0.111819506
192	0xbc7458e8	-0.014913775
193	0x3e092da0	0.13396311
194	0x3d84fcf5	0.0649356
195	0x3e2430c3	0.16034226
196	0x3dd113c9	0.10208852
197	0xbb4b63b0	-0.003103476
198	0xbcf2d4ec	-0.029642545
199	0xbd9cbab8	-0.07652801
200	0x3de4272c	0.11140284
201	0x3e0a47f0	0.13504004
202	0x3da0979a	0.07841416
203	0x3c967510	0.018366367
204	0xbd06bc89	-0.032894645
205	0x3e31ce53	0.17363863
206	0x3d6bbee5	0.057555098
207	0x3d512d8b	0.051068824
208	0x3d15bd0d	0.036557246
209	0x3da05afd	0.07829855
210	0x3e389a49	0.18027605
211	0x3cd80bd4	0.026372828
212	0x3dd6bfdc	0.10485813
213	0x3e041dbe	0.1290197
214	0x3e1d9ecd	0.15392609
215	0x3e048715	0.12942155
216	0x3de66038	0.11248821
217	0x3e6afb17	0.22947346
218	0x3e5c7f40	0.21532917
219	0x3d566bad	0.05234878
220	0x3e04a30f	0.12952827
221	0x3e7382e8	0.23780406
222	0x3d876cbc	0.06612536
223	0x3d1ada27	0.037805703
224	0x3cc43334	0.023950197
225	0xbc95185d	-0.018200094
226	0x3db8e773	0.090285204
227	0xbcfa8e02	-0.030585293
228	0xbdcc8d2b	-0.09987863
229	0xbe0df7ae	-0.13864014
230	0x3d65b66a	0.056082167
231	0xbbaaa506	-0.0052076606
232	0xbda0ab7f	-0.0784521
233	0xbdeb4355	-0.11487452
234	0xbd62cdb2	-0.055371948
235	0x3cf12965	0.029438684
236	0xbe1495c3	-0.14510255
237	0xbdefae6f	-0.117031924
238	0xbcee4618	-0.029086158
239	0xbd346bcc	-0.044048116
240	0xbcf37f21	-0.029723706
241	0xbcf9103f	-0.030403255
242	0x3d53f196	0.051744066
243	0x3d7c438e	0.061587863
244	0x3d4e1710	0.050314963
245	0xbe525dba	-0.20543566
246	0xbcb7b457	-0.02242486
247	0xbda88652	-0.082287446
248	0xbd2d40fc	-0.042298302
249	0x3c92e185	0.017929802
250	0x3c898a66	0.016789626
251	0x3b17a044	0.0023136297
252	0xbdbd3966	-0.092394635
253	0xbdf4df5e	-0.119566664
254	0x3d1405d8	0.036138386
255	0xbd7b4624	-0.06134619

conv2.bias f4 [8]
0	0x3c7c8340	0.015412152
1	0x3c135208	0.008991726
2	0x3c66f6dd	0.014096943
3	0x398232af	0.00024833294
4	0x3a7cc8ac	0.00096429395
5	0x3d26c988	0.04071954
6	0x3d0daebd	0.03459047
7	0xbca94aa5	-0.020665476

conv3.weight f4 [16, 8, 3, 3, 3]
0	0xbd0e8ce7	-0.034802344
1	0xbc9f9c84	-0.019483812
2	0x3d893f83	0.06701567
3	0x3ced9ef6	0.029006463
4	0xbd90d3b2	-0.07071628
5	0xbbafebde	-0.0053686937
6	0xbcc0ab28	-0.023519114
7	0xbcc65a2d	-0.024212921
8	0xbca4e990	-0.020130903
9	0x3e6be81c	0.23037761
10	0x3e04ef9c	0.12982029
11	0x3e2ff389	0.17182745
12	0x3d6ed9dc	0.058313236
13	0x3d8c2337	0.06842654
14	0x3d834b99	0.064109035
15	0x3ab445ca	0.0013753709
16	0x3c92de32	0.017928217
17	0x3b8ed19d	0.004358484
18	0x3e372f97	0.17889248
19	0xbdb6925f	-0.08914637
20	0x3c5125e4	0.0127653815
21	0x3e06cc6e	0.13163921
22	0x3cee3dfd	0.029082293
23	0xbbb4a56e	-0.005512885
24	0x3dd15687	0.10221582
25	0x3e102316	0.14075884
26	0xb949d7ef	-0.00019249295
27	0xbe024aaf	-0.12723802
28	0xbd1c84d7	-0.038212623
29	0xbd897afd	-0.06712911
30	0x3d2581e1	0.040407065
31	0x3da27a7d	0.07933519
32	0xbdf6b8d8	-0.12046975
33	0x3c5509ac	0.013002794
34	0x3da651f6	0.081211016
35	0xbd4bd998	-0.04976806
36	0xbda8b853	-0.08238282
37	0x3c61737a	0.013760442
38	0x3d842352	0.06452049
39	0xbd9eb061	-0.07748485
40	0x3dd04c93	0.101708554
41	0x3d60c368	0.054873854
42	0x3c49c379	0.012314671
43	0x3d12bb21	0.03582299
44	0x3d3b8fd6	0.04579147
45	0xbda32555	-0.07966105
46	0x3c6193f4	0.013768185
47	0x3bf13a3b	0.007361678
48	0xbb3caf93	-0.0028791174
49	0x3d54638c	0.051852748
50	0x3d4bead3	0.049784493
51	0xbda3775a	-0.07981749
52	0xbde3b2e8	-0.11118108
53	0xbd33a885	-0.043861885
54	0x3dc39b15	0.09551064
55	0xbd205663	-0.039144885
56	0xbd5b3778	-0.053519696
57	0xbe6de340	-0.2323122
58	0xbae9361d	-0.0017792616
59	0x3cab39ad	0.020901525
60	0xbd965ac4	-0.07341531
61	0xba9caabc	-0.0011952738
62	0xbd3a4d86	-0.04548409
63	0xbd9794d0	-0.074014306
64	0x3d8f31d8	0.06991929
65	0xbc862b2f	-0.016378013
66	0xbe8ec067	-0.27881166
67	0x3d204917	0.039132204
68	0x3d615d85	0.055020828
69	0xbe96dc2b	-0.2946485
70	0xbdbda7bb	-0.09260508
71	0x3cb540a3	0.022125548
72	0xbdb37d9b	-0.08764192
73	0xbd7cbe73	-0.061705064
74	0xbdabd1f4	-0.08389655
75	0xbe5fdf7c	-0.21862596
76	0x3d306229	0.043062363
77	0xbe08b954	-0.13351947
78	0xbc90f46b	-0.017694673
79	0x3d352d04	0.044232383
80	0xbdeb593d	-0.1149163
81	0x3d29d9c3	0.04146744
82	0x3c2fefba	0.010738308
83	0xbd93796e	-0.07200895
84	0x3d96e7b5	0.07368413
85	0x3e3bf3fb	0.1835479
86	0x3db6222e	0.08893238
87	0x3df7e072	0.121033564
88	0x3dda364e	0.10654889
89	0xbc6912d3	-0.014225679
90	0xbcc638a4	-0.02419693
91	0xbd04ccb0	-0.032421768
92	0xbe081d4a	-0.13292423
93	0x3cc7d7a0	0.02439481
94	0x3e005d69	0.12535633
95	0x3d886f03	0.06661799
96	0x3d495a9f	0.04915869
97	0x3de09bc5	0.10967211
98	0xbd8c7b40	-0.068594456
99	0xbd979319	-0.074011035
100	0xbc85b09b	-0.016319564
101	0x3b95028c	0.0045474228
102	0xbe7eb73d	-0.24874587
103	0xbd45c57b	-0.048284035
104	0xbd63cd6a	-0.05561582
105	0xbe92ebfd	-0.2869567
106	0xbe258748	-0.16164887
107	0xbe320367	-0.1738411
108	0xbe04d462	-0.12971643
109	0xbe18c061	-0.14917137
110	0xbe23b169	-0.15985645
111	0xbdeeb8b7	-0.11656325
112	0x3c1d66d5	0.009607037
113	0xbd5ed164	-0.05439891
114	0xbe0c3761	-0.13693
115	0xbd31c804	-0.04340364
116	0x3cbe7fe9	0.023254352
117	0x3c93b799	0.018031882
118	0x3dce7124	0.100801736
119	0xbb05429c	-0.0020333892
120	0x3d862cfc	0.06551549
121	0x3e168b1e	0.14701506
122	0x3d74bf99	0.059753034
123	0xbe019e19	-0.12657966
124	0x3d67b0aa	0.056564964
125	0x3df2c793	0.11854472
126	0x3da2211d	0.07916472
127	0x3dad6e04	0.084682494
128	0xbe420126	-0.1894575
129	0x3ccaaa4f	0.024739413
130	0x3db7b0f1	0.08969296
131	0xbcfaa023	-0.030593937
132	0xbda92b04	-0.08260158
133	0x3c2718bb	0.010198767
134	0x3d302195	0.043000776
135	0xbda2d3e9	-0.07950575
136	0x3c408aec	0.011751872
137	0xbdbb5ee7	-0.091489606
138	0xbdb0e34d	-0.08637104
139	0x3d9596b0	0.07304132
140	0x3d8a9291	0.067662366
141	0xbdc61204	-0.09671405
142	0x3c8680d9	0.016418861
143	0x3e1df21f	0.15424393
144	0xbdd4df9d	-0.10394213
145	0x3d3a7427	0.045520928
146	0xbd4f5f9e	-0.050628297
147	0xbdec2db6	-0.11532156
148	0x3d170b3c	0.03687595
149	0x3e1649d6	0.14676604
150	0x3d99b015	0.07504288
151	0x3d02167b	0.03175972
152	0x3d9d1793	0.07670512
153	0x3c2ed054	0.0106697865
154	0xbd934222	-0.07190348
155	0xbd02c44c	-0.031925485
156	0xbd813668	-0.06309205
157	0x3d4689c7	0.04847124
158	0x3d569e7f	0.052397247
159	0xbccb380d	-0.024807
160	0xbe0e705c	-0.13910049
161	0xbc64154c	-0.013921093
162	0xbdb5335e	-0.08847688
163	0xbdf4a430	-0.11945379
164	0xbbc00264	-0.00585966
165	0xbdeb1b14	-0.11479774
166	0xbe50c0d3	-0.20386057
167	0xbdac50b2	-0.08413829
168	0xbdbaf1d0	-0.09128153
169	0xbdcd0ecc	-0.10012588
170	0x3de5c387	0.112189345
171	0x3d7ed6a4	0.062216416
172	0xbd653143	-0.055955183
173	0xbe225085	-0.15851028
174	0x3d657fc5	0.056030054
175	0xbca7d4c4	-0.020487197
176	0xbdf48cb5	-0.119409
177	0xbd7ef40b	-0.062244456
178	0x3cd26ae5	0.025685737
179	0x3d6ee15f	0.0583204
180	0x3dff76a4	0.12473801
181	0xbd4b1711	-0.049582545
182	0xbe097d5b	-0.13426726
183	0xbd11fd66	-0.03564205
184	0xbdf0e75f	-0.117628805
185	0xbcad5c2a	-0.021162111
186	0xbd7b2b23	-0.061320435
187	0x3c470e0a	0.012149343
188	0x3c477622	0.012174161
189	0xbcd3fe56	-0.025878113
190	0x3c70e71f	0.014703541
191	0x3dac7b2a	0.08421929
192	0x3d8ffca7	0.070306115
193	0xbbeb8039	-0.007186916
194	0x3c44bb59	0.012007558
195	0xbd837eaf	-0.06420647
196	0xbce25d9d	-0.027632529
197	0x3c0f58d1	0.008749203
198	0x3da50660	0.080578566
199	0x3d8022b3	0.06256618
200	0x3db6cba3	0.08925559
201	0x3d317180	0.043321133
202	0x3d80d40a	0.06290443
203	0x3cd80f3d	0.026374454
204	0xbbf489f9	-0.0074627367
205	0x3c7e1fce	0.0155105125
206	0x3c667ced	0.014067871
207	0xbcdac912	-0.026707206
208	0x3c9ce564	0.01915235
209	0x3d886746	0.06660323
210	0xbcb2f3b8	-0.02184473
211	0x3d889c25	0.06670407
212	0x3d70322f	0.05864161
213	0xbb32cd7c	-0.0027283123
214	0xbd136d4c	-0.035992905
215	0xbe1e625f	-0.15467213
216	0xbe191389	-0.14948858
217	0xbe16513d	-0.14679427
218	0xbcbc59d2	-0.022992048
219	0xbd6eee27	-0.05833259
220	0x3d4e09c0	0.050302267
221	0xbc1d1e35	-0.009589721
222	0xbc84a090	-0.016189843
223	0x3e007d86	0.12547883
224	0x3d251669	0.040304575
225	0xbd8bb35e	-0.06821321
226	0xbc088690	-0.008332863
227	0x3c4695ac	0.0121206455
228	0x3c9779ad	0.018490637
229	0x3e06c1b6	0.13159832
230	0x3e0998d2	0.13437203
231	0x3d66dc27	0.056362297
232	0x3d4d74f5	0.050160367
233	0x3dde2d05	0.108484305
234	0xbdd1f1e3	-0.10251214
235	0xbe3d5e6f	-0.18493055
236	0xbd28b08a	-0.041183986
237	0xbd485601	-0.048910145
238	0xbd730ac3	-0.059336435
239	0xbda88566	-0.08228569
240	0xbd7e697d	-0.06211232
241	0x3c23cddd	0.009997812
242	0x3d2772d9	0.04088101
243	0xbcd2333d	-0.025659198
244	0xbe2e8913	-0.17044477
245	0xbe49ef84	-0.19720274
246	0xbd6fbc31	-0.058529083
247	0xbe1ad44c	-0.15120047
248	0xbe127b86	-0.14304933
249	0xbc854ef6	-0.016273003
250	0xbe28cee8	-0.16485178
251	0xbe102564	-0.14076763
252	0x3dc06254	0.093937546
253	0xbc7649fc	-0.015032288
254	0xbdb2cda9	-0.08730633
255	0x3d2dd058	0.04243502

conv3.bias f4 [16]
0	0x3b553fd7	0.0032539272
1	0xbdf92ce5	-0.12166766
2	0xbdb5c7c0	-0.0887599
3	0x3c9b449c	0.018953614
4	0x3d02949a	0.03188
5	0x3bc29efd	0.005939363
6	0x3d49ac8f	0.04923683
7	0xbd3b5a62	-0.045740493
8	0xbd37773f	-0.044791456
9	0xbcefa18c	-0.029251836
10	0x3d42688d	0.04746299
11	0x3cb7231d	0.02235561
12	0x3cd66b1b	0.026174119
13	0xbbd839a5	-0.0065986686
14	0xbcd00b84	-0.025396116
15	0x3b5bfcf8	0.003356753

conv4.weight f4 [32, 16, 3, 3, 3]
0	0x3d299281	0.041399483
1	0x3ce84640	0.02835381
2	0xbd446a6e	-0.04795306
3	0xbdbef7c4	-0.09324601
4	0x3b81c35d	0.0039600567
5	0x3d225004	0.03962709
6	0xbe026ed0	-0.12737584
7	0x3ce8a58d	0.028399253
8	0x3df81c62	0.121147886
9	0x3d2095a4	0.03920521
10	0x3da9e1a0	0.08294988
11	0x3cc39e5b	0.02387922
12	0xbd69a332	-0.0570404
13	0x3bed294d	0.0072375895
14	0x3d58c6ab	0.05292384
15	0xbd20dc1c	-0.039272413
16	0x3cb5893c	0.022160165
17	0x3de5e4bc	0.11225268
18	0xbd2fa6ba	-0.042883612
19	0xbaa2fcce	-0.0012434961
20	0x3cf0eadc	0.029408865
21	0xbdf3afe5	-0.118987836
22	0xbbba9841	-0.0056944196
23	0x3c4f8123	0.012665066
24	0xbdc74fa9	-0.09731991
25	0xbd34490c	-0.044014975
26	0xbd609d6f	-0.05483764
27	0x3d4ce583	0.050023567
28	0x3d86e854	0.06587282
29	0xbadcb5f8	-0.0016838899
30	0x3e113e4f	0.14183925
31	0x3ddd7491	0.10813249
32	0xbcf4910b	-0.029854318
33	0x3ccf51a5	0.025307486
34	0x3d024c42	0.031811006
35	0xbe08d9d0	-0.13364339
36	0x3da93188	0.082614005
37	0x3db47ab2	0.08812465
38	0xbcc47432	-0.023981187
39	0x3d0e6192	0.03476102
40	0x3dbdb606	0.09263234
41	0x3d077d8e	0.033078723
42	0xbdb7a6ed	-0.089673854
43	0x3d30aa2c	0.04313104
44	0xbcd2536f	-0.02567455
45	0xbe1ec411	-0.15504481
46	0xbdf0437e	-0.11731623
47	0xbe6a1c8f	-0.22862457
48	0xbe52822b	-0.20557468
49	0xbdabee37	-0.08395045
50	0xbdcd017c	-0.10010049
51	0xbda4cb37	-0.08046573
52	0xbc66aeed	-0.0140797915
53	0x3e1dcac3	0.15409379
54	0x3cb874a0	0.022516549
55	0x3d0deb8e	0.03464847
56	0x3c959a4f	0.018262057
57	0xbcb48ff7	-0.022041304
58	0xbba358e7	-0.004984963
59	0xbc2fbf8b	-0.01072682
60	0x3cc8e1a2	0.024521653
61	0x3b8fbdf1	0.0043866565
62	0xbdbf0527	-0.093271546
63	0x3b6bf08a	0.0036001527
64	0x3d3afd41	0.045651678
65	0x3ceccfbd	0.028907651
66	0xbd06f7be	-0.03295111
67	0x3d7adcd2	0.061245747
68	0x3d09db52	0.033656426
69	0xbc1b162d	-0.009465736
70	0x3cfb3637	0.0306655
71	0xbc3907fc	-0.0112934075
72	0x3cc2d09a	0.02378111
73	0x3d98ba04	0.07457355
74	0x3ba69fa4	0.0050849486
75	0x3d78c507	0.060734775
76	0x3db30454	0.0874106
77	0xbd545900	-0.05184269
78	0x3c93f659	0.018061804
79	0xbc116f35	-0.0088766115
80	0xba9a3c60	-0.0011767261
81	0xbcbc003c	-0.02294933
82	0xbc879410	-0.016550094
83	0x3cd687a4	0.026187725
84	0xbdb690c9	-0.08914334
85	0xbe101c70	-0.14073348
86	0xbb9c9713	-0.0047787516
87	0xbd425558	-0.04744467
88	0xbd736cb9	-0.059429858
89	0xbb89b1cc	-0.0042021032
90	0xbd40fa38	-0.047113627
91	0x3d9964ed	0.07489953
92	0x3d6b75da	0.05748544
93	0xbdbd2450	-0.09235442
94	0xbcc96346	-0.02458347
95	0xba705bd9	-0.000916896
96	0x3d930ea3	0.07180526
97	0xbd02734d	-0.03184824
98	0xbdd4e6a1	-0.103955515
99	0xbd3ca69a	-0.04605732
100	0x3cb59130	0.022163957
101	0x3ceb32cf	0.02871075
102	0xbd16ed23	-0.036847245
103	0x3cac9ec5	0.021071801
104	0x3d5a36dd	0.053274978
105	0x3acdbe77	0.0015697022
106	0xbd432dc5	-0.04765107
107	0xbd6483c3	-0.05578972
108	0xbd90ea9a	-0.07075997
109	0x3c7439b3	0.014906335
110	0x3dd618c6	0.10453944
111	0xbe07d736	-0.1326569
112	0x3d3868c9	0.045021806
113	0xbc51bcd7	-0.012801371
114	0xbe061713	-0.1309474
115	0xbd6f82c9	-0.058474336
116	0xbc5c1929	-0.013433733
117	0xbd59364b	-0.053030293
118	0x3cb4281a	0.021991778
119	0x3da3abfa	0.07991786
120	0xbd6ce199	-0.057832334
121	0x3c31cf03	0.010852578
122	0x3d9e58d2	0.07731785
123	0xbd910e58	-0.07082814
124	0xbd1a9b1f	-0.03774559
125	0x3c04cea9	0.008105912
126	0xbd96d79a	-0.073653415
127	0xbdd3f492	-0.103493825
128	0x3b8736af	0.004126392
129	0xbe0eef0b	-0.13958375
130	0xbe21975b	-0.15780394
131	0x3c644d6a	0.013934473
132	0xbe1d4f93	-0.15362386
133	0xbe496eae	-0.19671127
134	0xbd592502	-0.05301381
135	0x3c24d7ee	0.010061247
136	0x3d252c38	0.040325373
137	0x3d4a70ff	0.049424168
138	0x3df6ea1b	0.12056371
139	0x3ddd53a4	0.10806969
140	0x3d8c2159	0.06842298
141	0x3b9eb5b3	0.0048434376
142	0x3d6e36db	0.058157783
143	0x3d313486	0.04326298
144	0xbd9f2962	-0.07771565
145	0xbd5ac9c0	-0.05341506
146	0xbd287c2e	-0.041134052
147	0x3d5f0e38	0.05445692
148	0x3da0c794	0.078505665
149	0xbd8f613a	-0.07000966
150	0xba39b513	-0.0007084172
151	0x3cfbdbd5	0.030744473
152	0xbdfd3809	-0.123642035
153	0xbc819b06	-0.015820991
154	0xbcf0405d	-0.029327566
155	0x3d033203	0.032030117
156	0x3d47a591	0.04874188
157	0xbceb9f42	-0.028762463
158	0xbd2ef488	-0.042713672
159	0xbd3e18fa	-0.04641054
160	0xbd9a4d35	-0.07534257
161	0xbd3d8cc8	-0.046276838
162	0xbb938bfc	-0.0045027714
163	0x3cbeeba6	0.023305725
164	0x3c634966	0.01387248
165	0xbcebe828	-0.028797224
166	0x3c9d2912	0.019184623
167	0xbcde872f	-0.02716407
168	0x3d618325	0.05505671
169	0x3ccef129	0.025261478
170	0x3cf79479	0.030222164
171	0x3d187a5c	0.037226066
172	0x3b55557e	0.0032552178
173	0x3caaee56	0.0208656
174	0xbd76e450	-0.06027633
175	0xbd287288	-0.04112485
176	0x3d51df75	0.051238496
177	0x3d033fdc	0.032043323
178	0x3d331296	0.043718897
179	0x3c8b6d29	0.017019825
180	0x3d2d4f8d	0.042312194
181	0xb8bcaef0	-8.997123e-05
182	0xbe08c472	-0.13356188
183	0xbd9c6cbd	-0.07637928
184	0xbdb75ead	-0.08953605
185	0xbd48eb63	-0.049052607
186	0xbd67c18d	-0.05658107
187	0xbd1159d4	-0.035486057
188	0xbcee86ce	-0.029117014
189	0xbd1ed32b	-0.038775604
190	0x3cfe93a4	0.03107626
191	0xbcd1d34f	-0.025613455
192	0xbdbe3759	-0.092879005
193	0xbd8035d8	-0.0626027
194	0xbc9776af	-0.01848921
195	0xbdc9e36a	-0.09857829
196	0xbd46439c	-0.04840432
197	0x3d24d48b	0.04024176
198	0x3d35decf	0.04440194
199	0xbda96bd2	-0.08272518
200	0xbd9c97c2	-0.07646133
201	0x3d4e120a	0.050310172
202	0xbd8081da	-0.06274767
203	0xbe0ee4d0	-0.13954473
204	0x3d0f2611	0.034948412
205	0xbbd0d1a6	-0.0063726483
206	0x3caf0524	0.021364756
207	0x3ca605cf	0.020266442
208	0xbdac7323	-0.08420398
209	0xbd9e41a5	-0.077273645
210	0x3cb46e64	0.022025295
211	0xbd05a74c	-0.03263025
212	0xbcc8f41a	-0.02453046
213	0xbd20f281	-0.03929377
214	0x3c7779dc	0.015104737
215	0xbc57f69f	-0.013181358
216	0xbd941894	-0.072312504
217	0x3c957f65	0.018249223
218	0x3c80ec28	0.015737608
219	0x3d9eff2e	0.077635154
220	0x3dcd184e	0.100144014
221	0xbbb91bde	-0.005649074
222	0xbd11f8d2	-0.035637684
223	0x3c73ad2e	0.014872832
224	0xbd5bf623	-0.05370153
225	0xbdd4baff	-0.10387229
226	0xbc9f76f5	-0.019465903
227	0xbda3282a	-0.07966645
228	0x3d5b0466	0.05347099
229	0x3bf18a15	0.007371197
230	0xbd7fd2ae	-0.06245678
231	0x3ca6b500	0.02034998
232	0x38c9e465	9.626969e-05
233	0xbd8e2195	-0.06939999
234	0xbd2b0f2a	-0.04176251
235	0xbd8a9c01	-0.06768037
236	0x3c2f7d50	0.010711029
237	0x3ccb445f	0.024812875
238	0x3c23992e	0.009985251
239	0xbc5e9846	-0.0135861095
240	0x3c61c21f	0.013779192
241	0x3cff4271	0.031159611
242	0xbccac30d	-0.02475121
243	0xbd35379b	-0.044242483
244	0xbe32780f	-0.17428611
245	0x3b6c13c4	0.0036022523
246	0xbd7cb682	-0.06169749
247	0xbdf33054	-0.11874452
248	0x3d80edbb	0.062953435
249	0x3d0df5bb	0.034658175
250	0x3c433fe5	0.011917089
251	0x3db244a1	0.08704496
252	0x3d2e567b	0.042562943
253	0xbdb0b368	-0.08627969
254	0xbba1c28e	-0.004936523
255	0xbce5bd45	-0.028044352

conv4.bias f4 [32]
0	0xbc59cde4	-0.013293717
1	0xbc6b33a3	-0.014355573
2	0xbd7702c8	-0.060305387
3	0xbb207c35	-0.0024488096
4	0xbcc2403b	-0.023712268
5	0xbdb85e1f	-0.09002327
6	0x3b626914	0.0034547495
7	0x3d2f21ad	0.042756725
8	0xbcd8dad7	-0.026471538
9	0xbcc07725	-0.023494313
10	0xbd8b9883	-0.06816199
11	0x3b532ca4	0.0032222653
12	0xbd4da133	-0.05020256
13	0xbd1ec0a0	-0.03875792
14	0xbd1d75da	-0.03844247
15	0x3c5d02f2	0.013489472
16	0xbbca8e4d	-0.0061815144
17	0xbd203823	-0.039116036
18	0xbd034ca4	-0.032055512
19	0xbc484799	-0.012224101
20	0xbd027d03	-0.0318575
21	0x3d097fca	0.033569135
22	0x3a2a0e9c	0.00064871623
23	0xbaf924f9	-0.0019008211
24	0xbc753671	-0.014966593
25	0x3c354ead	0.011066121
26	0x3c931ee6	0.01795907
27	0xbd88c00a	-0.066772535
28	0xbd42569e	-0.047445886
29	0x3cea0b58	0.028569862
30	0xbd3d69db	-0.04624353
31	0xbd036d06	-0.032086395

conv5.weight f4 [64, 32, 2, 2, 2]
0	0x3cf40ce9	0.029791312
1	0x3d8c23e5	0.06842784
2	0x3d535307	0.051592853
3	0x3e2d5ff5	0.16931136
4	0x3d725bfb	0.05916975
5	0x3ded44e0	0.115854025
6	0x3d77c470	0.06049007
7	0x3da3282c	0.079666466
8	0xbd002020	-0.031280637
9	0x3da72dbe	0.081630215
10	0x3d5e142b	0.054218452
11	0xbcfaf52a	-0.030634481
12	0xbd13de7c	-0.03610085
13	0xbd760ca0	-0.060070634
14	0x3cee0420	0.029054701
15	0x3cc1fc9f	0.02368003
16	0xbc84ddf0	-0.01621911
17	0x3875c712	5.859795e-05
18	0x3cfef5ee	0.031123128
19	0x3d939dc1	0.072078235
20	0xbd6db557	-0.058034267
21	0xba8efb80	-0.0010908693
22	0xbd92b319	-0.071630664
23	0xbcb993ef	-0.022653548
24	0xbc115fe8	-0.0088729635
25	0xb9c83841	-0.00038188885
26	0xbc800a32	-0.015629862
27	0xbc5afc30	-0.01336579
28	0x3d1d7c5e	0.038448684
29	0x3d0365c1	0.032079462
30	0xbc8da438	-0.01729022
31	0xbb58844d	-0.0033037842
32	0xbcc69d1a	-0.024244834
33	0xbd6d817a	-0.057984807
34	0x3a6ce1f2	0.0009036354
35	0xbd437e48	-0.047727853
36	0x3ca80841	0.020511748
37	0xbd67a1a3	-0.056550633
38	0xbd33eed9	-0.043928955
39	0xbc5fd216	-0.013660928
40	0x3cc23800	0.023708344
41	0xbceddca2	-0.02903587
42	0xbcc37d93	-0.02386359
43	0x3d08b0c1	0.03337169
44	0x3c880b0f	0.016606836
45	0xbcae526c	-0.021279536
46	0xbd0dbfb7	-0.03460666
47	0x3d6355af	0.055501636
48	0xbcb33f1b	-0.021880677
49	0x3c3e70c6	0.011623567
50	0xbd05ae81	-0.032637123
51	0xbdb47acb	-0.088124834
52	0xbddc5efd	-0.10760305
53	0xbdc6f84b	-0.09715327
54	0xbdc17da6	-0.09447794
55	0xbe07952e	-0.13240501
56	0xbc8b6214	-0.01701454
57	0x3d6ee5cc	0.05832462
58	0x3c8a35b8	0.016871318
59	0xbc87be06	-0.016570102
60	0x3d56291f	0.05228531
61	0xbd75d3a9	-0.060016308
62	0xbb7fd41f	-0.0039036346
63	0x3da9a2aa	0.08282979
64	0x3e2ba221	0.16761066
65	0x3e05ec41	0.13078405
66	0x3d3ea4a9	0.04654375
67	0x3e27206a	0.16320959
68	0x3c735591	0.014851944
69	0x3e0836e1	0.13302185
70	0x3d5ddc2e	0.054165058
71	0x3d41b16a	0.047288336
72	0xbc5572db	-0.013027872
73	0x3d0dee5b	0.03465114
74	0xbd361988	-0.044457942
75	0xbd00ed5c	-0.031476364
76	0xbd421c18	-0.047390074
77	0xbc4ce6e5	-0.012506221
78	0xbd9071f0	-0.07052982
79	0x3d0276c3	0.03185154
80	0xbd77e734	-0.060523227
81	0xbd224dc1	-0.039624933
82	0x3d62be95	0.055357534
83	0x3d628483	0.055302154
84	0xbc0e1fe7	-0.008674598
85	0xbd4bee13	-0.049787592
86	0xbc5c9b90	-0.013464823
87	0x3d620878	0.055183858
88	0x3c0934c1	0.008374394
89	0x3d38c669	0.045111094
90	0xbca5cd18	-0.020239398
91	0x3d057db4	0.032590583
92	0x3ae07125	0.0017123563
93	0x3d6dcc3b	0.058056097
94	0x3d8999ea	0.0671881
95	0xbc2c3a1e	-0.010511903
96	0x3d273a15	0.040826876
97	0x3c32e416	0.010918638
98	0xbd54fced	-0.05199902
99	0xbd75e707	-0.060034778
100	0xbc016665	-0.007897948
101	0xbcaf8975	-0.02142785
102	0xbdcf4c99	-0.10122032
103	0xbd0e218c	-0.03469996
104	0x3d01315a	0.031541206
105	0x3c670514	0.014100332
106	0xbcb40ba5	-0.021978209
107	0x3d60e9e5	0.05491056
108	0x3d94f8f6	0.07274048
109	0xbd004d29	-0.031323586
110	0xbcb9fdfc	-0.022704117
111	0x3c8ba26c	0.017045222
112	0xbc81d556	-0.015848797
113	0xbe38699a	-0.18009034
114	0xbe25c902	-0.1618996
115	0xbce2d4b3	-0.027689314
116	0xbd4fa811	-0.05069739
117	0x3d7c377c	0.06157635
118	0xbdfeac34	-0.12435189
119	0xbe040a8d	-0.1289465
120	0xbdd87826	-0.105697915
121	0xbe2fe14d	-0.17175789
122	0xbe24cc6e	-0.16093609
123	0xbd59f064	-0.05320777
124	0xbdb6c88c	-0.0892497
125	0xbd3eca64	-0.046579733
126	0xbe0d022e	-0.13770363
127	0x3c947dc6	0.01812638
128	0x3d32b872	0.043632932
129	0xbd9921c7	-0.07477146
130	0x3d4c03ae	0.049808197
131	0x3dd74dab	0.10512861
132	0x3d3308ed	0.043709684
133	0x3d11cc47	0.035595205
134	0x3dc9761f	0.09836983
135	0x3e02e22e	0.12781593
136	0xbe08e7a5	-0.13369615
137	0xbe1d4b8b	-0.15360849
138	0xbe08cd2e	-0.1335952
139	0xbd91ac1b	-0.07112905
140	0xbd514e76	-0.051100217
141	0xbde2c748	-0.11073166
142	0xbdb5edea	-0.08883269
143	0xbd66ac41	-0.056316618
144	0x3cb0a92e	0.021565046
145	0xb9d2bfd4	-0.00040197244
146	0xbd78c091	-0.06073052
147	0xbd90a787	-0.07063203
148	0xbd11f905	-0.035637874
149	0xbc8e98c4	-0.017406829
150	0xbcb0b4e3	-0.021570629
151	0xbbd505fe	-0.0065009585
152	0xbcc56aff	-0.024098871
153	0xbbae2028	-0.005313892
154	0x3c8b99d7	0.01704113
155	0xbc1233fe	-0.008923529
156	0xbceb3808	-0.028713241
157	0x3d6dc470	0.058048666
158	0x3d00c317	0.031436052
159	0x3da11eed	0.07867227
160	0xbc7bb7e3	-0.015363666
161	0x3c5070e4	0.012722228
162	0xbd84af22	-0.064787164
163	0xbd7fe33f	-0.06247258
164	0x3ce74f55	0.02823607
165	0x3d3a75a6	0.045522355
166	0xb9fc61d8	-0.00048138085
167	0xbd122a43	-0.035684835
168	0xbb8f392a	-0.004370828
169	0xbbe21ad9	-0.006900173
170	0xbd32911d	-0.043595422
171	0xbc42b898	-0.011884831
172	0xbb8e6efd	-0.004346727
173	0x3d84a8d3	0.06477513
174	0x3cb975fc	0.022639267
175	0x3d025b89	0.031825576
176	0x3cb1e940	0.021717668
177	0x3d930fc2	0.0718074
178	0xbcdd83ba	-0.027040351
179	0xbcd832f4	-0.026391484
180	0xbc1b2f6a	-0.009471754
181	0xbc740fb4	-0.014896322
182	0x3bdd3466	0.006750631
183	0xbd518a86	-0.051157497
184	0x3c79a6ca	0.0152375195
185	0x3db86e03	0.09005358
186	0x3d9debc1	0.07710982
187	0x3c0e9044	0.008701388
188	0x3c15fab7	0.009154013
189	0x3d1e0abc	0.038584456
190	0xbc2e8d81	-0.010653854
191	0xbd9eaa0c	-0.077472776
192	0x3de393b5	0.11112157
193	0x3d9c2e5c	0.0762603
194	0x3da9f446	0.082985446
195	0x3e14122e	0.1446006
196	0xbd85cd5c	-0.0653331
197	0x3da020b2	0.07818736
198	0xbd079d7a	-0.033109166
199	0x3dd5da56	0.10442035
200	0x3bd7a889	0.0065813703
201	0x3d04350d	0.032277156
202	0xbcfc2a56	-0.030781906
203	0xbbb2825e	-0.00544767
204	0xbc28eb04	-0.010309938
205	0xbd629b20	-0.05532372
206	0x3d36e7a0	0.04465449
207	0xbd86f269	-0.06589205
208	0x3dbac119	0.09118862
209	0x3da15cb4	0.0787901
210	0x3d438003	0.047729503
211	0x3e03657c	0.12831682
212	0x3db41820	0.08793664
213	0x3c8df00b	0.017326375
214	0x3dc174d6	0.09446113
215	0x3d7b16d8	0.061301082
216	0x3d0ea97a	0.034829594
217	0x3d7a5f62	0.06112612
218	0x3d221e76	0.03957983
219	0x3d836d72	0.064173594
220	0x3c194fb0	0.009357378
221	0xbd33dc3e	-0.04391121
222	0x3ce7f59a	0.028315354
223	0xbd45e944	-0.048318163
224	0x3d904f68	0.070463955
225	0x3ca0b0a9	0.019615488
226	0xbb8c85b7	-0.004288401
227	0xbd4515c4	-0.04811646
228	0xba2ce240	-0.0006594993
229	0x3cf2424f	0.029572634
230	0xbd9b7764	-0.07591131
231	0x3b678faf	0.0035333445
232	0xbd9371f3	-0.071994685
233	0x3b9d9e91	0.0048101624
234	0x3d1a3f14	0.037657812
235	0x3d156de9	0.03648177
236	0x3d130575	0.035893876
237	0x3d6083dc	0.05481325
238	0x3cf7bb47	0.030240668
239	0x3d4457cf	0.047935303
240	0xbd302803	-0.04300691
241	0x3d50f60f	0.05101591
242	0xbd9f2b4d	-0.07771931
243	0x3d3788c8	0.04480818
244	0xbdb15489	-0.08658702
245	0x3d229478	0.039692372
246	0xbdcdcb99	-0.10048599
247	0xbbde2f85	-0.006780567
248	0x3cc43d28	0.023954943
249	0x3d875c60	0.06609416
250	0x3db40481	0.087899216
251	0x3df3c33f	0.119024746
252	0x3d2cc87b	0.04218338
253	0x3e2b3120	0.16717958
254	0x3d701bea	0.05862037
255	0x3cb82b79	0.022481667

conv5.bias f4 [64]
0	0x3d101fd8	0.03518662
1	0x3d4c13c1	0.049823526
2	0xbc0a23d7	-0.008431396
3	0xbd81b4d1	-0.06333316
4	0xbbb04fd1	-0.0053806086
5	0x3d65a9eb	0.05607025
6	0xba7ae8f5	-0.00095714565
7	0x3d1219f2	0.035669275
8	0xbdcd4f2c	-0.100248665
9	0x3c9096bc	0.01765
10	0xbc894568	-0.016756728
11	0xbd8895b5	-0.06669179
12	0x3d1c436b	0.038150232
13	0xbc84fe36	-0.016234498
14	0x3d960485	0.07325081
15	0x3d81138e	0.06302558
16	0x3cf8b4c8	0.03035964
17	0x3b84ae65	0.0040491098
18	0xbcedeaae	-0.029042568
19	0x3c7d7a25	0.015471016
20	0xbc646551	-0.013940171
21	0x3d3908de	0.045174472
22	0x3d31cb01	0.04340649
23	0xbd230f68	-0.039809614
24	0xbbcaa6ba	-0.006184426
25	0x3d3016a3	0.042990338
26	0x3d4d4262	0.050112136
27	0x3d024b35	0.031810004
28	0x3c6111b0	0.013737127
29	0xbd379afc	-0.04482554
30	0x3c18b393	0.009320158
31	0xbc7e2eb5	-0.0155140655
32	0xbd1a83af	-0.03772324
33	0x3d5cc14d	0.053895283
34	0xbd14335b	-0.03618179
35	0xbdb49222	-0.08816935
36	0xbd5b6c73	-0.053570222
37	0xbd61bdbc	-0.055112585
38	0xbb4385c3	-0.0029834367
39	0xbbbec219	-0.005821478
40	0xbd0938fb	-0.033501606
41	0xbbda8f9f	-0.006669953
42	0x3d0c8b6b	0.034312647
43	0xbc012b44	-0.0078838505
44	0x3bfb3627	0.0076663676
45	0xbcba609f	-0.02275115
46	0xbd065e64	-0.03280486
47	0xbd88be5f	-0.066769354
48	0xba345c5b	-0.0006880217
49	0xbd4d7180	-0.05015707
50	0xbd518451	-0.051151577
51	0x3da9a73b	0.0828385
52	0x3d14da98	0.03634128
53	0xbb59c26c	-0.0033227457
54	0x3d567a16	0.052362524
55	0x3d81839c	0.063239306
56	0x3d565ad5	0.052332718
57	0x3d9f3a31	0.07774771
58	0xbc064b74	-0.0081967
59	0x3cb11891	0.02161816
60	0xbd50e3de	-0.05099856
61	0xbd848ab7	-0.0647177
62	0xbca2d2b4	-0.019875862
63	0x3c5aee02	0.01336241

linear1.weight f4 [128, 512]
0	0xbd6afe94	-0.05737169
1	0xbdc44493	-0.09583392
2	0x39e8a2f6	0.00044371904
3	0x3c99a2b2	0.018754337
4	0x3c852926	0.016254973
5	0xbbbf18ec	-0.0058318283
6	0xbc148a19	-0.009066128
7	0xbc7951e1	-0.015217275
8	0xbda786c7	-0.081800036
9	0xbdaee169	-0.08539087
10	0x3d26d6c5	0.040732164
11	0xbd1d3c47	-0.038387563
12	0x3d703547	0.05864456
13	0x3db0c1f0	0.08630741
14	0x3de166a0	0.11005902
15	0x3d275676	0.04085394
16	0xbe711289	-0.23542227
17	0xbe0c7f7d	-0.13720508
18	0xbd0ec0c2	-0.034851797
19	0xbcc4291f	-0.02394539
20	0xbe2125b0	-0.15737033
21	0xbe912653	-0.28349552
22	0xbdba901c	-0.09109518
23	0xbe042792	-0.1290572
24	0x3d012d00	0.031537056
25	0x3d0b2c48	0.033977777
26	0x3ca30143	0.019898063
27	0x3d0723ee	0.03299325
28	0xbb764827	-0.0037579627
29	0xbc171f69	-0.009223797
30	0xbd047cb2	-0.03234548
31	0xbca8c4b3	-0.020601606
32	0x3e3fbd41	0.18724538
33	0x3de10fd8	0.1098935
34	0x3c8db76a	0.017299373
35	0x3d25ec87	0.040508773
36	0x3e25d07a	0.16192809
37	0x3e2276a5	0.15865572
38	0x3ca5da1a	0.0202456
39	0x3d9a7693	0.075421475
40	0xbda40476	-0.08008663
41	0xbde36518	-0.111032665
42	0xbce2029c	-0.027589135
43	0xbd21371d	-0.0393592
44	0xbc74f96d	-0.014952046
45	0xbd00b486	-0.03142216
46	0xbb57b460	-0.0032913908
47	0x3d2e2f41	0.042525534
48	0xbd149a0e	-0.03627973
49	0xbdbe010e	-0.09277545
50	0x3d6b1055	0.057388622
51	0xbd749ec9	-0.05972174
52	0xbcdb4186	-0.026764642
53	0xbdcfe5b6	-0.10151236
54	0x3d9bc82e	0.076065406
55	0x3c8d87b2	0.017276619
56	0xbd39d75d	-0.045371402
57	0xbdbd8a35	-0.092548765
58	0x3e0f6ecb	0.14007108
59	0x3d246f60	0.040145278
60	0x3d6b6d48	0.057477266
61	0x3b6224f1	0.0034506882
62	0x3e3505cc	0.17677993
63	0x3dbacb57	0.09120815
64	0x3dab1b8e	0.08354865
65	0xbd15f618	-0.036611646
66	0x3d9b5819	0.07585163
67	0xbcd68870	-0.026188105
68	0x3d88ca46	0.066792056
69	0x3bc13005	0.005895617
70	0x3dd62759	0.10456724
71	0x3d2edb51	0.042689625
72	0x3d9ae0fd	0.07562444
73	0x3ce95929	0.028484898
74	0x3c3e19f7	0.01160287
75	0x3dc7fe71	0.09765328
76	0x3cb4c6b4	0.022067405
77	0x3cc0f84d	0.023555899
78	0x3cde9407	0.027170194
79	0x3dda58af	0.10661446
80	0x3c7d30cb	0.015453528
81	0x3c1cce00	0.009570599
82	0x3c541a4d	0.012945724
83	0x3da6d8a6	0.08146791
84	0x3d9739ea	0.07384093
85	0x3da27af3	0.07933607
86	0x3caa8d02	0.02081919
87	0x3d912d44	0.07088712
88	0x3be633c2	0.007025213
89	0x3d25fb23	0.040522706
90	0xbdafbdef	-0.08581149
91	0x3c6d86a4	0.014497433
92	0xbd921dc1	-0.07134581
93	0x3b3978d5	0.0028300781
94	0x3cc4bcf9	0.02401589
95	0x3cc2d539	0.023783313
96	0xbdc026bb	-0.09382387
97	0xbd147a9f	-0.036249753
98	0xbda023f6	-0.07819359
99	0x3ace8d7b	0.0015758717
100	0x3d2957fb	0.04134367
101	0x3d9667a6	0.07343988
102	0xb970310e	-0.00022906458
103	0x3da158b4	0.07878247
104	0xbe1b2a99	-0.15152968
105	0xbdb63d6f	-0.08898436
106	0xbe0bfe03	-0.13671117
107	0xbc6bd75e	-0.014394609
108	0xbe28b683	-0.16475873
109	0xbd78605d	-0.060638774
110	0xbe8b2c92	-0.27182442
111	0xbe0bf446	-0.13667402
112	0x3db4f188	0.08835131
113	0x3de31c43	0.11089375
114	0x3d342e04	0.043989196
115	0x3d8306e7	0.06397801
116	0x3d8ef2df	0.06979918
117	0x3d8c674d	0.068556406
118	0x3ded6b40	0.11592722
119	0x3d725014	0.0591584
120	0x3e0d9f2d	0.13830252
121	0x3d386592	0.04501874
122	0x3d392d71	0.045209352
123	0xbe02fedb	-0.12792532
124	0x3dfa0852	0.12208618
125	0xbb88825b	-0.00416593
126	0x3df3859a	0.11890717
127	0xbda41484	-0.080117255
128	0xbd8573f6	-0.065162584
129	0xbdd8d905	-0.10588268
130	0xbd0c9215	-0.034319002
131	0xbccd0dff	-0.025031088
132	0x3db1074f	0.08643972
133	0x3d1aef57	0.03782591
134	0xbcf55d66	-0.029951762
135	0xbd2b1e86	-0.041777156
136	0xbdc652cb	-0.0968376
137	0xbd9a7da3	-0.075434946
138	0x3dd93449	0.10605676
139	0x3c630a40	0.013857424
140	0xbd1f290d	-0.03885751
141	0xbdf5a3b6	-0.11994116
142	0x3d9b106a	0.0757149
143	0xbd97c77a	-0.07411094
144	0x3df53382	0.11972715
145	0x3d36c85e	0.04462468
146	0x3da73208	0.081638396
147	0x3e532a32	0.20621565
148	0x3e5b773c	0.21432203
149	0xbc067c18	-0.008208297
150	0xbe01dc7e	-0.12681767
151	0xbd634183	-0.0554824
152	0xbd7e22c0	-0.06204486
153	0xbd0b13c1	-0.033954386
154	0xbc967d85	-0.0183704
155	0xbc11a0f8	-0.008888476
156	0xbc9255f2	-0.017863248
157	0x3c862838	0.0163766
158	0xbc9921ee	-0.018692937
159	0x3c2e0ca5	0.010623132
160	0xbe6e52df	-0.232738
161	0xbe6ba9a0	-0.23013926
162	0xbde5af1b	-0.11215039
163	0xbe19db84	-0.15025145
164	0xbd06253b	-0.03275035
165	0xbce1a545	-0.027544627
166	0x3c4b1e92	0.012397425
167	0xbd584841	-0.05280328
168	0xbd3ee8cc	-0.04660873
169	0xbd84a957	-0.064776115
170	0xbd6bcefb	-0.05757044
171	0xbd9403cd	-0.072272874
172	0x3d072989	0.032998595
173	0x3cb873df	0.02251619
174	0x3d5ebd2a	0.05437962
175	0x3d20fd7e	0.03930425
176	0x3c9722e1	0.018449249
177	0x3cfba6fa	0.030719269
178	0x3b8229b3	0.003972256
179	0x3c19203d	0.009346065
180	0x3db30b8f	0.08742439
181	0x3c331c90	0.010932103
182	0x3dbb6451	0.09149993
183	0x3d58ca2c	0.05292718
184	0xbe02e1ce	-0.1278145
185	0xbe83dd7b	-0.25754914
186	0xbdfc9af4	-0.123342425
187	0xbe7fb759	-0.24972285
188	0xbe81aeea	-0.2532876
189	0xbe6b1248	-0.22956192
190	0xbe7becbf	-0.2460203
191	0xbe9c731a	-0.30556566
192	0xbd822def	-0.063564174
193	0xbe0f04aa	-0.13966623
194	0x3d5b0b5c	0.05347763
195	0x3cd4c849	0.02597441
196	0xbdff7181	-0.12472821
197	0xbe4c90e2	-0.19977143
198	0xbd8b59c3	-0.0680423
199	0x3d270230	0.04077357
200	0xbdc4e435	-0.096138395
201	0x3da567cd	0.08076439
202	0xbd9d805e	-0.076905
203	0x3d4bd097	0.049759474
204	0x3cfb45ed	0.030672992
205	0x3db6a306	0.08917813
206	0xbc8198ce	-0.015819933
207	0x3d16cdeb	0.036817472
208	0x3db776c4	0.089581996
209	0x3eb6e0f8	0.35718513
210	0x3c9db613	0.019251859
211	0x3e9a7f20	0.30175114
212	0x3d818256	0.06323688
213	0x3e8e8684	0.27837002
214	0x3db2cefb	0.08730885
215	0x3e5abb5c	0.21360534
216	0xbd87d326	-0.0663207
217	0x3c56d662	0.013112636
218	0x3c1e319b	0.009655382
219	0x3c98e5ee	0.018664327
220	0x3cba5e75	0.022750119
221	0xbd0789ba	-0.03309033
222	0x3d140104	0.03613378
223	0xbd0b45b9	-0.03400204
224	0xbce6191f	-0.02808815
225	0x3ab46a0e	0.0013764517
226	0xbcc49e57	-0.024001284
227	0x3adcb887	0.0016839661
228	0xbceba051	-0.028762968
229	0x3c1dbd08	0.009627588
230	0x3d800203	0.06250384
231	0x3c902ea8	0.017600372
232	0x3d381701	0.044943813
233	0x3c5c59f2	0.013449179
234	0x3bd211e2	0.006410823
235	0xbd244419	-0.040104005
236	0x3b9eb050	0.0048427954
237	0xbd0aea42	-0.033914812
238	0xbcef6ffd	-0.029228205
239	0x3d66bdbc	0.05633329
240	0xbbb1d887	-0.0054274234
241	0xbc940b43	-0.018071776
242	0xbcf78977	-0.030216916
243	0xbd81ae9a	-0.06332131
244	0xbd07a5bd	-0.033117045
245	0x3d068650	0.032842934
246	0xbd525bb0	-0.05135697
247	0xbcc29185	-0.02375103
248	0xbe63f6da	-0.22262135
249	0xbe1e6948	-0.15469849
250	0xbe49a754	-0.19692737
251	0xbe12187a	-0.1426715
252	0xbe44ce9e	-0.19219443
253	0xbe16d0cc	-0.14728087
254	0xbe792492	-0.24330357
255	0xbe299963	-0.16562419

linear1.bias f4 [128]
0	0x3daf5bc7	0.08562427
1	0xbc83e6a7	-0.016101195
2	0xbd307d0d	-0.043088008
3	0x3c232d9b	0.009959604
4	0x3d7fe4ff	0.062474247
5	0xbca29e73	-0.019850945
6	0x3b88eeb7	0.0041788477
7	0x3d07b987	0.033135917
8	0xbcd82574	-0.026385047
9	0x3c06743f	0.008206426
10	0xbc154bfb	-0.009112353
11	0x3d982ebb	0.07430788
12	0xbd16478a	-0.03668932
13	0x3ca5f9f4	0.020260789
14	0xbc9ea45d	-0.019365484
15	0x3dc8d46c	0.09806141
16	0xbd5d7076	-0.05406233
17	0x3da50e6c	0.080593914
18	0xbcbb8111	-0.022888692
19	0x3dbf8688	0.09351832
20	0x3cfa9a55	0.03059117
21	0x3db9c9bf	0.09071683
22	0x3dc92b0f	0.09822666
23	0xbd17c9ff	-0.037057873
24	0x3cc7ebda	0.024404455
25	0x3a73cdfa	0.0009300407
26	0xbd6f38b2	-0.05840368
27	0x3dcac824	0.09901455
28	0xbc1e23f5	-0.0096521275
29	0xbaf85545	-0.0018946311
30	0x3d7064ca	0.05868987
31	0xbceb229f	-0.028703032
32	0x3d8aa925	0.06770543
33	0x3d8cce06	0.06875233
34	0x3c41117b	0.011783953
35	0x3cc50a18	0.024052665
36	0x3c1718c9	0.009222218
37	0xbd70096d	-0.05860274
38	0xbd09abe7	-0.033611204
39	0x3c4d98fa	0.0125486795
40	0x3c2fb2dc	0.010723796
41	0x3d0f8e53	0.03504784
42	0xbd2ac7ed	-0.04169457
43	0x3d024f9a	0.031814195
44	0xbc572564	-0.013131473
45	0x3d920b7a	0.07131095
46	0xbc9b3c34	-0.018949606
47	0xbd44fbae	-0.048091583
48	0x3d16dbdc	0.036830768
49	0x3c9a5bf4	0.018842675
50	0xbd2bf1c2	-0.041978605
51	0x3d175295	0.03694399
52	0xbc9f0229	-0.01941021
53	0xbcbe24e9	-0.02321096
54	0x3daa1783	0.08305266
55	0xbd80260c	-0.06257257
56	0xbd0330ed	-0.03202908
57	0xbca2b9e0	-0.019864023
58	0xbc2728ea	-0.010202626
59	0x3dc6d007	0.09707647
60	0x3b7eb3cc	0.0038864492
61	0xbd51b804	-0.05120088
62	0x3ccf7655	0.02532498
63	0x3dae25e0	0.08503318
64	0x3ab98e12	0.001415672
65	0xbd0cad38	-0.03434488
66	0xbd1a4293	-0.037661146
67	0xbc888f06	-0.016669761
68	0xbac35897	-0.0014903721
69	0xbcf145fc	-0.029452316
70	0xbcb75c9b	-0.022383025
71	0xbc6d72f4	-0.014492739
72	0x3cfea81f	0.031086026
73	0x3d1e704f	0.038681325
74	0xbd3840fa	-0.04498384
75	0x3d3e22fa	0.046420075
76	0x3d1cf9f7	0.038324323
77	0x3d97400c	0.07385263
78	0xbcb1393d	-0.021633739
79	0xbd12aef5	-0.035811383
80	0xbd182eb0	-0.0371539
81	0xbd2e0f9e	-0.042495362
82	0x3d21dc82	0.039516933
83	0x3c13b801	0.009016038
84	0x3d890ab3	0.06691494
85	0x3cdcd435	0.026956657
86	0x3da29c07	0.07939916
87	0xbc199599	-0.009374046
88	0x3b945821	0.0045271073
89	0x3c50d8a1	0.012746961
90	0x3dc35714	0.09538093
91	0x3d0c1a19	0.034204576
92	0x3d889768	0.066695035
93	0x3db234b4	0.087014586
94	0xbccbd21e	-0.024880465
95	0xbd279f2e	-0.04092329
96	0x3ce30fab	0.027717432
97	0x3cf3ee7d	0.029776806
98	0xbbb6d564	-0.0055796374
99	0x3dbc4b00	0.091939926
100	0x3dbd2568	0.0923565
101	0xbd032b62	-0.032023795
102	0xbd526d8d	-0.051374007
103	0xbd3cf7df	-0.046134826
104	0xbd21a2bd	-0.03946184
105	0x3dbd4966	0.09242515
106	0xbd23f006	-0.040023826
107	0x3cc2575d	0.023723299
108	0xbc806bb1	-0.015676351
109	0xbd2fc230	-0.0429098
110	0xbd5b48ff	-0.05353641
111	0xbd316429	-0.04330841
112	0xbc9ec865	-0.019382665
113	0xbb62c9bc	-0.0034605106
114	0xbce6ec85	-0.028188953
115	0x3dbdf9d7	0.09276169
116	0xbd4ff3d8	-0.050769657
117	0x3c23a173	0.009987223
118	0x3dc4bbe7	0.09606152
119	0x3d8bf071	0.0683297
120	0x3cb3f606	0.021967899
121	0x3db8b5b9	0.09019036
122	0x3d074b1f	0.033030625
123	0x3d8ed725	0.06974629
124	0x3dabe538	0.083933294
125	0x3c9566c3	0.018237477
126	0xbd46e1f6	-0.048555337
127	0xbbf66180	-0.007518947
