models/6A_hand_alpha.pth (torch, 421229 bytes, 13 tensors)

conv1.weight f4 [4, 1, 5, 5, 5]
000000 7b e7 1e bb 49 b8 65 3d 65 68 8b 3d 3e 95 62 3d
       -0.002424686 0.05608395 0.06807021 0.05531811
000010 c3 ab a7 bc b4 c4 a8 3d fa 38 79 bd 1b 37 9a 3d
       -0.020467645 0.08240643 -0.060845353 0.07530042
000020 62 b4 4c bd 00 50 59 bd 2e c4 9a 3d cd 5a 0b 3d
       -0.049976714 -0.05305481 0.075569496 0.03402214
000030 8a be af bd bf 93 a4 3d 29 14 02 3d 8a 7e 9b bd
       -0.08581264 0.08035993 0.031757507 -0.07592495
000040 75 28 76 bd 8d 57 a6 3b db 25 78 bd 9f 11 91 bd
       -0.060097177 0.005076355 -0.060582977 -0.07083439
000050 dc 1f b1 3d d3 7b 7a bd 07 9a cf 3a ec a5 62 3d
       0.08648655 -0.061153244 0.001583875 0.055334017
000060 30 31 17 3d 49 36 3f bd 87 9b 7f bd 4c 43 aa bc
       0.036912143 -0.04668263 -0.06240418 -0.020784043
000070 dd 01 ae bd 45 66 9b 3d 65 e9 ab 3c a8 7a 9d 3d
       -0.08496449 0.07587866 0.020985315 0.076894104
000080 5a 36 99 bd 97 c9 29 3d be 6a a0 bc fb 0f ed bc
       -0.0748107 0.041452017 -0.019582149 -0.028938284
000090 c7 59 90 bb c7 11 54 bd 71 8b 3d 3d 7c 5d 8e 3c
       -0.0044052335 -0.051774766 0.04627556 0.017378561
0000a0 e6 b3 9b 3d 50 5c 12 3a 87 54 bd 3d 3f 0b 67 3d
       0.07602672 0.00055832136 0.09244638 0.05640721
0000b0 d4 4e 80 bc ec 58 3d bd c2 71 85 bd 86 aa d3 bc
       -0.015662588 -0.04622738 -0.06515838 -0.025838148
0000c0 30 81 48 bd 35 14 bc 3d df f4 d8 3b 5a 64 af 3d
       -0.048951328 0.09183542 0.006620988 0.085640624
0000d0 f5 83 b3 bd e6 ae ac 3d 4e 30 9c bc d2 2f 63 3c
       -0.08765403 0.08431797 -0.019066002 0.013866382
0000e0 32 80 d5 bb ae b5 87 bd ed 0b 6f bd 2b 35 98 3d
       -0.006515526 -0.066264495 -0.058360983 0.07432016
0000f0 13 6d d7 3c 95 ad e4 bc ae c2 b2 3d e9 e2 1d bc
       0.026297128 -0.027914802 0.087285385 -0.009636619
000100 0a 14 8b 3b aa ab 8d 3d 83 ea 67 3d b4 8f 70 bd
       0.004244332 0.06917508 0.056620132 -0.058730796
000110 06 d8 17 3d a5 8d 80 bd 87 a6 3f 3c 23 a1 54 3d
       0.03707125 -0.062770166 0.011697418 0.051911484
000120 ff 63 89 bd 6f ff 9d bd 69 30 81 3d 47 74 4f 3d
       -0.06708526 -0.07714736 0.06308062 0.050648
000130 a9 b5 db 3c 6d 92 b7 bb a7 4c de bc 48 e5 83 3d
       0.02682002 -0.005602172 -0.02713616 0.06440216
000140 54 45 a6 3a f6 bf b1 bd 1a fb ce 3c 4e 3a 9a 3d
       0.0012685456 -0.08679192 0.025266219 0.07530652
000150 96 07 2a bc 43 17 8b bd 57 92 18 bd 1c 80 6e bc
       -0.010377785 -0.06791546 -0.037248936 -0.014556911
000160 61 9e a7 3d 1b e1 90 bc 7c c3 79 3d b3 5a 41 bd
       0.08184505 -0.017685464 0.060977444 -0.04720564
000170 69 65 a5 bc a8 d0 92 bc 98 fa ae bd 89 4f a5 bd
       -0.020189958 -0.01792176 -0.08543891 -0.08071811
000180 a0 90 1d 3c c4 28 97 3c 31 36 47 bd f9 0a 0b 3d
       0.009617001 0.018452056 -0.048635665 0.03394601
000190 0f 3a a6 bc 95 d9 3a bd 80 eb 64 bc 0e c0 3c bd
       -0.020291356 -0.04561766 -0.013972163 -0.046081595
0001a0 8f 71 64 bc 75 a3 2c 3d 3a 66 53 3d ee ba 99 bd
       -0.01394309 0.042148072 0.051611163 -0.07506357
0001b0 48 e5 bb 3c f8 26 59 3b 4a 78 07 bb a6 c1 b4 3d
       0.022936478 0.00331348 -0.0020671063 0.08825998
0001c0 6e 51 af bd 68 ee ad 3d ed bf c7 bc d7 a3 7c 3c
       -0.08560453 0.08492738 -0.02438351 0.015419922
0001d0 e9 18 b3 3d 14 79 96 3d 57 9d 8b bc f6 8d 45 3d
       0.087449856 0.073473126 -0.017042799 0.048231088
0001e0 a7 2a c4 bb b7 1f 5d 3d fa 5d 89 bd 6b 42 19 bd
       -0.00598653 0.053985324 -0.06707378 -0.037416857
0001f0 c4 d8 ab 3d 3e fc 0d bd 16 b5 b8 bc 45 a0 c3 bc
       0.08390954 -0.034664385 -0.022547286 -0.023880133
000200 35 22 e7 3c 10 bc 5f 3b 3f c0 ca bc a3 78 3d bc
       0.028214553 0.0034139194 -0.024749873 -0.011564407
000210 03 d5 28 3d 66 ec a9 3d 3d eb 77 3d 2d 52 bc 3d
       0.04121877 0.082970425 0.060527075 0.09195361
000220 4a 11 fc 3b 5c 43 34 bd c6 f6 d4 bc b4 3a fa 3a
       0.0076924907 -0.04400955 -0.025996577 0.0019090981
000230 00 a9 ab 3c 2e f2 b8 3d 03 67 88 3d 30 10 b5 bd
       0.020954609 0.09030567 0.06660273 -0.08840978
000240 b8 30 49 bd cc 32 93 3d a7 d4 6a 3d af 02 12 bd
       -0.049118727 0.07187423 0.057331707 -0.03564709
000250 ad 8f a6 bd 5d 2c 9b bd 5e d3 97 bd 39 77 4a bd
       -0.08132873 -0.07576821 -0.07413362 -0.049430106
000260 9a 25 c2 bd 08 5c a2 3d 65 46 fb 3c e2 83 e7 3c
       -0.09479828 0.0792771 0.030673215 0.028261129
000270 34 48 9c 3d 2a 81 9f bd e0 c3 f5 3c 4c 0e d0 3c
       0.07630959 -0.07788308 0.030000627 0.025397442
000280 8d 4f d9 bc 5e 18 d3 bc ae c1 65 bd 8d 90 23 bd
       -0.02652719 -0.025768455 -0.05609291 -0.039932776
000290 99 f4 87 3d 72 b7 9e bd cb a1 3e bd 13 c9 17 3d
       0.0663845 -0.07749833 -0.046541017 0.037056994
0002a0 ee b1 62 3d a1 82 95 3d c0 e0 87 bc c4 27 29 3d
       0.05534547 0.07300306 -0.016586661 0.04129769
0002b0 d9 0b 95 bd 02 18 67 3d ad 97 65 3d da cb 90 bd
       -0.072776504 0.05641938 0.056052852 -0.070701316
0002c0 a2 c8 d3 bb 98 f7 c7 bc 20 9d 99 3c 3e 7b 9a 3d
       -0.0064631263 -0.024410054 0.01875168 0.07543038
0002d0 2a 1b 67 bd fd 67 33 bd 23 92 98 bd da 66 55 bd
       -0.05642239 -0.043800343 -0.07449748 -0.05210004
0002e0 b4 12 96 3d 0b 0a 0b 3d fa 92 48 bc b6 6b 2b 3d
       0.07327786 0.033945125 -0.012242073 0.041850768
0002f0 d3 19 53 3d 49 cc 97 3d 60 f2 4c 3d 53 d2 31 bc
       0.0515383 0.07412011 0.050035834 -0.010853368
000300 a3 20 9a bc ca 39 4e bd bb 33 2b bd 94 23 1b bd
       -0.01881439 -0.05034808 -0.04179738 -0.037875727
000310 27 bc 15 bc 24 a8 ac 3c 4e f7 25 3d 7a 7a 2d 3b
       -0.009139097 0.02107627 0.04051905 0.0026470707
000320 eb ca b4 bd ee d7 5a 3d 81 e2 8b bc 75 46 ae bc
       -0.08827766 0.053428583 -0.017075779 -0.02127383
000330 cc f3 9a bd 05 02 32 bd a9 96 94 bd 42 8b b5 3c
       -0.07566032 -0.043458957 -0.07255299 0.02216113
000340 6b 18 c1 ba 6c e6 be bd dc b1 ca 3b 5a 75 08 bd
       -0.0014732009 -0.09321293 0.0061857533 -0.03331504
000350 f4 86 14 bc 8f 6e ba bc 8f 5a 20 3d 94 1c 90 bc
       -0.009065378 -0.022757797 0.039148863 -0.017591752
000360 32 7d fa 3c 4e 45 b4 bd e4 5d 54 bd a3 1d 69 bd
       0.030577276 -0.08802281 -0.051847354 -0.05691303
000370 d3 54 7c bc e6 90 71 3d fd 99 98 ba ab 9e 26 bd
       -0.015401083 0.058976077 -0.0011642572 -0.04067866
000380 ad 5e 31 bd 9a 96 aa bd c0 e9 4c bd f6 5b f7 3c
       -0.04330318 -0.08329506 -0.05002761 0.030195218
000390 87 02 eb 3b 32 55 c2 3b 1c 4e f2 3c 44 6e a7 3c
       0.007171932 0.005930566 0.029578261 0.020438321
0003a0 24 1d 03 3d 66 3f 76 3c 22 8f 87 bd 30 23 8e bd
       0.032010213 0.015029764 -0.06619097 -0.06940305
0003b0 5a 78 d3 bb 72 ca 68 3d 82 cc c4 bd c6 10 9e bd
       -0.006453556 0.056833692 -0.09609319 -0.07718043
0003c0 bd b7 f2 3c 98 58 09 bd f5 4f 69 bd c5 31 04 3d
       0.029628629 -0.033531755 -0.05696102 0.032274026
0003d0 99 07 a7 bd 70 e8 13 3d e0 37 40 bd de a4 6f 3d
       -0.08155746 0.03611034 -0.046928287 0.05850684
0003e0 3e 2f 4c 3c e7 4b b1 bd c8 7c 8c 3d b8 3d 9d bd
       0.012462435 -0.08657055 0.06859738 -0.076777875
0003f0 28 5b a8 bc 2a 63 61 bc 7c 70 aa bb ba 45 97 3d
       -0.02055128 -0.013756553 -0.0052013975 0.07386346

conv1.bias f4 [4]
000000 81 70 38 bd 37 97 fc 3c a5 03 ec bc 3d b7 2e bc
       -0.045029167 0.030833824 -0.028810332 -0.010663805

conv2.weight f4 [8, 4, 5, 5, 5]
000000 db 4e 16 bd f9 07 1a bd 0f 09 0f bd 0b c6 2d bd
       -0.036696296 -0.03760526 -0.03492075 -0.042425197
000010 a8 56 91 3c d8 8c 08 3c 70 86 8f b9 7d 66 2c bd
       0.017741516 0.008334361 -0.0002737525 -0.042089928
000020 24 fc 43 bc 40 6b b3 3c 9c 41 59 3c 7d 37 b3 bc
       -0.0119619705 0.021901727 0.013260271 -0.021877045
000030 33 c2 9f bc 9a 51 ee 3c 81 3f 95 bc 1d 57 3c bd
       -0.019501781 0.029091645 -0.018218758 -0.045981515
000040 da 4e 0c bd 73 fe da 3b ca 9c 41 bd 48 35 9d 3c
       -0.034254886 0.0066831647 -0.047268666 0.019190446
000050 12 3a 2e bd a4 ed 78 3c 4a 50 a9 3c ff 17 37 3c
       -0.04253585 0.015193377 0.020668168 0.011175155
000060 ec 35 98 bb 5a ef 5a bc cb dc 38 3c 10 09 56 bd
       -0.0046451 -0.01336273 0.01128311 -0.052254736
000070 18 41 0d 3c ce cc 3e bd 2d 3e 74 3c 4a 0c 07 bd
       0.008621477 -0.046582036 0.014907402 -0.032970704
000080 23 2a 18 bd 4b 60 92 bc 56 0e 09 3c 43 7f b8 bc
       -0.03714956 -0.017868182 0.008365234 -0.02252162
000090 45 58 fb bc 68 4a d1 bc 54 59 df 3c 97 10 99 bb
       -0.030681739 -0.025548175 0.027264275 -0.004671167
0000a0 33 55 de 3b 9a 64 88 bc 95 bb ee bc 63 42 ba bb
       0.006785059 -0.016649533 -0.02914218 -0.0056841834
0000b0 8a 1a 92 bc 0b d7 d7 3c 7e 34 a2 3c 01 0d b5 3c
       -0.01783492 0.026347658 0.01980042 0.022100927
0000c0 fd 54 ff bc 39 fd 94 3c 19 40 08 3d f2 c9 a7 bc
       -0.031168455 0.018187152 0.033264253 -0.020482037
0000d0 76 74 12 3d 3e 14 c9 3c 6b b6 dc 3c 1b 77 3d bc
       0.035755597 0.024545785 0.026942452 -0.0115640415
0000e0 c3 bc 18 bd a4 31 4e 3b f2 79 2e bd 15 4e a9 bc
       -0.037289392 0.0031462694 -0.042596765 -0.020667115
0000f0 d9 40 50 bc c7 a7 30 bd d2 c4 07 3d 3c 7b a3 bc
       -0.012710773 -0.043128755 0.033146687 -0.019956224
000100 16 4b 90 bc 75 2c f5 3c 77 db d6 3c ce a5 b7 bc
       -0.017613929 0.029928425 0.026227696 -0.022417929
000110 c6 43 56 bc b2 d3 c3 3c 6b 80 17 3d 9c 24 c9 3b
       -0.013077682 0.023904655 0.036987703 0.0061383974
000120 fc a3 81 bc 70 98 da 3c 1e 89 8d bc 06 06 6e 3c
       -0.015825264 0.026684016 -0.017277297 0.014527803
000130 f0 74 05 3d 73 75 b0 3c b6 e0 48 bd b6 48 76 bc
       0.032582223 0.02154038 -0.049042426 -0.015031984
000140 b5 a5 e9 bb a3 98 f1 bc 24 b2 4f bd 0a 4a e1 3c
       -0.0071303495 -0.029491728 -0.050706998 0.027501125
000150 d3 d2 90 bc 4e 8d 0c bd 7a 5f b3 bc 89 cf f3 3c
       -0.017678654 -0.034314446 -0.021896113 0.029762046
000160 7d 92 b0 bb fb 86 a5 3c 95 3d a8 bc 79 60 1a bd
       -0.0053885565 0.020205965 -0.020537177 -0.03768966
000170 ff 53 19 3d f4 4a db 3c b0 f9 30 bd 26 12 35 3c
       0.03743362 0.026769139 -0.04320687 0.01105169
000180 92 ff ba 3b f8 87 4c bd 7e 04 07 3d a6 cb 50 bd
       0.005706736 -0.049934357 0.03296327 -0.050975464
000190 0a ae d4 3c 74 01 ee 3c b2 18 dd 3b 84 b4 15 3a
       0.025961895 0.029053427 0.0067473287 0.0005710798
0001a0 c9 af e1 3c 36 b0 19 3c 5f 37 db 3c a5 03 b5 3c
       0.027549641 0.009380391 0.026759801 0.022096464
0001b0 1c 40 ef 3c bf 7f fe 3a 6a ce 31 bc bd c0 cb 3c
       0.029205374 0.0019416733 -0.010852436 0.024872178
0001c0 4a a0 0a bd 11 55 25 bd ec 53 e5 3b 43 a8 f8 3c
       -0.03384427 -0.04036433 0.0069985297 0.030353671
0001d0 25 59 0a bc 65 3e 09 bb a9 da d0 3a 7f 77 ac 3a
       -0.008444105 -0.002094173 0.0015934306 0.0013158171
0001e0 b3 bf 96 3a ed 74 07 3d 35 8a ec bb dc e3 86 3c
       0.0011501223 0.033070493 -0.007218624 0.016466074
0001f0 60 7a 03 3d 98 28 02 bd 5c df 56 3c f1 e4 19 bd
       0.032099128 -0.031776994 0.013114776 -0.03757185
000200 a9 2e 03 3d 6b a6 e1 3c ec ab 6e 3b c7 10 d8 bc
       0.03202692 0.027545175 0.0036418391 -0.026375188
000210 29 f4 50 bc 9f 88 19 ba 2e 9b a6 3c 6a 31 45 3c
       -0.012753525 -0.0005856845 0.020337667 0.012035707
000220 0b f5 10 bd 03 3a 06 bd 5c 8d bf 3c b9 b4 bd 3c
       -0.03538994 -0.032770168 0.023382835 0.023157464
000230 1e e3 02 3d 22 65 1b 3d e8 68 7f 3c c7 13 c8 bc
       0.031954877 0.037938245 0.015588976 -0.024423493
000240 a6 81 c4 3c 13 f2 10 bd 03 fb 96 3c 39 b1 e6 bc
       0.023987602 -0.03538711 0.018430239 -0.028160678
000250 08 70 d3 3b c5 22 ca ba 5e bb 4e 3b b6 89 de bc
       0.006452564 -0.0015421739 0.0031544785 -0.027165275
000260 5d f1 2b bd b8 76 36 3c 46 c3 a0 3c 2e fd 1d 3c
       -0.04197823 0.011136703 0.019624364 0.009642882
000270 54 76 10 bd 0c e4 a4 3c 9a c2 02 bd 75 a6 23 bd
       -0.035269096 0.020128272 -0.031923868 -0.039953668
000280 7c 94 2b bd d7 a7 1c bd bb 90 6a ba 23 76 ee 3c
       -0.041889653 -0.038246002 -0.0008947958 0.029109066
000290 7c 75 2e 3d fb c0 26 bd 98 b0 75 bc fd cd a6 bc
       0.04259251 -0.040711384 -0.0149957165 -0.020361895
0002a0 61 e2 c8 3c 4d 80 3c bd 36 01 17 bd 96 b4 8a bc
       0.024522008 -0.046020795 -0.03686639 -0.016931813
0002b0 ed 36 96 3c fb 2e b4 3c 5e 87 0a bd 32 23 64 3c
       0.018336738 0.021995058 -0.033820502 0.013924407
0002c0 20 27 dd 3c d9 1a 6a 3c a5 f6 3e bd 06 ab 62 bc
       0.026996195 0.014288628 -0.046621937 -0.0138347205
0002d0 58 24 a1 3c eb 5d 6c bc 24 ee 2f bc 69 43 34 bd
       0.01967065 -0.014426689 -0.0107379295 -0.0440096
0002e0 8f 35 d1 3c 8f d3 18 3d f5 e4 b2 3c 7a 34 b3 3c
       0.025538234 0.037311133 0.02183769 0.021875609
0002f0 69 3a e5 bc 29 5c 71 3c f4 e7 6d bb dd 0b af bb
       -0.027981954 0.014731445 -0.0036301585 -0.0053419904
000300 26 4d 77 bc cd a5 06 bd 2d 48 37 bc c2 4f 97 bc
       -0.015094077 -0.032872964 -0.011186642 -0.018470649
000310 60 00 f9 bc 39 98 78 3b d0 53 3c bd 0b 99 8f bc
       -0.030395687 0.0037932529 -0.045978367 -0.017529031
000320 fd 26 bc 3c 70 96 f6 3b 51 f3 34 bc 12 ec b9 bc
       0.02296781 0.0075252578 -0.011044339 -0.022695575
000330 41 f1 59 bc 3d 10 18 bc 2d b2 e2 bc 58 95 87 bc
       -0.013302148 -0.009281215 -0.027672851 -0.016550705
000340 ac 4e 0e bd 1a f7 f4 bb 83 76 8e bc 21 68 0f bd
       -0.034742996 -0.007475746 -0.017390495 -0.035011414
000350 ba 6e 05 ba aa dc 26 3d 7f b7 e0 3c 11 c3 18 bd
       -0.0005090047 0.040737785 0.027431248 -0.037295405
000360 95 7e e0 3c f0 ac 00 3d 68 09 43 3d 25 ae 88 bc
       0.027404109 0.031414926 0.047616392 -0.016684601
000370 82 8b ad 3a 18 2c 81 3c b5 80 69 bc cc 22 2c 3d
       0.0013240429 0.015768096 -0.014251878 0.042025372
000380 e1 2c fe bc b0 7f 14 bd 31 c6 aa 3c 34 4a 1d bc
       -0.03102726 -0.036254585 0.020846458 -0.009600211
000390 8c 41 21 bd 85 fb 0d bc 02 c2 01 bd 81 67 27 bc
       -0.03936915 -0.008665924 -0.03167916 -0.010217548
0003a0 81 7e 95 3c 99 10 13 3c db 48 b9 3c c5 d5 2d bd
       0.018248798 0.008976125 0.022617748 -0.042440195
0003b0 00 d2 0b bc b4 aa 3d 3d 93 92 a9 bb c3 7d 59 3c
       -0.008533955 0.046305373 -0.0051749437 0.013274613
0003c0 a4 a5 46 bc bd 63 91 3c 10 7b a7 3b 00 53 48 3d
       -0.012124453 0.017747754 0.0051111057 0.04890728
0003d0 d2 94 0f bd 4c bd e9 bc d9 19 64 bc e8 4e 9c bc
       -0.035054035 -0.028532647 -0.013922178 -0.019080594
0003e0 dd 4d 14 3d 7f 76 5b bc f0 70 98 3b 88 df 21 3d
       0.03620707 -0.013394951 0.004652135 0.039519817
0003f0 30 c5 1c 3d a6 95 6a 3b f8 fc ea 3b e3 3f 1e 3c
       0.03827399 0.0035794764 0.0071712695 0.0096587865

conv2.bias f4 [8]
000000 7f 36 26 bd d0 e7 1e bd b2 ef f3 3c 48 c4 0f bd
       -0.040579315 -0.038795292 0.029777382 -0.035099298
000010 a6 3e 98 bb 1a 81 d4 3c 08 67 d7 3c 85 50 c7 bc
       -0.00464614 0.025940467 0.026294246 -0.024330387

conv3.weight f4 [16, 8, 3, 3, 3]
000000 82 e0 28 bd 7c 10 ac 3c dc 3d 45 bc 54 ed 07 3c
       -0.041229732 0.021003954 -0.012038674 0.0082963295
000010 de 14 cb 3c 42 fc d2 3c b9 3f 66 3d a8 d1 d3 3c
       0.024790224 0.025755052 0.056213114 0.025856808
000020 0f 9a 12 3d ca 3b be bc 9c 8a b6 bc fc 3b 03 bd
       0.035791453 -0.023221869 -0.022282891 -0.032039627
000030 ae da 37 bd d8 1e 4a bd ea c1 05 bd 60 b3 85 3c
       -0.044886284 -0.04934582 -0.032655634 0.016320884
000040 2e 15 ec bc 85 52 ff 3c b6 79 9a bd aa 8f c6 bb
       -0.028818693 0.031167278 -0.07542746 -0.0060596066
000050 da 5e 56 3d d3 c9 0f bc 77 0c 8b bc 35 47 d7 bc
       0.05233655 -0.008776146 -0.016973717 -0.026279071
000060 2c 1a 4e bd 53 fa 3e 3d 76 6c 03 3d 1e bc 4d 3d
       -0.05031793 0.046625447 0.03208586 0.05022823
000070 da 01 50 3d 67 04 26 bd 3f 49 85 3b 22 aa 3d 3d
       0.050783016 -0.040531542 0.0040675695 0.04630483
000080 cd a6 87 3d e3 54 72 3d ad 25 19 3d b7 6b 6f 3b
       0.066236116 0.059162986 0.037389446 0.003653271
000090 85 ae 3d bd 07 64 54 bd aa 0e 31 3d 8c 37 0d 3d
       -0.046309013 -0.051853206 0.043226875 0.0344768
0000a0 a7 09 92 bd 0f 39 ef 3b 9f 5d c6 bc 6a 61 61 bd
       -0.07130747 0.007300503 -0.024214564 -0.055024542
0000b0 b6 11 02 bd ff 52 95 bd af e0 63 bd e8 be 2e 3d
       -0.03175517 -0.07291221 -0.055634197 0.04266253
0000c0 b1 6b a0 3a 3e b1 35 3d fa d2 2a bd a9 b0 52 3b
       0.0012239126 0.044358484 -0.04170511 0.0032148755
0000d0 b5 a7 cd bc d8 8e b2 bb 23 07 e5 3c d5 a7 1a 3d
       -0.025104383 -0.005449157 0.027957505 0.037757713
0000e0 02 68 01 3d c4 bd 8c bc 33 97 1c 3d 9f 3b a9 3c
       0.03159333 -0.017180331 0.038230132 0.020658312
0000f0 b9 ab 94 bd 83 0b 89 bc 08 0c 45 3d 39 e1 68 bd
       -0.07259316 -0.016729122 0.048107177 -0.056855414
000100 69 db 62 3d ae 86 07 3d 92 8b 45 3d 01 ed f5 3c
       0.055385027 0.033087425 0.048228808 0.030020239
000110 d3 3b 2f 3d 52 fe 31 3d dc ae f1 3b 33 d0 cb bc
       0.042781662 0.04345543 0.007375581 -0.02487955
000120 64 09 64 bc 02 32 52 3d a7 2f 35 bc e9 26 04 3d
       -0.0139182545 0.051317222 -0.0110587245 0.03226367
000130 9b aa 45 bc 1c bb fd bc 6e e4 0a bd 72 78 34 3d
       -0.012064601 -0.03097301 -0.033909254 0.044060178
000140 b8 c6 6f bd f7 fb 1f bd 26 7b 0a 3d c8 9b 5f bd
       -0.058539122 -0.03905865 0.03380885 -0.054591924
000150 a1 64 12 bd 57 77 81 bd 4e 69 2c 3d a1 1c 23 3d
       -0.0357405 -0.063215904 0.042092614 0.039822225
000160 09 15 80 bd df 0e cc 3c 7d 1b b2 3c 5d a9 0f 3d
       -0.06254012 0.024909435 0.021741623 0.035073627
000170 73 d9 fa 3c c8 59 5e bc ef a4 1e 3d 2a af c5 3c
       0.030621266 -0.01357121 0.03873151 0.024131376
000180 e2 75 25 3d 9c e5 26 3d 7a e9 14 bd 40 59 14 3d
       0.040395625 0.040746316 -0.036355473 0.036217928
000190 0d 52 50 bc ea f8 77 bd a9 5f 55 3c 90 b4 54 bc
       -0.012714875 -0.060540117 0.013023295 -0.012982503
0001a0 60 55 bf 3c 05 bd db bc 17 cc 01 3c f4 02 16 3d
       0.02335614 -0.02682353 0.007922194 0.03662391
0001b0 3d 45 a6 3c 9b 7f 72 bd 46 27 8c bd 18 c8 e8 bc
       0.020296687 -0.059203725 -0.06843428 -0.028415725
0001c0 38 16 0e 3d 2f ae cb 3c 69 b5 54 3d bc aa f5 3c
       0.03468916 0.02486333 0.05193082 0.029988639
0001d0 cb 05 4b 3d 15 28 ea bc dc be a2 bc e3 f5 42 bd
       0.04956607 -0.028583566 -0.0198664 -0.047597777
0001e0 79 dd 4f bd 2d 1e 2c bc 47 20 2c bd 06 43 29 3d
       -0.050748322 -0.010505241 -0.04202297 0.041323684
0001f0 26 6f 7d bd 8a 70 bd 3c 04 b2 5a 3d 27 ae 0f bd
       -0.061873578 0.023124952 0.053392425 -0.035078194
000200 f1 45 17 bd b7 ce b2 3c 61 cf c9 bc 14 f1 2a 3d
       -0.036931936 0.021827085 -0.024635019 0.041733816
000210 d0 b7 43 bd b4 95 b2 3b 62 9b 29 3d ce a9 cd 3b
       -0.04778272 0.005449975 0.04140795 0.006276346
000220 66 f6 6c bd 85 f2 58 bd e7 92 8c 3c 05 9e 72 3d
       -0.05785217 -0.05296566 0.017159892 0.05923273
000230 a5 32 8b bd a9 2d 4b 3d 25 ac 1b 3d be 6a 49 3d
       -0.06796769 0.04960409 0.038005967 0.049174063
000240 54 04 93 bd e7 b2 5e 3d 39 23 3f bd a3 11 a1 bc
       -0.0717856 0.054369833 -0.04666445 -0.01966173
000250 4b 01 ea 3c ba 18 20 3d 19 cc 74 3d 74 8b f1 bc
       0.02856507 0.03908608 0.059764955 -0.029485442
000260 c8 08 87 bd ed 7c 06 3d 87 b4 1a 3c 9c 55 71 3d
       -0.06593472 0.032833982 0.009442455 0.058919534
000270 02 bd 59 3d 43 c7 35 bc ad 27 0d bd 44 52 8f bd
       0.053158768 -0.011094871 -0.034461666 -0.06998113
000280 99 2e 8d bd 97 02 49 39 76 26 bc 3c fd 1a 74 bd
       -0.068936534 0.00019169819 0.022967558 -0.05959605
000290 55 3a 28 bd 00 c0 fd bc 68 3b 91 bc c4 f3 09 3d
       -0.041071255 -0.030975342 -0.017728522 0.03367974
0002a0 2f 76 86 bd 59 2c 0c bd 86 6a 4e 3d 2d b8 55 3d
       -0.065655105 -0.03422198 0.050394557 0.052177597
0002b0 a6 71 25 3d 4b 62 50 bd 76 c6 d2 3c a7 f9 c3 3a
       0.040391587 -0.05087499 0.0257294 0.0014951722
0002c0 e4 76 f5 3c 06 f6 01 bc 4a 11 90 bc 88 31 5b 3d
       0.029963918 -0.007932192 -0.017586369 0.053514034
0002d0 0f e2 81 3c ab fe 6f bd aa d8 c4 3c 51 3d 90 bd
       0.015854863 -0.05859248 0.024029095 -0.07042945
0002e0 a4 3c 52 3d db ba 83 bc 35 8e 6c 3c 3e 29 8a bd
       0.051327363 -0.01608031 0.014438202 -0.067461476
0002f0 53 67 fa 3c a2 29 5c bd a2 84 26 3d 01 1a 1c 3d
       0.030566847 -0.05375064 0.040653832 0.038110737
000300 23 17 20 bc eb c7 6a 3c 9c f5 85 3d ff 12 73 bd
       -0.009771141 0.014329891 0.06540987 -0.059344288
000310 11 45 fe bc 3a 4d 55 bd e7 37 d0 bc 94 54 ca bc
       -0.031038793 -0.052075602 -0.025417281 -0.024698533
000320 c7 2a 10 3c 4c b3 df 3b 79 12 77 bc 2a f7 9f bc
       0.008799261 0.006826794 -0.015080088 -0.019527037
000330 9e 1b bc bc 72 a8 58 bd d1 f2 27 3d 51 4f 8b 3c
       -0.022962388 -0.052895017 0.041003052 0.017005594
000340 b4 a5 1f 3d 8b ef 8a 3d 88 05 06 3d c7 11 69 bd
       0.038976386 0.067839704 0.03272012 -0.05690172
000350 13 9c 2a 3a fd 97 95 3d 92 28 25 3d bb 0c 38 39
       0.0006508242 0.0730438 0.040321894 0.0001755235
000360 c7 ab ac bc 31 ea 69 3d d0 1e 52 bd bc fd 7d bd
       -0.021078004 0.057108108 -0.051298916 -0.062009558
000370 2f 70 46 3d 93 3a e8 bc b1 1a 83 bd 35 2e 06 3d
       0.04844683 -0.028348243 -0.06401575 0.03275891
000380 5f 8f 32 bd c1 15 71 bc c7 2b 2b bd a2 27 8a 3c
       -0.04359376 -0.014714659 -0.041789796 0.016864602
000390 e4 a9 fe bc a9 64 18 bd e3 e8 48 3d 6f d6 48 bd
       -0.03108687 -0.037205372 0.049050223 -0.049032625
0003a0 0a 35 47 3d 7b 9f dc 3c 27 b7 12 bd db ec 3d bc
       0.048634566 0.026931515 -0.0358192 -0.011592115
0003b0 2e 12 63 3c 3f b5 cc bc 66 87 48 bc e0 66 2b 3d
       0.013859315 -0.024988769 -0.012239313 0.041846156
0003c0 99 41 06 3d 83 01 de bb 67 67 e9 bb 48 ea 5a bd
       0.032777403 -0.0067750826 -0.007122922 -0.053446084
0003d0 cc 34 9e bc 3a 4c 8d bd d7 53 d6 bb ac ac d7 bc
       -0.019312285 -0.06899305 -0.006540756 -0.026327454
0003e0 f2 21 c9 3c 27 91 6f 3d 39 53 28 3b 7e 1d 2a 3d
       0.02455232 0.058488037 0.002568437 0.041532032
0003f0 b2 3a af bb 62 01 84 3c a7 dc 17 3d 39 82 ca bc
       -0.005347573 0.01611394 0.037075665 -0.024720298

conv3.bias f4 [16]
000000 da 24 5e 3c 85 0f 4d bc 69 e5 d1 3c 28 60 ff 3a
       0.013558591 -0.012515907 0.025622087 0.0019483613
000010 b8 4d 85 3d cc 34 7d bd d7 66 12 bc a2 3c e4 3b
       0.06508964 -0.06181793 -0.008935652 0.006965236
000020 6c 35 7c bc fc 9b 3b bd a0 87 61 bc 5c aa 88 bc
       -0.015393596 -0.045803055 -0.013765246 -0.016682796
000030 71 19 3a bd 83 db 76 3c 49 7a 8d 3d bb 09 41 3d
       -0.04543442 0.015066984 0.0690809 0.04712842

conv4.weight f4 [32, 16, 3, 3, 3]
000000 5c 87 0b bc 15 fb 0b bd 5c 49 67 bc dc 80 ff bc
       -0.008516159 -0.034174997 -0.014116611 -0.031189375
000010 d6 09 a0 bb e4 8d 4e bd b8 0a 20 bd 11 ba d6 3c
       -0.004883985 -0.050428286 -0.039072722 0.02621177
000020 c0 f7 de bc fa 62 9e bc 64 a3 31 bd 8c 04 49 3c
       -0.027217746 -0.019334305 -0.043368712 0.0122691505
000030 58 46 19 3d c1 ff 28 bd 8c d3 33 bd 06 1b 66 bc
       0.0374206 -0.04125953 -0.04390292 -0.014044529
000040 08 f3 c3 bc 5f 38 ce 3c 21 e1 84 3c 72 a1 5d 3c
       -0.023919597 0.025173364 0.016220631 0.013527261
000050 f7 6d fd bb af 6c f0 3c ec b7 ce 3b 85 f6 89 bc
       -0.007734056 0.0293487 0.0063085463 -0.016841182
000060 7c 49 b6 bc 66 6a 82 bc 28 d7 ac 3c e6 94 c2 bb
       -0.022251837 -0.015919875 0.021098688 -0.0059381602
000070 9d 2e 00 bd 6c 7f 2d bd 5d 55 46 3d f1 8e eb 3c
       -0.031294454 -0.042357847 0.048421253 0.028754683
000080 60 18 a7 bc f6 50 9b 3b 60 12 0e 3d 2f a4 ef bc
       -0.020397365 0.004739876 0.034685493 -0.029253094
000090 20 c6 41 3c 28 12 81 3b 4b 6f dc bc 01 c2 df bc
       0.011827022 0.003938932 -0.026908537 -0.027314188
0000a0 77 24 f3 3c 19 ea 4d bc df fe ac 3b f4 54 e9 ba
       0.029680474 -0.01256802 0.0052794064 -0.0017801807
0000b0 4e 36 3d 39 04 e1 56 3d 80 cb b2 bc 95 83 21 bc
       0.00018044675 0.052460685 -0.021825552 -0.009858032
0000c0 68 63 d2 3c dd ef 95 bc 4d fa 62 bc c7 be f5 bb
       0.025682166 -0.018302852 -0.013853622 -0.007499549
0000d0 1e 65 88 3c 15 b9 9e 3c 9c 2b 15 ba b6 fa 0e 3d
       0.016649779 0.019375363 -0.0005690397 0.034907065
0000e0 b7 e5 4b bd 66 19 bf ba 8f 3b 07 3d c9 db 4b 3c
       -0.04977962 -0.0014579713 0.033015784 0.012442538
0000f0 29 ba 1c 3d d7 b3 55 39 12 51 50 bd 6b f4 23 bd
       0.038263474 0.00020380259 -0.050858565 -0.040028017
000100 9e d7 77 ba 12 78 49 bd 50 69 3b bd b3 74 2b bd
       -0.0009454432 -0.049186774 -0.04575473 -0.04185934
000110 35 aa ed bc d8 1c 1f 3d bf d8 03 bd 7c 5a d8 bb
       -0.029011825 0.038845867 -0.032189127 -0.0066025835
000120 96 8c 38 bc 9c da 92 3c 8a 33 9c 3c db c9 84 bb
       -0.011263987 0.017926507 0.019067544 -0.0040523834
000130 fc 2a ba 3c 70 62 e6 3b 48 e8 af 3b dd d2 52 bc
       0.022725575 0.0070307776 0.0053682663 -0.012867657
000140 95 5f 77 bb eb 11 9e 3c eb 2b 01 3c fe c5 7c bc
       -0.003774618 0.019295653 0.007884006 -0.015428064
000150 d0 36 12 bd 0b cc 26 3c a4 16 02 bd 4e 9c f2 3c
       -0.035696805 0.010180484 -0.031759873 0.029615548
000160 08 d0 df bc ad e8 f8 bc 10 c5 d9 3b c5 c8 93 3c
       -0.027320877 -0.030384386 0.006645806 0.01804007
000170 cc 3d 3f bc 4e 1b f5 bb 45 83 3b bd 8c 35 f9 ba
       -0.011672448 -0.0074800616 -0.045779485 -0.0019013151
000180 b1 b7 d5 bb 0c 4e 08 bd 4e 05 cc 3c fc 39 ad bc
       -0.006522142 -0.033277556 0.024904873 -0.021145813
000190 fa e2 ca 3c cd 29 cf 3b 7a 35 a9 bb 6e af d1 bc
       0.024766434 0.0063221217 -0.0051638456 -0.025596347
0001a0 55 af 83 3c 07 c5 60 bc 19 6d e3 bc a7 11 bb bc
       0.016074816 -0.01371885 -0.027761983 -0.022835566
0001b0 b3 b1 a0 3c a3 c5 b1 bb 89 df 05 3d 4f f7 e8 3c
       0.019615984 -0.0054251715 0.032683883 0.028438238
0001c0 46 5f f6 bc 36 75 2d bd 82 08 18 bd f1 3d c3 3c
       -0.030074727 -0.04234811 -0.03711749 0.023833247
0001d0 08 74 18 bd ea 52 75 bb f2 e9 98 3c 84 ae 90 bc
       -0.03722003 -0.0037433454 0.018666241 -0.01766134
0001e0 4d 17 62 3c b6 3e 3b 3c 1d 31 48 bd 14 1d 21 3d
       0.013799501 0.011428526 -0.048874963 0.03933437
0001f0 fe a7 52 bc 6b 24 00 bb 18 58 6b 3c b5 04 e5 3c
       -0.012857435 -0.0019552957 0.014364265 0.027956346
000200 42 fb 12 3d cc 49 27 bd 10 72 88 3c 65 30 29 bd
       0.03588415 -0.040841863 0.016655952 -0.04130592
000210 c4 f7 2f 3d ff 74 94 3c 4b 5e b2 39 87 5f da 3c
       0.042960897 0.018122194 0.0003402106 0.02665688
000220 78 5e 1f 3d 1a a6 93 3c bb 6b 08 3d cf a5 71 bc
       0.03890845 0.01802354 0.033305865 -0.0147490045
000230 26 4b 19 3d 4d 9c 7b 3c e2 9e f5 3b 0b b9 b3 bb
       0.037425183 0.015357089 0.007495747 -0.0054847053
000240 7c 7d e2 3c 42 b8 df bc 2d f1 af 3c 7c 8c 13 3d
       0.027647726 -0.02730954 0.021477306 0.03602265
000250 44 92 dc bc 55 d2 db 3a 27 c6 26 bd c5 aa 18 bd
       -0.026925214 0.0016771058 -0.040716317 -0.037272234
000260 61 84 0b bd 3b df 3e 3d 39 95 bc bc 41 38 b4 bc
       -0.034061793 0.046599608 -0.023020374 -0.02199948
000270 24 d0 50 bc cd c6 48 3c 2e 54 39 bd 42 6f e8 3b
       -0.012744937 0.012254429 -0.045246296 0.007093341
000280 ae 40 c7 3c 70 4c 12 3d c1 4c 11 37 48 ec 42 3d
       0.024322834 0.035717428 8.660544e-06 0.047588617
000290 b6 64 2d 3b df d1 95 3c 5c 27 81 3c a9 f0 b3 bb
       0.0026457733 0.01828855 0.015765838 -0.0054913354
0002a0 05 6b 02 3d 20 42 8e bc 02 41 89 bb 71 7e d3 3c
       0.031840343 -0.017365515 -0.0041886577 0.025817128
0002b0 25 a8 1d bd a7 b8 1c bd 81 61 98 bc 72 3e 3d bd
       -0.038490433 -0.038262036 -0.018601181 -0.04620213
0002c0 14 92 02 3c 17 a0 6a bc b9 e1 01 bd cc 01 c5 bc
       0.007969398 -0.014320395 -0.031709407 -0.024048708
0002d0 29 ae 27 bc ad 1c aa 3c 17 3f 7c ba cb a5 9f bc
       -0.010234394 0.020765627 -0.0009622438 -0.019488236
0002e0 cc 92 3b bd 4d fe d3 bb 62 de 2f bd ae 51 ea 3c
       -0.045794293 -0.006469524 -0.04293669 0.028603401
0002f0 b7 9d f5 3c 2e 20 19 3b 23 28 d3 3b a1 c9 87 bc
       0.02998243 0.0023365128 0.0064439937 -0.016575636
000300 ff 80 bf 3c b5 92 0b 3c 33 d9 54 bc 45 f4 ac 3c
       0.02337694 0.008518864 -0.012991237 0.02111257
000310 23 74 fd 3c 51 b4 02 bc a9 03 b6 3c 4a cf b3 bc
       0.030939167 -0.007977561 0.022218542 -0.021949429
000320 60 c8 28 3d 8a bc 4b bc b3 cd 49 3d 19 f3 9b 3c
       0.041206717 -0.012435088 0.049268436 0.019036816
000330 36 a3 35 3d 7d 90 b8 bc f6 8e 05 3d 91 45 3b bd
       0.044345103 -0.022529835 0.03260704 -0.04572064
000340 9a e3 08 bd 74 28 a8 3c 46 82 06 3d 21 1d 9e 3c
       -0.033420183 0.020527102 0.032839082 0.019301
000350 76 1d cf 3b c5 7d 5d bc 4e 68 45 3c 53 e9 32 3d
       0.0063206507 -0.013518755 0.012048794 0.043679547
000360 11 5d 23 3d a5 3e 33 bc 20 87 da bc 9d 2a 3f bc
       0.039883677 -0.010940229 -0.02667576 -0.011667875
000370 57 00 88 bc 10 ff 83 3b 12 f6 23 3d 8b 24 2f 3d
       -0.016601725 0.0040282086 0.040029593 0.04275946
000380 e7 b6 c3 3c 66 c1 54 3c 74 ec 3f 3d 7e 84 19 bd
       0.023890926 0.012985563 0.04685636 -0.03747987
000390 9d aa 36 3d 7e 9b a3 bb fd d1 b8 bc 78 34 6c bc
       0.044596303 -0.0049929013 -0.022561068 -0.014416806
0003a0 7b 90 bd 3c 22 94 41 bd dd 53 36 bd a2 99 0d bd
       0.023140183 -0.04726041 -0.044513572 -0.034570344
0003b0 8c f5 95 3c 9e ca dc 3c f2 5d 1e bc 2d 09 3e bd
       0.018305562 0.026952084 -0.009665953 -0.04639547
0003c0 83 bb 17 3d 60 e2 41 3d 4d d2 38 3d 8f 14 91 3c
       0.03704406 0.04733503 0.045122433 0.017709998
0003d0 ce 5f 36 3d 0d 6b 1d 3b 79 5e 3d bd 31 cc 41 3c
       0.04452496 0.0024020106 -0.046232674 0.011828468
0003e0 06 d7 c2 3b c1 6b 40 bd 8f 29 33 3d a3 0c e9 3c
       0.005946043 -0.046977762 0.043740805 0.028448408
0003f0 3b be b9 3c ca 5e 42 bd bb 3b 15 bd 4c 37 e0 3c
       0.022673717 -0.04745368 -0.036433917 0.027370118

conv4.bias f4 [32]
000000 ca c1 f7 ba 1d 68 37 bd e7 b6 84 bc e3 6f 16 bd
       -0.0018902358 -0.044777025 -0.016200496 -0.036727797
000010 c7 0f f4 bc 9c 9f fd bc 6d e7 99 3c 9f de cf 3c
       -0.02979268 -0.030959897 0.01878711 0.025374709
000020 bb d9 9c 3c 90 57 bd bc a5 84 d9 3c 41 cb de bc
       0.01914679 -0.023113042 0.026552508 -0.027196528
000030 d6 da 9b bc 50 a8 80 3c 3a 97 c4 bc 30 cd 02 bc
       -0.019025248 0.015705258 -0.023997892 -0.007983491
000040 80 ba ad bb 46 dd 04 3d 34 d8 34 bd f7 f5 d7 bb
       -0.0053017735 0.032437585 -0.0441515 -0.0065906006
000050 c2 b7 25 3d 8c 87 f0 bc 01 1c 42 3c 5a 84 95 bc
       0.04045845 -0.029361509 0.011847497 -0.018251587
000060 2e 2c b6 bc c8 56 96 bb 27 b9 3c bc 29 a6 0c bb
       -0.022237863 -0.004587982 -0.011518753 -0.0021461344
000070 49 f1 f8 3c ee 93 28 bd c1 d0 40 3b 5d f6 fc bc
       0.030388491 -0.0411567 0.0029421302 -0.030879194

conv5.weight f4 [64, 32, 2, 2, 2]
000000 a0 3b bc 3b c4 13 b9 3c ae e2 63 3d c0 0c 76 bb
       0.0057444125 0.022592433 0.0556361 -0.003754422
000010 80 f0 32 bc 84 63 5d bd 60 ec 6f bd 40 77 b8 3c
       -0.0109215975 -0.054049984 -0.058575034 0.0225178
000020 cc 26 6d 3d d0 0d 4d bd 18 6c 3f 3c 38 84 18 bd
       0.057898328 -0.050062 0.011683486 -0.03723547
000030 36 af 7e 3d 88 19 78 bd 0c 87 70 3d 8c 1c 49 3d
       0.062178813 -0.060571223 0.05872254 0.04909949
000040 ec 04 cf bc 00 ba f9 ba 30 9d 5c 3c 24 d8 21 bd
       -0.025270902 -0.0019052625 0.013465211 -0.03951277
000050 9a ad 14 3d 88 a9 e5 bc ac e2 1b bd a8 d7 4e bd
       0.03629837 -0.02803494 -0.038057968 -0.050498635
000060 3c 6f 30 bd 08 3e c3 3c c2 08 19 3d dc e0 18 bd
       -0.04307483 0.02383329 0.037361868 -0.037323818
000070 c0 2f 60 bd 50 b3 85 bb d0 14 9d 3b 38 aa 16 bd
       -0.054733038 -0.0040802136 0.004793741 -0.036783427
000080 ea 84 16 bd c8 7b 12 3d 38 91 69 bc c0 d0 86 3c
       -0.03674785 0.03576258 -0.014255814 0.016456962
000090 a2 0f 2a bd 7c 1e ac 3c 9c 02 48 3d da 80 08 bd
       -0.041518815 0.02101063 0.048830613 -0.033326007
0000a0 c8 2d c6 3c 08 27 06 bd 00 41 26 ba 10 a5 55 bc
       0.024191752 -0.032752067 -0.0006342083 -0.013039842
0000b0 d4 54 cb bc cc 1f 01 3d a0 2d 19 bc 00 38 5c b8
       -0.024820723 0.031524464 -0.009349257 -5.250424e-05
0000c0 30 70 cf 3b 00 e8 08 3b 4a ed 5f 3d f4 bc a8 bc
       0.0063305125 0.0020890236 0.054669656 -0.020597912
0000d0 d0 a0 52 bd 78 40 d0 bc f0 26 40 bd 02 98 05 bd
       -0.051422894 -0.025421366 -0.046912134 -0.03261567
0000e0 60 ef e9 3b 3c 57 27 3d 68 47 41 bc 20 4f f6 3b
       0.0071391314 0.040854678 -0.01179681 0.0075167567
0000f0 5e 4e 0b 3d 64 97 c7 bc 06 f1 01 3d ba 34 42 bd
       0.034010284 -0.02436418 0.031724 -0.047413565
000100 46 6f 0d 3d 2c a1 78 bd 9a c1 5d 3d 8c c4 4f 3d
       0.034529947 -0.06070058 0.05413971 0.05072455
000110 c8 af 60 bc 24 d6 e2 bc f8 23 8b bc 00 70 69 3b
       -0.0137137845 -0.02769 -0.016984925 0.0035619736
000120 e0 83 20 bd ae c0 66 3d 04 ee 9c bc fa 31 6f 3d
       -0.039188266 0.056336097 -0.019156463 0.05839727
000130 20 37 b8 bb f0 01 0e bc 6a 57 0c bd 10 97 24 bd
       -0.005621806 -0.008667454 -0.034263052 -0.040183127
000140 dc 99 9e bc b6 80 45 bd ac 1a fe 3c 00 94 64 3a
       -0.019360475 -0.04821845 0.031018578 0.00087195635
000150 16 d1 43 3d 28 29 18 bd a6 86 1b bd 18 d3 84 3c
       0.04780682 -0.037148625 -0.037970208 0.016213939
000160 00 f5 aa ba 9c ae 79 3d 9c da 1e 3d e0 c6 41 3b
       -0.0013042986 0.060957536 0.0387827 0.0029568002
000170 cc b4 69 bd 7c 24 1a 3d 3c 9e ae 3c 38 4c 6c bc
       -0.057057187 0.03763245 0.021315686 -0.014422469
000180 5a d9 66 3d 8c 57 37 bd c0 a8 6d bc 74 74 01 bd
       0.056359626 -0.044761226 -0.014505565 -0.0316052
000190 20 d3 53 3b e2 89 06 bd 8a 69 52 3d d8 59 5d bd
       0.0032321885 -0.03284634 0.05137018 -0.05404076
0001a0 50 10 31 bd 70 80 d7 bb 50 a8 46 3c 50 62 27 3d
       -0.043228447 -0.0065765902 0.01212509 0.040865242
0001b0 3a d2 29 bd d0 92 52 3d 66 73 65 bd 64 91 a9 3c
       -0.041460253 0.051409543 -0.056018256 0.02069921
0001c0 00 96 a3 b9 5e 49 3d 3d 04 1d 0a bd 0a 60 2f bd
       -0.0003120154 0.046212547 -0.033719078 -0.0428162
0001d0 10 fb 74 bc e8 18 79 3c e0 22 52 bb e0 5e 70 3d
       -0.014952436 0.015203692 -0.0032064244 0.05868423
0001e0 ce 4d 63 3d f2 ac 61 bd ac 92 79 bd 34 f7 74 bd
       0.055494122 -0.055096574 -0.060930893 -0.059806064
0001f0 d4 59 69 bd 94 9d 7a bd f0 7d 3a bc 8c 2d d0 3c
       -0.056970432 -0.061185434 -0.011382565 0.025412343
000200 ca 22 06 bd b2 cd 76 3d 3a cf 5b 3d b8 f4 c2 3c
       -0.03274802 0.06025476 0.053664424 0.023798332
000210 5e 30 74 bd 7e 65 5e 3d 52 85 12 3d 00 88 e9 b9
       -0.05961644 0.05429601 0.035771675 -0.0004454255
000220 d0 1f ab 3c f0 a3 c0 bc 0e 6f 78 bd 2c e1 2d bd
       0.020889193 -0.023515671 -0.060652785 -0.04245107
000230 80 98 fd bb a0 1e 0b 3d 96 6a 01 bd 2c 01 2b bd
       -0.0077391267 0.033964753 -0.03159579 -0.041749164
000240 38 ac 6b bd 30 57 0c 3c 50 46 5b bc 2c 5d 48 3d
       -0.057537287 0.008565709 -0.013383463 0.04891698
000250 00 51 45 bc 02 d9 54 bd 84 a2 93 bc a0 73 a1 bb
       -0.012043238 -0.051964767 -0.01802183 -0.0049271137
000260 70 50 e8 bb e8 65 75 3d 8c 35 cf bc 6c 8c 92 bc
       -0.007089667 0.05991164 -0.025294088 -0.017889224
000270 20 e3 82 bb 70 0f 37 bd d8 cf 8e bc 84 04 01 bd
       -0.0039943606 -0.044692457 -0.017433092 -0.031498447
000280 34 32 46 bd a8 2a 45 bc ec c7 33 3d ee 36 1c 3d
       -0.04838772 -0.012034096 0.043891832 0.038138323
000290 c2 b7 20 3d 1c 73 1a 3d 00 ed c2 bb 0e 21 08 3d
       0.039237745 0.037707433 -0.0059486628 0.03323465
0002a0 cc 8f 11 bd fc 97 10 3d 68 c3 66 3c b8 04 df bc
       -0.035537526 0.035301194 0.014084674 -0.02722393
0002b0 16 13 0c bd 76 8a 63 bd a0 44 bf bb d0 23 27 bc
       -0.03419789 -0.05555197 -0.005837038 -0.010201409
0002c0 00 89 12 3c 7e a9 1c 3d fc 1d 89 bc 24 03 65 bd
       0.008943796 0.038247578 -0.01673793 -0.0559112
0002d0 b0 b6 9a bb 20 58 bd 3c 7a 4e 0e bd 9c 12 34 bd
       -0.004721485 0.02311331 -0.03474281 -0.04396306
0002e0 28 5a 27 bc 70 1a 43 3c 2c f1 4d bd 00 e8 28 bd
       -0.010214366 0.011908159 -0.050278828 -0.041236877
0002f0 62 66 6a 3d fa 15 13 3d b0 5c af bb fc 71 6a bd
       0.057226546 0.03590963 -0.0053516254 -0.05723761
000300 2a 36 48 bd 38 a8 20 3d b8 4e 9d 3c 80 72 7b bd
       -0.04887978 0.039222926 0.019202575 -0.061388493
000310 d4 d0 14 3d 58 f8 73 bc 14 fc bb bc 0c b4 9b 3c
       0.036331967 -0.014890753 -0.022947349 0.019006751
000320 50 ac bd 3b 58 62 aa bc 44 06 e1 bc ce a8 60 bd
       0.0057883635 -0.020798847 -0.027468808 -0.054848485
000330 50 24 f6 3b e0 03 8b bc c6 e5 04 3d 40 ee 48 3d
       0.007511653 -0.016969621 0.03244569 0.049055338
000340 48 fe 95 bc bc 76 ba bc f0 ef 68 3c 32 3e 58 3d
       -0.018309727 -0.022761695 0.014217362 0.05279369
000350 70 03 56 bd d2 48 20 bd 78 d1 b9 3c 78 14 af 3c
       -0.052249372 -0.039131947 0.02268289 0.021372065
000360 90 16 8d bc 30 00 88 bb 90 7a 44 3d f0 a5 f8 3b
       -0.017222673 -0.004150413 0.047968447 0.0075881407
000370 b0 44 b0 bb dc d8 aa bc 32 4f 73 bd e0 ce 4d bd
       -0.005379282 -0.02085536 -0.0594017 -0.05024612
000380 42 03 63 bd 66 1b 7b 3d 80 6c bb ba 08 7e 0a bd
       -0.05542303 0.061305426 -0.0014299303 -0.0338116
000390 3a 20 64 bd 2c 56 a4 3c c0 50 42 3c ca 23 07 bd
       -0.055694796 0.020060621 0.011860073 -0.032993115
0003a0 cc 45 55 3d 88 ca 38 3c b0 82 52 bd be 38 34 3d
       0.052068517 0.011278756 -0.051394165 0.043999426
0003b0 ae 62 23 bd 74 c1 62 bd 60 cf 80 bc 78 06 6c bc
       -0.03988903 -0.055360273 -0.015723884 -0.014405839
0003c0 66 5d 72 bd 74 67 74 3d aa 49 5d bd 1c 19 3a bd
       -0.059171103 0.059668973 -0.05402533 -0.045434102
0003d0 54 b5 1a bd 8c 81 ed 3c 00 29 78 bb 70 0e 4e bc
       -0.037770584 0.028992437 -0.0037866235 -0.012576684
0003e0 bc b4 a8 bc 04 c1 4f bd 0a 95 11 bd 8c 67 2d bd
       -0.020593993 -0.050721183 -0.035542525 -0.042335078
0003f0 70 c4 7b 3c 50 85 93 3b 68 9a 1b bd 20 34 b2 bc
       0.015366659 0.004501976 -0.03798905 -0.02175337

conv5.bias f4 [64]
000000 d8 8a 43 bd fd 96 80 ba 7a 79 f9 3b ce d7 73 bd
       -0.047739834 -0.0009810623 0.007613358 -0.05953198
000010 08 76 3d bc 66 b6 96 3a d8 a2 20 3c a4 9b 9b bc
       -0.011563785 0.0011498451 0.00980445 -0.018995114
000020 a5 4f 06 3d 76 ff e6 3b ca cb 32 bd f0 0e 19 3d
       0.0327908 0.0070494963 -0.04365138 0.03736776
000030 ca 36 02 bd 9b ac fb 3c bf f5 29 bc 2c 75 5f bd
       -0.031790532 0.030721953 -0.010373532 -0.054555103
000040 04 f4 85 3c ea 79 59 bd a3 7c 8d ba 9d f3 ec 3c
       0.016351707 -0.053094782 -0.0010794591 0.028924758
000050 b2 4a 45 3d 8c e2 11 3c f4 48 33 3c 46 d1 01 bd
       0.048166938 0.008904111 0.010942686 -0.03169372
000060 14 24 3c 3b e5 55 40 3c e6 94 4c bc 3a cc 3f bd
       0.0028708028 0.011739229 -0.012486672 -0.046825625
000070 60 f5 1f bb 80 b2 73 bc 46 76 fd 3b e0 6f 33 3d
       -0.002440773 -0.014874101 0.0077350466 0.043807864
000080 f8 59 10 bc 92 86 14 bd a0 32 33 3d 25 cd 70 bd
       -0.008810513 -0.03626115 0.04374945 -0.05878939
000090 c9 d7 fd 3c 1c bc 1b 3d 04 da 1f bd fc b0 4f bd
       0.030986683 0.038021192 -0.039026275 -0.050705895
0000a0 c5 22 5c bd 9c 3a 07 bc 04 06 cf 3c 5e 31 b8 3c
       -0.053744096 -0.00825372 0.025271423 0.022484478
0000b0 5a 44 8f bc bf 2f ae 3b 6d d6 2c bd ac c7 3e 3d
       -0.017488647 0.0053157504 -0.04219668 0.04657714
0000c0 54 27 6d bd 81 be f7 3b 8c 05 c8 bc 50 93 c7 bc
       -0.057898834 0.0075605516 -0.024416707 -0.024362236
0000d0 64 73 f3 bc a0 53 f8 bc 88 5b 8b bc d4 ef 76 bd
       -0.029718108 -0.030313313 -0.017011419 -0.06028731
0000e0 52 0c 1d bd c7 bf a3 bc 9a fb 0d bd 6c 10 1e 3d
       -0.038341828 -0.019988908 -0.034663774 0.03858988
0000f0 72 51 0f 3d 53 cd 9e 3c c0 ae d6 bc bc c3 24 3c
       0.03498978 0.019385016 -0.026206374 0.010056432

linear1.weight f4 [128, 512]
000000 23 7b 8b 3c 16 9e fa 3c 9b ec 12 bd 28 49 ed bc
       0.01702649 0.03059296 -0.035870176 -0.028965548
000010 d4 58 19 3d 67 8c f9 bb 43 33 ff bc 66 aa 2a bd
       0.03743823 -0.007615614 -0.031152373 -0.04166641
000020 f5 5c e5 3c c6 34 18 bc 0a 61 39 3c d4 a7 dd bc
       0.027998427 -0.009289926 0.01131464 -0.027057566
000030 d2 6b ce bc 60 aa cf bc 36 9f 0f 3c 09 cb 4c 3a
       -0.025197897 -0.025349796 0.008765986 0.0007812237
000040 a3 f7 1a bd 4a 02 a6 3c ed 20 ea bc fb 96 c5 bc
       -0.03783382 0.020264763 -0.028580153 -0.024119845
000050 66 55 0e 3d 60 1c f7 bc 59 65 c5 bc 8b 31 88 3b
       0.03474941 -0.030164897 -0.024096178 0.0041562966
000060 e5 3f c8 bc 1d fd 17 bd 5f e6 83 bc c0 27 85 3c
       -0.02444453 -0.037106622 -0.01610106 0.016254306
000070 0e 98 07 3d 35 66 ee ba 7d 08 eb 3c 8e 2f 91 3c
       0.033103995 -0.0018188419 0.028690571 0.017722871
000080 09 04 e3 bc 9c 61 11 bd 1a 4c 24 3d 58 d0 d4 3c
       -0.027711885 -0.03549348 0.04011164 0.025978252
000090 d1 53 12 3d 7f af f4 bb 4a 27 a4 bc 0c f7 f4 bb
       0.035724465 -0.00746721 -0.020038266 -0.0074757393
0000a0 8b 9c e8 3b 4c 3a 07 3c 59 79 e4 3b 7e e6 c4 3c
       0.0070987395 0.008253645 0.0069724736 0.024035688
0000b0 d7 6b 0e 3d 29 38 92 bc 99 e4 c2 bc 73 05 f7 bc
       0.034770813 -0.017849045 -0.023790644 -0.030153966
0000c0 83 e4 89 3c 59 9d b2 bc 3a 6e 9f bc a1 9b 2e bb
       0.016832596 -0.021803545 -0.01946174 -0.0026643055
0000d0 e2 3e 39 bd e8 44 df bc 4b fd 12 bd 7b 3b ef bc
       -0.045225985 -0.027254537 -0.03588609 -0.029203167
0000e0 7e 84 be bc de c8 30 bd db 3d 34 bd ac 7d 16 bd
       -0.023256537 -0.043160312 -0.044004302 -0.036740944
0000f0 25 6c a8 3b 9d e9 45 3c be 93 34 3d de 57 a2 3c
       0.005139845 0.0120796235 0.04408621 0.019817289
000100 c7 54 02 bd 73 36 3a bc 62 af d7 bc 23 ee c6 3c
       -0.03181913 -0.011365521 -0.026328746 0.024283474
000110 32 37 08 3d 25 56 40 bd 67 ae f9 ba 8c 90 a8 bc
       0.033255763 -0.046957154 -0.0019049168 -0.020576738
000120 bf 51 07 3d c4 ca 23 bd 58 20 43 bc 2e 58 15 bd
       0.033036944 -0.039988294 -0.011909567 -0.036461048
000130 32 a9 b4 bb 18 98 a4 3c 77 d1 36 bc c1 92 49 3a
       -0.0055133337 0.020092055 -0.011158339 0.00076894095
000140 99 38 7b bb fc 79 02 3d b1 e5 0c 3c 71 8e 6b bc
       -0.0038333295 0.031854615 0.008599685 -0.014377222
000150 b0 4a 24 3c 45 ef 63 bc a8 3f 64 bc 71 0c 28 3d
       0.0100275725 -0.013912027 -0.013931192 0.04102749
000160 30 7e 4d bb 4e fa 29 bd 7b 95 4b bb bd 78 e9 3b
       -0.0031355731 -0.041498475 -0.003106444 0.007124989
000170 39 2c 8e 3c 26 d9 f0 bc f2 5e a9 bc 59 85 2c 3c
       0.017355071 -0.02940042 -0.020675156 0.010529839
000180 df d2 2b bd c9 df 96 3c d7 33 5f bc 2a c7 8a ba
       -0.04194915 0.018417256 -0.013623199 -0.001058792
000190 37 d0 0e 3d 0d 13 13 3c 9e 03 b2 b9 4d ba 4e bc
       0.034866538 0.00897671 -0.000339535 -0.01261766
0001a0 eb 63 82 3c 40 fc f0 3c 62 92 01 bc 95 6e fb bc
       0.015916785 0.029417157 -0.007908436 -0.030692378
0001b0 fa 65 a7 bc 72 87 0c bd 9c 55 08 bd c6 b7 cb bc
       -0.020434368 -0.03430886 -0.03328477 -0.024867903
0001c0 2a d8 c4 bc b6 46 93 bb 32 f0 f4 3b a6 67 17 bd
       -0.024028856 -0.0044945134 0.0074749226 -0.03696408
0001d0 78 41 14 bd 96 cb 5a 3c 5f 00 03 bd 05 6c 89 3b
       -0.03619525 0.013354203 -0.031982776 0.004193785
0001e0 5d ee e9 3c 46 a7 83 bc 3d 7e 35 3c 33 f9 d9 bb
       0.028556043 -0.016070973 0.011077461 -0.0066520213
0001f0 22 f2 09 3d 8d 16 93 3c 15 52 26 ba 69 a1 3b 3b
       0.03367818 0.017955089 -0.00063446286 0.0028630143
000200 41 58 2f bc d1 29 d6 3c 16 79 0e bd cf 66 b9 bb
       -0.010702194 0.026142986 -0.034783445 -0.0056580077
000210 51 5b b7 bc 0f ec 30 bd 06 b0 f5 bc 7e bf 1d bd
       -0.02238241 -0.043193873 -0.029991161 -0.0385127
000220 63 9a d1 bc 11 d2 4c 3c 08 98 18 bd a3 f4 28 3d
       -0.025586313 0.012501256 -0.037254363 0.04124893
000230 7e a9 4d 3b 0c 52 8d bc 5e f1 b7 bc 6b 9f 0d bd
       0.0031381543 -0.017251037 -0.02245396 -0.03457586
000240 8c a9 a6 bc 6e a3 b1 bc f0 e8 25 3b e1 da 26 bd
       -0.020344518 -0.021684375 0.0025315844 -0.040736083
000250 e3 6e 2f bb 2c d9 05 3b 57 95 45 3c bf 09 16 bd
       -0.0026768974 0.0020423634 0.012059531 -0.03663039
000260 59 ab c9 bc 76 14 e7 bc 31 57 c0 3c 3a cf 12 bd
       -0.024617838 -0.028207999 0.023479076 -0.035842158
000270 14 65 0b 3d da 1d 48 3b 58 74 7f 3a 99 69 d4 bc
       0.034031942 0.003053537 0.00097448146 -0.02592926
000280 ab ce 27 bd 81 50 67 bc 17 70 37 bd 74 8c 05 bd
       -0.04096858 -0.014118315 -0.04478463 -0.03260465
000290 87 56 49 bc af 76 85 3c 01 c5 23 3c ac 16 02 bc
       -0.012288696 0.016291944 0.0099957 -0.007939976
0002a0 01 f5 9c 3c 21 ea 1e bd 48 53 69 bc 2f 82 97 bb
       0.019159796 -0.0387975 -0.014241047 -0.0046236734
0002b0 57 ac ac 3c 26 56 16 3d ad 38 d4 3c b5 16 18 3c
       0.021078272 0.03670325 0.025905931 0.0092827575
0002c0 b1 89 2f bd 90 1e 03 3d 1a 47 58 3c 11 ad 0c bb
       -0.042855922 0.03201157 0.013200546 -0.002146546
0002d0 0e 9e 1a 3d df 8d 1a 3d 12 1e fc 3c 88 74 af 3c
       0.03774839 0.037732955 0.030776057 0.021417871
0002e0 e2 9e b8 3b 36 01 8c bb 70 10 19 bd 49 20 17 3d
       0.0056341747 -0.0042726053 -0.03736919 0.036896024
0002f0 2f 89 24 3d b3 18 f1 3c 12 02 2e bc b0 92 cd bc
       0.04016989 0.029430723 -0.010620611 -0.02509436
000300 5e 2a 07 bc 46 6d 5e bd ee b1 29 bd 72 31 e9 3b
       -0.008249847 -0.05430343 -0.041429453 0.00711649
000310 4c 11 c8 3c 50 09 29 3c 56 39 57 bc e6 06 37 bc
       0.02442231 0.010317162 -0.013136229 -0.011171078
000320 dc c4 df 38 f0 c5 8f bc 4f c3 05 bd 54 06 f0 3b
       0.000106701365 -0.017550439 -0.032656964 0.007324973
000330 14 3a b2 3c b3 5e 9b bc fc 5b d9 3b dd cf f4 bc
       0.02175621 -0.018966055 0.00663328 -0.029884273
000340 2a 2c ad bc 8d 1c 88 3b 45 f3 44 bd af 22 11 3d
       -0.021139223 0.004153794 -0.048083562 0.035433467
000350 26 3c 39 bb ad e8 77 bb 82 f2 5c 3c 84 2e e0 bc
       -0.002826461 -0.0037827895 0.013485553 -0.02736593
000360 ee a9 1e 3d ea b4 f5 3c 3d 6f f6 bc 33 52 02 3d
       0.038736276 0.029993493 -0.03008234 0.031816673
000370 4a c4 0f 3d 10 3b 2b 3d 2d 51 00 bc 4f dd 3c 3c
       0.035099305 0.041804373 -0.007831854 0.011527373
000380 e4 0a 4f bc 71 5c af bc c4 28 ea bc e0 7c ef bc
       -0.012636874 -0.021406384 -0.028583892 -0.02923435
000390 55 07 75 3c 75 71 0e 3d ff c8 5f bb 14 1d c0 bc
       0.014955361 0.03477617 -0.0034146903 -0.023451366
0003a0 fa 87 58 3c c4 80 0f 3d 84 13 16 bd 9a 8c 53 3c
       0.013216013 0.03503491 -0.036639705 0.01291194
0003b0 cf 4c 20 3c 09 77 af bc ba da c4 3c 45 65 f2 3c
       0.009783938 -0.021419065 0.024030078 0.029589305
0003c0 33 19 07 bd 3b 1a 0b 3b 56 8b dc bc 3c ca fb 3c
       -0.032983016 0.0021225351 -0.02692191 0.030736081
0003d0 4c 15 8a bc 66 dc 09 bd d5 71 30 bb cb 8c 34 bc
       -0.016855858 -0.033657454 -0.0026923318 -0.011019896
0003e0 6a fc ee bc b6 54 81 3c a9 84 76 3c 23 fc 1a bd
       -0.029173095 0.015787464 0.015046277 -0.037838113
0003f0 c1 e7 f0 bc ad 9a 1e bd 4e 22 08 bc f7 22 17 3d
       -0.029407384 -0.03872173 -0.00830896 0.03689858

linear1.bias f4 [128]
000000 cd 05 06 bb 0d 4b a5 bb 67 15 ac bc 12 db 96 3c
       -0.0020450235 -0.005044347 -0.0210063 0.018415008
000010 a4 ee 46 3c 99 34 d9 ba c0 26 ab ba e4 3f eb bc
       0.012141857 -0.0016571461 -0.0013057813 -0.028716989
000020 44 59 11 bd 67 e4 15 b9 cb 6e ac bc 5d c4 fc 3c
       -0.03548552 -0.00014294834 -0.021048924 0.030855352
000030 1d dd 87 b8 4d a3 e0 ba 89 6e 0e bd 83 8e 30 bd
       -6.478487e-05 -0.0017138511 -0.034773383 -0.04310466
000040 e7 76 10 3c b2 c2 bf 3c de 80 7d bc 13 12 c2 bb
       0.008817411 0.023408268 -0.015472619 -0.005922565
000050 71 4e a6 ba ee 60 18 3c af c0 71 3c d0 ee 85 bc
       -0.0012688172 0.009300454 0.014755412 -0.016349226
000060 2c 75 2a bc 71 62 19 bd 91 75 a4 bc bb 70 94 bb
       -0.0104039125 -0.037447397 -0.020075591 -0.00453004
000070 aa f3 d7 bc 36 da 04 bb 12 f1 f6 bc 65 ef e6 bb
       -0.026361305 -0.0020271665 -0.030144248 -0.007047581
000080 f5 ee 0b bd ab 04 b6 3c 3b af 9f bc 74 ac 17 3d
       -0.034163434 0.022219023 -0.019492736 0.0370297
000090 21 67 27 3c 91 ef 09 bb 7d 0b 24 ba 31 f3 51 3c
       0.010217459 -0.0021047334 -0.00062578154 0.012814329
0000a0 7c ce 49 39 d0 00 b9 bb fe 70 c7 3c aa dd 16 3d
       0.00019245775 -0.005645849 0.024345871 0.03683249
0000b0 76 cd 34 bc e9 a6 61 bb 07 24 8a 3c 85 a4 4c 3c
       -0.011035314 -0.0034431762 0.016862882 0.012490396
0000c0 aa c2 bb 3a e9 e8 8c 3c 17 f2 ed bc 17 88 4b bb
       0.0014324982 0.017200904 -0.029046101 -0.0031056458
0000d0 50 21 f4 bc 15 70 68 3c 97 37 97 bb c6 78 92 3c
       -0.02980104 0.014186879 -0.004614781 0.017879855
0000e0 d0 04 0e bc dd fd 0e bd d9 eb e5 b9 96 e5 92 bc
       -0.00866814 -0.03491007 -0.00043854004 -0.01793174
0000f0 78 2c e3 3c 87 0d c7 bc 1f 23 89 3b b5 79 f7 bc
       0.027731165 -0.024298443 0.004185095 -0.030209402
000100 15 91 d4 3c 2d 39 7c 3c ed 09 09 bd 13 04 09 bd
       0.025948087 0.015394491 -0.03345673 -0.03345115
000110 4d e4 8b 3c 79 29 02 bd 20 d0 04 bc 21 f5 91 3c
       0.017076636 -0.031777833 -0.0081062615 0.017817082
000120 04 56 e6 3c e7 14 c9 ba 76 4b 5f bc 01 9c 2b 3c
       0.028117187 -0.0015341312 -0.013628831 0.010474206
000130 f6 c9 c7 bc b9 95 68 3c fb bc c7 bc aa d1 de 3b
       -0.024388295 0.014195853 -0.024382105 0.0067998962
000140 6e 42 02 bb df ad d2 bc c4 b9 f7 3c b5 25 b0 3c
       -0.001987602 -0.025717674 0.030239947 0.021502355
000150 3e f9 e9 bc 21 ff 16 bd 62 b6 d3 bb 47 7e b4 b9
       -0.02856123 -0.036864404 -0.0064609507 -0.0003442636
000160 40 a2 e5 3b 24 cc 87 bc 6d e6 e5 bc 00 3f e9 bc
       0.007007867 -0.016576834 -0.028063977 -0.028472424
000170 2c 41 1a bd c6 84 0f 3d 03 e9 e7 bb c9 9e f7 b9
       -0.03765981 0.035038732 -0.0070773377 -0.00047229815
000180 08 d7 62 bb 98 a7 0f 39 60 af ea ba c1 05 12 ba
       -0.0034613032 0.00013699976 -0.0017905049 -0.00055703154
000190 47 89 5f b9 42 00 21 3d 70 33 c9 b8 6c d0 b8 3c
       -0.00021318077 0.039306886 -9.594008e-05 0.02256032
0001a0 dc 05 38 ba a3 6b f5 3b 35 9d a6 3b ee 12 1c 3d
       -0.0007019916 0.007489638 0.0050846585 0.03810399
0001b0 f1 f0 2e 3c 9b 9c da bc 21 34 17 bc fc a6 1b bd
       0.010677562 -0.026686003 -0.009228737 -0.038001046
0001c0 c3 6a 8d 3c cd 02 ed bb ad b1 1a bd 2d b0 de bc
       0.017262822 -0.007233 -0.0377671 -0.027183617
0001d0 9d 7b 1c 3d 5e ed 27 3d ca d7 a0 3c 77 d9 c0 3c
       0.038203824 0.040997855 0.019634146 0.023541195
0001e0 33 26 18 bc 0c b5 c1 3c f1 3e 33 bd 66 0d 58 b8
       -0.009286451 0.0236459 -0.043761197 -5.151089e-05
0001f0 ec c4 f1 bc 92 d4 a3 3c b4 0a 0c b8 f8 2f 09 3d
       -0.029512845 0.019998822 -3.338857e-05 0.033493012
