models/6A_TL_hand_alpha.pth (torch, 421229 bytes, 13 tensors)

conv1.weight f4 [4, 1, 5, 5, 5]
00000000: a02c afbd e6d2 253c d2cf a83c dcd1 0b3d
00000010: 2e6f 933d fae4 b43d d221 353e 83d8 d23d
00000020: 24c9 be3d 7dea c93d 340a 863d 76dd c83d
00000030: a3f3 053e ccae 56bd 8707 783c 49b0 b13c
00000040: 61c5 933d d9f5 bb3d 5d76 5e3d ed02 2d3d
00000050: af8b 25bd fe09 aa3d 7e6f 0a3a c509 953d
00000060: e2c2 82bd ef07 13bd f0cf bcbc 7c99 8d3d
00000070: f9d0 4b3d 5adc 9b3c 0a44 6fbb 4861 7d3d
00000080: 9cf5 a83c fe77 c43d cb2b ba3d 465b 2ebd
00000090: 78ad 34bc 7f5a a93c b771 b83c ee80 5cbd
000000a0: 4172 8b3d 241c 0e3d ea23 d3bd 0a3a c1bd
000000b0: 5540 a63c 4cea 8dbc b980 9fbd 1d38 10bd
000000c0: 254e aebc 649b 703d 8610 2a3d c2f6 1b3d
000000d0: 70ce f13a e575 41bc 7733 39bd 09c0 92bb
000000e0: a35d 3fbd 2eed e4bd 8359 60bd 9cf8 d1bc
000000f0: f7df 403d abdb 40bb c8db 12be 846c 72bd
00000100: eddc c53d bc11 9cbd 6e44 8cbd 4625 1dbe
00000110: 8a4d bbbd 1d5b f63c 4b3d 65bc 8aca 2c3d
00000120: fa5c 3b3d dcac 1a3c 0586 303d af89 473d
00000130: 4399 b4bd f8c1 a9bd 1fee 8c3d 3902 73bd
00000140: 271c acbd 0683 97bd d208 a63c 5fec b4bd
00000150: 1b1b c33c cfaf 1ebc 81ec d7bd 69e5 f1bd
00000160: e5a5 3b3d 83ea 5c3d 5efb e13c c7f5 90bc
00000170: 4ca4 cc3c bbf3 343d 8215 58bd 075b b6bc
00000180: 63c2 b7bc d3ce 75bb 0d10 65bd 73f9 f6bc
00000190: c3e9 3c3c bc65 d1bc eb5a d93c be91 88bb
000001a0: b70a 34bd b6f2 963d 6d2f a63d 3b2a 81bb
000001b0: 889a 6abd 4e26 aebd 3966 8f3d 567f 193c
000001c0: 20d8 903b e6d6 993d ad39 4e3a 6acf 673c
000001d0: 52ac 123d fe85 e0bc e664 b83d 1dbd c6bd
000001e0: 3615 b3bc 7718 b73d dbbd 2abd 661c 873d
000001f0: 8b58 90bd 2b75 91bd c713 00bc b85e 783d
00000200: bbdb 8dbd 9540 103d 0116 82bd 679a 373d
00000210: 049c 33bd 687e 293d 6611 42bd b886 da3d
00000220: 17d4 7abd d65f 01bd e706 b7bc 40c9 55bd
00000230: 5dff d8bc 487d f3bd ac2e cfbc ae00 953c
00000240: 0ec4 3abd f131 13bd 1209 17bb b457 bebd
00000250: 784f 2cbb 0e17 153c feaf c43c 2a99 ae3c
00000260: 1df3 0cbc d53f d9bc 0f45 03bd b419 193d
00000270: ef6c 89bd 5fe4 2a3b 39c7 4dbd 179e 52bd
00000280: 2690 f3bc 73af bfbd b7a0 5ebd 1baa 123e
00000290: 4d9a 883c d456 6c3b a15b 0bbd 8394 c2bc
000002a0: 1ff7 503e 0827 0e3e f4d4 8cbd 78c0 403c
000002b0: c80a b93c 7ad1 1b3d d939 a33d 07b9 123d
000002c0: 7f46 803d d952 70bd d512 93bd 0a1e 443b
000002d0: ad7f 893d 6fd8 a3bd a2a3 41be 64bd aa3b
000002e0: 804d fabc 79de b5bd a875 92bd 23a4 b7bd
000002f0: 1724 e93d 794d 283e 59f5 04bd ce47 62bc
00000300: bfb3 0b3e ae31 5b3e 5bbd 1b3e ca66 5cbc
00000310: c5d2 b0bd c175 e1bc 27f1 113e 5279 933d
00000320: 4124 17bd 8a4d f6bc 7e19 8b3d dabb bb3a
00000330: 0ab4 e7bb 8bac 89bc 68e1 acbc ba03 4c3c
00000340: 8ac3 1abd a8aa f73c 724d 253d 7b51 c2bd
00000350: 2c2b f1bd c70b 033e 2c5c 633c a2ff 07bc
00000360: b0d9 1ebd 948f 673d 17c5 483e 00c7 ba3d
00000370: 5a83 c9bd 8c39 2c3d b69c b73b f8c7 57bc
00000380: 7f2b f53c 9f19 40bd 3614 c23c b22e 5abc
00000390: 03ac c9bd b210 49bc 1a71 3ebc b942 49bd
000003a0: ec40 9ebd d65d 233d 7ad3 953c dbc3 3ebd
000003b0: 3438 943d c12c afbd a9a7 b9bc e4b7 24bd
000003c0: cf96 00be c5da 12bc 64e6 a0bd 06a3 6d3d
000003d0: fc48 99bd 23f6 2abd d6b5 99bd 7b7f 303c
000003e0: 67bc 253b ce8d d23b 654a 7abd 97a6 31bd
000003f0: 8161 853d 2877 c0bd a2af c3bd d4e7 723d
-0.085534334 0.010121083 0.020606909 0.034135684 0.0719894 0.08832736 0.17688683 0.102952026
0.09315708 0.09859178 0.06544915 0.09807865 0.13081221 -0.052412793 0.015138513 0.021690505
0.072153814 0.09177751 0.0543121 0.04223912 -0.040416416 0.08302687 0.0005280896 0.07277254
-0.06384827 -0.035896238 -0.023048371 0.069140404 0.04975984 0.01902597 -0.003650906 0.061860353
0.020624928 0.09593199 0.09090384 -0.042567514 -0.011027686 0.020673035 0.022515161 -0.053833894
0.068089016 0.034694806 -0.103095844 -0.09434898 0.020294348 -0.017323636 -0.07788224 -0.035209764
-0.021277497 0.058741942 0.041519664 0.038077123 0.0018448364 -0.011807893 -0.045215096 -0.004478459
-0.04672016 -0.11178051 -0.054772865 -0.025631242 0.04708859 -0.0029427807 -0.14341652 -0.05918552
0.09661279 -0.0762057 -0.068489894 -0.1534625 -0.09145649 0.030072743 -0.013991664 0.042185344
0.045742966 0.009440627 0.04309656 0.04871529 -0.08818295 -0.0828895 0.068813555 -0.05932829
-0.08403807 -0.073980376 0.020267878 -0.08834147 0.023816636 -0.009685471 -0.105431564 -0.11811335
0.045812506 0.053934585 0.027585682 -0.01769532 0.024980687 0.044177752 -0.052754886 -0.022260202
-0.022431558 -0.003750731 -0.05592351 -0.030148244 0.0115303425 -0.025561206 0.02653261 -0.0041677644
-0.04395553 0.07370512 0.081145145 -0.003941802 -0.05727628 -0.085034 0.07001919 0.009368738
0.0044202954 0.07511692 0.0007866871 0.014148572 0.03580887 -0.027407642 0.0900362 -0.09704039
-0.0218607 0.08940213 -0.041684967 0.065972134 -0.07048138 -0.07102426 -0.007817215 0.060637206
-0.06926676 0.03521784 -0.06351853 0.044824984 -0.04384996 0.041380316 -0.047379874 0.10670227
-0.06123742 -0.031585537 -0.022342158 -0.05219388 -0.026488954 -0.1188913 -0.02529081 0.0181888
-0.04559713 -0.0359363 -0.0023046178 -0.09294072 -0.0026292484 0.009099735 0.0240097 0.021313269
-0.008602885 -0.026519695 -0.03204828 0.037378028 -0.067102306 0.0026076061 -0.05023882 -0.051420297
-0.029731821 -0.09359636 -0.05435249 0.14322703 0.016675139 0.0036062496 -0.03402293 -0.023752457
0.20406769 0.13882077 -0.06876555 0.011764638 0.022588149 0.03804157 0.07970018 0.035820987
0.06263446 -0.05867276 -0.07181326 0.0029925131 0.06713805 -0.08000266 -0.18910077 0.0052105654
-0.030554533 -0.08880324 -0.071513474 -0.089668535 0.11383837 0.16435803 -0.032460544 -0.013811065
0.13642786 0.2140567 0.15208952 -0.013452241 -0.08633951 -0.02752197 0.14252149 0.072008744
-0.03689981 -0.03006627 0.067919716 0.0014322952 -0.007071023 -0.016805908 -0.021103576 0.01245206
-0.037784137 0.030232742 0.04035706 -0.094881974 -0.117758125 0.12797461 0.013876956 -0.008300694
-0.03878182 0.05653341 0.19606434 0.091199875 -0.098395064 0.04204707 0.005603398 -0.013170235
0.029927967 -0.046899434 0.023691278 -0.013316797 -0.09847262 -0.012272047 -0.011623645 -0.049135897
-0.077272266 0.03988441 0.018289316 -0.0465735 0.072372824 -0.08553458 -0.022662954 -0.040214434
-0.12557529 -0.0089632915 -0.078564435 0.0580168 -0.07484624 -0.04173864 -0.075053856 0.010772581
0.0025289299 0.006425596 -0.061106104 -0.043371763 0.06512738 -0.09397727 -0.09554984 0.05930312

conv1.bias f4 [4]
00000000: 0a0f c9bd dfe4 68be 758c 8fbd f935 7fbe
-0.098173216 -0.22743557 -0.07009212 -0.24922933

conv2.weight f4 [8, 4, 5, 5, 5]
00000000: e7e6 a83d baef af3c 73d5 523c e388 18bd
00000010: e3a1 e93d 39ca 3abc e489 06bd 757b ffbd
00000020: 867d f9bd 99f0 c9bc 6d01 aabc 5390 28bd
00000030: 3d88 05bd d657 c1bd c6f3 9e3c e2cb 893c
00000040: 150e f4bc 9051 f2ba 797a a13c 1cbc 0b3c
00000050: 612c 32bd cf53 bcbd 4943 50bc a9a1 8fbd
00000060: 8912 dabb a06d 00bd 7048 cbbb 09da 5439
00000070: 0fb4 16bd 2c42 663d 9938 02bd f1b0 ca3a
00000080: f79e a7bc 5297 01bd 4792 34bd 2040 dbbc
00000090: 88e9 123c 57ad d23d 890b 083d 5bc8 c73c
000000a0: dc16 4ebd 165b 433d c2e7 4c3d 7340 bf3d
000000b0: d51e 003d aa90 34bd 02de 693c b04d 833c
000000c0: 0ef2 86bc c56a b7bc 990b 20bd 860c 733d
000000d0: 4a14 963c ede0 b43c 085e e9bc 3f78 92bd
000000e0: 2f49 59bc 49f6 26bd f989 5d3c 11a9 eebc
000000f0: 06f3 2dbd 003d 283d 539b c13c 2660 a43d
00000100: abc6 ae3d 5732 003d 3a81 1c3b ea38 373d
00000110: e1b5 223d 41b3 c13d 0db9 2639 bbef 723d
00000120: 3b53 78bb d74f 5dbc 5192 85bd b5a0 763b
00000130: 4d78 2cbb 8f18 2abd 1815 c73c 5d38 0abd
00000140: 61a1 393c 33d2 5038 5a9b 30bd 4ef8 4dbd
00000150: 0415 b43b 8163 84ba d628 40bd dae2 d0bd
00000160: 02eb b3bc f275 7e3d 2c41 423d c197 823d
00000170: 7dd1 1dbc 614e 18bc 6710 8c3d 811c 3bbd
00000180: 999b 5f3d 6d83 09bb cc2c 13bd 4dd1 76bd
00000190: e9e8 8a3d aab5 8b3b f91c 42bd 2f38 fc3c
000001a0: c17a 74bd 206a e53d 6e58 2c3d cab0 15bd
000001b0: 5a47 943b df37 973c 9a0f 993d 1fd7 b4bb
000001c0: e973 903b cfa0 d73c 189d 523d f50a 80bc
000001d0: 23c1 863d afad b7bc a232 5abc bc8f 243d
000001e0: 0f4c b2bc e2eb a13c 8db9 5e3b c49a e9bc
000001f0: 9f88 f4bb d02b a63d 2d49 9e3d 50c9 f43d
00000200: 1d9b 4c3e 19ed 1e3c 4c17 aaba 5025 763d
00000210: f55f 293e ebbb da3d 2070 75bd 3c6c 2dbb
00000220: 2c31 12bd 21b3 0c3d 2261 de3c e3da 10bd
00000230: 803d f43a 4736 04bd 076b 52ba 1030 103c
00000240: 3942 aa3d c827 cd3b 1ebb 903d b1ec a03c
00000250: 1fdc 9b3b 8478 5ebd fb13 a73c 308a 763c
00000260: c612 ff3c 8ac4 203d d0ba 78bd c604 91bc
00000270: cdb0 b3bc 7c00 e93b 970e 60bc 1895 9dbd
00000280: 5f0c 563d 09d5 12bd f8fa 113d 43c3 2d3d
00000290: 6941 4c3b a540 02bd 0852 133d b59d b03c
000002a0: 7eb2 973c 2dfd b73d 0e3a beba 1719 07ba
000002b0: a9aa 213d da3f 913d 94b0 01bd ed91 aebd
000002c0: 4200 963a 95ef 013d 20d2 863d 66ae 163c
000002d0: 2df1 51bd aac7 60bd 6572 20bd 4693 94bc
000002e0: b78f 843c 8404 8239 a38f 44bd c060 33bc
000002f0: f4cd 9a3c b5d9 9a3d 8c6c 683d 78ab 5b3d
00000300: 9c3e 3e3c 7126 993d ac62 a83d 9979 413b
00000310: a791 b43c 4686 0cbb 2587 7c3d 616b 363d
00000320: ddf4 c5bd f749 79bc ef46 09bc 0565 d8bc
00000330: 9683 153d 20ac e0bd c672 e0bc 848b 4a3b
00000340: 8c8b b0bc 2b8b 323d b07b 2abd 07d7 95ba
00000350: e0e2 783d 37c7 273d 5125 9a3c d55e 5c3d
00000360: 6d75 4c3d a9ea 913d 31ac 193d 8ea7 273d
00000370: 2513 7abd c3ad 953c 5f1f 293d ca4f 85bc
00000380: 8d8a 183d b1eb b2bc 2b2f 21bd 1cf9 02bd
00000390: fe1c 2dbc 411a d23c 0bc6 efbd ed4c a83a
000003a0: e8db 3a3d 29d9 f43b 12fb 3e3c fca1 e6bc
000003b0: 8ab8 86bb 8816 583d 13e3 e0bc 551f 34bd
000003c0: 568e bd3a b9e1 763c 62d6 3e3d 789d f93c
000003d0: 6a1d 47bc 9836 a4bd 4ac5 3ebd 7fb4 783c
000003e0: 7923 093d 839d 3eba 2869 25bd 3098 3abc
000003f0: c6e9 90bd b2f8 31bd 89ea 543d d2f6 863c
0.08247166 0.021476615 0.012868273 -0.03723992 0.114078306 -0.011400753 -0.032846346 -0.124747194
-0.12182145 -0.024650859 -0.020752633 -0.041153263 -0.03260063 -0.094405815 0.01940335 0.016820852
-0.029791871 -0.0018487442 0.01971172 0.0085287355 -0.043499354 -0.09195673 -0.0127113545 -0.07013256
-0.0066550416 -0.031354547 -0.0062037036 0.0002029912 -0.03679281 0.05621545 -0.031792257 0.001546411
-0.020461543 -0.03163845 -0.044084813 -0.026763976 0.008966811 0.10286968 0.033214126 0.02438753
-0.05031477 0.04769429 0.05002571 0.093384646 0.031279404 -0.044083275 0.014274122 0.016028255
-0.016472843 -0.022389779 -0.03907356 0.059338115 0.018320221 0.02207991 -0.02848722 -0.07151841
-0.013262077 -0.04076222 0.013521665 -0.029133352 -0.042468093 0.0410738 0.023633635 0.08026151
0.08533987 0.031298008 0.0023880736 0.04473201 0.039724234 0.09458018 0.0001589993 0.059310656
-0.0037891406 -0.013507805 -0.06522048 0.003763241 -0.0026316822 -0.041527327 0.02430205 -0.03374516
0.01132998 4.9786828e-05 -0.043116905 -0.05028563 0.0054956693 -0.0010100455 -0.046913944 -0.101995185
-0.021962646 0.0621242 0.047425434 0.06376601 -0.009632465 -0.009296031 0.06839066 -0.04568148
0.05459175 -0.0020982877 -0.035931394 -0.0602582 0.06782705 0.0042635994 -0.04739091 0.03078851
-0.05968738 0.11201882 0.04207652 -0.036545552 0.0045251073 0.018459259 0.07473679 -0.0055188085
0.004408349 0.026321797 0.051419348 -0.015630225 0.06579807 -0.022421686 -0.013317736 0.04017614
-0.021764783 0.019765798 0.0033985109 -0.02851618 -0.0074625756 0.08113825 0.07728801 0.1195246
0.19981046 0.009700083 -0.0012976914 0.060094178 0.16540511 0.10680374 -0.059921384 -0.0026462218
-0.035691425 0.034350518 0.027145926 -0.035364997 0.0018634051 -0.032278325 -0.00080268126 0.0088005215
0.08313412 0.006260846 0.0706694 0.019644113 0.004756465 -0.05431415 0.02039527 0.015047595
0.031136882 0.039249934 -0.060725033 -0.017702471 -0.021934891 0.0071106534 -0.0136753535 -0.07694453
0.05225789 -0.035847697 0.035639733 0.042422544 0.0031166917 -0.03179993 0.035966903 0.021559576
0.018517729 0.08983836 -0.0014513151 -0.000515358 0.039469395 0.07092257 -0.03166254 -0.08523927
0.0011444169 0.031722624 0.06583047 0.009196853 -0.051255394 -0.054877914 -0.039171595 -0.018136632
0.01618181 0.00024798897 -0.047988545 -0.01094836 0.018897034 0.075610556 0.056744143 0.053630322
0.011611607 0.07478035 0.08221945 0.002952194 0.022042109 -0.0021442338 0.06165232 0.044536
-0.096658446 -0.0152153885 -0.008378728 -0.026415357 0.036502443 -0.1097033 -0.027398478 0.0030905912
-0.021550916 0.043589752 -0.041621864 -0.0011431881 0.06076324 0.04096147 0.018816622 0.053801376
0.049916673 0.07124836 0.03751773 0.040931277 -0.061053414 0.018271333 0.041289683 -0.016273398
0.037241507 -0.021840902 -0.039351624 -0.03197585 -0.010565994 0.025647284 -0.117076956 0.0012840308
0.045619875 0.0074721766 0.0116565395 -0.028153412 -0.0041113542 0.052755862 -0.027452027 -0.043975193
0.0014461975 0.015068465 0.04659117 0.030470595 -0.012153009 -0.080182254 -0.04657487 0.015179752
0.033481095 -0.0007271396 -0.040383488 -0.011388823 -0.07075839 -0.043450065 0.051981483 0.016475115

conv2.bias f4 [8]
00000000: b5fa b83d ba7f abbd 656a 84bd 9135 ca3c
00000010: af54 d4bd 10b9 0dbd 19b2 54bd ebca 003c
0.090321936 -0.08373971 -0.06465606 0.024683746 -0.103677146 -0.034600317 -0.05192766 0.007860879

conv3.weight f4 [16, 8, 3, 3, 3]
00000000: b760 37bd 76e5 bbbd 1615 01bb 0bea 1bbd
00000010: 4986 30bd ff33 8cbd 5b19 b53d 68c4 eabd
00000020: 25bc 71bd b9e0 5abd f30a e1bb 053a 973c
00000030: 36c1 6c3c 03a2 0dbd 972e 893c 69ba 0c3c
00000040: 4747 683a e9b8 b5bd ba9f 8bbd 0bbf ac3c
00000050: a079 17bd 098d 843b 39ff d33b e360 9fbd
00000060: 5613 263c 7845 903c c480 9abd 91aa 6c3e
00000070: da10 a2bd ef81 e9bd 1621 bc3d 5163 833d
00000080: 608f 0e3d 8ceb fdbd 3d6a 14bd 4fcc 693d
00000090: 25c2 423e 390a 0dbe 4e66 74bd 7c30 3d3d
000000a0: 08b6 9fbc 66c0 553d a6b5 b2bd e23b 8c3c
000000b0: 481c a23d 503b d43d 1ede 833c 33b8 aa3e
000000c0: c290 763d 1b8a a73d 5d09 903e 6854 c7bd
000000d0: f4a1 af3b fc0d 053e c5d9 b4bd 1242 42bd
000000e0: f21d 86bd e625 85bd db8b 81bb 6a16 31bd
000000f0: ff1d 9abd 5d7e d03d 57ba fe3c f8f7 21bd
00000100: 2322 0cbd fbbf f2bc c80f fcbd bbcf 7e3c
00000110: 2357 17bd e904 b6bb 4496 923d cb41 09bd
00000120: 5a95 a4bc aceb 79bd 6072 fdbc 9804 84bd
00000130: 4079 a4bd c3df 913d a560 86bd 47fe 6fbc
00000140: 5ad8 123d 9dfa 2c3e 4d1b 7c3a 967d 15be
00000150: 9b8c c43d 64e6 d93d 4c1c b73d b693 3dbc
00000160: 75d2 963d dac5 9a3c 6c94 bb3c 67e6 d33c
00000170: 04bd adbc da3e 8a3d 26f4 a13d 1f30 42bd
00000180: 8747 1bbd 7a64 08bb b9dc 2c3d 3cce 243d
00000190: 1d46 4c3c 1c26 7cbd d9e5 4bbc a67a 753d
000001a0: c02a e1bd 2c42 2fbe d3ea 68bd bcab 64bd
000001b0: 4ac0 29be 1f6f 273e c4ad a73d 6c54 a5bd
000001c0: 4328 943b f9ae da3d 7b23 8dbd bceb 64bc
000001d0: 3778 e23d 0d85 88be 795a d23d 0b16 3f3d
000001e0: f63a 6ebe 71bb 50bc 0417 a13d b0de d43c
000001f0: 9349 213d f169 5e3b 2e2a ccbe 4291 87bd
00000200: 7f3e ab3a bc67 72be 6421 94bd 2c1f 013e
00000210: b4fe 9ebc 6122 2abd e63a a03d 2395 ffbd
00000220: 37e4 8dbc dbcd 153d 6127 9bbd a609 b9bc
00000230: 3285 fc3d a2b3 073d 30be 95bd 5944 93bc
00000240: b288 23bd dd33 613c e2e9 86bd 24f0 683b
00000250: 55f7 2ebd 5be8 0fbe e07a a23d 0f17 113d
00000260: 5b3e 95bd a295 02be 576a f9bb 9661 a9bd
00000270: 07e9 5a3d a942 02bd 97c5 a6bd 900b a93e
00000280: 6d8b 4d3e eddb 0fbc d7ed d4bd f15d 24be
00000290: 04d5 81bd d0ae 87be 7697 1fbe 4dc8 aebd
000002a0: b93d 25bc 0ef2 ca3b 6181 cf3d 55b5 2a3d
000002b0: 7cca a7bd 98d1 5c3d c74b c0bd 0df2 c3bd
000002c0: 3a73 c63d 2550 f7bc e79b 843d e61e 983d
000002d0: 9c6f 4a3d 0b7e 7ebd 64ff 1d3c 7f41 f7bd
000002e0: ad71 94bd caf8 a83d 59b4 9d3d 7303 173e
000002f0: 6901 533e 5f1a 89bc d6bb 13be 1c7a 21be
00000300: f7a2 873e 4927 093e 2a4b d43b d9d6 853c
00000310: 15f3 7c3d bbc1 0dbd 3d7a 32bc ce8c 3fbe
00000320: 9277 9dbd 79f3 0a3e 3770 12bd 7682 d2bd
00000330: dd75 86bb 0d23 54bd 781b 0b3d f26a 61bd
00000340: 2677 9e3d 5e4d 733e 0b87 bcbc 6656 d13c
00000350: 63dc 4b3d b5da 55bd ee27 233e 56ea 8e3d
00000360: 4a9a cbbd 0801 9c3c 63a8 ab3c 1b3f c2bd
00000370: a0b1 273a 0f5e 133d 6084 a8bd 084a 2cbd
00000380: 8509 d4bb 230a 4ebd d3d5 2b3c 45c1 a93b
00000390: 8bc6 30bd f524 6f3d d6d8 0c3d ea0d 56bc
000003a0: c1f2 84bc bf4b a2bd d11b fdbd 27a7 dabd
000003b0: 5684 b6bc c124 c4bc 0fa8 b73c 9fe4 d7ba
000003c0: 4364 803d 0e7d 1bbb 6dac 4a3c 65d5 8c3c
000003d0: 34a2 72bd caf8 a7bd b9b0 9abe 2757 4bbc
000003e0: 397d f5bd 37ab 50be c953 4abe 2d38 06be
000003f0: 0e2e 9c3d 0ccf 463e 2759 073e b1a6 973d
-0.04476997 -0.091746256 -0.0019696406 -0.038064998 -0.043096814 -0.06845855 0.08842727 -0.11463243
-0.05901732 -0.05343697 -0.0068677603 0.018460283 0.014450362 -0.034578335 0.016745849 0.0085893655
0.0008860719 -0.088731594 -0.06817575 0.02108719 -0.036981225 0.004045133 0.006469634 -0.077821516
0.010136446 0.01761125 -0.07544091 0.23111941 -0.079133704 -0.11401736 0.09185998 0.064154275
0.0348047 -0.123984426 -0.03623413 0.05707961 0.19019373 -0.13773431 -0.059667878 0.046188816
-0.019495979 0.05218544 -0.08726053 0.017118398 0.079155505 0.103628755 0.016097125 0.33343658
0.060196646 0.081806384 0.28132144 -0.09732896 0.0053598825 0.12993616 -0.08830599 -0.04742629
-0.0654868 -0.06501369 -0.0039534396 -0.043234266 -0.075252526 0.10180352 0.031094713 -0.039543122
-0.034212243 -0.029632559 -0.123076975 0.0155524565 -0.036948334 -0.0055547846 0.07157567 -0.03351001
-0.020090748 -0.06101577 -0.030938327 -0.06446189 -0.08030939 0.07122757 -0.06561402 -0.014648027
0.03585086 0.16892476 0.0009617105 -0.14598688 0.09597131 0.10639647 0.08940944 -0.011570862
0.0736436 0.018893171 0.022897922 0.0258667 -0.021208294 0.06750269 0.07907896 -0.047409173
-0.03791001 -0.0020811842 0.042202685 0.040235743 0.012467888 -0.06155978 -0.012444937 0.05993142
-0.10994482 -0.17115086 -0.05686457 -0.05582784 -0.16577259 0.16350983 0.0818744 -0.08072743
0.004521401 0.10677905 -0.06891533 -0.013972219 0.110580854 -0.2666401 0.102711625 0.04665188
-0.2326468 -0.012740002 0.07865718 0.025985092 0.039376806 0.0033937658 -0.3987593 -0.066195026
0.001306489 -0.23672384 -0.07232931 0.12609547 -0.019408561 -0.041536693 0.07823734 -0.124796174
-0.017320735 0.036573272 -0.0757587 -0.022587609 0.123300925 0.033130296 -0.07311666 -0.017976927
-0.039925285 0.013745275 -0.06587578 0.0035543526 -0.042716343 -0.1405348 0.07933593 0.03542238
-0.07287284 -0.12752393 -0.0076115537 -0.08270566 0.05344489 -0.031801853 -0.08143156 0.33016634
0.20072718 -0.008780462 -0.10396927 -0.16051461 -0.06339458 -0.2650056 -0.15585122 -0.08534298
-0.010085517 0.006193406 0.10132099 0.041676838 -0.08192918 0.05391082 -0.093894534 -0.09567652
0.096899465 -0.030189583 0.064750485 0.074277684 0.049422845 -0.062131923 0.009643409 -0.12073039
-0.072482444 0.08250578 0.07700414 0.1474741 0.20606007 -0.016736208 -0.14427122 -0.15769237
0.2649152 0.13393892 0.006478687 0.016337799 0.06175526 -0.034608584 -0.010893402 -0.18706056
-0.07688822 0.1356944 -0.035751548 -0.1027879 -0.004103406 -0.05179124 0.033961743 -0.05503363
0.077375695 0.23759982 -0.023013612 0.025553893 0.049770724 -0.05221053 0.159332 0.0697829
-0.09941538 0.01904346 0.020954316 -0.09484693 0.00063970126 0.035978373 -0.082283735 -0.04206279
-0.0064708614 -0.050302636 0.010487991 0.00518051 -0.043158095 0.058384854 0.03438648 -0.013064841
-0.016229035 -0.07924604 -0.12358821 -0.10676413 -0.0222799 -0.023943307 0.022419004 -0.0016471333
0.062691234 -0.0023725661 0.012370211 0.017191598 -0.05923672 -0.082017496 -0.30212954 -0.012410915
-0.11986775 -0.20377813 -0.19758524 -0.13107367 0.07625972 0.1941492 0.13217603 0.07404841

conv3.bias f4 [16]
00000000: 3bd6 c23c 97bf 62bc e491 753d d190 053d
00000010: 059c dfbb 0f29 69bd bf74 653c a2ad cb3b
00000020: 45f0 d03c 9a8a 5c3d 8c9e 83bc 35ed 2bbc
00000030: 62ad 29bc 8367 a73c 2770 d7bb d2ac 39bd
0.023783794 -0.013839624 0.059953585 0.03260881 -0.006824019 -0.056923922 0.014004885 0.006215767
0.025505194 0.05384312 -0.016066812 -0.010493566 -0.010356279 0.0204351 -0.006574649 -0.04533083

conv4.weight f4 [32, 16, 3, 3, 3]
00000000: 534b 94bc 003a 1ebd ab69 cbbc 3a1f 6ebd
00000010: eced 0ebd 3cee 18bd bbdf d9bc 68a6 6dbd
00000020: 0db0 94bd 212e 173c ce2a f8bc 16c2 0b3d
00000030: edd0 44bc 05f6 90bc 4d38 643b 9178 a1bd
00000040: 786c 3ebd 2326 65bd 59e0 00bd 3789 613c
00000050: a5a1 f03b 958e babd 29a6 5d3c 2086 633d
00000060: d5be e9bd 08da b5bd b4b2 b8bc 76f7 ba3d
00000070: dd4c 133e d117 113d 480b 223c dfb4 1d3d
00000080: 1d85 cdbc 2440 20bd a19a 3bbd 5d25 813d
00000090: 1568 1f3e 99dc f13d b58c abbc f86a 873d
000000a0: 9720 3c3d a7c7 a5bd 86c8 a63d 321d 693c
000000b0: 28bb 81bc 0a26 1c3d 169c 4a3d a149 45bd
000000c0: b8fd a73d 5f25 5a3d ce7d a2bd d494 2abd
000000d0: 1df9 82bd 52d9 a5bd ba12 383c 99f3 a73d
000000e0: 7e70 a23d 8687 46bc ac21 803d 45bb 703d
000000f0: 5228 1fbd 3837 42bb f55a 563c a8d9 8abd
00000100: 00ed 09bd 4609 ac3c 9311 1bbc 7ce5 0e3a
00000110: 6461 653d ca74 ac3c 98c6 f0bc ae38 743c
00000120: e5be 9fbc 5736 a4bd 8c8c 14bd f654 593d
00000130: dc21 2d3d 4938 42bc 599f 0f3c bfc3 c73c
00000140: d2d3 ea3c e0be a03b 9ed6 923d 39c1 c2bd
00000150: d782 f93c 7293 4f3d 0bbe eebd b9e9 79bd
00000160: 1464 28bd 81cf 09be 8f4c c0bc c39f f7bc
00000170: 89e9 c1bd f472 d93c 6de3 6b3c eb9c a7bb
00000180: d5e5 753c ec39 af3d 9fe2 fb3c 2cf9 45bd
00000190: db9d 78bd 55cd 49be 5191 fdbc 6542 c6bc
000001a0: 4239 09bd 9f21 363e e79e bc3d 3087 783d
000001b0: c5bc 1fbd fe1d 11be e932 fd3b e768 cbbd
000001c0: cfbf 26bc a11f 813c 9b34 fb3d 4d2d 973d
000001d0: 2436 003d d0ad fe3d b4c8 b6bd e803 143c
000001e0: 6503 88bd b022 c0bd 2170 173d 7940 4ebd
000001f0: b76b 62bc 2a2e 103d 2dd5 ec3d 4b01 21be
00000200: 84c8 b2bd fdac eebc 7c51 0bbe 296a e6bb
00000210: d988 8d3d 73b6 65bb 1aca 8a3d 01e0 ed3d
00000220: d0aa 303d 5f6c 0f3c 64e0 dd3c e6dd 46bd
00000230: 3d20 5abc 91a3 27bd 640f 543d d1c0 f93d
00000240: 7b80 15bd 6838 833c 73cd ecbc 1fde 08be
00000250: 51d7 eabd 7f7f 58be 27b6 2fbe 1194 3abe
00000260: e0a1 81bd 53f2 dabc a374 bc3d 52f7 633d
00000270: fd8f 443d e277 443d b055 21be 4352 0d3d
00000280: 563c 75bd 8c16 18be 9828 6b3d 9899 0e3e
00000290: 7153 223b 133f 7c3c 64e7 b73d 6dfa f9bc
000002a0: b8e2 1fbd d501 25bd 5e8e 753c 7c59 473d
000002b0: 5e26 283d 8286 15bd 1da4 763c d6a8 af3c
000002c0: 5b7a 72bd 17ef a4bd 8fa6 c6bd 18d0 71bd
000002d0: bd5a 343d 9d79 81bc 2ca3 b1bc 8560 29bd
000002e0: ba68 f1bb 6ff2 033d ffa5 a23c 15e7 783d
000002f0: 8302 943d ce20 193d c538 593d 1f46 113d
00000300: 8ee2 80bc 7ba1 c0bb 8f84 f8ba 01c3 5fbd
00000310: 8da4 86bd e92f ffbc de24 363c bc4d ae3d
00000320: 6480 41bd 6018 ffbc dbda 49bc be52 0b3d
00000330: 3226 753d 0d8b ec3c 316a 963d d109 41bd
00000340: 325a 973c 6ba2 54bd 2612 393d cef9 d83c
00000350: 427c 043d 6501 7e3d f5bc 133d 0734 5f3d
00000360: 5962 44bd daf1 54bd 12d7 76bd 4688 af3c
00000370: a21a 1e3d baa0 983c e47c 1e3b 9739 ac39
00000380: e31d a1bc d083 0fbd 8b5e 39bd 52f7 c5bd
00000390: 2dab 583d 85e2 1f3d c733 2cbd bb4c c1bb
000003a0: d9cd 543c 91b9 bdbc 59a7 2dbd fd9d 98bd
000003b0: dbfe 77bd 86aa 03bc 1041 7a3c 25b7 ac3b
000003c0: 0046 43bd 2f93 5b3c 0db9 c23c 2e35 903c
000003d0: a1ac 9abc 7831 6ebd ae0d f6bc dd0b 92bd
000003e0: d63a acbd ff26 d2bd 2b2d 16bd 828c 4f3d
000003f0: fe2c 1e3d b15c 3bbd 5e91 5abd 7d5e b6bb
-0.018102324 -0.03862953 -0.02483066 -0.05813525 -0.03489487 -0.037336573 -0.02659594 -0.058020025
-0.072601415 0.009227307 -0.030293848 0.03412064 -0.012012702 -0.017695436 0.0034823597 -0.07884324
-0.046490163 -0.055944573 -0.031463955 0.013765625 0.0073434883 -0.091092266 0.013528385 0.055547833
-0.114133514 -0.08879477 -0.02254615 0.09129231 0.1438479 0.035423104 0.009890385 0.03850257
-0.025087887 -0.03912367 -0.045801762 0.063059546 0.15567048 0.11809654 -0.020941118 0.066121995
0.045929518 -0.08094721 0.081437156 0.014228152 -0.015836313 0.038122214 0.04946526 -0.04816592
0.0820269 0.053258296 -0.079341516 -0.04164584 -0.06395171 -0.08098091 0.0112349335 0.082007594
0.079316124 -0.012117272 0.062564224 0.058772344 -0.03885681 -0.0029634964 0.013083209 -0.06779796
-0.033673286 0.021000516 -0.009464639 0.0005451066 0.056001082 0.021051783 -0.029391572 0.014906092
-0.019500205 -0.08018177 -0.03626685 0.05305954 0.04226862 -0.01185424 0.008766019 0.024385331
0.028665457 0.0049055666 0.07169841 -0.095095105 0.030457897 0.050677724 -0.116573416 -0.06101391
-0.041111067 -0.13458063 -0.023474006 -0.030227548 -0.094683714 0.026544072 0.014397484 -0.0051151416
0.0150084095 0.085559696 0.03074771 -0.048333332 -0.060697418 -0.19707234 -0.030953081 -0.024201581
-0.03350187 0.17786263 0.09209996 0.0606758 -0.038998384 -0.14171597 0.007727016 -0.09932118
-0.010177567 0.015762152 0.12265893 0.07381687 0.031301633 0.12435496 -0.08925 0.009034134
-0.066412725 -0.09381616 0.03697217 -0.050354455 -0.0138196265 0.035200275 0.115640976 -0.1572315
-0.087296516 -0.029135222 -0.13605303 -0.0070316982 0.06910867 -0.0035051375 0.06776829 0.11614991
0.04313165 0.008753865 0.027084537 -0.048551463 -0.01331335 -0.040927473 0.05177249 0.1219498
-0.03649948 0.016018108 -0.02890656 -0.13365982 -0.114668496 -0.21142386 -0.1715933 -0.18220545
-0.06329703 -0.026726877 0.09201934 0.055655785 0.04798888 0.04796589 -0.15755343 0.03450228
-0.059871994 -0.14852351 0.05741176 0.13925779 0.0024768973 0.015395897 0.08979681 -0.03051492
-0.039034575 -0.04028495 0.014987556 0.048669323 0.041052215 -0.03650523 0.015053776 0.021442812
-0.05919872 -0.08053415 -0.09699737 -0.059036344 0.044031847 -0.01580506 -0.021684252 -0.041351814
-0.0073672207 0.032213625 0.019854544 0.060767252 0.072270416 0.0373848 0.053032655 0.035467263
-0.01573303 -0.005878625 -0.0018960404 -0.05462933 -0.06574354 -0.031150775 0.011117188 0.085109204
-0.047241583 -0.031139553 -0.012320246 0.034014456 0.05985088 0.028874898 0.07344473 -0.047128502
0.018475626 -0.051912706 0.045183323 0.026486304 0.032345064 0.06201305 0.036068875 0.054492977
-0.047945354 -0.05198846 -0.0602637 0.021427285 0.038599618 0.018631328 0.0024183327 0.00032849304
-0.019667571 -0.035037816 -0.04525618 -0.09666313 0.05289762 0.039034385 -0.042041566 -0.0058990396
0.012988531 -0.023159774 -0.042395923 -0.07452009 -0.060545783 -0.008036261 0.015274301 0.005270856
-0.04767418 0.0134017905 0.02376988 0.017603483 -0.018881144 -0.058152646 -0.03003582 -0.07131169
-0.084096596 -0.10261344 -0.03666417 0.050671108 0.038617127 -0.045742694 -0.05336129 -0.005565463

conv4.bias f4 [32]
00000000: b69f 64bd 5683 ef3c 0e04 853c 8b6c 9fbd
00000010: b918 5dbc eb16 093c e71e 1b3c ff9c 5bbc
00000020: 0c20 afbd ee75 28bc c56b 533c 1b9c 59bd
00000030: 0419 49bd 0d99 d0bc f46e 433d 497a 8bbd
00000040: 02c3 0f3d 26d2 87bd a520 56bd 2c32 3cbc
00000050: a44a 013b dc50 cc3c fd41 7cbd c722 45bd
00000060: 86ab f53c 9c12 213d 4ea3 e7bc 4699 3cbc
00000070: b59e 363d 5718 393d 9ef4 cb3c f33c a73b
-0.055816375 0.02923743 0.016237285 -0.07784375 -0.013494664 0.0083672805 0.009467817 -0.01340413
-0.08551034 -0.010282023 0.012904112 -0.05312739 -0.049096122 -0.025463605 0.047713235 -0.068104334
0.035098083 -0.066318795 -0.052277226 -0.011486571 0.0019728327 0.0249409 -0.06158637 -0.04812887
0.029989015 0.039324388 -0.028276112 -0.011511153 0.04458495 0.045189228 0.024896916 0.0051037013

conv5.weight f4 [64, 32, 2, 2, 2]
00000000: 996f b1bd a75c c0bd 6ee5 4a3b 3ab9 703d
00000010: dbe4 33be 3f21 a6bd aa01 5d3c 77c4 693b
00000020: 89a6 f5bb 7dec 0dbd ff18 6f3d 1764 03bd
00000030: be8e 233d 5b90 59bb 274d 623d 9b6b d43c
00000040: 2fdf 8fbc c550 01bd 66b1 fb3d b63e 1c3d
00000050: ac03 d2bc 95bb b3bd 74ba f63d 24d7 30bc
00000060: cf87 0abd 8204 c03c ce15 8f3d b8dd 02bc
00000070: 3e04 93bd e787 a6bc dc31 71bd 4bfe 113d
00000080: a924 09be 49d5 36be 78b7 9a3d a1d2 83bd
00000090: a40c fdbd 581c 0bbe ad96 843b 96f6 fd3c
000000a0: afc8 643d 0799 253c 2e98 2e3d 794e c0bd
000000b0: dea3 55bd 1a59 cbbc bdfb 9bbb 04b1 09be
000000c0: 2801 30be fe5d 9ebd 2f21 38bd 189c c4ba
000000d0: b795 323c 2913 253e 106d 0c3e 318c 703e
000000e0: 4c63 0b3e 0841 173d 310d 073e 578f 133e
000000f0: b38d 7a3d a0da 283e ffbc 9f3d 7f8f cd3d
00000100: 73fb 9e3d a6a6 893d 888c 553d 3070 65bd
00000110: f4ad 0c3d e495 b6bd 6495 c63a 8977 fe3c
00000120: 9428 113e 6d90 053e 6f83 9cbd 0732 aa3c
00000130: 7c85 723e 8be9 fe3d 6e12 3abe b96e 823d
00000140: c90d e23d e3c1 db3d f8d5 bc3d 2736 143c
00000150: 0a78 4a3d 37c5 7b3d eca2 053e 8580 9c3a
00000160: a66f 9ebd 3849 82bc 2694 08bd 226e afbd
00000170: 609d cfbd b0f9 c3bd d15f febc 7723 c6bd
00000180: 63c7 80bd 05be 44bc e756 38bc b85e 6dbc
00000190: ece4 0fbd 36b9 113d 1b24 3dbc 9d8c 27bd
000001a0: 8b64 ddbc 818e d23a e0c5 e83d 76ca 3b3d
000001b0: 25cf 90bd 6e85 e2bd fc61 663d db5c 8cbd
000001c0: 943b b1be bed4 ecb9 9dda 8f3e 7d45 c33e
000001d0: decb e7be a8af 0ebc 3dc1 173e 1341 aa3e
000001e0: b73b 87bc 3757 7c3c b208 733d ca20 07bd
000001f0: 9e96 4b3c 7d6e 6b3d 40ea 44bd d452 0c3d
00000200: ff3c 9c3d 349e ea3c 4767 c6bc 606a 48bb
00000210: c8f4 5f3d ae1d 8a3d 9a9b 08bb faca bebd
00000220: c61e 21bd 3160 d83c ffd3 0abd 1045 4cbd
00000230: 832a 31bd 51b5 6b3d d6e8 0b3d 8375 ed3c
00000240: 51bd 413d 4fd1 05bd 7e25 89bd dd77 52bd
00000250: 4f04 9bbd ddc7 6abd a77e d7bd 2c86 513c
00000260: c17c 463e 320f 11be ef56 053e 8672 fd3d
00000270: 25fe 993d ce63 debd 1050 173e 2269 763d
00000280: ed8b c6bd d788 71bd 5d2c 283d 6fed 9d3d
00000290: 96d6 c7bd 2fa4 01bd fa94 fe3c 72b5 803c
000002a0: 3da2 1e3e 19e7 c8bd 44c3 4e3e 6444 a13c
000002b0: ee6a cc3d 9aec cf3c 1d6b 05be 00e1 82be
000002c0: 3492 7e3d d37c b3bc 0c10 8ebd a88b 2cbd
000002d0: 3f90 36bc a7bf cd3d 7cab 8abd c42a bbbc
000002e0: 94f0 80bc f962 79bb 309e 62bd df7b 6cbd
000002f0: a65f b43c 3bdf 5a3d 8716 01bc c64c 87bd
00000300: 4439 1cbc 02cf c9bd edb8 c2bd bd0a d4bd
00000310: b656 cf3c a69b 88bd 2a5a d1bd 76f7 eebd
00000320: 197e d5bd 59c3 ccbd aade 9b3c 95fd 89be
00000330: 74b2 293d 7b37 893d 87c1 9abd 1ffe 5ebe
00000340: 02ba b1bc 1a54 733c a1ea ef3d 2239 da3d
00000350: ab2a cdbc b5a9 96bd d288 96bb 9e34 24bc
00000360: ed1e 4b3b 8015 4dbd fd27 473d d027 8abd
00000370: fd17 05be 5a5e 60bd f13f 97bd f67d 473d
00000380: 51fb c23d c956 293d 7110 f53d 5f37 223e
00000390: 51ae dd3d 2614 f53d 32cc 983d 864f 1f3d
000003a0: 8558 7cbc bb1d 1f3e 4205 ae3e e47f 0d3f
000003b0: 2ab8 b0bd fb93 ee3d 0ee5 423e 83ff d43e
000003c0: 7ead 4dbc 5eed 05be 428c 2abd 7a6d 03be
000003d0: f1d1 b23c b5cc a5bd 532d ad3d b155 cfbc
000003e0: cb6d 8dbd ed15 333d 2ed4 a9be 3256 4dbe
000003f0: 2f15 e13b fd3a 6f3d b837 7cbe 709d 36be
-0.08663864 -0.09392672 0.0030959505 0.058770396 -0.1756777 -0.0811181 0.013489166 0.003567008
-0.007496659 -0.03464936 0.058373448 -0.032077875 0.03993105 -0.0033197615 0.05524936 0.025930217
-0.017562477 -0.03157117 0.122896954 0.038145743 -0.025636517 -0.08776013 0.12047282 -0.010793481
-0.033820923 0.02343965 0.06986581 -0.007987432 -0.071785435 -0.020328475 -0.05888544 0.035642903
-0.13392891 -0.178548 0.07554525 -0.06436659 -0.12355927 -0.13585031 0.0040462823 0.03100137
0.05585545 0.010107285 0.0426256 -0.093899675 -0.05215823 -0.02482276 -0.004760234 -0.13446432
-0.17187941 -0.07732771 -0.04495352 -0.0015000133 0.010899953 0.1612059 0.13713479 0.23490979
0.13612098 0.036927253 0.13188626 0.14410149 0.06117029 0.16489649 0.0779972 0.10037135
0.07762804 0.06721239 0.052135974 -0.056015193 0.034345582 -0.08915308 0.0015150723 0.031062858
0.14175636 0.13043375 -0.076422565 0.020775808 0.23683733 0.124468885 -0.18171093 0.06368775
0.110377856 0.1073034 0.09220499 0.009046114 0.049430884 0.061467376 0.13050431 0.0011940157
-0.07736139 -0.015904054 -0.03334441 -0.08565928 -0.10137439 -0.095691085 -0.031051548 -0.09674733
-0.0628803 -0.012008195 -0.011251188 -0.014487915 -0.035130426 0.03557702 -0.011544253 -0.040905584
-0.027025482 0.0016064198 0.11365867 0.04584738 -0.0707076 -0.11060606 0.05624579 -0.06853648
-0.34615767 -0.00045171933 0.28096476 0.38138953 -0.45272726 -0.008708872 0.14819808 0.33252773
-0.016507966 0.015401653 0.059334464 -0.032990254 0.012426047 0.057478417 -0.04807496 0.03425868
0.076288216 0.02863989 -0.024219168 -0.0030580983 0.0546768 0.06743942 -0.00208447 -0.093160585
-0.03933599 0.026413055 -0.03389358 -0.04987055 -0.043253433 0.057545964 0.034157597 0.028986698
0.047299687 -0.032670315 -0.06696604 -0.05138384 -0.07569181 -0.05731951 -0.10522204 0.012788337
0.19383527 -0.14165953 0.13021444 0.12375359 0.07519177 -0.1085888 0.14776635 0.060158856
-0.096946575 -0.05896839 0.041057933 0.077113025 -0.09757726 -0.03165072 0.031076897 0.01571152
0.15491576 -0.098097034 0.20191675 0.019685932 0.09981333 0.025381375 -0.13029142 -0.25562286
0.06215115 -0.021910107 -0.069366544 -0.042125374 -0.011142789 0.100463204 -0.06770989 -0.02284754
-0.015739717 -0.0038053377 -0.05532664 -0.05773532 0.022018265 0.053435545 -0.007878906 -0.0660644
-0.009535138 -0.09853937 -0.09507928 -0.10353611 0.025309902 -0.066703126 -0.102222756 -0.11668293
-0.10424442 -0.09998197 0.019027073 -0.2695128 0.04142995 0.06700035 -0.07556444 -0.21776627
-0.02169514 0.014851594 0.11714674 0.106554285 -0.02504476 -0.07356588 -0.004593947 -0.010022311
0.0030993775 -0.050069332 0.04862212 -0.06745875 -0.12997432 -0.05477748 -0.07385243 0.04870411
0.09520591 0.04134253 0.119660266 0.15841435 0.10824264 0.11966734 0.07460822 0.0388942
-0.015401964 0.15538685 0.33988386 0.5527327 -0.086288765 0.11649319 0.1903269 0.4160119
-0.012553571 -0.1307883 -0.041637667 -0.1283473 0.021828623 -0.080956854 0.084559105 -0.025309416
-0.06905707 0.043722082 -0.33169693 -0.20052412 0.0068689804 0.058405865 -0.2463063 -0.17833495

conv5.bias f4 [64]
00000000: 150e b43c 5980 843d 8030 ce3c 6aef 2c3d
00000010: 4e77 2cbd 9b22 8bbd 4c09 45ba 2878 813d
00000020: 11ec febb 495c aebd be9d 403d d4ab b0bc
00000030: 413f 74bc aaee 8abc 47eb 03bc 6d7d 81bd
00000040: aa66 90bc 820d 20bd fb70 f9bc 336f 1bbc
00000050: 9d80 84bc 5e5b 90bc ed6f 00bd f21d 433d
00000060: c904 84bd dc39 87bc 239f 533d eccc 443c
00000070: 6015 a3bd 32d3 e33b d8bd 7ebb 54a4 fb3c
00000080: d599 443d be5f 44bd 2c91 38bc 2385 7cbc
00000090: cab4 0dbd 789b 5dba f5ce a5bd c2c3 ba3c
000000a0: ffd2 85bd 388c 9abc c7b6 e1bc fdc2 8bbc
000000b0: e998 f03c 89ce c63a d9da 87bd 0622 01bd
000000c0: 2294 3abd 44a5 4e3b cede 97bc 5de7 773c
000000d0: ddc7 4fbd 2b3b 8abd a5fa 99bd 2cf2 5a3d
000000e0: fb88 a1bc 7ba2 65bd 55a5 37bd 2e34 0fbd
000000f0: 8ebc c33d 0e6a 7dbd e8db 2ebd 8373 8bbc
0.021979371 0.06469793 0.025169611 0.04222051 -0.042105965 -0.0679371 -0.0007516339 0.06321746
-0.007779606 -0.08513696 0.047025435 -0.021566309 -0.014907659 -0.016959507 -0.0080517 -0.06322751
-0.017627079 -0.039075382 -0.030449381 -0.009486961 -0.016174609 -0.017621692 -0.03135674 0.04763598
-0.06446225 -0.016507082 0.051665436 0.012011748 -0.07963061 0.0069526667 -0.003887048 0.030718006
0.04799827 -0.04794287 -0.01126508 -0.015412602 -0.034596242 -0.00084536476 -0.080961145 0.022798423
-0.06534385 -0.01886569 -0.027552975 -0.017060751 0.029369788 0.0015167753 -0.06633539 -0.031526588
-0.045551427 0.0031531611 -0.018538859 0.015130845 -0.050727714 -0.06749567 -0.0751851 0.05345361
-0.019718638 -0.056063157 -0.044835407 -0.03496187 0.09557448 -0.06186872 -0.042690188 -0.017022854

linear1.weight f4 [128, 512]
00000000: 11c2 e1bd 5d5e edba d2b8 d13d a1dc 303e
00000010: e831 b8bd 7fae 033d b996 633d 1c59 1f3e
00000020: dd3d 553e a7ce 123e 6ecd 343e a460 d63d
00000030: c452 753d 9e19 873d aefe 253e dce5 1b3e
00000040: 32d3 973b 637f 463c 1a69 8f3c e830 c63d
00000050: 26c2 68bd 5c58 23bc 1ebb b3bb af82 8d3c
00000060: f2a0 10bd c71b ecbc c36c 6ebe e22f 3dbe
00000070: 4b76 25be babc 0dbe 4e87 77be 494a 3bbe
00000080: e43c 22bd 315f 8cbe 2a29 543c 2d17 88be
00000090: dded e9bd 4ce6 4fbe 27b8 273c 17ab 27be
000000a0: e417 cdbb 7529 f63d aa77 aa3d b2ce e13d
000000b0: d3fa 093e ed24 3f3e 81ad a53d a905 043e
000000c0: 51a5 24bd 0742 6bbd ff7a fd3c de23 1c3c
000000d0: 1baa 9fbc 2285 83bc aa1b 26bc fed7 043d
000000e0: 04a9 333e 9c2b 9b3e 2415 1e3e c4ec 843e
000000f0: ee87 243e 9303 353e 5a30 dd3d 085e 103e
00000100: 2a07 a63d bd7e 8c3d 0184 b13c d8c4 3c3d
00000110: d47c 1bbc 3d1f 593d 46aa 24bd 44cc 5dbc
00000120: bfc8 823c 250e b23c a1c5 31bd 3ef4 013d
00000130: 9b0e 073b fe99 5b3b 514e 243d 9c88 383c
00000140: fe20 a2bc c02d 48be ed98 963c 9ad4 e2bd
00000150: 6521 843d 1aec 46bb 37a4 303e 0305 e13c
00000160: 508f d43b 7244 b8ba 8c1a 403d 634d ff3c
00000170: fd5c dbbc 2910 c7bc 1566 3abc 4d6b a4bc
00000180: abd9 823c 9c2d 84bc e873 c63c 8c48 3bbd
00000190: ed37 a7bc 29ac 38bd c155 a5bc a83c debc
000001a0: 06b1 0f3c be6e ef3b b47d 8e3d a819 bd3c
000001b0: 6b69 84bc 8317 57bd 5275 ed3c 600c 2b3c
000001c0: c0cd 853d 5168 2d3d 7316 e53c 4ace 4d3c
000001d0: e341 f53c cd12 a5bd d4e9 3bbb a10e 513c
000001e0: 6f7c 213e c3dd e03d 5e7b f83d b6f5 f23d
000001f0: b869 213e 6b76 d63d 5620 013e cae8 8d3d
00000200: ba8e 8d3c bc44 a83c 4615 393d 5d5d 983d
00000210: e206 f23c 22f9 30bd 7cc9 873d 6f12 eb3c
00000220: 600d d0bc 5c5e 203b 3b41 10bc 3a67 863d
00000230: 87f2 953c 13e9 dabc 2a43 353d f7af c83b
00000240: 03c3 473d 14fe 40bd 4977 7e3b 3657 5d3c
00000250: bdf0 e13c 0cd4 873c dadd a5bc 2c76 323c
00000260: ae10 983c 147e d63b f3a8 4f3c d597 22bd
00000270: daeb 0c3d 04bf ae3c cd9c a63c f2b5 053b
00000280: 311a 70bd 0a8d b6bc cbce fbbd 4ae8 25be
00000290: 2825 87bc a772 dd3b 5056 d2bd 5b3b aabd
000002a0: 1ce8 343d ff3c f13c 100f 4a3d 2b1f 9f3c
000002b0: 5bad 273a 9c6b 1439 5948 28bd 2868 66bc
000002c0: 0f32 3e3e 09d0 5f3d d898 d03d d59f fb3d
000002d0: 1ee2 1bbc aa86 113d 3a4c 803c 5f20 073e
000002e0: 8fe1 8c3d f5d8 d83d eba3 053e e8cf 3c3e
000002f0: 380d b33d 0d62 6f3e 2537 2b3e 17c5 2c3e
00000300: dff7 ed3d d5e6 643e c13d e63c 590b 853d
00000310: 109c 39bc ba0a c13c a1f5 1eb9 0722 13bd
00000320: 7dd8 b63b 1a1e 05bd 8a14 5c3c 4332 b43c
00000330: 53c4 adbc db2b 4bbc f3f8 90bc c1b5 82ba
00000340: 8454 d63c 1d84 743d 84a4 693c 8bf9 4b3d
00000350: a3fc fcbc e9bf c13d 2435 8a3d df97 533d
00000360: c3ea e93d 85d7 4e3d a5cc 743d 46f2 2b3d
00000370: 5e90 983d 0b77 313c 461d a8bc d442 57bc
00000380: b74a ffbb 7e95 1c3d 09a6 66bc f6bb 1f3c
00000390: 8b7f b73c e9a3 01bc 8230 1ebd a6bd 253d
000003a0: c234 5bbe e5a0 0bbe eca4 60be d0cd 8abd
000003b0: a7ac 20be ee04 2abd db31 78bc d9dd b03d
000003c0: b3b5 95bb 4d14 1fbd 37cf 09bd 1ebb 7ebc
000003d0: eae9 5b3d 59a8 e83c f89d c43c 93aa 903c
000003e0: 277a 123e b976 263e 587f 553e 72c0 a83d
000003f0: dee3 fa3d 72e0 273e 7500 8f3d 76c2 0b3e
-0.11023343 -0.0018109787 0.1024033 0.17271663 -0.08993894 0.032148834 0.055563662 0.15561336
0.2082438 0.14336644 0.1765649 0.104676515 0.059893385 0.06596683 0.16210434 0.15224403
0.0046333307 0.012115332 0.017506171 0.09677297 -0.05682578 -0.009969797 -0.0054849526 0.017274229
-0.03530974 -0.028821839 -0.23283677 -0.18475297 -0.16158406 -0.13841525 -0.24172708 -0.18290056
-0.03960885 -0.27416375 0.012949267 -0.26580182 -0.11422322 -0.20302695 0.010236776 -0.1637386
-0.0062589515 0.12019626 0.08323605 0.11025752 0.13474588 0.1866643 0.08089734 0.12892784
-0.04019672 -0.057436015 0.030942438 0.009530036 -0.019490292 -0.016054694 -0.010138432 0.03243255
0.17544943 0.3030671 0.15437752 0.25961888 0.16067478 0.17677145 0.10800238 0.1409837
0.08106835 0.06860111 0.02166939 0.046086162 -0.009490211 0.053008307 -0.040201448 -0.01353747
0.015964864 0.02173526 -0.043401364 0.031727068 0.002060807 0.0033508535 0.04011375 0.011263039
-0.019791123 -0.19548702 0.018383468 -0.11075707 0.06451682 -0.003035313 0.17250143 0.02746821
0.0064868107 -0.0014058484 0.046900317 0.03116483 -0.026777739 -0.024299698 -0.011376877 -0.020070696
0.015972933 -0.01613503 0.02422519 -0.045723483 -0.02041241 -0.04508606 -0.020182492 -0.027128533
0.008770233 0.0073069027 0.0695757 0.023083523 -0.016163548 -0.052512657 0.028986607 0.010439962
0.06533384 0.042335812 0.027964806 0.01256139 0.029938644 -0.080602266 -0.0028673308 0.012759835
0.15770124 0.10979798 0.121329054 0.11863272 0.15762985 0.10471805 0.12609991 0.069291666
0.017279971 0.020540588 0.045186304 0.07439683 0.029544298 -0.04320634 0.06630227 0.028695313
-0.025397003 0.0024470305 -0.008804615 0.06562658 0.018304123 -0.026722467 0.044253506 0.0061244923
0.048769962 -0.047117308 0.0038828424 0.013509562 0.027580613 0.016580604 -0.020247389 0.010892432
0.018562641 0.0065457914 0.012674558 -0.03969558 0.034404613 0.021331318 0.02033844 0.0020402637
-0.058618728 -0.02228405 -0.12295302 -0.16201892 -0.01649721 0.0067580524 -0.10270369 -0.083121024
0.04416667 0.02944803 0.04933077 0.019424042 0.00063963764 0.00014154467 -0.04108462 -0.014062919
0.18573783 0.054641757 0.10185403 0.12286345 -0.00951436 0.035528816 0.015661348 0.13195942
0.068789594 0.10588256 0.13050811 0.18438685 0.08742756 0.23377247 0.16720255 0.16872059
0.11619543 0.2235368 0.028105618 0.06496305 -0.011328712 0.023564685 -0.00015159558 -0.035921123
0.0055800066 -0.03249941 0.013432631 0.021996623 -0.021211779 -0.012400593 -0.017696833 -0.000997238
0.026163347 0.059696306 0.014260415 0.04979853 -0.030882185 0.09460432 0.06748417 0.051658507
0.1142173 0.050498504 0.059765477 0.041979097 0.07449411 0.010831605 -0.020521771 -0.013138492
-0.007790889 0.038228504 -0.014077672 0.009749403 0.022399684 -0.007912614 -0.03862048 0.040464066
-0.21406844 -0.13635595 -0.21937913 -0.06777537 -0.15690862 -0.041508608 -0.015148605 0.08636064
-0.0045687794 -0.03883772 -0.03364488 -0.015547542 0.053689875 0.028400587 0.024001107 0.017659461
0.1430441 0.16256227 0.20849359 0.08239831 0.122504935 0.16394213 0.06982509 0.136484

linear1.bias f4 [128]
00000000: 1a64 7c3d 6e98 07bd 4743 9cbc ac51 c2bc
00000010: 298e c4bc c40f 05bd 9b01 08bc fa9a 45bd
00000020: 93ea 9c3d ad7e ee3c 6674 edbb 08a5 3fbd
00000030: fef4 923d b949 913d d681 6d3d 3c48 4d3d
00000040: 3189 b83d faeb 303c 96cb 87bb d017 12bc
00000050: 4e59 e63c 6317 a2bc 041c c6bc c790 02bc
00000060: 6ec0 283c 519d 0bbd 843c 48bd b610 883d
00000070: 6b88 1bbc bdc0 d83b 6f7e b43c c6db cc3c
00000080: 20ef 0b3c 017b 1e3d ea11 10bd e4b3 84bc
00000090: 4631 a4bb 3b72 a3bc a493 353d a72e e9bc
000000a0: 395e babc 7b36 613c 9183 11bd 13fd 0b3d
000000b0: f747 45bd f560 913c a9b5 a53d 3ffb 59bc
000000c0: 85f7 fd39 8f2c a9bc efd2 c8bb 0e6b 5b3d
000000d0: a337 a63d 2154 5f3d 0b61 26bd 7931 19bd
000000e0: df03 823d 9d62 96bc 5ec7 7cbd 85ab ccbb
000000f0: c3e1 49bd d502 8fbc cd19 113a 41a6 df3b
00000100: 3928 4e3c 25ac 6ebc 12d6 02bd 60de 73bc
00000110: cdf5 c6bc 3ae4 34bd 2ba4 173d eb15 383b
00000120: 70b6 06bd 2aa1 0a3d 91f5 853c 1b0e 13bd
00000130: 93fe 62bd ff49 23bc e80a 403d 0f6b 353d
00000140: 3fab 1b3d 79b1 3c3d a8b6 683d 0bc4 e43c
00000150: 07ca 3dbc a659 69bc 31f4 19bb db69 b9ba
00000160: ba3f 67bb d20f 5dbd ba84 23bd ab68 b8bc
00000170: 25f1 35bb e9f7 afbc fecd 72bd 85af 2f3d
00000180: f209 973d 166a 60bd 9b12 d0bc 4e32 45bd
00000190: 6de3 b9bc 9c00 973c 0dc9 3cbd 52f2 7dbc
000001a0: d96f c0bc b6a6 0ebd ecd4 53bd bf3d 69bd
000001b0: 12e9 47bd 2b0f b3bc e07d 8bbc b0f4 5abd
000001c0: 6dd8 24bd d7cd a138 cbe7 3dbb 34ae e93b
000001d0: 1469 7abc 90ea 903d b2ff 6ebc 5569 f9bc
000001e0: dcfa 6fbd c905 29bc 5ed0 a53c c89c 763d
000001f0: e154 cfbc 0241 38bc 28fe 323d 389f 283a
0.0616189 -0.033104353 -0.01907505 -0.023720585 -0.023993568 -0.03248574 -0.008301164 -0.0482435
0.07661929 0.029113138 -0.007246542 -0.046788245 0.07175635 0.070941396 0.05798515 0.050117716
0.09010542 0.010798449 -0.0041441424 -0.00891681 0.028118756 -0.019786542 -0.02418328 -0.007969088
0.010299785 -0.034085575 -0.048885837 0.06643812 -0.009492974 0.006614773 0.022032944 0.02500714
0.008540899 0.038691524 -0.035173334 -0.01619906 -0.0050107567 -0.01995193 0.044330254 -0.028464628
-0.022750007 0.013745899 -0.035525862 0.034176897 -0.048164334 0.017746428 0.080912896 -0.013304531
0.00048440337 -0.02065113 -0.006128661 0.053568892 0.081160806 0.05452359 -0.04061989 -0.037400696
0.063483946 -0.01835757 -0.06171357 -0.0062460327 -0.04928757 -0.017457405 0.00055351557 0.006825239
0.012582832 -0.01456741 -0.031942435 -0.014884561 -0.024287129 -0.044162966 0.037021797 0.0028089236
-0.03288883 0.033845104 0.016352447 -0.035902124 -0.055418562 -0.0099663725 0.0468854 0.044291552
0.03800511 0.04606769 0.05681482 0.027925512 -0.011583812 -0.014242565 -0.0023491497 -0.0014145927
-0.0035285787 -0.053970166 -0.0399215 -0.022510847 -0.0027762142 -0.021480517 -0.05927848 0.042891998
0.07374944 -0.05478867 -0.025399497 -0.048143677 -0.022691453 0.018432908 -0.046090174 -0.015499668
-0.023490833 -0.034826957 -0.05171673 -0.05694365 -0.048806258 -0.021857819 -0.017027795 -0.05345601
-0.040245462 7.715419e-05 -0.002897727 0.0071313623 -0.015283842 0.07075989 -0.01458733 -0.030445734
-0.058588848 -0.010316321 0.020240959 0.060208112 -0.025309028 -0.011245968 0.043699414 0.0006432417

linear2.weight f4 [1, 128]
00000000: cf3e 11be ea57 f039 a574 d4bd 6b9c 623d
00000010: 04b4 143d 2d55 8a3d 691b 0cbe 0cc5 c13b
00000020: 834d 483e 9e11 193e ef5c ab3d be4c d73c
00000030: c761 033e 61b4 2c3e 34ca 36be 9abf 2f3e
00000040: be5c abbe a21d 1dbe 3139 0cbe 082b 503c
00000050: 612b 823e a7fb b13c e992 d4bd 7e6b 843d
00000060: ed6a 09be 0f4e f7bd e0a4 e5bc ec61 343e
00000070: 7e6c cabd 701f 18be 992a 583e 40a7 eabd
00000080: 0126 c1bd f7b2 cfbd 0eff 723d bad8 fcbd
00000090: 27d8 193d 864a c43c 3234 14be 3213 d2bd
000000a0: 6b76 53be 7ac6 bfbd 9ed2 14be f4d2 47be
000000b0: 3251 4cbc d304 1fbe 7430 243e ecb7 04be
000000c0: 0bb7 f3bd e35a 773d 1ab0 f13d 787d 03be
000000d0: 9689 0a3e 81e1 2bbe 311b b5bd 68f3 4ebb
000000e0: 0191 26be 2ad4 1bbc 5bc8 24bd 95ce acbe
000000f0: 6280 1fbe 82bb 8b3d 0bd2 5ebd 0085 c3bd
00000100: 8f54 973d 75fc 9a3e 47a9 00be f725 f3bc
00000110: 7f66 4ebd 197d 5dbd e057 bbbd 168f 09be
00000120: 3151 783d 9a36 32be 2170 47bb d084 1abc
00000130: da05 803d d5a8 573e 1613 18be b01a f3bd
00000140: 934c 1dbe af81 003e 14bf 2e3e 2f77 cabd
00000150: 3143 febd efb3 b7bd 027a debd 7b21 24be
00000160: a784 57be 9cbf af3d 4314 153c 210f 61bd
00000170: c71a 18be 9855 9d3d 7e01 633d 0133 d9bd
00000180: 9c09 0e3e d562 8c3d 5059 efbd 44c1 263c
00000190: 6532 203d 0605 c5bd 9584 3ebc a845 ff3c
000001a0: 66ba 2b3c a154 23bc c77c b4bc 6072 9b3b
000001b0: 710d 81bc 3dc9 cfbc 0307 903d 2b09 6ebd
000001c0: 8488 77bd 8c20 bbbd dba7 b8bd f9f0 b0bd
000001d0: cfaa f5bd 37e0 423e 25d7 333d 9633 63bd
000001e0: 67e8 bfbc 5d64 15be 54bf efbd 4498 3abe
000001f0: 120d 19be 189f 163d a53a dabd d266 c13c
-0.14184116 0.00045841868 -0.10373811 0.055324953 0.03630449 0.06754527 -0.13682331 0.0059133824
0.19560818 0.14948127 0.08367335 0.02628171 0.12830268 0.16865684 -0.17850572 0.17162934
-0.33469194 -0.15343335 -0.13693692 0.012705572 0.2542372 0.021726443 -0.103795834 0.06465815
-0.13419695 -0.12075435 -0.02803272 0.17615479 -0.098839745 -0.14855742 0.2111 -0.11457682
-0.09431077 -0.10141557 0.05932527 -0.12346025 0.037559655 0.023961317 -0.14473036 -0.102575675
-0.20650642 -0.09364028 -0.14533469 -0.19514066 -0.01247053 -0.15529184 0.16034108 -0.12960786
-0.11900147 0.06038941 0.11801167 -0.12840831 0.13529047 -0.16785242 -0.08843077 -0.0031578187
-0.16266252 -0.009511033 -0.040230136 -0.3375136 -0.15576318 0.06822874 -0.05439953 -0.09546852
0.07389175 0.30270734 -0.12564574 -0.029681189 -0.050390717 -0.05407438 -0.0914762 -0.13433489
0.060624305 -0.17403641 -0.0030431824 -0.009431079 0.06251116 0.21060498 -0.1485103 -0.118703246
-0.15361242 0.1254947 0.17065078 -0.09886014 -0.124151595 -0.089698665 -0.10863115 -0.16028397
-0.21046697 0.085814685 0.009099069 -0.05494607 -0.14853965 0.07682341 0.055421345 -0.10605431
0.13870853 0.06854788 -0.11686957 0.010177914 0.03911056 -0.09620099 -0.01162829 0.031161144
0.010481453 -0.009968908 -0.022032155 0.004743859 -0.01575348 -0.025364513 0.070325874 -0.058114212
-0.060432926 -0.09137067 -0.09016391 -0.08639712 -0.1199547 0.19030844 0.04390635 -0.055469118
-0.023426248 -0.14589067 -0.11706415 -0.18222147 -0.14946392 0.036772817 -0.10655717 0.023608599
